Transformer/model_FcTransformer_96/best_epoch_model_newStart_layer3.pth (torch, 29045 bytes, 45 tensors)

encoder.pos_embedding.positional_encoding f4 [96, 7]
0	0x00000000	0.0
1	0x3f800000	1.0
2	0x00000000	0.0
3	0x3f800000	1.0
4	0x00000000	0.0
5	0x3f800000	1.0
6	0x00000000	0.0
7	0x3f576aa4	0.84147096
8	0x3f0a5141	0.54030234
9	0x3d9343b0	0.07190645
10	0x3f7f565a	0.9974114
11	0x3ba9b85f	0.0051794495
12	0x3f7fff1f	0.9999866
13	0x39c36eea	0.00037275936
14	0x3f68c7b7	0.9092974
15	0xbed51133	-0.41614684
16	0x3e12e219	0.14344062
17	0x3f7d5a4a	0.98965895
18	0x3c29b7ca	0.01035876
19	0x3f7ffc7c	0.99994636
20	0x3a436ee9	0.00074551866
21	0x3e1081c3	0.14112
22	0xbf7d7026	-0.9899925
23	0x3e5b5fad	0.21423216
24	0x3f7a0e70	0.9767828
25	0x3c7e923b	0.015537794
26	0x3f7ff817	0.9998793
27	0x3a92932e	0.0011182779
28	0xbf41bdcf	-0.7568025
29	0xbf275530	-0.6536436
30	0x3e915d40	0.28391457
31	0x3f75772b	0.9588496
32	0x3ca9b575	0.020716408
33	0x3f7ff1ef	0.99978536
34	0x3ac36ee5	0.0014910368
35	0xbf757c10	-0.9589243
36	0x3e913c2c	0.2836622
37	0x3eb44a00	0.35212708
38	0x3f6f9a90	0.9359522
39	0x3cd420a3	0.025894469
40	0x3f7fea06	0.99966466
41	0x3af44a9b	0.0018637957
42	0xbe8f0f8c	-0.2794155
43	0x3f75cdb8	0.96017027
44	0x3ed647cd	0.41851655
45	0x3f688065	0.90820915
46	0x3cfe8a5d	0.031071836
47	0x3f7fe05b	0.99951714
48	0x3b129328	0.0022365544
49	0x3f283046	0.6569866
50	0x3f40ffbd	0.75390226
51	0x3ef7299a	0.48273927
52	0x3f603214	0.87576413
53	0x3d14792b	0.036248367
54	0x3f7fd4ee	0.9993428
55	0x3b2b0100	0.0026093125
56	0x3f7d4695	0.98935825
57	0xbe14fdf6	-0.14550003
58	0x3f0b61e9	0.54446274
59	0x3f56ba9e	0.83878505
60	0x3d29ac22	0.041423924
61	0x3f7fc7bf	0.99914163
62	0x3b436ed7	0.0029820704
63	0x3ed30132	0.4121185
64	0xbf693fd5	-0.91113025
65	0x3f1a7649	0.6033674
66	0x3f4c268f	0.79746336
67	0x3d3eddf0	0.046598375
68	0x3f7fb8cf	0.9989137
69	0x3b5bdcac	0.0033548279
70	0xbf0b44f8	-0.5440211
71	0xbf56cd64	-0.8390715
72	0x3f28bdf0	0.6591482
73	0x3f4083ed	0.752013
74	0x3d540e6d	0.05177157
75	0x3f7fa81d	0.99865896
76	0x3b744a7f	0.0037275848
77	0xbf7fff5c	-0.9999902
78	0x3b910572	0.004425698
79	0x3f3625f3	0.71151656
80	0x3f33e223	0.7026693
81	0x3d693d76	0.05694338
82	0x3f7f95a9	0.9983774
83	0x3b865c28	0.0041003413
84	0xbf095cd8	-0.53657293
85	0x3f5806d0	0.84385395
86	0x3f429c8b	0.76020116
87	0x3f2651f0	0.64968777
88	0x3d7e6ae6	0.062113665
89	0x3f7f8174	0.99806905
90	0x3b929310	0.0044730976
91	0x3ed72022	0.42016703
92	0x3f684e6f	0.9074468
93	0x3f4e1134	0.80495
94	0x3f17e54d	0.5933426
95	0x3d89cb4b	0.06728228
96	0x3f7f6b7e	0.99773395
97	0x3b9ec9f5	0.0048458525
98	0x3f7d9872	0.9906074
99	0x3e0c04d7	0.13673721
100	0x3f5874c0	0.84553146
101	0x3f08af59	0.5339256
102	0x3d946030	0.07244909
103	0x3f7f53c7	0.9973721
104	0x3bab00da	0.0052186074
105	0x3f267944	0.65028787
106	0xbf427ae8	-0.7596879
107	0x3f61b969	0.8817354
108	0x3ef18878	0.4717443
109	0x3d9ef411	0.07761396
110	0x3f7f3a4f	0.99698347
111	0x3bb737bc	0.005591361
112	0xbe936810	-0.2879033
113	0xbf75292c	-0.9576595
114	0x3f69d2e7	0.91337436
115	0x3ed0721f	0.40712067
116	0x3da986da	0.08277674
117	0x3f7f1f16	0.9965681
118	0x3bc36e9e	0.0059641143
119	0xbf761e25	-0.96139747
120	0xbe8ce236	-0.27516335
121	0x3f70b67e	0.9402846
122	0x3eae4781	0.34038928
123	0x3db41879	0.0879373
124	0x3f7f021d	0.996126
125	0x3bcfa57e	0.006336867
126	0xbf4040b3	-0.75098723
127	0x3f290a84	0.6603167
128	0x3f765b0c	0.96232677
129	0x3e8b35e8	0.27189565
130	0x3dbea8dc	0.09309551
131	0x3f7ee364	0.9956572
132	0x3bdbdc5b	0.006709618
133	0x3e197969	0.1498772
134	0x3f7d1bbf	0.9887046
135	0x3f7ab916	0.9793867
136	0x3e4ed798	0.2019943
137	0x3dc937ef	0.098251216
138	0x3f7ec2ea	0.99516165
139	0x3be81337	0.0070823687
140	0x3f69b6c8	0.9129453
141	0x3ed0f022	0.40808207
142	0x3f7dcad3	0.9913761
143	0x3e06313d	0.1310472
144	0x3dd3c5a0	0.10340428
145	0x3f7ea0b0	0.9946394
146	0x3bf44a10	0.007455118
147	0x3f562f10	0.8366556
148	0xbf0c37fc	-0.54772925
149	0x3f7f8c32	0.99823296
150	0x3d73641a	0.059421636
151	0x3dde51de	0.10855459
152	0x3f7e7cb7	0.9940905
153	0x3c004074	0.007827867
154	0xbc110515	-0.008851309
155	0xbf7ffd6f	-0.99996084
156	0x3f7ffadf	0.99992174
157	0xbc4cfd50	-0.012511566
158	0x3de8dc94	0.11370197
159	0x3f7e56fe	0.9935149
160	0x3c065bde	0.008200614
161	0xbf58a1e6	-0.8462204
162	0xbf0867bf	-0.53283304
163	0x3f7f1646	0.9964336
164	0xbdaccf6b	-0.08437999
165	0x3df365b1	0.118846305
166	0x3f7e2f86	0.99291265
167	0x3c0c7747	0.00857336
168	0xbf67d3fc	-0.9055784
169	0x3ed92dfe	0.42417902
170	0x3f7cdf98	0.98778677
171	0xbe1f8d11	-0.15581156
172	0x3dfded23	0.12398746
173	0x3f7e064f	0.99228376
174	0x3c1292b0	0.008946106
175	0xbe078738	-0.13235176
176	0x3f7dbf78	0.99120283
177	0x3f7959c4	0.97402596
178	0xbe67def6	-0.22643647
179	0x3e04396a	0.12912527
180	0x3f7ddb5a	0.9916283
181	0x3c18ae16	0.009318849
182	0x3f433708	0.76255846
183	0x3f259c81	0.6469193
184	0x3f748973	0.9552223
185	0xbe977ec5	-0.29588905
186	0x3e097b5c	0.13425964
187	0x3f7daea6	0.9909462
188	0x3c1ec97b	0.009691591
189	0x3f74d50e	0.95637596
190	0xbe959338	-0.29213881
191	0x3f6e7508	0.93147326
192	0xbeba4546	-0.36380976
193	0x3e0ebc5a	0.13939038
194	0x3f7d8035	0.99023753
195	0x3c24e4df	0.010064333
196	0x3e8ab42a	0.2709058
197	0xbf766d57	-0.9626059
198	0x3f672492	0.90290177
199	0xbedc14e5	-0.4298469
200	0x3e13fc5f	0.1445174
201	0x3f7d5005	0.98950225
202	0x3c2b0042	0.010437073
203	0xbf29e3e9	-0.6636339
204	0xbf3f80b3	-0.74805754
205	0x3f5ea1c2	0.8696557
206	0xbefcc0d4	-0.49365866
207	0x3e193b5e	0.14964053
208	0x3f7d1e18	0.98874044
209	0x3c311ba2	0.010809811
210	0xbf7cefa4	-0.9880316
211	0x3e1df418	0.15425146
212	0x3f54f7e0	0.8319073
213	0xbf0e0ee3	-0.55491465
214	0x3e1e7951	0.15475966
215	0x3f7cea6f	0.9879522
216	0x3c373701	0.011182548
217	0xbecede06	-0.40403765
218	0x3f6a2c8e	0.91474235
219	0x3f4a33bb	0.78985184
220	0xbf1d0113	-0.61329764
221	0x3e23b62d	0.15987463
222	0x3f7cb508	0.9871373
223	0x3c3d525f	0.011555283
224	0x3f0d2a4d	0.5514267
225	0x3f558fa9	0.83422333
226	0x3f3e6398	0.7437072
227	0xbf2b232d	-0.6685055
228	0x3e28f1e9	0.16498531
229	0x3f7c7de5	0.986296
230	0x3c436dba	0.011928016
231	0x3f7ffa39	0.99991184
232	0xbc5986b7	-0.013276747
233	0x3f31971f	0.6937122
234	0xbf386275	-0.72025234
235	0x3e2e2c7d	0.17009158
236	0x3f7c4507	0.9854283
237	0x3c498914	0.012300748
238	0x3f0771f7	0.5290827
239	0xbf593be7	-0.8485703
240	0x3f23df46	0.64012563
241	0xbf44ad5c	-0.76827025
242	0x3e3365dd	0.17519327
243	0x3f7c0a6d	0.9845341
244	0x3c4fa46d	0.0126734795
245	0xbedb3ac2	-0.42818266
246	0xbf67585f	-0.9036922
247	0x3f154e3c	0.583225
248	0xbf4ff397	-0.81231064
249	0x3e389e03	0.18029027
250	0x3f7bce17	0.98361343
251	0x3c55bfc3	0.013046208
252	0xbf7de538	-0.99177885
253	0xbe0308ea	-0.12796369
254	0x3f05f74f	0.5233049
255	0xbf5a2636	-0.85214555

encoder.encoder_layers.0.encode_self_attention.W_Q.weight f4 [14, 7]
0	0x3e2192c8	0.15778649
1	0x3e76b6b2	0.2409313
2	0xbc85bc67	-0.016325189
3	0xbe146fba	-0.14495745
4	0xbbb831b4	-0.0056211594
5	0xbead1be9	-0.33810356
6	0x3e2edd8b	0.170767
7	0x3e4916f9	0.1963767
8	0xbd430568	-0.047612578
9	0x3c1466a0	0.009057671
10	0xbecc07c8	-0.39849687
11	0x3e72610c	0.23669833
12	0xbe77c6bc	-0.24196905
13	0xbdde2e27	-0.108486466
14	0xbece8f3e	-0.4034366
15	0x3defc94c	0.11708316
16	0x3e5ef7c7	0.21774207
17	0x3d9c3b45	0.07628492
18	0x3e4e627b	0.20154755
19	0xbd7f1e92	-0.062285013
20	0xbe86dc50	-0.2633996
21	0x3e24180a	0.16024795
22	0xbeb49133	-0.35267028
23	0x3e8d90f8	0.27649665
24	0xbda87514	-0.08225456
25	0xbe512ef4	-0.20428067
26	0xbe605bc0	-0.2191
27	0xbdfc410c	-0.12317094
28	0x3cb381ef	0.021912543
29	0xbdaf61b0	-0.08563554
30	0xbe9f5633	-0.31120452
31	0x3e237c06	0.1596528
32	0x3bc4da44	0.0060074646
33	0x3eca261c	0.394822
34	0xbe8393c3	-0.2569867
35	0xbea7f57f	-0.32804486
36	0xbea00819	-0.31256178
37	0x3d2bef2b	0.041976135
38	0x3df09101	0.11746407
39	0xbead7671	-0.33879426
40	0xbeb8a60c	-0.36064184
41	0xbe607a64	-0.21921688
42	0x3df5f751	0.120100625
43	0xbec46241	-0.38356212
44	0x3daa149f	0.083047144
45	0x3eac2537	0.33622143
46	0x3df1928a	0.11795528
47	0x3e638093	0.22217016
48	0x3e7f8689	0.24953665
49	0xbde4a91b	-0.11165067
50	0x3d561a42	0.052271135
51	0x3d510958	0.0510343
52	0xbe826a21	-0.25471595
53	0xbe9a37bc	-0.30120647
54	0xbc42bc5a	-0.011885727
55	0x3eb89177	0.3604848
56	0xbe994b3f	-0.2994022
57	0xbd655cfa	-0.055996872
58	0xbdf38de1	-0.11892296
59	0x3d90a46e	0.070626125
60	0xbe49c2cc	-0.19703215
61	0x3e694751	0.22781111
62	0xbdc1e9be	-0.09468411
63	0xbc93369c	-0.017970376
64	0x3e92eb05	0.2869493
65	0x3dd5087b	0.10402008
66	0x3e8f2283	0.27956018
67	0x3ea765c0	0.32694817
68	0xbe2d0744	-0.16897303
69	0xbeb27d7d	-0.34861365
70	0x3eb36ecc	0.3504547
71	0x3e236a53	0.15958528
72	0xbe816696	-0.2527358
73	0xbea40617	-0.32035896
74	0x3eb78e07	0.35850546
75	0xbe0aa66c	-0.13540047
76	0x3e22020c	0.15821093
77	0xbe4a8d9c	-0.19780582
78	0xbc559f0a	-0.013038406
79	0xbe433a1e	-0.19065139
80	0x3eb4c367	0.3530533
81	0x3d9ae31a	0.075628474
82	0xbe300c07	-0.17192088
83	0x3e9fa567	0.3118088
84	0xbbe06758	-0.006848257
85	0x3eb52a2e	0.35383743
86	0x3eb627c9	0.3557723
87	0x3e2c3eae	0.16820785
88	0x3e83f9bd	0.25776473
89	0x3e7c3239	0.24628533
90	0xbe93d01b	-0.2886971
91	0xbea1d1cf	-0.31605384
92	0xbd859b55	-0.06523768
93	0x3ca88f95	0.020576278
94	0x3e9da272	0.30787998
95	0xbeca453f	-0.39505956
96	0xbe25c972	-0.16190127
97	0xbe41f14b	-0.18939702

encoder.encoder_layers.0.encode_self_attention.W_Q.bias f4 [14]
0	0xbdf0ab3a	-0.11751409
1	0x3d9c6714	0.07636848
2	0xbd4f8bdd	-0.050670493
3	0xbe6423dc	-0.22279304
4	0xbe5a6a0a	-0.21329513
5	0xbdc81f6e	-0.0977162
6	0x3e819bcf	0.25314185
7	0xbe8dadbf	-0.2767162
8	0xbe6a2709	-0.22866453
9	0x3cc393de	0.02387422
10	0xbe811d90	-0.25217867
11	0xbe4d156a	-0.200277
12	0xbdd55a3d	-0.10417602
13	0xbe0af111	-0.13568522

encoder.encoder_layers.0.encode_self_attention.W_K.weight f4 [14, 7]
0	0xbd24f6b4	-0.040274337
1	0x3d4b3db2	0.049619384
2	0x3d204d10	0.039135993
3	0x3da8d8c1	0.082444675
4	0xbe739722	-0.23788121
5	0x3d868da5	0.06569985
6	0x3d689cfd	0.05679034
7	0x3e69c74c	0.22829932
8	0x3d39ce98	0.04536304
9	0xbeacfdbc	-0.33787334
10	0x3d3b1640	0.045675516
11	0xbebf454e	-0.37357563
12	0xbe663567	-0.22481309
13	0x3e987338	0.29775405
14	0x3da2096f	0.079119556
15	0x3e01803a	0.12646571
16	0x3eaf2df0	0.34214735
17	0x3e4b9cd6	0.19884047
18	0x3e04727d	0.12934299
19	0xbb8db7b7	-0.004324879
20	0xbdf67338	-0.12033695
21	0xbe16d465	-0.1472946
22	0x3eadb0a2	0.33923823
23	0xbdec2304	-0.11530116
24	0xbe4cefcf	-0.20013355
25	0xbe3198eb	-0.1734349
26	0x3eb996fa	0.36247998
27	0x3e08c927	0.13357984
28	0x3ebdec70	0.3709445
29	0x3e7b3233	0.24530868
30	0x3e6a8309	0.22901548
31	0x3eb889af	0.36042544
32	0x3daf9930	0.0857414
33	0x3e0a6e5c	0.13518661
34	0xbdcb423b	-0.09924742
35	0x3d533923	0.05156816
36	0x3d7acdb9	0.06123135
37	0xbd290c89	-0.04127172
38	0xbe367f94	-0.17822105
39	0x3dbe67ea	0.09297164
40	0xbe7b95d2	-0.2456887
41	0x3d3d0136	0.046143733
42	0xbe1d8fda	-0.15386906
43	0xbe4622cd	-0.19349213
44	0x3dc26c74	0.09493342
45	0x3eb1d36f	0.34731624
46	0xbc9985b8	-0.01874052
47	0x3e982388	0.29714608
48	0xbe58c341	-0.21168233
49	0xbe6a4092	-0.22876194
50	0x3ee572bd	0.448141
51	0x3d9893db	0.07450076
52	0xbe0fa5f6	-0.14028153
53	0x3e292368	0.16517413
54	0xbe8c85d7	-0.27445862
55	0x3d47e639	0.04880354
56	0x3dc25d53	0.094904564
57	0xbeb49f63	-0.35277852
58	0xbe8da1fa	-0.2766264
59	0x3e27c3af	0.16383241
60	0x3d73facd	0.059565354
61	0xbe012c4e	-0.12614557
62	0xbe808094	-0.25098097
63	0x3e92673e	0.28594393
64	0xbc46c5ff	-0.012132167
65	0x3ec02d84	0.37534726
66	0x3de3302c	0.110931724
67	0xbe624955	-0.22098286
68	0xbec4bb01	-0.38423923
69	0x3eb8fa1f	0.36128327
70	0x3e86331c	0.26210868
71	0xbeb94027	-0.36181757
72	0xbea30804	-0.31842053
73	0x3e36904f	0.17828487
74	0xbe48ea5a	-0.19620648
75	0xbe56383a	-0.20919886
76	0x3e9c4c0d	0.30526772
77	0xbe1fafd1	-0.15594412
78	0xbe9d1215	-0.30677858
79	0xbe98e3d1	-0.2986131
80	0xbe5e8371	-0.21729828
81	0xbe47ddfd	-0.19518276
82	0xbea4cd63	-0.32187948
83	0xbd70edc7	-0.058820512
84	0x3e390ed7	0.18072067
85	0x3e441652	0.1914914
86	0x3e3717f4	0.17880231
87	0x3ed5529a	0.41664582
88	0x3e92fbb5	0.28707662
89	0x3e16bb57	0.14719902
90	0x3eab1ea4	0.33421814
91	0x3ba24b68	0.004952837
92	0x3d62b92f	0.055352386
93	0x3d367df2	0.044553705
94	0xbe3c6361	-0.18397285
95	0xbec547fa	-0.38531476
96	0xbe17fc9f	-0.14842461
97	0x3de98800	0.11402893

encoder.encoder_layers.0.encode_self_attention.W_K.bias f4 [14]
0	0xbd3a033d	-0.045413245
1	0xb2dc5582	-2.5650255e-08
2	0xbd2861a4	-0.041108742
3	0xbe5f9c64	-0.21837002
4	0x3a1c1b02	0.0005954952
5	0xb7305e14	-1.0512322e-05
6	0xbe230094	-0.1591819
7	0xb3631532	-5.2871833e-08
8	0x3d964602	0.07337572
9	0x3c69de5d	0.014274207
10	0x3e64ea09	0.22354902
11	0xbe5f5ce5	-0.2181278
12	0x3d02889f	0.031868573
13	0xbe56e2df	-0.20984982

encoder.encoder_layers.0.encode_self_attention.W_V.weight f4 [14, 7]
0	0xbdd044f2	-0.101694
1	0x3dc4ec85	0.09615425
2	0x3e2d99c5	0.1695319
3	0x3e2492ad	0.16071577
4	0xbdc8223a	-0.09772153
5	0xbe16d6df	-0.14730404
6	0xbdbe7499	-0.09299583
7	0xbb6cb108	-0.003611626
8	0x3e464dba	0.19365588
9	0x3cd4b7db	0.025966575
10	0x3ed60fa1	0.418088
11	0x3e4259d0	0.18979573
12	0xbea533c0	-0.32266045
13	0x3ec1e9c0	0.3787365
14	0xbe3645fa	-0.17800131
15	0x3ebe55a0	0.37174702
16	0x3e6e426c	0.23267525
17	0xbdd0de04	-0.10198596
18	0x3cf4e481	0.029894115
19	0xbe59bc50	-0.21263242
20	0x3ec7f81e	0.39056486
21	0x3e05c582	0.13063625
22	0x3e6a8a24	0.22904259
23	0x3bf5baf9	0.0074990955
24	0x3da26ac3	0.079305194
25	0xbea2230a	-0.31667358
26	0x3db7a85c	0.08967659
27	0xbb434f26	-0.0029801815
28	0x3e1f5b88	0.1556226
29	0x3c735135	0.014850904
30	0x39f6f8a4	0.00047106028
31	0x3e4249c7	0.18973456
32	0x3c40ec65	0.011775111
33	0x3d13ede8	0.036115557
34	0xbe075326	-0.13215312
35	0xbdd2e2a4	-0.102971345
36	0xbe413207	-0.1886674
37	0xbc0fd93f	-0.008779823
38	0x3e66f2da	0.22553578
39	0x3ec725cf	0.38896033
40	0x3ecc5cb3	0.39914474
41	0x3df0d2a4	0.117589265
42	0x3ea7e4aa	0.32791644
43	0xbd4f71f3	-0.05064578
44	0xbe3144af	-0.17311357
45	0x3d5766b4	0.05258818
46	0xbce52ecc	-0.027976416
47	0x3d8efb76	0.06981556
48	0x3e92bbe7	0.28658983
49	0xba86308b	-0.0010237856
50	0xbda8ea53	-0.08247819
51	0xbdda80d1	-0.10669101
52	0x3d630b9b	0.05543099
53	0x3e2cfa4e	0.16892359
54	0x3e9c385f	0.30511758
55	0x3d796ff8	0.060897797
56	0x3e0b173e	0.13583085
57	0x3ebff6aa	0.37492877
58	0xbe8d521b	-0.27601704
59	0x3eccf685	0.4003183
60	0x3e92216e	0.2854113
61	0xbe933403	-0.2875062
62	0x3bbca1ca	0.0057565914
63	0xbd342b01	-0.043986324
64	0x3eb34baf	0.3501868
65	0xbe1cbe97	-0.1530708
66	0xbccdb672	-0.02511141
67	0xbe70603b	-0.23474209
68	0x3db8bfdf	0.090209715
69	0xbe1c8307	-0.15284358
70	0x3ea985b0	0.33109808
71	0x3e4edd4c	0.20201606
72	0x3e9e41a2	0.3090945
73	0x3e68b736	0.2272614
74	0xbdbbc69b	-0.0916874
75	0x3cf667a1	0.030078711
76	0xbea3e118	-0.3200767
77	0x3d085353	0.03328259
78	0x3dd62476	0.10456173
79	0xbeb51c4b	-0.35373148
80	0xbe03da0c	-0.12876147
81	0xbda4b148	-0.08041626
82	0x3ce8a197	0.028397365
83	0xbeadca37	-0.3394334
84	0x3e3f3aae	0.18674728
85	0xbd26ff30	-0.04077071
86	0x3c343fb4	0.011001516
87	0xbe730ec9	-0.23736109
88	0xbe3f9eed	-0.18712969
89	0xbe9746a9	-0.29546097
90	0xbeafd3b3	-0.343412
91	0x3cbdfbcd	0.023191357
92	0xbd037e93	-0.032103132
93	0x3e85d0e4	0.26135933
94	0xbe3c221d	-0.18372388
95	0xbe0f1182	-0.13971522
96	0xbca39c99	-0.019972133
97	0x3eb4c4e2	0.3530646

encoder.encoder_layers.0.encode_self_attention.W_V.bias f4 [14]
0	0x3eb76e61	0.358264
1	0x3e845b94	0.2585112
2	0xbd628edd	-0.055312026
3	0x3e5b7f09	0.21435179
4	0x3d9ce422	0.076607004
5	0x3d8484f5	0.06470672
6	0x3eb4006d	0.35156575
7	0x3eb1e5da	0.34745675
8	0xbb6ad1a8	-0.0035830531
9	0xbe29a5a5	-0.16567095
10	0x3cfc6c83	0.030813461
11	0x3ea885f1	0.3291469
12	0xbe7579dc	-0.23972267
13	0xbe635052	-0.22198609

encoder.encoder_layers.0.encode_self_attention.fc.weight f4 [7, 14]
0	0xbdd16134	-0.10223618
1	0x3e2ee797	0.17080532
2	0xbe619912	-0.22031048
3	0xbd904dc5	-0.07046083
4	0x3e9b29da	0.30305368
5	0x3e1ad1d7	0.1511911
6	0x3d8b6402	0.06806184
7	0x3e8c7632	0.27433926
8	0x3d581ba3	0.05276073
9	0x3dbda165	0.09259299
10	0x3e283584	0.16426665
11	0x3e4728b4	0.19449121
12	0xbe345ad5	-0.17612775
13	0xbe4e8888	-0.2016927
14	0x3e05c342	0.13062766
15	0x3e0e6300	0.13904953
16	0x3db0d7ec	0.08634934
17	0x3da3f245	0.080051936
18	0xbd79e346	-0.06100776
19	0x3e60bacb	0.21946256
20	0x3e42e108	0.19031155
21	0x3e6148d6	0.22000441
22	0x3e2243d2	0.15846184
23	0x3e096406	0.13417062
24	0xbe43b9db	-0.19113867
25	0xbe87dffe	-0.2653808
26	0xbe5f672a	-0.21816698
27	0x3dc376a1	0.09544111
28	0xbe3b83ec	-0.18312043
29	0xbd941fc8	-0.07232624
30	0xbe525491	-0.20540072
31	0x3c53372c	0.012891572
32	0xbd5bace7	-0.05363169
33	0x3cd5d45e	0.026102241
34	0xbe0bfcde	-0.1367068
35	0xbe8330e3	-0.25623235
36	0x3e0e066f	0.13869642
37	0xbdb749f3	-0.089496516
38	0x3e0d9ca4	0.13829285
39	0x3d1d9775	0.03847452
40	0x3e4f3bcf	0.20237659
41	0x3c64c814	0.013963718
42	0xbe8a485c	-0.2700833
43	0xbe71cc2d	-0.23613043
44	0x3e08b838	0.13351524
45	0x3e57296a	0.21011892
46	0xbdc3b193	-0.09555354
47	0xbe2ce750	-0.16885114
48	0xbdd2943b	-0.10282179
49	0xbe7205be	-0.23635003
50	0x3d477635	0.048696715
51	0x3e60f0fd	0.2196693
52	0xbde70205	-0.11279682
53	0xbea46e82	-0.3211556
54	0xbe133ff4	-0.14379865
55	0x3ca5ca85	0.02023817
56	0x3d268a22	0.040659077
57	0x3e4d4996	0.20047602
58	0x3cede9c6	0.029042136
59	0x3e2a12c7	0.16608725
60	0xbea247fb	-0.31695542
61	0xbc580ede	-0.013187138
62	0xbdff6980	-0.124712944
63	0xbe87e507	-0.26541921
64	0x3d9b26c5	0.07575754
65	0x3c92ef9d	0.017936522
66	0x3bf81a30	0.007571481
67	0x3d07b07a	0.033127286
68	0x3e339866	0.17538604
69	0x3e5acf47	0.21368133
70	0x3e790019	0.24316444
71	0x3c6b69b5	0.014368464
72	0xbdff278d	-0.124587156
73	0x3c6a343c	0.01429468
74	0x3d985e19	0.07439823
75	0x3de8a792	0.113600865
76	0xbdff0408	-0.12451941
77	0xbe5b51fc	-0.21417993
78	0x3d3c8373	0.046023797
79	0xbe66b04d	-0.22528191
80	0x3da57319	0.08078594
81	0x3d18620a	0.037202872
82	0x3e09a665	0.1344238
83	0x3e5c703a	0.21527186
84	0x3e8de5ac	0.27714288
85	0xbe973c54	-0.29538214
86	0x3e220f59	0.15826167
87	0x3e3bd4e8	0.18342936
88	0x3e2f8bf5	0.17143233
89	0x3e6e0e2c	0.23247594
90	0x3e76b464	0.24092251
91	0x3e3e8833	0.18606643
92	0x3c1d431d	0.009598521
93	0xbd2679ba	-0.04064343
94	0xbda34db5	-0.07973806
95	0x3e61d3f8	0.22053516
96	0x3d90bb4f	0.07066976
97	0xbd3a5645	-0.04549243

encoder.encoder_layers.0.encode_self_attention.fc.bias f4 [7]
0	0xbe178299	-0.14795913
1	0x3e7099ad	0.23496123
2	0x3dae468b	0.08509549
3	0xbe9b1155	-0.3028666
4	0xbe6632f7	-0.22480379
5	0xbe1c7c25	-0.15281732
6	0x3e3c515b	0.1839041

encoder.encoder_layers.0.encode_self_attention.layer_norm.weight f4 [7]
0	0x3f803b5f	1.0018119
1	0x3f7ff01e	0.99975765
2	0x3f87958d	1.0592514
3	0x3f7d4abb	0.98942155
4	0x3f851422	1.0396769
5	0x3f733355	0.950002
6	0x3f7651e4	0.96218705

encoder.encoder_layers.0.encode_self_attention.layer_norm.bias f4 [7]
0	0x3cd67de4	0.026183076
1	0x3af29158	0.001850645
2	0xbcc074ea	-0.023493249
3	0xbd0b5cf2	-0.034024186
4	0xbd6d8a52	-0.05799324
5	0x3d199673	0.037496995
6	0x3cd5f832	0.026119325

encoder.encoder_layers.0.feed_forward.fc.0.weight f4 [7, 7]
0	0xbe855033	-0.2603775
1	0x3ebb3662	0.36564928
2	0xbe89d08d	-0.26916924
3	0xbde4cef0	-0.11172283
4	0xbe4da5bb	-0.20082752
5	0x3d9d270c	0.07673463
6	0x3e07dac0	0.1326704
7	0xbe8bf760	-0.2733717
8	0xbde2176a	-0.11039622
9	0x3d0c284d	0.03421812
10	0xbebbcb8e	-0.36678737
11	0xbe4b6f1d	-0.19866605
12	0x3e933b83	0.2875634
13	0xbec22ff7	-0.3792722
14	0x3db82694	0.08991733
15	0x3e6f6dc5	0.23381718
16	0x3eae911b	0.34095082
17	0x3d564ec7	0.05232122
18	0x3ea342eb	0.31886992
19	0x3e8a80f5	0.2705151
20	0xbe851190	-0.25989962
21	0xbe2ac8d5	-0.16678174
22	0xbe2eaa11	-0.17057063
23	0xbe6da8ac	-0.23208874
24	0x3eb04472	0.3442722
25	0x3c148e77	0.009067169
26	0xbe7c0eae	-0.24614975
27	0x3ea2c993	0.31794414
28	0x3dc3cdd9	0.09560747
29	0xbe9e53e9	-0.30923393
30	0xbe29151b	-0.16511957
31	0xbdc55e22	-0.09637095
32	0x3d737366	0.059436224
33	0xbe6de995	-0.23233636
34	0x3ec6ac21	0.388032
35	0x3e150a88	0.14554799
36	0x3d8d74c6	0.069070384
37	0xbe2f16de	-0.17098567
38	0x3e75725b	0.23969404
39	0xbd8942f7	-0.06702226
40	0xbd9b38a1	-0.075791605
41	0xbe284138	-0.16431129
42	0x3e9e194f	0.30878684
43	0xbe923d49	-0.28562382
44	0x3e742e5c	0.2384581
45	0xbd5af8f8	-0.05346009
46	0xbe6d93d2	-0.2320092
47	0xbe80c47d	-0.2514991
48	0xbec43ecb	-0.38329157

encoder.encoder_layers.0.feed_forward.fc.2.weight f4 [7, 7]
0	0x3db65944	0.08903745
1	0x3dd33a49	0.103138514
2	0xbe5d7278	-0.21625698
3	0x3d8e5155	0.069491066
4	0x3d1da3f5	0.03848644
5	0x3ea0537d	0.31313697
6	0x3dd91124	0.105989724
7	0xbebdafcb	-0.37048182
8	0xbe5b8209	-0.21436323
9	0x3d94216f	0.072329395
10	0xbe1bac83	-0.15202527
11	0x3e4c8ac2	0.19974807
12	0xbe8a8c7b	-0.27060303
13	0xbe044da9	-0.1292025
14	0x3e74fad6	0.23923811
15	0xbe87b558	-0.26505542
16	0xbe52dd76	-0.20592293
17	0xbe5a7bcd	-0.21336289
18	0xbdcb78c1	-0.09935141
19	0xbdda9c04	-0.10674289
20	0x3d1a239f	0.037631627
21	0xbda64169	-0.08117945
22	0x3e6626e9	0.2247578
23	0x3e018463	0.12648158
24	0xbdbed308	-0.09317595
25	0xbe553265	-0.20820005
26	0xbeb8151c	-0.35953605
27	0x3ea366dc	0.31914413
28	0xbbb6b389	-0.0055756015
29	0xbe8f4cd0	-0.2798829
30	0xbe951eac	-0.29124963
31	0x3ed8660b	0.42265353
32	0xbe6e1e3a	-0.23253718
33	0x3e2f7896	0.17135844
34	0xbec58547	-0.38578245
35	0x3e03f699	0.12887038
36	0xbe27bfbc	-0.16381735
37	0x3e41c5d8	0.18923128
38	0xbd5a876d	-0.05335181
39	0x3e79deae	0.24401352
40	0xbd6c9aa1	-0.057764653
41	0x3eb92961	0.36164382
42	0x3ea4e4bc	0.3220576
43	0x3e7c55c3	0.2464209
44	0xbe6a44ba	-0.2287778
45	0x3e88062c	0.2656721
46	0xbe8dee55	-0.27720895
47	0x3e9bb62e	0.3041243
48	0x3e2880fc	0.16455454

encoder.encoder_layers.0.feed_forward.layer_norm.weight f4 [7]
0	0x3f7dbd9c	0.99117446
1	0x3f8101cb	1.0078672
2	0x3f83a171	1.0283643
3	0x3f804d7d	1.0023648
4	0x3f85c831	1.0451719
5	0x3f782df0	0.96945095
6	0x3f78463c	0.9698217

encoder.encoder_layers.0.feed_forward.layer_norm.bias f4 [7]
0	0x3c26d618	0.01018288
1	0x3bb64a1f	0.005563035
2	0xbcb6f6c8	-0.022334471
3	0xbd24062c	-0.04004495
4	0xbd75c593	-0.060002875
5	0x3d336240	0.04379487
6	0x3ceb6a0c	0.02873709

encoder.encoder_layers.1.encode_self_attention.W_Q.weight f4 [14, 7]
0	0xbebf2eb1	-0.3734031
1	0xbed04daa	-0.40684253
2	0xbed2bea8	-0.41161084
3	0x3e77ae12	0.24187496
4	0x3e979187	0.29603216
5	0x3e5d263e	0.2159662
6	0x3e104cb6	0.14091763
7	0xbd521d6e	-0.051297598
8	0x3e620ee7	0.22075997
9	0x3ea9c9d1	0.33161786
10	0x3e8be59c	0.27323616
11	0xbce45a7e	-0.027875181
12	0xbd8c490b	-0.06849869
13	0x3e440553	0.19142656
14	0xbe1e3062	-0.15448144
15	0x3e9b39cb	0.3031753
16	0xbe3d8e41	-0.18511297
17	0x3e83386b	0.2562898
18	0xbeb7b43e	-0.358797
19	0xbe1952bf	-0.14972971
20	0x3b9a72be	0.0047133854
21	0xbe2e1a1f	-0.17002152
22	0xbe167ff5	-0.14697249
23	0xbe402739	-0.18764962
24	0xbcf1a877	-0.029499276
25	0xbe09074b	-0.13381688
26	0xbe972451	-0.29519895
27	0x3d871c3f	0.065971844
28	0x3ecd11e4	0.40052712
29	0xbe3b2952	-0.18277481
30	0x3ea3a011	0.31958058
31	0xbc64c9e2	-0.013964148
32	0xbdc585df	-0.096446745
33	0xbb3147fa	-0.0027050958
34	0x3e85a5d2	0.26103073
35	0x3e75a8d2	0.23990181
36	0x3e89b536	0.26896065
37	0xbe9a770a	-0.30168945
38	0xbdfefb99	-0.12450332
39	0xbdc8002b	-0.09765657
40	0x3ec530c5	0.3851377
41	0xbda01d00	-0.07818031
42	0x3e5ea198	0.2174133
43	0xbe801029	-0.2501233
44	0xbe28a672	-0.16469744
45	0x3eae5f06	0.34056872
46	0xbe8e3ff3	-0.27783164
47	0x3e6d9f95	0.23205407
48	0xbe6625e3	-0.2247539
49	0x3dc772f1	0.0973872
50	0x3ea7a61b	0.32743916
51	0xbe9dbfcb	-0.3081039
52	0xbea771d1	-0.32704023
53	0x3d359a1c	0.044336423
54	0x3d2f3c83	0.042782318
55	0xbd37350d	-0.044728328
56	0xbd784b91	-0.06061894
57	0x3eb79330	0.35854483
58	0xbec82536	-0.3909089
59	0x3e01c64d	0.12673302
60	0xbe3aec4d	-0.18254204
61	0xbcfe925f	-0.031075655
62	0xbe3badbe	-0.18327996
63	0x3df4f822	0.1196139
64	0xbe6d931f	-0.23200653
65	0x3d32ab9c	0.04362069
66	0x3ed0761b	0.40715107
67	0x3d375789	0.044761214
68	0xbe037c9e	-0.12840506
69	0xbd4bb0e1	-0.04972923
70	0xbe156287	-0.14588366
71	0x3e9919a1	0.29902366
72	0xbed9c7da	-0.42535287
73	0xbe85ecc9	-0.26157215
74	0xbecb3299	-0.3968704
75	0x3ca715e8	0.020396188
76	0x3d947a38	0.07249874
77	0x3ea0f187	0.3143427
78	0xbd9e5efc	-0.077329606
79	0xbe9c8519	-0.30570295
80	0xbd7f9dbf	-0.062406298
81	0xbda166e4	-0.07880953
82	0x3d039ef9	0.03213403
83	0xbdb1f676	-0.08689587
84	0xbe9a57a7	-0.30144998
85	0xbbab49bb	-0.005227295
86	0xbe46544c	-0.19368094
87	0x3ea53c79	0.322727
88	0x3d68dfcb	0.05685405
89	0x3e4758e8	0.19467509
90	0xbe983d74	-0.29734385
91	0x3eb80fe1	0.35949615
92	0xbdd02f6e	-0.101652965
93	0x3e1d7e17	0.1538013
94	0xbeb31815	-0.3497931
95	0xbd27731d	-0.040881265
96	0x3c1b12ac	0.009464901
97	0x3dedd646	0.11613135

encoder.encoder_layers.1.encode_self_attention.W_Q.bias f4 [14]
0	0xbeb37d6d	-0.3505663
1	0x3d302a9c	0.043009385
2	0x3d33ba7f	0.04387903
3	0xbe9aa07a	-0.3020056
4	0x3eb8c6fb	0.3608931
5	0xbe7a17c0	-0.24423122
6	0xbd2bb284	-0.041918293
7	0x3e561d1d	0.20909543
8	0x3e75bf23	0.23998694
9	0x3dc6b364	0.09702185
10	0x3cb46e97	0.02202539
11	0xbe37f493	-0.17964391
12	0x3daf29bc	0.08552882
13	0xbec39b5e	-0.38204473

encoder.encoder_layers.1.encode_self_attention.W_K.weight f4 [14, 7]
0	0x3d9669cd	0.07344399
1	0x3ec0c951	0.37653592
2	0x3e089cac	0.13341016
3	0xbe8e0533	-0.27738342
4	0xbe7ac4ab	-0.24489085
5	0xbeb12542	-0.34598738
6	0x3e51d27a	0.20490447
7	0xbe2c497e	-0.1682491
8	0xbd4c384a	-0.04985837
9	0x3e7eb596	0.24873957
10	0xbe4527e5	-0.192535
11	0x3e5ce704	0.215725
12	0x3e502085	0.20324905
13	0xbc941134	-0.01807461
14	0x3eb74380	0.35793686
15	0x3e1aefd8	0.15130556
16	0xbebaedd6	-0.3650958
17	0xbd8a554d	-0.06754551
18	0x3e9568ce	0.29181522
19	0x3e7a5f2f	0.24450372
20	0xbe97f42b	-0.29678473
21	0xbea8b42d	-0.32949963
22	0xbea2e5fe	-0.31816095
23	0x3eb56a1c	0.35432518
24	0xbdb2c4e0	-0.08728957
25	0xbe495c17	-0.19664036
26	0xbe8f03e7	-0.27932665
27	0xbd545695	-0.051840384
28	0x3c443570	0.011975631
29	0x3dc7f987	0.097643904
30	0xbe8445cc	-0.258345
31	0xbe497e90	-0.19677186
32	0xbce4977d	-0.027904266
33	0xbdd255c7	-0.10270267
34	0x3e80d4d5	0.25162378
35	0xbe8756d3	-0.2643343
36	0x3ed252a4	0.41078675
37	0x3e20c2a2	0.15699247
38	0x3c65505f	0.013996213
39	0x3e507fbe	0.2036123
40	0x3cfbd35a	0.030740429
41	0xbea83264	-0.32850945
42	0xbe1d9b70	-0.15391326
43	0x3e19ba29	0.1501242
44	0x3ea68a42	0.32527357
45	0x3e6a9fb6	0.22912487
46	0x3e467e1e	0.19384047
47	0xbe667cb4	-0.22508508
48	0xbe23816f	-0.15967344
49	0xbe354ecb	-0.17705838
50	0x3e675d43	0.2259417
51	0xbe52ce06	-0.20586404
52	0x3c3b3c39	0.011427932
53	0xbd94b42c	-0.072609276
54	0x3e97e718	0.29668498
55	0x3b9ae480	0.0047269464
56	0xbe14580d	-0.14486714
57	0x3e59f97f	0.21286581
58	0xbe0f480c	-0.13992327
59	0xbec59501	-0.38590243
60	0x3d92d901	0.071702965
61	0x3e8af354	0.2713877
62	0x3e903368	0.2816422
63	0x3e9022ab	0.2815145
64	0xbdba8e7b	-0.09109207
65	0xbeb51cc3	-0.35373506
66	0x3e946759	0.28985098
67	0xbe2677e1	-0.16256668
68	0xbe43a02b	-0.19104068
69	0xbebd1cc8	-0.3693602
70	0x3e40669a	0.1878914
71	0x3d9b3d4c	0.07580051
72	0x3e81bae9	0.25337914
73	0x3ec4af25	0.38414875
74	0x3e40e653	0.18837862
75	0xbec9118a	-0.39271194
76	0xbd0aa561	-0.033849124
77	0x3daf43ef	0.08557879
78	0x3e3f00a1	0.18652584
79	0xbd9f05a6	-0.07764749
80	0x3cef65fb	0.029223433
81	0x3d6f53d4	0.058429554
82	0xbdff0ea9	-0.12453968
83	0x3eacc3b5	0.33743063
84	0xbe3b4205	-0.18286903
85	0xbd8a2bd2	-0.06746639
86	0xbea37b79	-0.3193014
87	0x3e33f107	0.17572413
88	0x3e181ee8	0.1485554
89	0x3ea3f12b	0.32019934
90	0xbe64e8a2	-0.22354367
91	0x3e0bf52f	0.13667749
92	0x3d9a8d67	0.075465016
93	0x3e843977	0.25825092
94	0x3e99b1d2	0.3001848
95	0xbe55f77c	-0.20895189
96	0xbe064ec4	-0.13115984
97	0x3eb118dc	0.3458928

encoder.encoder_layers.1.encode_self_attention.W_K.bias f4 [14]
0	0x336138fe	5.243873e-08
1	0x3cb92d6a	0.022604663
2	0xb30a5350	-3.22064e-08
3	0x3e459079	0.19293393
4	0xbd3e3872	-0.04644055
5	0xbd72a53c	-0.05923961
6	0xb1dcccac	-6.426111e-09
7	0xbe5a4a51	-0.21317412
8	0xbd5b39a8	-0.053521782
9	0x3d6b411b	0.057435136
10	0xbb170b6d	-0.0023047582
11	0xb811b539	-3.473947e-05
12	0x3df6b34b	0.12045916
13	0x33cfc484	9.6749346e-08

encoder.encoder_layers.1.encode_self_attention.W_V.weight f4 [14, 7]
0	0xbdf7578b	-0.12077244
1	0x3e3f98d3	0.18710642
2	0xbd32cc05	-0.0436516
3	0xbd3c0721	-0.045905236
4	0x3d07b08b	0.03312735
5	0xbeb49eda	-0.35277444
6	0xbdba5d92	-0.09099878
7	0xbe9111fa	-0.28334028
8	0x3e39e49d	0.18153615
9	0x3ec52401	0.3850403
10	0x3d6ac63c	0.057317957
11	0xbea56666	-0.32304686
12	0x3d39e5c4	0.045385137
13	0xbe4359f1	-0.19077279
14	0xbd7c0151	-0.061524693
15	0x3d2ebb95	0.04265936
16	0x3ec561bd	0.3855113
17	0x3ec11bcb	0.37716517
18	0x3dc32bdb	0.09529849
19	0xbd745ba8	-0.059657723
20	0x3e7756ca	0.24154201
21	0x3c35f65b	0.011106099
22	0x3e0867c2	0.1332083
23	0xbe82e3a9	-0.25564316
24	0xbe0c567f	-0.1370487
25	0xbe571ee9	-0.21007885
26	0xbe492d29	-0.19646133
27	0xbd2c9a41	-0.042139295
28	0xbd6a8647	-0.057256963
29	0x3e780822	0.24221852
30	0xbdccc829	-0.09999115
31	0xbd165282	-0.03669978
32	0xbe5ea01e	-0.21740767
33	0x3eae6adb	0.340659
34	0xbe1c1b14	-0.15244704
35	0xbd5525b1	-0.0520379
36	0x3e8ecb31	0.27889398
37	0xbe49e734	-0.19717103
38	0x3e375ef0	0.1790731
39	0x3e5da668	0.2164551
40	0x3e1dd560	0.15413427
41	0xbe8e8669	-0.27836922
42	0xbbfa04ee	-0.007629982
43	0x3bc19059	0.0059071
44	0x3c52e422	0.012871774
45	0x3ebfe381	0.3747826
46	0xbeb02a7e	-0.3440742
47	0x3d3e3943	0.046441328
48	0xbbcb83a8	-0.006210763
49	0xbea31736	-0.31853646
50	0xbd8de07a	-0.06927581
51	0x3e86be5f	0.26317117
52	0x3e386bf8	0.18009937
53	0x3e8df656	0.27727002
54	0xbe86089a	-0.26178437
55	0xbe45050d	-0.19240208
56	0x3e3d60c7	0.18493949
57	0xbe430ec2	-0.19048598
58	0x3dbf740c	0.09348306
59	0x3ed1969b	0.40935215
60	0x3e5e411f	0.21704529
61	0x3dab2902	0.08357431
62	0xbe168230	-0.146981
63	0x3ea11ca7	0.31467173
64	0x3e80b133	0.25135192
65	0x3e3c9b70	0.1841867
66	0xbe9e0f1d	-0.30870906
67	0x3e81978b	0.2531093
68	0x3e260c3e	0.16215608
69	0x3d5311a5	0.0515305
70	0x3d082670	0.03323978
71	0x3d5f9660	0.05458677
72	0x3da8ff79	0.082518525
73	0xbd0177e1	-0.031608466
74	0xbde6c24f	-0.1126753
75	0x3e32e6e1	0.17470886
76	0xbeaba3fa	-0.33523542
77	0xbe062f59	-0.13103999
78	0x3e41ab5e	0.18913028
79	0xbe236661	-0.15957023
80	0xbec07171	-0.3758655
81	0x3ec552d9	0.3853977
82	0xbe876c4a	-0.26449805
83	0x3ea3d432	0.3199783
84	0xbeb0388d	-0.34418145
85	0x3e6748d2	0.22586372
86	0xbe8c1dbd	-0.27366439
87	0xbe00d951	-0.125829
88	0xbe8877cf	-0.26653907
89	0x3e479075	0.194887
90	0x3e0f1675	0.1397341
91	0x3de6b894	0.11265674
92	0xbe45a691	-0.19301821
93	0xbe391ee3	-0.18078189
94	0xbe52ab81	-0.20573236
95	0xbe070d8f	-0.13188766
96	0x3e3a8313	0.18214063
97	0x3c66bfe1	0.014083833

encoder.encoder_layers.1.encode_self_attention.W_V.bias f4 [14]
0	0x3e01e796	0.12686
1	0x3e032d7b	0.12810318
2	0xbd011f15	-0.031523783
3	0xbe444060	-0.19165182
4	0x3e7e1c4a	0.24815479
5	0xbe10565b	-0.14095442
6	0xbe54c094	-0.20776588
7	0x3e9e4c32	0.30917507
8	0xbea40d9f	-0.32041642
9	0x3db05f80	0.08611965
10	0x3eca0c29	0.39462402
11	0x3ebc175a	0.36736566
12	0x3e3a75bf	0.18208979
13	0x3e59ba9d	0.21262594

encoder.encoder_layers.1.encode_self_attention.fc.weight f4 [7, 14]
0	0xbdd46f4b	-0.1037279
1	0x3e9c4d41	0.3052769
2	0x3e2a7189	0.16644873
3	0xbe12f019	-0.14349402
4	0x3d020a90	0.031748354
5	0x3e5b09ab	0.21390407
6	0x3d862092	0.06549181
7	0xbcc01b37	-0.023450477
8	0xbe1fb0b2	-0.15594748
9	0x3e7b01bf	0.24512385
10	0x3cb3ef6b	0.02196475
11	0xbe6a982b	-0.2290961
12	0xbe5e92d9	-0.21735705
13	0xbdb9224a	-0.09039743
14	0x3e64a6a9	0.22329201
15	0xbe3115dd	-0.17293496
16	0x3e4e9f76	0.20178017
17	0x3e4af24c	0.19818991
18	0xbe43ee06	-0.19133767
19	0x3e65150b	0.22371309
20	0x3e39e632	0.18154219
21	0x3e5a4247	0.21314345
22	0xbcc72f95	-0.024314681
23	0xbe57a31f	-0.2105832
24	0xbe785d7e	-0.24254414
25	0x3dceb18f	0.1009246
26	0xbdb6c72c	-0.08924708
27	0xbe80e1be	-0.25172228
28	0xbe4ec225	-0.20191248
29	0x3dd8c118	0.10583705
30	0x3e8478d2	0.2587343
31	0xbe0bdc47	-0.13658248
32	0x3da6eb4a	0.081503466
33	0xbd8ef421	-0.06980158
34	0xbe34345f	-0.17598103
35	0xbe218e29	-0.15776886
36	0x3e8c2881	0.27374652
37	0xbe1e25d3	-0.15444116
38	0xbe5b0414	-0.21388274
39	0x3e521d53	0.20518999
40	0x3b152ca3	0.0022762201
41	0x3e387cfb	0.18016426
42	0xbe2a42d2	-0.16627052
43	0xbd63e479	-0.05563781
44	0x3e5c71c1	0.21527769
45	0xbd3a2b7f	-0.045451637
46	0xbe6052ab	-0.21906535
47	0x3e17cc5d	0.14824052
48	0x3e4608f9	0.1933936
49	0xbe026578	-0.1273402
50	0xbd073f77	-0.03301951
51	0x3e43feea	0.19140211
52	0x3b5afc49	0.0033414534
53	0x3e15a9de	0.1461558
54	0xbe64697c	-0.22305864
55	0x3e54ac33	0.20768814
56	0x3d95b455	0.07309786
57	0xbe100c0b	-0.14067094
58	0x3e6ab687	0.22921191
59	0xbe636ca4	-0.22209412
60	0xbe6691de	-0.22516581
61	0xbe40aaf4	-0.18815213
62	0x3e8374fb	0.25675187
63	0x3e466699	0.19375075
64	0x3e5e7271	0.21723343
65	0x3d8b9b5f	0.06816744
66	0xbdf59dc1	-0.1199298
67	0xbe3d7db7	-0.18504988
68	0xbd4169b3	-0.047219943
69	0xbd8ad4b9	-0.06778855
70	0xbe81b139	-0.25330523
71	0xbe8ec87a	-0.27887326
72	0xbe8a1e94	-0.26976454
73	0x3e92e8a5	0.2869312
74	0xbcf0db0d	-0.029401327
75	0xbe3d1c91	-0.18467928
76	0x3e664b8a	0.22489753
77	0xbe417bef	-0.18894933
78	0xbe6b8c59	-0.23002757
79	0xbe1af56c	-0.15132684
80	0xbd633c16	-0.055477224
81	0x3b71f656	0.003692051
82	0xbe56d3b8	-0.20979202
83	0xbe716c48	-0.23576462
84	0xbe189186	-0.14899263
85	0xbe18d967	-0.14926682
86	0x3e420afe	0.18949506
87	0x3e3a6fcb	0.18206708
88	0x3d920ced	0.07131372
89	0x3e2bfb79	0.16795148
90	0x3d72a751	0.059241597
91	0x3d2a68a0	0.041603684
92	0xbc629445	-0.0138292955
93	0x3e09cdc5	0.13457401
94	0x3de1f1c9	0.11032445
95	0x3cdd975e	0.027049717
96	0x3e4f8a90	0.20267701
97	0x3e8b7c0b	0.27243075

encoder.encoder_layers.1.encode_self_attention.fc.bias f4 [7]
0	0xbe3eb54a	-0.18623844
1	0x3d500d06	0.05079367
2	0xbe72e85b	-0.23721449
3	0xbe234eca	-0.15948024
4	0x3d3ea09f	0.0465399
5	0x3da347f4	0.07972708
6	0xbe2037ee	-0.15646335

encoder.encoder_layers.1.encode_self_attention.layer_norm.weight f4 [7]
0	0x3f7e5bb3	0.9935867
1	0x3f82c926	1.0217636
2	0x3f81f4c3	1.015282
3	0x3f74ead7	0.9567084
4	0x3f85174d	1.0397736
5	0x3f73e82b	0.95276135
6	0x3f7d4708	0.9893651

encoder.encoder_layers.1.encode_self_attention.layer_norm.bias f4 [7]
0	0x3c9ab9c0	0.0188874
1	0xbc0e587c	-0.0086880885
2	0x39bc39ec	0.0003590131
3	0xbd19b4af	-0.03752583
4	0xbd658e8a	-0.05604414
5	0x3cb4d116	0.022072356
6	0x3d0e74a1	0.034779195

encoder.encoder_layers.1.feed_forward.fc.0.weight f4 [7, 7]
0	0x3e2ce1c8	0.16883004
1	0xbe76c368	-0.24097979
2	0x3e625c15	0.22105439
3	0xbe4d4244	-0.2004481
4	0x3e9d9889	0.30780438
5	0x3d85c248	0.06531197
6	0xbe90f0ff	-0.28308865
7	0xbe9f9e4e	-0.31175464
8	0xbed20e18	-0.41026378
9	0x3decb81f	0.11558556
10	0xbc38370c	-0.011243593
11	0x3e766f32	0.24065855
12	0x3ebc4201	0.36769107
13	0x3e0d6951	0.13809706
14	0x3e33d8c1	0.17563154
15	0xbd055a75	-0.03255697
16	0xbde61906	-0.112352416
17	0xbe464c23	-0.19364981
18	0xbe191b2b	-0.1495177
19	0x3e8dfd38	0.27732253
20	0xbea767e5	-0.32696453
21	0xbe9e18e1	-0.30878356
22	0xbd712260	-0.058870673
23	0x3ec802a3	0.39064512
24	0x3ebc24e9	0.3674691
25	0x3dc61102	0.09671213
26	0xbec563e1	-0.38552764
27	0x3d6be2a3	0.057589184
28	0x3eadcded	0.3394617
29	0xbe4692b8	-0.19391906
30	0x3e1c36ab	0.15255229
31	0xbe019955	-0.12656148
32	0xbe9ce7c7	-0.30645582
33	0x3de6fe7e	0.11279009
34	0xbd8cf914	-0.068834454
35	0x3e9ab5dd	0.30216876
36	0x3ebd0334	0.36916506
37	0xbeadb010	-0.33923388
38	0x3eb49959	0.35273245
39	0xbea3508f	-0.318974
40	0x3e98f0e7	0.29871294
41	0x3eb5be7e	0.35496897
42	0x3e2d31cb	0.16913526
43	0x3eb902e0	0.36135006
44	0xbe6955c9	-0.2278663
45	0x3e397dfc	0.18114465
46	0xbdfdbff0	-0.12390125
47	0xbeb48b10	-0.35262346
48	0x3dc72789	0.097243376

encoder.encoder_layers.1.feed_forward.fc.2.weight f4 [7, 7]
0	0xbe4d3c97	-0.20042644
1	0x3e046ce5	0.12932165
2	0xbea6a762	-0.32549578
3	0x3e066cf1	0.13127495
4	0xbd812859	-0.06306524
5	0xbe269599	-0.16268004
6	0xbe85f619	-0.2616432
7	0xbe9bc145	-0.3042089
8	0xbeac8c38	-0.33700728
9	0xbe372591	-0.17885424
10	0x3e28634b	0.16444127
11	0x3c50ceea	0.012744645
12	0x3e191104	0.14947897
13	0xbe500a29	-0.20316376
14	0xbe84ea00	-0.25959778
15	0x3ebaff0e	0.36522716
16	0xbe9e5695	-0.30925432
17	0xbc9a1c70	-0.018812388
18	0xbd31f30b	-0.043444674
19	0x3db1bb9a	0.0867836
20	0xbea07bb9	-0.31344393
21	0x3e5b86bf	0.2143812
22	0xbdd25a0c	-0.10271081
23	0xbd056b74	-0.03257318
24	0x3e32eb55	0.17472585
25	0x3eb21ad7	0.34786102
26	0xbeafc4f7	-0.3432996
27	0xbddc88ce	-0.10768281
28	0xbe45ce6f	-0.1931703
29	0x3d61197c	0.054955944
30	0xbe142034	-0.1446541
31	0x3e0ac402	0.13551334
32	0xbe3a716e	-0.18207332
33	0xbc83de66	-0.016097259
34	0x3e79225c	0.24329513
35	0x3cf8cb40	0.030370355
36	0xbe8dbab6	-0.27681512
37	0x3e82d65b	0.25554165
38	0x3e932678	0.28740287
39	0x3e0b644a	0.13612476
40	0x3d908225	0.07056073
41	0xbd8a0bf4	-0.06740561
42	0x3e546d64	0.20744854
43	0x3e20c2d5	0.15699323
44	0xbdbe005e	-0.09277414
45	0x3e98faa3	0.2987872
46	0xbe24b38f	-0.16084121
47	0xbe80d0ef	-0.25159404
48	0xbdd978f8	-0.10618776

encoder.encoder_layers.1.feed_forward.layer_norm.weight f4 [7]
0	0x3f7cf1a3	0.9880621
1	0x3f825352	1.0181677
2	0x3f813f81	1.0097505
3	0x3f785a1b	0.9701249
4	0x3f86d247	1.0532922
5	0x3f7daf2a	0.99095404
6	0x3f7ab5a2	0.979334

encoder.encoder_layers.1.feed_forward.layer_norm.bias f4 [7]
0	0x3cbf667c	0.023364298
1	0xbbf5d48c	-0.007502144
2	0xbb88e16a	-0.004177262
3	0xbd0a341f	-0.033741113
4	0xbd5eb5aa	-0.054372467
5	0x3ced0d46	0.028936993
6	0x3d149a4b	0.036279958

encoder.encoder_layers.2.encode_self_attention.W_Q.weight f4 [14, 7]
0	0x3e1fe83d	0.15615936
1	0x3e7488d6	0.23880324
2	0xbe199ea1	-0.15001918
3	0xbe9ce8cd	-0.30646363
4	0x3dc1b06a	0.094574764
5	0xbd1437f7	-0.036186185
6	0x3d52e074	0.051483586
7	0x3eab1979	0.33417872
8	0x3e8978d7	0.26850006
9	0xbeb9deb1	-0.36302713
10	0x3ce48707	0.027896417
11	0x3e051cf6	0.12999329
12	0xbcf18843	-0.02948392
13	0xbcf70576	-0.030153971
14	0xbe8425a4	-0.25809968
15	0x3e209d54	0.15685016
16	0x3e048f0e	0.12945196
17	0x3d19a301	0.03750897
18	0xbe8b11d9	-0.27162054
19	0x3e1bebee	0.15226719
20	0x3e1deb05	0.15421684
21	0x3eafef54	0.3436228
22	0xbdccf5cb	-0.10007819
23	0xbe8f6c9f	-0.2801256
24	0xbebcd311	-0.3687978
25	0xbe28c8df	-0.16482876
26	0xbeccaa5b	-0.3997372
27	0xbe93f4e6	-0.2889778
28	0x3d4b7b90	0.049678385
29	0xbe60e1eb	-0.21961181
30	0xbeb9c930	-0.36286306
31	0x3e7b8fbb	0.24566548
32	0x3dbdbbd3	0.0926434
33	0x3e9a41c2	0.30128294
34	0xbe586f56	-0.21136221
35	0xbea3d2a6	-0.3199665
36	0x3c26b9e5	0.010176157
37	0xbe697a24	-0.22800499
38	0x3ea155d1	0.31510785
39	0x3e9b8b58	0.30379748
40	0xbea46a44	-0.32112324
41	0x3e6eee3f	0.23333071
42	0xbebdb0fc	-0.3704909
43	0x3ead875e	0.3389234
44	0xbd4838c8	-0.048882276
45	0xbe543382	-0.20722774
46	0x3ebb8138	0.36622024
47	0xbec03ae7	-0.3754494
48	0xbead3c55	-0.33835092
49	0x3e062970	0.13101745
50	0x3cbe4a35	0.023228744
51	0x3d792c37	0.060833182
52	0xbeb42573	-0.3518482
53	0xbdf2628f	-0.11835205
54	0x3dbee0e7	0.093202405
55	0x3cd3e9e7	0.02586837
56	0x3e5d9e83	0.21642499
57	0xbe131f79	-0.14367475
58	0x3bbc4ffa	0.0057468386
59	0x3e184e34	0.14873582
60	0xbea39408	-0.31948876
61	0x3eafb22d	0.34315625
62	0x3e02da06	0.12778482
63	0xbea7042d	-0.32620373
64	0x3e118572	0.14211062
65	0x3e2b2f84	0.16717345
66	0xbdb10ddc	-0.086452216
67	0xbeb7e4c6	-0.35916728
68	0x3ea660ad	0.32495633
69	0xbe9718c6	-0.29511088
70	0x3ea9b777	0.33147785
71	0xbe18100d	-0.14849873
72	0x3e8710bb	0.26379952
73	0x3e865070	0.26233244
74	0xbe2670d5	-0.1625398
75	0x3e33c36b	0.17555015
76	0xbe3a89ea	-0.18216673
77	0x3e83e0a8	0.25757337
78	0x3e43d818	0.19125402
79	0x3e717e87	0.23583423
80	0x3e837f73	0.25683174
81	0x3e5265cb	0.20546643
82	0x3d1eecb5	0.03879996
83	0x3e9ebeb1	0.3100486
84	0xbe451f95	-0.19250329
85	0x3e094ed8	0.13408983
86	0x3e89a86a	0.26886302
87	0x3cd15a90	0.025555879
88	0x3e877203	0.26454172
89	0xbe9d0732	-0.30669552
90	0xbded89f5	-0.11598579
91	0x3e003a03	0.1252213
92	0x3e40f97c	0.1884517
93	0xbe30b772	-0.17257479
94	0x3d324844	0.04352595
95	0x3e9a1fde	0.30102438
96	0x3e9122f0	0.28346968
97	0xbe168741	-0.14700033

encoder.encoder_layers.2.encode_self_attention.W_Q.bias f4 [14]
0	0x3eb45da6	0.35227698
1	0xbc9d2884	-0.019184358
2	0xbda26d92	-0.07931055
3	0xbeaa0ab1	-0.33211282
4	0xbdb3611d	-0.08758757
5	0xbe9ab3b4	-0.30215228
6	0x3dbe358f	0.09287559
7	0xbe6e8681	-0.23293497
8	0x3eae48a1	0.34039786
9	0x3decdbe5	0.11565379
10	0xbe86af1c	-0.26305473
11	0xbe330537	-0.17482458
12	0xbe6d80e6	-0.23193702
13	0xbe6e5959	-0.23276271

encoder.encoder_layers.2.encode_self_attention.W_K.weight f4 [14, 7]
0	0xbeb2e867	-0.34942934
1	0x3d9993a5	0.07498864
2	0xbe0af203	-0.13568883
3	0x3e0a2c8b	0.13493554
4	0xbeafe1b5	-0.34351888
5	0xbebf37c3	-0.3734723
6	0xbec98526	-0.39359397
7	0xbd867dfa	-0.06566997
8	0x3ea9e7a5	0.33184543
9	0xbc823f27	-0.015899254
10	0xbdf21493	-0.118203305
11	0xbeb4fe64	-0.35350335
12	0xbe007aa6	-0.12546787
13	0x3deef6e1	0.11668182
14	0xbdf01e4f	-0.11724531
15	0xbe619c27	-0.22032224
16	0xbe017d28	-0.126454
17	0x3e84b12b	0.25916418
18	0x3eb79f5a	0.35863763
19	0x3e16aaca	0.14713588
20	0xbcce745f	-0.025201974
21	0xbe8e3617	-0.27775642
22	0x3e8fa7f1	0.28057817
23	0x3d48d559	0.04903159
24	0x3e9c1b63	0.30489644
25	0x3d79c762	0.060981162
26	0xbe5b8686	-0.21438035
27	0x3d72628a	0.059176005
28	0x3e5527a0	0.20815897
29	0x3e2893c2	0.16462615
30	0x3dc87bf2	0.09789266
31	0x3e084a5a	0.13309613
32	0x3e5fea17	0.21866642
33	0xbdfdcf71	-0.12393082
34	0xbd77f9c4	-0.06054093
35	0x3d7956b5	0.060873706
36	0xbe24d188	-0.16095555
37	0xbe126085	-0.14294632
38	0x3e0d689c	0.13809437
39	0xbdcea376	-0.100897714
40	0x3e2fa99f	0.17154549
41	0x3d8e228a	0.069401816
42	0x3e4d849b	0.20070116
43	0xbe80a671	-0.25126985
44	0xbea35cc2	-0.31906706
45	0xbd820409	-0.06348426
46	0x3e65b9cb	0.22434156
47	0xbea4ad87	-0.3216364
48	0x3cbdc4a8	0.023165062
49	0xbe228e9f	-0.15874718
50	0x3ebe94ea	0.37222987
51	0xbdcc3273	-0.0997056
52	0xbc8c26a1	-0.017108263
53	0x3e45d714	0.19320327
54	0xbe6fc6d0	-0.23415685
55	0xbe09db42	-0.13462546
56	0x3c3afd52	0.011412935
57	0x3ed25c13	0.41085872
58	0xbd9d57b4	-0.07682744
59	0xbd54e180	-0.051972866
60	0x3cc74905	0.02432681
61	0x3ea1189e	0.31464094
62	0xbc28a948	-0.010294266
63	0x3db2d02b	0.08731111
64	0x3e839ffb	0.25707993
65	0xbe16cfc5	-0.14727695
66	0x3e0f1f87	0.1397687
67	0xbecaf0a2	-0.39636713
68	0xbd4a5677	-0.049398866
69	0xbd85e146	-0.06537108
70	0x3e49e8d7	0.19717728
71	0xbd82f5a5	-0.06394509
72	0x3da9dcdb	0.08294078
73	0xbec1936f	-0.37807795
74	0x3e12b7c8	0.1432792
75	0x3d1e8541	0.0387013
76	0xbe11e63f	-0.14247988
77	0xbe4a28a8	-0.19742072
78	0xbddcb001	-0.107757576
79	0x3d30fcd6	0.043209873
80	0xbd8c3e41	-0.068478115
81	0xbe52fff6	-0.20605454
82	0xbe94764f	-0.28996512
83	0xbea43b22	-0.32076365
84	0x3e31f0b8	0.17376983
85	0x3e75648e	0.2396414
86	0xbdb350aa	-0.0875562
87	0xbdd79af4	-0.10527602
88	0xbea4d7aa	-0.3219579
89	0x3e8c550f	0.27408645
90	0xbe7721a7	-0.24133931
91	0x3ea5c474	0.32376444
92	0xbe789891	-0.2427695
93	0x3d1941f6	0.03741642
94	0x3db79578	0.08964056
95	0x3e814b14	0.25252593
96	0x3e428a1b	0.18997996
97	0x3eb87d85	0.36033264

encoder.encoder_layers.2.encode_self_attention.W_K.bias f4 [14]
0	0xbdaa6c10	-0.083213925
1	0x3ce40396	0.027833741
2	0x3d346efb	0.04405115
3	0x3d129405	0.035785694
4	0xbdd6e762	-0.104933515
5	0x3d8a6b6f	0.067587726
6	0xbc89bec6	-0.0168146
7	0xbcb07c6b	-0.021543702
8	0xbe0c69ba	-0.13712206
9	0xb2d9543d	-2.5300432e-08
10	0xbe3da616	-0.18520388
11	0x38fb73b6	0.000119901655
12	0xbe3ec643	-0.18630318
13	0xbc911e56	-0.01771466

encoder.encoder_layers.2.encode_self_attention.W_V.weight f4 [14, 7]
0	0xbe9fcc46	-0.31210536
1	0x3e370051	0.17871214
2	0xbd20ee6e	-0.039289884
3	0xbd05a4c6	-0.032627843
4	0x3e933ab7	0.28755733
5	0x3e808b5a	0.25106317
6	0xbd0c34ef	-0.03423017
7	0x3ea558d9	0.32294348
8	0xbe2806ca	-0.1640884
9	0xbd0d5094	-0.034500673
10	0xbe960715	-0.29302278
11	0xbdce47b3	-0.10072269
12	0xbe8ffb73	-0.28121528
13	0xbe59e140	-0.21277332
14	0xbebc321d	-0.36756983
15	0x3e890f19	0.2676933
16	0x3c03cd88	0.008044608
17	0x3b43a9bd	0.002985581
18	0xbcba3456	-0.022730034
19	0x3e2e91be	0.17047784
20	0xbd129df5	-0.03579517
21	0x3e5fd752	0.21859482
22	0x3eba5b78	0.3639791
23	0xbe019242	-0.12653449
24	0x3eaabf4a	0.33349067
25	0x3c7b12cd	0.015324307
26	0xbc0e5844	-0.008688036
27	0xbdbf6776	-0.093459055
28	0xbdbf63bd	-0.093451954
29	0xbe034cde	-0.12822291
30	0x3ea0bcb3	0.31393966
31	0x3e670882	0.22561839
32	0xbe389a2b	-0.1802756
33	0x3e66aabf	0.22526072
34	0x3ed395b5	0.41325155
35	0x3e212e49	0.15740313
36	0xbd46b881	-0.0485158
37	0xbea2306d	-0.3167757
38	0xbda93fc3	-0.08264115
39	0xbd36e066	-0.044647597
40	0x3e864355	0.26223245
41	0x3dd3b940	0.10338068
42	0x3ea9e6d1	0.3318391
43	0x3dfc65fc	0.123241395
44	0x3e3e1f8e	0.18566725
45	0x3e8e1cb9	0.2775629
46	0xbea999a0	-0.3312502
47	0xbd302c94	-0.043011263
48	0x3e9bf963	0.30463704
49	0xbe6c730f	-0.23090766
50	0x3e4b6696	0.19863352
51	0x3e8b0f78	0.2716024
52	0x3d8df646	0.069317386
53	0xbe0daac4	-0.13834673
54	0xbe2c1fde	-0.16809031
55	0x3e8119c4	0.2521497
56	0xbc270c3a	-0.010195786
57	0xbd56ab60	-0.05240953
58	0x3a9d1f82	0.001198754
59	0x3d0138d9	0.031548355
60	0x3eca9037	0.39563152
61	0x3e0b57ed	0.1360776
62	0xbacc6bd5	-0.0015596101
63	0xbdb60b28	-0.08888847
64	0xbe93cf3e	-0.2886905
65	0xbe8d22f3	-0.27565727
66	0x3d0dc322	0.03460992
67	0x3e73d2de	0.23810908
68	0xbe0a771d	-0.13522
69	0xbbf36e74	-0.0074289385
70	0x3e974ce3	0.29550847
71	0x3dc253a1	0.09488607
72	0x3ed432ff	0.41445157
73	0xbd660810	-0.056160033
74	0x3e75abce	0.2399132
75	0xbd5c8af4	-0.053843454
76	0x3b4fd0ea	0.0031710216
77	0x3e9ac05c	0.30224884
78	0x3e8284d8	0.25491977
79	0x3e8540e3	0.26026067
80	0xbea628dc	-0.32453048
81	0xbe911c8c	-0.28342092
82	0x3dc958e9	0.098314114
83	0xbe1a1d98	-0.15050352
84	0xbd9e6818	-0.07734698
85	0xbdaac69d	-0.08338664
86	0xbe4b83de	-0.19874522
87	0xbe39d2dc	-0.18146843
88	0x3ead8213	0.338883
89	0x3dc22774	0.09480181
90	0x3de0d6db	0.109784804
91	0x3e7177de	0.23580882
92	0xbd4456a0	-0.047934175
93	0x3e9e8ed3	0.3096834
94	0x3dde5594	0.108561665
95	0x3dcd2f2b	0.10018762
96	0xbeac20f8	-0.33618903
97	0x3d867cb6	0.065667555

encoder.encoder_layers.2.encode_self_attention.W_V.bias f4 [14]
0	0xbeb9bd85	-0.36277404
1	0xbe4c1a27	-0.19931851
2	0x3eae2055	0.34009042
3	0x3e07fe21	0.13280536
4	0xbe3733c0	-0.17890835
5	0x3d43115a	0.04762397
6	0x3cb3ec09	0.021963136
7	0x3eb3c019	0.35107496
8	0x3c9caa37	0.019124134
9	0x3e80f8b0	0.25189734
10	0xbd8a7310	-0.06760228
11	0xbe342fc2	-0.17596343
12	0xbce09c33	-0.027418232
13	0x3ea3d461	0.3199797

encoder.encoder_layers.2.encode_self_attention.fc.weight f4 [7, 14]
0	0x3cd1e15e	0.025620159
1	0xbe91fb91	-0.28512242
2	0xbe2b40d0	-0.16723943
3	0xbe681c12	-0.22666958
4	0xbe0c3477	-0.13691889
5	0xbde11ef7	-0.10992234
6	0xbe3a3d3b	-0.1818742
7	0x3dd5e459	0.104439445
8	0xbe5218ac	-0.20517224
9	0xbe23e030	-0.1600349
10	0xbd983e4c	-0.07433757
11	0x3e8d90c4	0.2764951
12	0xbe94028f	-0.28908202
13	0x3e0436a2	0.12911466
14	0x3e15a29a	0.14612809
15	0x3d390aa7	0.045176174
16	0x3e6aae00	0.22917938
17	0xbdb3945c	-0.08768532
18	0x3e29cffe	0.16583249
19	0x3c89468f	0.016757278
20	0xbe83e16a	-0.25757915
21	0xbe2e880e	-0.17044088
22	0x3e514017	0.20434605
23	0xbda005e3	-0.07813623
24	0xbabb1410	-0.0014272947
25	0xbe1718a9	-0.14755501
26	0xbdbee066	-0.09320144
27	0xbdd93264	-0.106053144
28	0x3e2b5067	0.1672989
29	0xbe41c1b1	-0.18921544
30	0x3cbf362a	0.023341257
31	0x3e179c7f	0.14805792
32	0xbe975a50	-0.2956109
33	0xbdc9c73a	-0.098524526
34	0x3e28007a	0.16406432
35	0x3da36cc1	0.079797275
36	0xbbc216b8	-0.0059231184
37	0x3e8e45a4	0.27787507
38	0x3c94a9c9	0.018147366
39	0xbe3332c5	-0.17499836
40	0xbb9f9d88	-0.004871074
41	0x3e324364	0.1740852
42	0x3e4582f0	0.1928823
43	0x3e275a6c	0.16343087
44	0x3dd04953	0.101702355
45	0xbc807244	-0.015679486
46	0xbe5ce1ea	-0.21570554
47	0x3e0ed7b8	0.13949478
48	0xbe8a066f	-0.26958033
49	0xbb49e945	-0.0030809205
50	0x3e9b6b2e	0.3035521
51	0xbe30905c	-0.17242569
52	0x3e3a504d	0.18194695
53	0xbe4d5ec4	-0.20055681
54	0x3d8add86	0.067805335
55	0xbdb09e46	-0.08623938
56	0x3e95b492	0.29239327
57	0xbd54aee6	-0.05192461
58	0x3a8f97e0	0.0010955296
59	0x3e5011c1	0.20319273
60	0x3d784960	0.06061685
61	0x3c9dc616	0.019259494
62	0xbd3bcd5e	-0.04585015
63	0xbe8e990d	-0.27851143
64	0x3e56d57f	0.2097988
65	0xbe118c20	-0.1421361
66	0xbdce6949	-0.10078675
67	0x3d128bf7	0.035778012
68	0xbc9a0283	-0.018800026
69	0xbe2cec27	-0.1688696
70	0x3e53554c	0.20638007
71	0xbe988028	-0.29785275
72	0x3e8c1da4	0.27366364
73	0x3e35450f	0.17702125
74	0x3e1aecb6	0.1512936
75	0x3e5643af	0.20924257
76	0x3e936d92	0.28794533
77	0x3e941355	0.28921
78	0x3d955f09	0.07293517
79	0xbd8941e1	-0.067020185
80	0x3d5c3430	0.053760707
81	0xbd3d8151	-0.046265904
82	0xbdef6a2b	-0.11690172
83	0x3e0d392c	0.1379134
84	0xbe3b09f2	-0.18265513
85	0x3e5859f1	0.2112806
86	0xbe135ac1	-0.14390089
87	0xbe79044b	-0.24318044
88	0x3e77c330	0.24195552
89	0xbdee58d7	-0.116380386
90	0xbe0ff22c	-0.14057225
91	0xbdff12e1	-0.12454773
92	0xbe844c9c	-0.25839698
93	0xbe73f2ea	-0.23823133
94	0x3db1521c	0.08658239
95	0x3e448a0c	0.19193286
96	0x3e052aa3	0.13004546
97	0xbe48e53f	-0.196187

encoder.encoder_layers.2.encode_self_attention.fc.bias f4 [7]
0	0xbd0827b6	-0.033240996
1	0x3e6726cc	0.22573394
2	0xbd939982	-0.07207014
3	0x3e50b2c7	0.20380698
4	0x3c50f068	0.01275263
5	0x3d2613ad	0.040546108
6	0xbda30b68	-0.0796116

encoder.encoder_layers.2.encode_self_attention.layer_norm.weight f4 [7]
0	0x3f7ae77b	0.9800946
1	0x3f7e2049	0.99268013
2	0x3f83092d	1.0237175
3	0x3f78cc1b	0.9718644
4	0x3f8621c8	1.0479059
5	0x3f8258f8	1.0183401
6	0x3f79099e	0.972803

encoder.encoder_layers.2.encode_self_attention.layer_norm.bias f4 [7]
0	0x3ce0df83	0.027450329
1	0xbc0bec70	-0.008540258
2	0xbd1d0afd	-0.038340557
3	0xbd05f9b9	-0.032708857
4	0xbd4ef89a	-0.050530054
5	0x3d258b71	0.040416185
6	0x3d06d014	0.032913283

encoder.encoder_layers.2.feed_forward.fc.0.weight f4 [7, 7]
0	0xbe20f1aa	-0.15717188
1	0xbe97f0d9	-0.2967594
2	0xbe9671c4	-0.2938367
3	0xbe523f0c	-0.20531863
4	0xbe78196b	-0.24228446
5	0xbddf1acc	-0.10893783
6	0xbe37051a	-0.1787304
7	0x3de36e7f	0.1110506
8	0x3e8d648d	0.27615777
9	0x3e1d84e2	0.15382722
10	0x3e44f1f2	0.1923292
11	0x3e97364b	0.2953361
12	0xbec4d936	-0.3844697
13	0xbdb1bcbb	-0.086785756
14	0xbeb7381a	-0.3578499
15	0x3ebd1f66	0.36938018
16	0x3ebdba9c	0.37056434
17	0xbda56561	-0.08075977
18	0xbec48133	-0.3837982
19	0x3da49930	0.08037031
20	0x3e817301	0.25283054
21	0xbea93adc	-0.3305272
22	0xbe5990ab	-0.21246593
23	0x3e785ec5	0.24254902
24	0x3e4dbac5	0.20090778
25	0xbe645f11	-0.2230189
26	0x3c1a8997	0.009432218
27	0xbe7fcd48	-0.24980652
28	0xbe10ff2f	-0.14159845
29	0x3d5b78fd	0.05358218
30	0x3e95a711	0.29229024
31	0xbed2b3b6	-0.41152734
32	0xbda77b76	-0.08177845
33	0x3d9b0883	0.07569983
34	0x3d9e6d12	0.07735647
35	0xbe83cd41	-0.25742534
36	0x3cedde00	0.029036522
37	0x3db2795a	0.08714552
38	0xbeab9f59	-0.3352001
39	0xbe34a631	-0.17641522
40	0xbe4c4b2d	-0.19950552
41	0x3e5f5b04	0.21812063
42	0xbe814d93	-0.25254497
43	0xbde62393	-0.11237254
44	0xbb3fc327	-0.0029260607
45	0x3e93602f	0.2878432
46	0xbe3e1949	-0.18564333
47	0xbbd563dc	-0.0065121483
48	0x3ebba209	0.3664706

encoder.encoder_layers.2.feed_forward.fc.2.weight f4 [7, 7]
0	0x3e9e2208	0.3088534
1	0x3e6e1206	0.23249063
2	0xbe589a46	-0.211526
3	0xbe4da716	-0.2008327
4	0x3cd2b831	0.025722595
5	0x3ea5e2e3	0.32399663
6	0xbe4d4d27	-0.20048963
7	0xbea706cf	-0.32622382
8	0xbe821640	-0.254076
9	0xbe976ea5	-0.29576603
10	0xbe473246	-0.19452772
11	0x3e798c4a	0.24369922
12	0xbe929d65	-0.28635707
13	0x3df56ab9	0.11983246
14	0xbea9cc32	-0.331636
15	0xbe3d0529	-0.18459
16	0x3c8a0049	0.01684584
17	0x3eb36ada	0.3504246
18	0xbe8f7d82	-0.28025442
19	0xbe8d2bec	-0.27572572
20	0xbec11581	-0.3771172
21	0xbeb25325	-0.3482906
22	0x3ec09f89	0.37621716
23	0xbd440964	-0.047860518
24	0x3e4f05cb	0.20217054
25	0x3e4561d4	0.192756
26	0x3e009f99	0.12560882
27	0xbd85a0f2	-0.065248385
28	0x3def9d3c	0.11699912
29	0x3d8f86c4	0.070081264
30	0x3db85cfc	0.0900211
31	0xbdc89c66	-0.09795456
32	0x3dccd916	0.10002343
33	0x3e978d04	0.29599774
34	0xbd1099ef	-0.035303053
35	0x3e1d7c97	0.15379559
36	0xbea7b26e	-0.3275332
37	0x3ed03af6	0.40669984
38	0x3ea90693	0.33012828
39	0xbda44f33	-0.080229186
40	0x3c839801	0.016063692
41	0x3e06d77d	0.1316814
42	0xbd3f24a4	-0.046665803
43	0x3e2f2ba4	0.17106491
44	0x3deedb20	0.116628885
45	0xbe648fd0	-0.22320485
46	0x3daf4804	0.08558658
47	0x3e87ecc9	0.2654784
48	0x3e75f7ed	0.24020357

encoder.encoder_layers.2.feed_forward.layer_norm.weight f4 [7]
0	0x3f7585f6	0.95907533
1	0x3f7d6adc	0.9899118
2	0x3f7bdc94	0.9838345
3	0x3f75d53e	0.96028507
4	0x3f7a692f	0.9781675
5	0x3f7418e5	0.95350486
6	0x3f77a3ab	0.9673411

encoder.encoder_layers.2.feed_forward.layer_norm.bias f4 [7]
0	0xba9515d8	-0.0011374308
1	0xbc990046	-0.018676888
2	0xbcec0a8f	-0.028813628
3	0xbc32c088	-0.010910161
4	0x3c81bff3	0.015838599
5	0xbb77548e	-0.0037739608
6	0x3c52f86e	0.012876613
