Transformer/model_EnDeTransformer/best_epoch_model_newnewStart_conv3_noScaler_OT.pth (torch, 58845 bytes, 77 tensors)

encoder.pos_embedding.positional_encoding f4 [95, 1]
000000 00 00 00 00 a4 6a 57 3f b7 c7 68 3f c3 81 10 3e
       0.0 0.84147096 0.9092974 0.14112
000010 cf bd 41 bf 10 7c 75 bf 8c 0f 8f be 46 30 28 3f
       -0.7568025 -0.9589243 -0.2794155 0.6569866
000020 95 46 7d 3f 32 01 d3 3e f8 44 0b bf 5c ff 7f bf
       0.98935825 0.4121185 -0.5440211 -0.9999902
000030 d8 5c 09 bf 22 20 d7 3e 72 98 7d 3f 44 79 26 3f
       -0.53657293 0.42016703 0.9906074 0.65028787
000040 10 68 93 be 25 1e 76 bf b3 40 40 bf 69 79 19 3e
       -0.2879033 -0.96139747 -0.75098723 0.1498772
000050 c8 b6 69 3f 10 2f 56 3f 15 05 11 bc e6 a1 58 bf
       0.9129453 0.8366556 -0.008851309 -0.8462204
000060 fc d3 67 bf 38 87 07 be 08 37 43 3f 0e d5 74 3f
       -0.9055784 -0.13235176 0.76255846 0.95637596
000070 2a b4 8a 3e e9 e3 29 bf a4 ef 7c bf 06 de ce be
       0.2709058 -0.6636339 -0.9880316 -0.40403765
000080 4d 2a 0d 3f 39 fa 7f 3f f7 71 07 3f c2 3a db be
       0.5514267 0.99991184 0.5290827 -0.42818266
000090 38 e5 7d bf ea be 24 bf 9f bd 97 3e 4b bb 76 3f
       -0.99177885 -0.6435381 0.29636857 0.96379536
0000a0 bc bf 3e 3f fb 6d 22 be 28 a1 6a bf 30 ef 54 bf
       0.74511313 -0.15862267 -0.91652155 -0.8317747
0000b0 a1 03 91 3c d0 d4 59 3f 9a db 66 3f e8 13 fd 3d
       0.017701926 0.8509035 0.90178835 0.123573124
0000c0 56 ac 44 bf 22 29 74 bf ff 55 86 be 24 94 2b 3f
       -0.76825464 -0.95375264 -0.26237485 0.6702292
0000d0 a0 93 7c 3f b4 b6 ca 3e cd 0c 0f bf f4 ef 7f bf
       0.9866276 0.39592516 -0.5587891 -0.99975514
0000e0 5e 84 05 bf fd 50 df 3e e7 2c 7e 3f 43 01 23 3f
       -0.521551 0.43616477 0.99287266 0.636738
0000f0 23 10 9c be 7f 53 77 bf f2 3a 3d bf 4b 5f 2b 3e
       -0.3048106 -0.9661178 -0.7391807 0.1673557
000100 d4 86 6b 3f 0b ab 53 3f ce 81 d9 bc 5b 03 5b bf
       0.92002606 0.82682866 -0.026551154 -0.85551995
000110 97 de 65 bf 4d 14 eb bd b3 1d 46 3f 51 78 73 3f
       -0.8979277 -0.114784814 0.7738907 0.95105463
000120 23 f5 81 3e ed 40 2d bf 8c 32 7c bf 51 8b c6 be
       0.25382337 -0.67677194 -0.9851463 -0.38778165
000130 6e ec 10 3f 8e e0 7f 3f 18 94 03 3f bc 62 e3 be
       0.56610763 0.9995202 0.5139785 -0.44411266
000140 7d 6f 7e bf 57 40 21 bf 86 5f a0 3e bc e6 77 3f
       -0.9938887 -0.629888 0.3132288 0.9683645
000150 5c b2 3b 3f 2b 4d 34 be c6 67 6c bf a7 62 52 bf
       0.7331903 -0.17607562 -0.92345846 -0.8218178
000160 d0 fd 10 3d 82 2d 5c 3f f7 dc 64 3f fb 0f d9 3d
       0.035398304 0.8600694 0.89399666 0.10598751
000170 17 8b 47 bf 9e c2 72 bf 56 23 7b be
       -0.7794661 -0.9482821 -0.24525198

encoder.encoder_layers.0.encode_self_attention.W_Q.weight f4 [16, 1]
000000 52 91 5d bf 98 f6 6f bf a8 17 2d bf dc 8f 3d be
       -0.86549866 -0.9373565 -0.6761422 -0.18511909
000010 5c 6f 40 be ed 96 9f bd d0 3b 7e 3f 25 fa fe 3d
       -0.1879248 -0.07792459 0.99310017 0.12450055
000020 e6 99 74 bf cc 6d 41 bf 86 f7 0f 3f 5c 3e 3f 3f
       -0.9554733 -0.7555816 0.56237066 0.7470453
000030 ae 0d cc bd 1a 5b 59 3d a8 4b e1 3c 1e 0d e0 3e
       -0.09963547 0.053065397 0.027501896 0.43760008

encoder.encoder_layers.0.encode_self_attention.W_Q.bias f4 [16]
000000 4f 7c 69 3e 4a 64 5e 3f 41 84 07 bf 16 b3 e2 be
       0.22801326 0.8687178 -0.5293618 -0.44277257
000010 1e 84 59 3f 53 ec 20 3f ac 5e a6 3e d2 3f 0d 3f
       0.8496722 0.628606 0.32494104 0.5517551
000020 e9 b6 0d bf a3 74 ce bb 30 f8 f8 3c 84 ca 6a be
       -0.55357224 -0.0063005253 0.030391783 -0.22928816
000030 04 85 46 3f d2 a5 5f 3f 64 01 59 bd fa 38 36 bf
       0.77546716 0.87362397 -0.05297984 -0.7118069

encoder.encoder_layers.0.encode_self_attention.W_K.weight f4 [16, 1]
000000 a8 63 c4 3e 06 21 5d 3f e8 c1 35 be 2e 35 cc 3d
       0.38357282 0.86378515 -0.1774975 0.09971081
000010 34 76 24 be 76 f3 6e bf 9a bf 18 bf 93 17 d1 be
       -0.16060716 -0.9334024 -0.5966736 -0.40838298
000020 ad 70 67 3d 3a 2f 72 3e 70 0c 7b 3f b0 6b 81 be
       0.05650394 0.23650828 0.98065853 -0.25277472
000030 50 00 1a 3f 0d 90 e4 be 56 71 5c 3f ea 0f 39 3f
       0.60156727 -0.44641152 0.86110437 0.7228991

encoder.encoder_layers.0.encode_self_attention.W_K.bias f4 [16]
000000 f2 e8 12 bf b6 d5 71 bf 26 4f a2 3e 58 1a 38 3f
       -0.57386696 -0.9446672 0.3170101 0.719152
000010 f2 6b 39 3f b4 f1 45 bf 14 dd 2e 3f be 9f 56 3f
       0.72430336 -0.77321935 0.6830609 0.838375
000020 e5 f8 ea 3e 59 1f 28 3d 9c 90 4a 3f fa f1 0c bf
       0.45893016 0.04104552 0.79126906 -0.55056727
000030 fb f3 d3 3e 7f c7 0e 3f 54 8f 4f bf 1b e4 7f 3d
       0.4139708 0.55773157 -0.81078076 0.062473398

encoder.encoder_layers.0.encode_self_attention.W_V.weight f4 [16, 1]
000000 4c 63 7a 3f 8c 80 1d 3c 96 9e 27 bf d3 41 5b 3e
       0.97807765 0.0096131675 -0.6547636 0.21411829
000010 94 7c ac be 12 85 5b bf c2 66 85 3e 08 fb 97 be
       -0.33688796 -0.85749924 0.2605496 -0.2968371
000020 d3 9b 00 3f dc d1 36 bf a9 8e c1 3d e0 93 54 3f
       0.5023777 -0.7141397 0.094510384 0.8303814
000030 56 68 2f bf 9c 95 52 3f 00 d9 70 bf 18 e8 7e 3f
       -0.6851858 0.82259536 -0.94081116 0.99572897

encoder.encoder_layers.0.encode_self_attention.W_V.bias f4 [16]
000000 50 96 f3 be 04 d2 5e bf 80 cc 37 3f 3a bc 44 bf
       -0.47575617 -0.8703921 0.7179642 -0.7684971
000010 5c 3a 46 3f 9e 33 26 3f b4 4d 5b bf 16 99 45 3e
       0.774328 0.6492251 -0.8566544 0.19296679
000020 d6 cf 67 3f d2 b7 65 3f 75 52 6a be b3 b5 d2 3e
       0.9055151 0.8973361 -0.22883017 0.4115425
000030 7c 61 4a bf 9e d1 47 bf f5 02 a4 3d d4 5d 3e bf
       -0.79055 -0.78054225 0.080083765 -0.7436192

encoder.encoder_layers.0.encode_self_attention.fc.weight f4 [1, 16]
000000 a1 2c 08 be 01 0b 02 be 1e ff 0e be 4d 9d 36 be
       -0.13298275 -0.1269951 -0.13964507 -0.17833443
000010 e5 5b 27 3c db bb e9 3c 7e 21 02 3e 95 01 02 3e
       0.01021478 0.02853196 0.12708089 0.12695916
000020 67 c1 21 bd 00 95 70 3e 70 81 6a bd c6 c2 44 3d
       -0.039491083 0.23494339 -0.057252347 0.048037313
000030 c2 41 b4 b9 bd 49 e8 3d 71 06 d4 3d c4 fe 25 3e
       -0.0003438127 0.113421895 0.10352791 0.16210467

encoder.encoder_layers.0.feed_forward.conv.0.weight f4 [1, 1, 3]
000000 46 ed c3 be 2c fc 3a be 3d a0 8f bd
       -0.38266963 -0.18260258 -0.07012985

encoder.encoder_layers.0.feed_forward.conv.2.weight f4 [1, 1, 3]
000000 5e 16 88 3d 75 f7 b6 3e a7 27 50 3e
       0.06644891 0.3573567 0.20327626

encoder.encoder_layers.1.encode_self_attention.W_Q.weight f4 [16, 1]
000000 3e b2 df 3e c2 a1 93 bc 56 eb 3f 3e 42 9c 70 bf
       0.43690675 -0.018021468 0.18742117 -0.9398843
000010 d5 bf b9 3e c3 69 09 bf 8b 97 cc bd 15 28 ee 3e
       0.3627917 -0.53677005 -0.09989842 0.46514955
000020 bb 6c d1 3e 6c e0 36 bf 46 fb 72 3f d1 7d ab be
       0.40903267 -0.7143619 0.9491466 -0.33494428
000030 c6 20 15 be c5 c8 2f 3d 7c 14 04 bf 5c 01 af be
       -0.14563283 0.042916078 -0.51593757 -0.34180725

encoder.encoder_layers.1.encode_self_attention.W_Q.bias f4 [16]
000000 8d 5c 16 bf 6f 36 59 be 80 a8 4a 3f d0 2e 5c bf
       -0.5873497 -0.21212171 0.7916336 -0.8600893
000010 62 f6 28 bf bb d2 99 3d 5c 36 ab bd e8 c0 8b bd
       -0.6600095 0.07510897 -0.083599776 -0.06823903
000020 58 f5 52 be 9e a0 4c 3f 80 28 fe 3e 8e 87 8d be
       -0.20601404 0.7993258 0.49640274 -0.27642483
000030 cb 6f 0c bf 75 fd b9 3e aa 61 5d bf 99 fb f0 be
       -0.5485808 0.36326185 -0.8647715 -0.47066954

encoder.encoder_layers.1.encode_self_attention.W_K.weight f4 [16, 1]
000000 cb 23 21 bf bf 7e f6 bd 96 1c 20 bf 24 f7 39 3f
       -0.6294524 -0.12035894 -0.6254362 0.7264273
000010 e8 99 57 3f cc a4 fe 3e 78 d7 33 bf 55 93 f1 be
       0.8421922 0.49735105 -0.70250654 -0.47182718
000020 f9 b5 b8 3e e4 36 bd be 7d 7f 0b 3e bc e5 5f 3f
       0.36076334 -0.3695594 0.13622852 0.8745992
000030 ba 29 66 3e d2 c7 b9 bd cf 30 2c bf 69 00 80 be
       0.22476855 -0.09071316 -0.67261976 -0.25000313

encoder.encoder_layers.1.encode_self_attention.W_K.bias f4 [16]
000000 f9 e4 07 3f d9 87 99 be d8 b0 0a 3e cc 3c 31 bf
       0.5308376 -0.29986456 0.13544023 -0.69233394
000010 2a 6c ad be 20 95 95 3e b8 f9 25 be b1 7e 0f 3f
       -0.33871585 0.29215336 -0.16208541 0.5605269
000020 a2 cb 30 3f eb 2b 22 3e 90 c2 6d bf dd 84 ee 3e
       0.6906072 0.15837066 -0.92875004 0.46585742
000030 94 24 41 bf 06 cf 51 bf 36 8c dc be ea e7 cc bc
       -0.7544644 -0.8195652 -0.43075722 -0.025012929

encoder.encoder_layers.1.encode_self_attention.W_V.weight f4 [16, 1]
000000 97 ce 92 be ab 32 9b be 4a 28 88 be d7 72 ef bd
       -0.2867324 -0.30312094 -0.26593238 -0.11691826
000010 5e 23 e3 3e 1c 10 6d 3f f8 d9 5b 3f 94 7f f2 3e
       0.4436292 0.92602706 0.8587947 0.4736296
000020 48 f5 9f 3d a1 e7 b6 be 2a 9d 0f bf 36 bb 12 bf
       0.078104556 -0.35723594 -0.5609919 -0.5731691
000030 cb 06 cd be ed 65 06 bf cf 62 0d be a6 b2 5b 3f
       -0.40044245 -0.52499276 -0.13807224 0.8581947

encoder.encoder_layers.1.encode_self_attention.W_V.bias f4 [16]
000000 e5 5a f0 be 04 1a c6 3e 39 b4 25 be 6a 15 72 3e
       -0.46944347 0.38691723 -0.1618203 0.23640981
000010 dc 54 ff 3d 14 45 49 3f be 66 09 3e e6 96 24 3f
       0.124673575 0.7862103 0.134181 0.6429275
000020 ef 2a 11 be 64 4e 77 bf a6 d5 6c bf 12 fc 29 bf
       -0.14176534 -0.9660399 -0.925135 -0.66400254
000030 2c c6 4d bf 3c 9e 5b bf ad b6 82 3d 4a a5 e1 be
       -0.8038051 -0.8578832 0.06382499 -0.44071418

encoder.encoder_layers.1.encode_self_attention.fc.weight f4 [1, 16]
000000 d0 75 21 3e a7 d8 a4 bd 3a a6 df 3d 42 c1 cf bd
       0.15767598 -0.08049136 0.10920377 -0.10144283
000010 91 21 1a 3d 77 e7 5b 3e 05 f9 78 be 57 e7 92 bd
       0.037629668 0.21475016 -0.24313743 -0.07173031
000020 85 eb 33 be e4 6d 45 3c de 1f 71 be 56 5b 4d be
       -0.17570312 0.012050126 -0.23547313 -0.20054373
000030 4a 58 de bd 6f 1f 1c be 8d 18 12 3c 0e 1d 02 3e
       -0.108566836 -0.15246366 0.008916986 0.12706396

encoder.encoder_layers.1.feed_forward.conv.0.weight f4 [1, 1, 3]
000000 37 d9 07 3f 82 2e c4 bd 6f ea 88 3e
       0.5306582 -0.09579183 0.2674136

encoder.encoder_layers.1.feed_forward.conv.2.weight f4 [1, 1, 3]
000000 d6 51 dc 3e 9d 97 f0 3e 2b a7 80 3e
       0.43031186 0.46990672 0.2512754

encoder.encoder_layers.2.encode_self_attention.W_Q.weight f4 [16, 1]
000000 16 62 50 bf 1c f7 1c bf 8d e6 24 3f c0 77 74 bf
       -0.8139967 -0.6131456 0.6441429 -0.95495224
000010 7a 44 47 3e 21 13 fc 3d 0c 0f f2 be c7 56 75 3d
       0.19459715 0.12308336 -0.47277105 0.05989721
000020 51 ba be bc 32 4b d9 be ff f9 02 3f 45 7b e5 be
       -0.023282202 -0.42440182 0.51162714 -0.4482061
000030 4a 75 90 be df e6 2a bf be 50 d8 3e dd a1 54 3e
       -0.28214484 -0.6675853 0.422491 0.20764871

encoder.encoder_layers.2.encode_self_attention.W_Q.bias f4 [16]
000000 3f 20 9b bc 46 9c fa b8 64 cc 32 bf 51 d2 2e 3e
       -0.018936275 -0.00011950037 -0.69843125 0.17072417
000010 1a 2b 5c bf 75 91 e9 be 08 cb 73 bd 75 85 b0 be
       -0.8600327 -0.45618787 -0.059519798 -0.3447682
000020 a2 a9 af be 0c 53 3a bf 5d 98 16 bf 8c 54 62 3f
       -0.34309107 -0.7278297 -0.5882624 0.8841026
000030 16 11 56 bf 75 2d 12 bf 60 fe 58 3f d4 7f 3e 3f
       -0.8361982 -0.5710061 0.84763145 0.744138

encoder.encoder_layers.2.encode_self_attention.W_K.weight f4 [16, 1]
000000 2c 26 5b bf 48 ca 1a 3b 2d bc 10 3f 16 92 2d bf
       -0.8560512 0.0023619104 0.56537133 -0.67801034
000010 4c 94 05 3a f4 91 67 3f d3 ed 2a bf 76 a5 33 be
       0.00050956453 0.9045708 -0.6676914 -0.17543587
000020 16 1c 57 bf 7f 04 0b 3f 0f 19 cb 3e 88 7b 2a bf
       -0.8402723 0.54303735 0.39667556 -0.66594744
000030 a1 b4 b6 3e 51 53 26 bf 2d a6 ba be 10 2a 5d 3e
       0.35684684 -0.6497088 -0.36454907 0.21598077

encoder.encoder_layers.2.encode_self_attention.W_K.bias f4 [16]
000000 36 c6 46 3f 26 a6 22 3f e0 66 e8 ba 09 14 e6 be
       0.77646196 0.6353477 -0.0017730854 -0.4493716
000010 5d f8 8d 3e 10 82 82 3d f0 52 01 3f 62 84 53 bf
       0.2772855 0.06372464 0.5051718 -0.82623875
000020 ce ff 12 bf 95 45 40 3e 38 7f 12 bf 01 5b e7 3e
       -0.57421577 0.18776543 -0.5722537 0.45186618
000030 df 75 8a bc da c2 5c bf fc ee 91 be da 4d 62 bf
       -0.016901908 -0.8623482 -0.28502643 -0.8840004

encoder.encoder_layers.2.encode_self_attention.W_V.weight f4 [16, 1]
000000 48 75 1e 3f d5 cb 36 3e 3f 7d 43 bd 23 29 ac bd
       0.61897707 0.17851193 -0.047726866 -0.08406284
000010 b8 c5 39 3f a7 02 08 bf 0e 04 0d 3f 40 6a 69 bf
       0.7256732 -0.5312905 0.5508431 -0.9117775
000020 7d 49 ba be d8 6b c7 be 8b 1f 18 3f f3 94 98 3e
       -0.36384192 -0.38949466 0.5942313 0.2980114
000030 e1 06 00 bd 44 d6 e5 bd b6 5b 5f 3e 07 11 ad 3e
       -0.03125656 -0.112225085 0.21812329 0.33802053

encoder.encoder_layers.2.encode_self_attention.W_V.bias f4 [16]
000000 89 9b 03 3e 1b 19 20 be 6c 1b a6 bc 8d af e7 3e
       0.128523 -0.15634577 -0.020276748 0.45251122
000010 c0 90 55 bf c0 aa 79 bf e6 04 7a 3f 9f 51 0f 3f
       -0.83423996 -0.9752617 0.97663724 0.5598392
000020 a4 ff 3c bf f6 99 dc 3e 03 13 0c 3f 57 ab 16 3f
       -0.73827577 0.43086213 0.5471651 0.58855194
000030 69 d0 1a 3f 76 9f 49 3f 4c 60 42 bf 03 2a 21 bf
       0.6047426 0.78758943 -0.7592819 -0.6295473

encoder.encoder_layers.2.encode_self_attention.fc.weight f4 [1, 16]
000000 f8 ab 1a 3e 7b e0 ce bd 36 3e 12 3e a9 9d 67 be
       0.15104663 -0.1010141 0.14281544 -0.22618736
000010 cb 85 d5 3d 52 32 81 3d 5f 9a 96 ba fc 23 a8 3c
       0.104259096 0.06308426 -0.0011490098 0.020524971
000020 4e bb d4 3d 9f 43 ee bc 5c 35 85 3d fd c1 7f bd
       0.10387288 -0.029084979 0.06504318 -0.06244086
000030 6a db 4d be 1a af 6e 3e a5 9c 8c 3d dd a9 65 3e
       -0.20103231 0.23308983 0.06865815 0.22428079

encoder.encoder_layers.2.feed_forward.conv.0.weight f4 [1, 1, 3]
000000 f5 6f 79 be 8a a1 35 be eb 16 1d 3e
       -0.24359114 -0.17737404 0.15340774

encoder.encoder_layers.2.feed_forward.conv.2.weight f4 [1, 1, 3]
000000 8b 54 82 3d 71 45 98 be 33 0c 0d bf
       0.063637815 -0.2974048 -0.5509674

decoder.pos_embedding.positional_encoding f4 [97, 1]
000000 00 00 00 00 a4 6a 57 3f b7 c7 68 3f c3 81 10 3e
       0.0 0.84147096 0.9092974 0.14112
000010 cf bd 41 bf 10 7c 75 bf 8c 0f 8f be 46 30 28 3f
       -0.7568025 -0.9589243 -0.2794155 0.6569866
000020 95 46 7d 3f 32 01 d3 3e f8 44 0b bf 5c ff 7f bf
       0.98935825 0.4121185 -0.5440211 -0.9999902
000030 d8 5c 09 bf 22 20 d7 3e 72 98 7d 3f 44 79 26 3f
       -0.53657293 0.42016703 0.9906074 0.65028787
000040 10 68 93 be 25 1e 76 bf b3 40 40 bf 69 79 19 3e
       -0.2879033 -0.96139747 -0.75098723 0.1498772
000050 c8 b6 69 3f 10 2f 56 3f 15 05 11 bc e6 a1 58 bf
       0.9129453 0.8366556 -0.008851309 -0.8462204
000060 fc d3 67 bf 38 87 07 be 08 37 43 3f 0e d5 74 3f
       -0.9055784 -0.13235176 0.76255846 0.95637596
000070 2a b4 8a 3e e9 e3 29 bf a4 ef 7c bf 06 de ce be
       0.2709058 -0.6636339 -0.9880316 -0.40403765
000080 4d 2a 0d 3f 39 fa 7f 3f f7 71 07 3f c2 3a db be
       0.5514267 0.99991184 0.5290827 -0.42818266
000090 38 e5 7d bf ea be 24 bf 9f bd 97 3e 4b bb 76 3f
       -0.99177885 -0.6435381 0.29636857 0.96379536
0000a0 bc bf 3e 3f fb 6d 22 be 28 a1 6a bf 30 ef 54 bf
       0.74511313 -0.15862267 -0.91652155 -0.8317747
0000b0 a1 03 91 3c d0 d4 59 3f 9a db 66 3f e8 13 fd 3d
       0.017701926 0.8509035 0.90178835 0.123573124
0000c0 56 ac 44 bf 22 29 74 bf ff 55 86 be 24 94 2b 3f
       -0.76825464 -0.95375264 -0.26237485 0.6702292
0000d0 a0 93 7c 3f b4 b6 ca 3e cd 0c 0f bf f4 ef 7f bf
       0.9866276 0.39592516 -0.5587891 -0.99975514
0000e0 5e 84 05 bf fd 50 df 3e e7 2c 7e 3f 43 01 23 3f
       -0.521551 0.43616477 0.99287266 0.636738
0000f0 23 10 9c be 7f 53 77 bf f2 3a 3d bf 4b 5f 2b 3e
       -0.3048106 -0.9661178 -0.7391807 0.1673557
000100 d4 86 6b 3f 0b ab 53 3f ce 81 d9 bc 5b 03 5b bf
       0.92002606 0.82682866 -0.026551154 -0.85551995
000110 97 de 65 bf 4d 14 eb bd b3 1d 46 3f 51 78 73 3f
       -0.8979277 -0.114784814 0.7738907 0.95105463
000120 23 f5 81 3e ed 40 2d bf 8c 32 7c bf 51 8b c6 be
       0.25382337 -0.67677194 -0.9851463 -0.38778165
000130 6e ec 10 3f 8e e0 7f 3f 18 94 03 3f bc 62 e3 be
       0.56610763 0.9995202 0.5139785 -0.44411266
000140 7d 6f 7e bf 57 40 21 bf 86 5f a0 3e bc e6 77 3f
       -0.9938887 -0.629888 0.3132288 0.9683645
000150 5c b2 3b 3f 2b 4d 34 be c6 67 6c bf a7 62 52 bf
       0.7331903 -0.17607562 -0.92345846 -0.8218178
000160 d0 fd 10 3d 82 2d 5c 3f f7 dc 64 3f fb 0f d9 3d
       0.035398304 0.8600694 0.89399666 0.10598751
000170 17 8b 47 bf 9e c2 72 bf 56 23 7b be 3d ea 2e 3f
       -0.7794661 -0.9482821 -0.24525198 0.6832617
000180 68 cc 7b 3f
       0.98358774

decoder.decoder_layers.0.decoder_self_attention.W_Q.weight f4 [16, 1]
000000 7a b5 dc 3e 46 51 0b bf 30 74 f4 be 0c 7d 2b bf
       0.43107206 -0.5442089 -0.47744894 -0.6698768
000010 28 89 48 bf 8e df a7 3e 2e b6 3f 3e a6 5a 05 be
       -0.78334284 0.32787746 0.1872184 -0.13022861
000020 aa 3c 78 bf 00 42 02 bf 87 82 1c 3f 04 d5 38 3f
       -0.96967566 -0.5088196 0.6113667 0.72200036
000030 3b df 14 bf 47 a3 92 be f0 a7 6a bf 0f 3c ce 3c
       -0.5815312 -0.28640196 -0.916625 0.025175123

decoder.decoder_layers.0.decoder_self_attention.W_Q.bias f4 [16]
000000 40 1c 3f bf 50 7c 71 bf ee a7 2f 3f b4 c0 66 bf
       -0.7465248 -0.9433031 0.68615615 -0.9013779
000010 aa 02 6b 3f 98 5f 0c b9 b8 b7 2b bf 48 41 4c 3f
       0.9180094 -0.00013387052 -0.6707721 0.7978711
000020 89 8e bb 3e 96 fc d9 be b8 86 35 bf be f1 3a 3f
       0.36632183 -0.4257552 -0.7090869 0.7302512
000030 cf 7d 25 3f 52 01 74 3f 8c 7d 3a 3f 99 69 25 3f
       0.64645094 0.95314515 0.7284782 0.64614254

decoder.decoder_layers.0.decoder_self_attention.W_K.weight f4 [16, 1]
000000 10 ff 79 bf 80 00 23 3f be d9 44 3f 90 39 69 3f
       -0.9765482 0.6367264 0.7689475 0.9110346
000010 6c 05 f9 be 87 81 8f 3e ae 25 49 3f ce 90 05 3f
       -0.4863695 0.2802851 0.7857312 0.5217408
000020 cb e9 52 bc 93 68 cd be f4 9a 7c 3f 94 62 08 3f
       -0.012873123 -0.40118846 0.9867394 0.5327542
000030 be 16 44 3f 50 b2 7c 3f d1 44 0f 3f 7c db 57 3f
       0.765972 0.98709583 0.5596438 0.8431928

decoder.decoder_layers.0.decoder_self_attention.W_K.bias f4 [16]
000000 3e 4b 4c bf e8 16 2f bf bd 76 00 bf 71 8f 06 3f
       -0.7980231 -0.6839433 -0.5018118 0.52562624
000010 c7 af 0a 3f 07 1a 4f 3e 7b 5d 2c bf 3d eb 99 be
       0.54174465 0.20224772 -0.6733014 -0.30062285
000020 fc d8 31 3f 1a 8a 7f be ef 8c d2 3e 1c 07 4e bf
       0.69471717 -0.24955025 0.4112315 -0.804796
000030 98 73 f8 3e 5c 29 9d bd ce d2 63 3f ab 4c 16 bf
       0.4852569 -0.07673904 0.8899354 -0.58710736

decoder.decoder_layers.0.decoder_self_attention.W_V.weight f4 [16, 1]
000000 4e 72 5f be 14 05 27 3f 86 b4 5c 3f 4a 0a 0a 3f
       -0.21820948 0.65242124 0.86212957 0.5392195
000010 52 40 e0 bb e8 d7 3c bf 9d 0f 3d be 55 62 88 bc
       -0.006843605 -0.73766947 -0.18462987 -0.01664845
000020 69 2b 94 be 4a 91 31 bf ff ed d2 3e ad 55 36 be
       -0.2893937 -0.6936232 0.41197202 -0.1780612
000030 ec 39 5a 3f b8 e3 72 3f 25 42 fb 3d a4 51 5d bf
       0.8524463 0.9487872 0.122684754 -0.864527

decoder.decoder_layers.0.decoder_self_attention.W_V.bias f4 [16]
000000 04 50 27 3f 44 f4 f4 3e 56 59 d9 be 54 e8 0f 3e
       0.6535647 0.4784261 -0.4245097 0.1405347
000010 cb 2a fa bd 7b 30 fa bd 96 f3 7a bf 5c d4 2f 3f
       -0.12215193 -0.12216278 -0.9802793 0.6868341
000020 78 82 5a bf e3 f6 0a bf 23 1e d5 be 7d 49 a0 be
       -0.8535533 -0.5428297 -0.41624555 -0.31306067
000030 10 7e a0 be e6 18 4e bf 2a ef cc 3d 3e 4e 7d 3f
       -0.31346178 -0.8050674 0.100065544 0.98947513

decoder.decoder_layers.0.decoder_self_attention.fc.weight f4 [1, 16]
000000 8c af 5d be 80 9a 45 3e 88 e8 27 3e bd 9d 9f bd
       -0.21648997 0.19297218 0.16397297 -0.07793758
000010 f3 7b ac bb 68 35 8d 3c dd d7 dd 3c f5 f0 1d 3e
       -0.0052637993 0.01723738 0.02708047 0.15423949
000020 ef c5 68 3e 4d 1e 27 3e b8 1e 20 3d c0 ab 3d 3e
       0.22731756 0.16320153 0.039091796 0.18522549
000030 14 70 c2 bd 21 6d ad 3d 6f 7d ce bd 98 0d 91 3d
       -0.094940335 0.0846808 -0.10082518 0.07082671

decoder.decoder_layers.0.decoder_encoder_attention.W_Q.weight f4 [16, 1]
000000 3b a8 0a 3f 23 82 cd 3c ad 40 25 3f f6 f9 e2 3e
       0.5416295 0.025086468 0.6455181 0.4433133
000010 37 40 ea bd bf 5c 9b 3e a9 78 b3 be f3 2c 2c bf
       -0.11438029 0.30344197 -0.35052994 -0.6725609
000020 28 49 27 bf a9 c5 82 be 6f 8f 04 bf 15 67 54 be
       -0.65346 -0.25541428 -0.5178136 -0.20742448
000030 ac 7b fb be 08 33 f3 3e 38 d8 f9 3e 5e 6c 3b bf
       -0.49117792 0.4749987 0.48797774 -0.7321223

decoder.decoder_layers.0.decoder_encoder_attention.W_Q.bias f4 [16]
000000 02 64 07 3f 64 78 8c 3e e8 e9 fc be 42 31 de be
       0.52886975 0.274356 -0.49397206 -0.43396956
000010 ee 8e 6f 3f 11 de b3 be f1 00 a3 3e 58 27 55 bf
       0.9357747 -0.3513036 0.31836656 -0.8326316
000020 da 4c 3a 3f 55 00 a3 3e 29 0b 8c bc b8 42 50 3f
       0.72773516 0.3183619 -0.017095165 0.81351805
000030 1b 9f c9 3e c1 6d fd bd ca 66 75 bf 22 f7 12 bf
       0.393792 -0.123744495 -0.9585997 -0.57408345

decoder.decoder_layers.0.decoder_encoder_attention.W_K.weight f4 [16, 1]
000000 29 e9 ee be 4e 93 68 3f 6b 65 cb 3e a9 05 86 be
       -0.46662262 0.9084977 0.39725813 -0.26176193
000010 44 cf 41 3f e7 21 a4 3e 43 db 1a bf 4c 39 53 bd
       0.7570689 0.32057115 -0.60490817 -0.051568314
000020 3c 57 fb 3e b4 69 70 bf 7f 49 d0 3e a8 2a 46 bf
       0.49089992 -0.9391129 0.40681073 -0.7740884
000030 36 87 4a bd e9 e6 58 3d 71 fe f0 bd 90 6a 6a bf
       -0.049445353 0.052954588 -0.11767281 -0.9156885

decoder.decoder_layers.0.decoder_encoder_attention.W_K.bias f4 [16]
000000 96 a6 33 3f 76 dc da be f8 f4 51 bf 10 27 31 3f
       0.70176065 -0.42746323 -0.8201442 0.6920023
000010 b0 2f 56 bf d5 f7 8b 3d 36 95 78 3f 6d 0f 18 3f
       -0.83666515 0.068343796 0.9710268 0.5939854
000020 8e b6 28 3f 39 20 94 3e 16 5f 5f bf 57 93 8a 3e
       0.65903556 0.28930834 -0.87254465 0.27065536
000030 b3 dd 13 bf d0 ef 68 3f be 90 48 bf 80 cb 5d be
       -0.5776016 0.90990925 -0.7834586 -0.2165966

decoder.decoder_layers.0.decoder_encoder_attention.W_V.weight f4 [16, 1]
000000 3c 45 c0 be 4b ff 46 be 9f b2 d3 3e 84 a9 3c 3f
       -0.37552822 -0.19433324 0.41347215 0.7369616
000010 a6 ae 2a bd 48 5b ac be 64 a6 48 bf 42 b5 be bd
       -0.041670464 -0.33663392 -0.7837889 -0.09311916
000020 9a 2f 3c 3f 17 2d 03 bf 3e 8c df 3d 97 e2 1a 3f
       0.73510134 -0.51240677 0.10915421 0.60502
000030 02 31 5a bf ae 5c 42 3f f8 66 b1 3e 62 8e 55 3f
       -0.8523103 0.7592267 0.3464887 0.83420384

decoder.decoder_layers.0.decoder_encoder_attention.W_V.bias f4 [16]
000000 8d dd b4 3e 46 2f 63 bf 9a f9 57 3f 2d 91 8e 3e
       0.3532528 -0.8874401 0.84365237 0.27845135
000010 b5 9a 99 be 51 d5 b8 3e 49 f9 b5 be 74 f6 0f be
       -0.30000845 0.36100248 -0.35541752 -0.14058858
000020 7c d8 7b bf 65 b4 1d be fe 14 85 be ba 16 7a 3f
       -0.98377204 -0.15400846 -0.25992578 0.9769093
000030 bb d8 11 bf 5f 25 b5 3d 63 8b a6 3e bc 7b 24 3e
       -0.5697133 0.088450186 0.3252822 0.16062826

decoder.decoder_layers.0.decoder_encoder_attention.fc.weight f4 [1, 16]
000000 1c e4 4b 3e f8 fe 4d be c7 0b fd bd 44 a7 57 3e
       0.19911236 -0.20116794 -0.12355762 0.210599
000010 de 69 22 bd fe 7d 29 be b4 9f d2 3d 51 1b 95 bd
       -0.039651744 -0.16551968 0.10284367 -0.07280601
000020 48 bd 34 3d c0 0b dd bc 62 ea 5e be 92 02 ed 3d
       0.044125825 -0.026983142 -0.21769097 0.11572756
000030 7d 53 34 be 2e c6 8c 3d db ab 6a 3e cb 26 23 3d
       -0.17609973 0.06873737 0.2291712 0.039831918

decoder.decoder_layers.0.feed_forward.conv.0.weight f4 [1, 1, 3]
000000 05 35 00 3d cc 60 e2 be 01 ab 4a 3e
       0.031300563 -0.44214475 0.19791795

decoder.decoder_layers.0.feed_forward.conv.2.weight f4 [1, 1, 3]
000000 a8 a9 bd bd a2 8f 4d be 56 d8 e0 3e
       -0.09260875 -0.20074323 0.4391505

decoder.decoder_layers.1.decoder_self_attention.W_Q.weight f4 [16, 1]
000000 21 b1 19 bf 88 fa fc be b7 3b 96 be ec b9 24 bf
       -0.600359 -0.4940989 -0.29342434 -0.64346194
000010 4e 95 42 bf 6d 96 21 be b8 35 34 3f 3f cc 04 bf
       -0.7600907 -0.15780039 0.7039447 -0.51874155
000020 d3 aa 46 3d 12 42 21 3f 0c 65 5d bf c1 3f 09 3f
       0.048502754 0.6299144 -0.8648231 0.53612906
000030 e8 e2 f5 bc a6 e2 da be 95 02 e8 be d8 37 3d bf
       -0.030015424 -0.42751044 -0.4531447 -0.73913336

decoder.decoder_layers.1.decoder_self_attention.W_Q.bias f4 [16]
000000 9d 58 9b bc d3 97 ca be 14 02 f6 be 89 c1 25 3e
       -0.018963153 -0.39568958 -0.4804846 0.16187109
000010 dc 7f 71 3c 52 54 7b 3f 43 05 66 be 20 75 3c 3f
       0.014739957 0.9817554 -0.22462945 0.7361622
000020 82 cc 34 be 9c 17 4c bf 15 12 8e be 1f c1 14 3f
       -0.17656139 -0.79723525 -0.2774817 0.5810718
000030 3d 62 ef 3e 75 95 4c 3e 7c 80 3d 3f 01 69 25 bf
       0.46754637 0.19978888 0.74024177 -0.6461335

decoder.decoder_layers.1.decoder_self_attention.W_K.weight f4 [16, 1]
000000 4e 28 4c 3e c6 c8 12 bf 2d 3c 1e bf 2e 85 14 3f
       0.1993725 -0.57337606 -0.6181057 0.58015716
000010 a7 d9 a0 3a a0 c6 71 bf 02 14 65 3f d2 27 38 be
       0.0012271897 -0.944437 0.89483654 -0.1798394
000020 33 b0 17 3f f8 f6 1c 3f fa 0c 5c 3f b9 2b 80 3e
       0.59253234 0.61314344 0.859573 0.25033358
000030 66 57 d9 be 72 d5 90 be 19 c0 db 3d df ef 23 bf
       -0.42449492 -0.28287846 0.10729999 -0.6403789

decoder.decoder_layers.1.decoder_self_attention.W_K.bias f4 [16]
000000 de 77 28 3f 1b b6 92 3e 16 a6 b4 3d 1d d1 29 be
       0.658079 0.2865456 0.08820741 -0.16583677
000010 3e 13 16 bf aa ad e2 be fc 8e 68 3f 31 20 84 bd
       -0.5862311 -0.4427312 0.90843177 -0.064514525
000020 48 25 74 bf e0 30 fc be e4 b0 19 be 16 3f 57 bd
       -0.95369387 -0.4925604 -0.15008885 -0.052550398
000030 a9 f7 e9 be df 03 1c 3c de 92 05 3f b1 c2 85 3e
       -0.45696762 0.009522407 0.52177227 0.261251

decoder.decoder_layers.1.decoder_self_attention.W_V.weight f4 [16, 1]
000000 ce 56 e1 be de 4c 3f bf 54 c8 36 3f 34 05 7b bf
       -0.4401154 -0.74726665 0.71399426 -0.98054814
000010 e6 a4 65 bf 3d f0 e8 3e 7b 56 ce be 6c e1 2f bf
       -0.8970474 0.45495787 -0.40300354 -0.6870334
000020 cf 26 19 3f f8 37 4e 3e 18 46 5e 3f 76 cf db 3e
       0.5982484 0.20138538 0.86825705 0.42931718
000030 06 d7 87 3e bd 80 89 bd 80 9f 38 3f 48 49 44 3f
       0.26531237 -0.06714008 0.7211838 0.7667432

decoder.decoder_layers.1.decoder_self_attention.W_V.bias f4 [16]
000000 56 a8 48 3d 1c 5b 2f bf c0 db 3e 3f 6f c0 9e 3e
       0.048988663 -0.68498397 0.7455406 0.3100619
000010 bb 3c 18 3f 00 8c 6a 3f 10 99 0f 3f bc ce 6b 3f
       0.5946767 0.91619873 0.5609293 0.92112327
000020 13 a0 cf 3e 5a 76 ad be c6 ed 46 bf ea 6d 3a 3f
       0.40551814 -0.33879358 -0.77706563 0.72823966
000030 a6 a3 46 3f 9c 33 61 bf b3 ab a9 af 63 68 16 3f
       0.7759346 -0.87969375 -3.086292e-10 0.5875303

decoder.decoder_layers.1.decoder_self_attention.fc.weight f4 [1, 16]
000000 32 af a4 bd 3e ae 82 bd be 1c df 3d 47 00 5a 3e
       -0.08041228 -0.0638089 0.10894154 0.21289168
000010 1d 3d fd 3c c3 11 06 3c c2 6f 52 be 48 36 d0 3d
       0.03091293 0.008182946 -0.20550445 0.10166603
000020 6d 33 4a 3e 27 44 7c be 63 22 0a be cf 5c 6c 3e
       0.1974618 -0.24635373 -0.1348968 0.23082279
000030 02 bb 3f be 2c fb c2 3c 42 d7 50 3e 28 e3 98 bd
       -0.18723682 0.023801409 0.20394614 -0.074652016

decoder.decoder_layers.1.decoder_encoder_attention.W_Q.weight f4 [16, 1]
000000 58 7e a3 3e 3c 7d 7b 3e 15 6a 37 bd d5 75 19 3e
       0.3193233 0.24559492 -0.044778902 0.14986356
000010 38 60 01 3f fd 6f 5a 3e 33 da 8f be 38 5a 23 bf
       0.50537443 0.21331783 -0.2809616 -0.6380954
000020 aa a5 24 bf 72 ac 77 bf 45 68 ea be 1d 3c e8 be
       -0.64315283 -0.96747506 -0.45782676 -0.45358363
000030 31 65 c4 bd d8 c8 c1 bd b0 0d a9 3e 0e 8a 5d 3f
       -0.09589613 -0.09462136 0.33018255 0.8653878

decoder.decoder_layers.1.decoder_encoder_attention.W_Q.bias f4 [16]
000000 dd 2c 1b bf c2 f1 2e 3f 6a 73 6a 3f 84 1f 7c 3f
       -0.6061533 0.68337643 0.9158236 0.9848559
000010 08 60 35 bf aa 25 01 bf ae 3d 17 be 5a 55 9d 3d
       -0.7084966 -0.50448096 -0.14769623 0.07682295
000020 8a 11 6c 3f ea 3a 41 3f b9 48 0c 3f e5 c6 15 3e
       0.9221426 0.7548052 0.54798466 0.14626653
000030 36 e1 98 3e 7d 59 e4 be 22 8b 59 bf 9d 99 42 3d
       0.29859322 -0.44599524 -0.84977925 0.04750978

decoder.decoder_layers.1.decoder_encoder_attention.W_K.weight f4 [16, 1]
000000 9a 08 a2 3e 44 aa 31 3f dc 2e 72 bf 85 bb 90 bd
       0.31647187 0.6940043 -0.9460275 -0.070670165
000010 7d 78 06 3f 1c 0b 60 be 86 84 62 bd d4 e4 0f 3e
       0.525276 -0.21879238 -0.055302165 0.14052135
000020 6d 66 b0 3e bb 6a 10 3f f1 2f 40 bd 9d 94 ea 3e
       0.34453145 0.5641286 -0.04692072 0.45816508
000030 f7 9a 20 3f 43 6a a0 3d b2 6f 4d be 48 39 83 be
       0.6273646 0.07832768 -0.2006214 -0.2562964

decoder.decoder_layers.1.decoder_encoder_attention.W_K.bias f4 [16]
000000 b0 64 9a 3e 94 3e a5 3d 92 03 d7 3e 08 ed 30 bf
       0.30154943 0.080685765 0.4199491 -0.6911168
000010 7a 2f 82 be ca ac d9 3e f4 02 a6 3e 28 98 3c 3f
       -0.25426847 0.4251464 0.32424128 0.7366967
000020 90 32 5d be 09 85 20 bf 22 85 61 bf 1b 16 8d be
       -0.2160132 -0.62702996 -0.8809377 -0.27555928
000030 51 bd 19 3f 02 cd 5c bf 90 47 6d 3f 3b 0e 8a 3e
       0.600545 -0.8625032 0.9268732 0.26963982

decoder.decoder_layers.1.decoder_encoder_attention.W_V.weight f4 [16, 1]
000000 d5 f4 11 bc 10 52 4a bf d2 6f 5d 3f 99 ba 77 be
       -0.00890847 -0.7903147 0.8649875 -0.24192275
000010 40 e5 5f 3f 08 57 c5 3e 5e 18 4e bf 85 07 24 3e
       0.8745918 0.38542962 -0.8050593 0.16018493
000020 00 8a 31 3f 78 26 14 bf 22 7e a0 bd ec f9 2d be
       0.69351196 -0.578712 -0.07836558 -0.16989869
000030 20 61 c1 3e e4 ad 4e 3f 98 a0 3e bf 28 7c 21 bf
       0.37769413 0.80734086 -0.74463797 -0.6308007

decoder.decoder_layers.1.decoder_encoder_attention.W_V.bias f4 [16]
000000 ed 09 ec be f0 6c 66 bf 3e 33 92 bd e2 f9 37 bf
       -0.46101323 -0.90009975 -0.0713868 -0.71865666
000010 af c8 c9 be 78 4d 7e bf a2 d7 3b bf 24 84 60 bc
       -0.39410922 -0.9933696 -0.73375905 -0.01370338
000020 b4 af 6b bf 5d db bb 3d d6 d4 db be 74 55 7d bf
       -0.92064977 0.091726996 -0.42935818 -0.98958516
000030 60 7a f1 3e 76 4a db be 0c 26 65 3f c3 6d c9 be
       0.47163677 -0.42830247 0.8951118 -0.39341554

decoder.decoder_layers.1.decoder_encoder_attention.fc.weight f4 [1, 16]
000000 1f 5c 6f 3d 3a 82 ec 3d 6f 69 af 3d 5a 62 0f be
       0.058437463 0.11548276 0.08565032 -0.14002362
000010 3f 63 77 3e 3a 0c 46 be 79 69 e6 3d e3 dd bc bc
       0.24158953 -0.19340602 0.11250586 -0.023055023
000020 df a0 5b be 67 79 8f bd 1f 9e 6a 3e ca 1b 15 be
       -0.21448086 -0.070055775 0.22911881 -0.14561382
000030 38 a9 3f be 58 bd 34 3d 06 84 33 3d 64 81 23 be
       -0.18716896 0.044125885 0.04382708 -0.15967327

decoder.decoder_layers.1.feed_forward.conv.0.weight f4 [1, 1, 3]
000000 9b 25 93 3e 21 38 e4 3e 41 2b c8 be
       0.28739628 0.44574073 -0.390955

decoder.decoder_layers.1.feed_forward.conv.2.weight f4 [1, 1, 3]
000000 b1 0b ff be 13 64 16 be be a5 3f 3e
       -0.49813607 -0.14686613 0.1871557

decoder.decoder_layers.2.decoder_self_attention.W_Q.weight f4 [16, 1]
000000 cd 38 f7 3d 78 13 56 bf 3c 52 c1 bc 98 1b 6e bf
       0.12071381 -0.83623457 -0.023598783 -0.93010855
000010 d8 6b 67 3f 79 e6 56 be c2 1e 8e bc 6d cd ac 3d
       0.9039893 -0.20986356 -0.01734865 0.08437619
000020 e9 0d 6d 3e 61 5d c4 3d 40 f9 1b 3f 40 ba 8c 3e
       0.23149838 0.09588123 0.609272 0.27485847
000030 5e 45 5f bf 01 40 8c be 66 79 61 3f 8f d6 5d be
       -0.8721522 -0.2739258 0.88075864 -0.21663879

decoder.decoder_layers.2.decoder_self_attention.W_Q.bias f4 [16]
000000 1c 41 ac be d9 d1 17 bf c0 7b 60 3f 0e f6 db 3e
       -0.33643425 -0.5930458 0.8768883 0.42961162
000010 b0 33 05 3f af 3c 25 bf 9c 2b c7 3e 8e ad 2f bf
       0.52031994 -0.6454572 0.3890046 -0.686242
000020 70 96 62 bf f5 1e 89 be 8d 0d 7f 3e 14 06 9e be
       -0.885108 -0.2678143 0.24907513 -0.30864012
000030 ca a8 76 bf 03 2a 8a be fd d5 ba 3e 6f f6 10 3f
       -0.963513 -0.26985177 0.36491385 0.5662603

decoder.decoder_layers.2.decoder_self_attention.W_K.weight f4 [16, 1]
000000 c4 46 f7 3e 75 b4 b0 be 13 a6 60 be 97 20 a9 3d
       0.48296177 -0.34512678 -0.21938352 0.08258169
000010 14 1d fc be b2 93 7a bf 50 5a 40 3f a5 36 25 bf
       -0.49240935 -0.97881615 0.75137806 -0.64536506
000020 48 31 63 be 09 8a ab 3e da 27 70 3f 42 d3 02 3f
       -0.22186768 0.3350375 0.9381081 0.51103604
000030 a4 d7 5b bf 3a 6d 35 3f cc f4 5d 3f f9 93 f9 bc
       -0.85875916 0.7086979 0.86701655 -0.030466067

decoder.decoder_layers.2.decoder_self_attention.W_K.bias f4 [16]
000000 78 9e 14 3f 2a 42 7f 3f da 8a 1a 3f 86 28 08 3f
       0.58054304 0.99710333 0.6036812 0.53186834
000010 97 4c cf bc d4 d9 34 3f 40 dd 78 bf ac d4 6a be
       -0.025305076 0.7064488 -0.972126 -0.2293269
000020 eb 04 86 bc 5d 02 e2 bd 18 ff 33 3f c1 a5 b4 3e
       -0.016359767 -0.11035607 0.7031112 0.3528271
000030 b6 55 04 3f 51 9d a2 3e 78 0a 1a bf 67 b9 92 3e
       0.51693285 0.31760648 -0.60172224 0.28657076

decoder.decoder_layers.2.decoder_self_attention.W_V.weight f4 [16, 1]
000000 2a dc 00 af 5a fb 5c 3d 16 38 26 bf 98 62 f8 be
       -1.171975e-10 0.053950645 -0.6492933 -0.4851272
000010 98 2f 73 bf bf 75 79 be f8 94 35 3e fc f9 f2 be
       -0.949945 -0.24361323 0.17732608 -0.47456348
000020 14 3b 56 bf 2c 07 92 be d3 80 ec 3c ac 16 7b 3f
       -0.83683896 -0.28521097 0.028870022 0.9808147
000030 40 ee 56 bf 5d 83 1c 3f 84 a8 40 3f 36 f1 db be
       -0.8395729 0.61137944 0.75257134 -0.42957467

decoder.decoder_layers.2.decoder_self_attention.W_V.bias f4 [16]
000000 52 e4 d6 be 94 76 05 bf a4 23 7f bf 00 c3 3b 3e
       -0.4197107 -0.5213406 -0.9966376 0.18336105
000010 a9 2d 1e 3f 76 49 ea bd 4a bd 3d 3f f7 1a 18 3f
       0.6178842 -0.11439793 0.7411696 0.59416145
000020 36 2e 72 bf f4 5e 92 3e c4 b0 65 3f 84 80 c0 be
       -0.9460176 0.28588068 0.8972285 -0.3759805
000030 ce 91 82 bd 4b 02 25 3e 50 63 1b 3f 25 87 d3 bd
       -0.06375466 0.16114156 0.60698414 -0.10328511

decoder.decoder_layers.2.decoder_self_attention.fc.weight f4 [1, 16]
000000 2d 76 67 3e 86 35 09 3e d8 37 75 bd cb 1d 4e 3e
       0.22603674 0.13399324 -0.05986771 0.20128553
000010 5d c4 f5 3d d8 11 a7 ba 01 5d 50 3d 7d 5e d2 3d
       0.12000344 -0.0012746407 0.050869945 0.102719285
000020 53 11 23 3e 96 74 d8 bd dc 6f 28 3e 18 bd 3a be
       0.15924577 -0.10569112 0.16448921 -0.18236196
000030 29 8c bb 3d 8a dd 38 be 63 2b 2d 3d b5 07 af bc
       0.09157593 -0.1805326 0.042277705 -0.02136598

decoder.decoder_layers.2.decoder_encoder_attention.W_Q.weight f4 [16, 1]
000000 00 de 75 bf b0 d5 39 bf c8 41 f2 3e 9f 69 cd 3e
       -0.9604187 -0.72591686 0.47315812 0.40119645
000010 b0 e3 c2 be 95 8a 27 3d 8d b8 ea 3e 86 d5 37 3f
       -0.38064337 0.040903646 0.45843926 0.71810186
000020 12 df 2c bf 15 31 ef be 9d 43 a8 be 89 dd 47 3d
       -0.6752788 -0.46717134 -0.32864085 0.048795257
000030 78 64 f9 be c5 84 b7 3e 8a 99 4e 3f 2d af 2c 3f
       -0.48709464 0.35843483 0.8070303 0.674548

decoder.decoder_layers.2.decoder_encoder_attention.W_Q.bias f4 [16]
000000 ee 1b 4e bf 4b e4 1f be 1e aa 75 bf c9 c0 18 be
       -0.8051137 -0.1561443 -0.95962703 -0.14917292
000010 08 9b 9d be 12 6f 5f 3f b3 23 3e 3e 94 53 35 bf
       -0.30782342 0.87278855 0.18568306 -0.70830655
000020 59 6f ab be ef 85 22 bf 50 6f 54 3f ac 7b 67 3f
       -0.3348339 -0.63485616 0.8298235 0.90423083
000030 15 0b b4 be e7 9f ef bd de 5e 31 bf a1 dc 14 bf
       -0.35164705 -0.11700421 -0.6928538 -0.58149153

decoder.decoder_layers.2.decoder_encoder_attention.W_K.weight f4 [16, 1]
000000 99 3f 16 3f 81 73 87 3d 70 11 16 3f c4 b2 63 bf
       0.5869079 0.066138275 0.5862036 -0.8894465
000010 33 e3 04 bf 56 ea 55 3f ef 56 00 3f 16 57 b3 bd
       -0.5190918 0.83560693 0.5013265 -0.08756845
000020 34 f5 fc be 28 ab 7b 3f b4 fa 12 bf a8 55 52 bf
       -0.49405825 0.9830804 -0.5741379 -0.8216195
000030 54 d3 ae be 58 5f 64 3d c4 19 f4 3e d8 74 72 bf
       -0.34145606 0.05575499 0.47675908 -0.9470954

decoder.decoder_layers.2.decoder_encoder_attention.W_K.bias f4 [16]
000000 ae 31 de be 95 e9 36 3e bb 99 d3 3e 32 1d d7 3e
       -0.43397278 0.17862542 0.41328225 0.42014462
000010 08 f4 5a bf 70 7d 49 3f 4e 79 76 bf 64 89 c8 3e
       -0.8552861 0.7870703 -0.96278846 0.3916732
000020 8e 12 63 bf f1 af ef 3e 68 00 35 3f 30 2f 0b 3f
       -0.8870019 0.4681392 0.70703745 0.5436888
000030 7c 50 86 be fc 5b 17 3f 9e 53 5a 3f c7 19 19 3f
       -0.2623328 0.5912473 0.8528384 0.5980496

decoder.decoder_layers.2.decoder_encoder_attention.W_V.weight f4 [16, 1]
000000 4c a2 66 3f 5e 01 20 bf 6a d6 81 bd 09 3e 18 3f
       0.90091395 -0.62502086 -0.06339724 0.5946966
000010 d5 75 80 be ef 23 6b 3d f8 1d 27 bf b5 be ae 3e
       -0.250899 0.057407316 -0.65280104 0.34129873
000020 7c 34 72 3f 02 55 69 3f 97 da ac 3e d1 28 e4 be
       0.94611335 0.91145337 0.3376052 -0.4456239
000030 cc 7d c1 be e0 bd 50 3f a2 96 24 bf 8a de 28 bf
       -0.37791288 0.81539726 -0.6429235 -0.6596457

decoder.decoder_layers.2.decoder_encoder_attention.W_V.bias f4 [16]
000000 9a 67 7d bf 88 e2 6c 3f 64 f0 3e 3f 22 de 58 3f
       -0.9898621 0.9253316 0.74585557 0.8471395
000010 17 b8 8c 3d a5 b8 b7 3e 30 f1 74 bd 48 a9 09 bf
       0.0687105 0.3588306 -0.059800327 -0.5377393
000020 37 2f 17 3e d2 c1 c7 3d af 9e 0d 3f a4 ab bc 3e
       0.14764105 0.09753765 0.55320257 0.368497
000030 dc 8c d2 bd 8e f9 5a 3f ea 1e 11 3f 3c dc 4f bf
       -0.10280773 0.8553704 0.56687796 -0.81195426

decoder.decoder_layers.2.decoder_encoder_attention.fc.weight f4 [1, 16]
000000 83 53 68 3e 39 26 1d be 5c 7a 6f 3d aa 27 3b be
       0.22688107 -0.15346612 0.0584663 -0.1827685
000010 12 23 c2 bd 88 4d 6b 3e 32 94 32 3e 63 61 7c bd
       -0.094793454 0.22978795 0.17439345 -0.061616313
000020 8e af 20 3e 5a 65 4b be ca 82 05 3e c5 35 96 bc
       0.15691969 -0.19862881 0.13038173 -0.018336186
000030 0b 47 1b 3e f3 2b 4e be 5d ca 32 3e 10 2e 90 3d
       0.1516382 -0.20133953 0.17460008 0.07040036

decoder.decoder_layers.2.feed_forward.conv.0.weight f4 [1, 1, 3]
000000 41 3d c9 3e 47 eb 0b be f4 d5 e5 3d
       0.39304546 -0.1366397 0.11222449

decoder.decoder_layers.2.feed_forward.conv.2.weight f4 [1, 1, 3]
000000 d6 18 cb bd fa 9e 69 be 50 01 ee 3d
       -0.099168465 -0.22814551 0.11621344
