Transformer/model_EnDeTransformer/best_epoch_model_newnewStart_conv3.pth (torch, 82877 bytes, 118 tensors)

encoder.pos_embedding.positional_encoding f4 [95, 7]
00000000: 0000 0000 0000 803f 0000 0000 0000 803f
00000010: 0000 0000 0000 803f 0000 0000 a46a 573f
00000020: 4151 0a3f b043 933d 5a56 7f3f 5fb8 a93b
00000030: 1fff 7f3f ea6e c339 b7c7 683f 3311 d5be
00000040: 19e2 123e 4a5a 7d3f cab7 293c 7cfc 7f3f
00000050: e96e 433a c381 103e 2670 7dbf ad5f 5b3e
00000060: 700e 7a3f 3b92 7e3c 17f8 7f3f 2e93 923a
00000070: cfbd 41bf 3055 27bf 405d 913e 2b77 753f
00000080: 75b5 a93c eff1 7f3f e56e c33a 107c 75bf
00000090: 2c3c 913e 004a b43e 909a 6f3f a320 d43c
000000a0: 06ea 7f3f 9b4a f43a 8c0f 8fbe b8cd 753f
000000b0: cd47 d63e 6580 683f 5d8a fe3c 5be0 7f3f
000000c0: 2893 123b 4630 283f bdff 403f 9a29 f73e
000000d0: 1432 603f 2b79 143d eed4 7f3f 0001 2b3b
000000e0: 9546 7d3f f6fd 14be e961 0b3f 9eba 563f
000000f0: 22ac 293d bfc7 7f3f d76e 433b 3201 d33e
00000100: d53f 69bf 4976 1a3f 8f26 4c3f f0dd 3e3d
00000110: cfb8 7f3f acdc 5b3b f844 0bbf 64cd 56bf
00000120: f0bd 283f ed83 403f 6d0e 543d 1da8 7f3f
00000130: 7f4a 743b 5cff 7fbf 7205 913b f325 363f
00000140: 23e2 333f 763d 693d a995 7f3f 285c 863b
00000150: d85c 09bf d006 583f 8b9c 423f f051 263f
00000160: e66a 7e3d 7481 7f3f 1093 923b 2220 d73e
00000170: 6f4e 683f 3411 4e3f 4de5 173f 4bcb 893d
00000180: 7e6b 7f3f f5c9 9e3b 7298 7d3f d704 0c3e
00000190: c074 583f 59af 083f 3060 943d c753 7f3f
000001a0: da00 ab3b 4479 263f e87a 42bf 69b9 613f
000001b0: 7888 f13e 11f4 9e3d 4f3a 7f3f bc37 b73b
000001c0: 1068 93be 2c29 75bf e7d2 693f 1f72 d03e
000001d0: da86 a93d 161f 7f3f 9e6e c33b 251e 76bf
000001e0: 36e2 8cbe 7eb6 703f 8147 ae3e 7918 b43d
000001f0: 1d02 7f3f 7ea5 cf3b b340 40bf 840a 293f
00000200: 0c5b 763f e835 8b3e dca8 be3d 64e3 7e3f
00000210: 5bdc db3b 6979 193e bf1b 7d3f 16b9 7a3f
00000220: 98d7 4e3e ef37 c93d eac2 7e3f 3713 e83b
00000230: c8b6 693f 22f0 d03e d3ca 7d3f 3d31 063e
00000240: a0c5 d33d b0a0 7e3f 104a f43b 102f 563f
00000250: fc37 0cbf 328c 7f3f 1a64 733d de51 de3d
00000260: b77c 7e3f 7440 003c 1505 11bc 6ffd 7fbf
00000270: dffa 7f3f 50fd 4cbc 94dc e83d fe56 7e3f
00000280: de5b 063c e6a1 58bf bf67 08bf 4616 7f3f
00000290: 6bcf acbd b165 f33d 862f 7e3f 4777 0c3c
000002a0: fcd3 67bf fe2d d93e 98df 7c3f 118d 1fbe
000002b0: 23ed fd3d 4f06 7e3f b092 123c 3887 07be
000002c0: 78bf 7d3f c459 793f f6de 67be 6a39 043e
000002d0: 5adb 7d3f 16ae 183c 0837 433f 819c 253f
000002e0: 7389 743f c57e 97be 5c7b 093e a6ae 7d3f
000002f0: 7bc9 1e3c 0ed5 743f 3893 95be 0875 6e3f
00000300: 4645 babe 5abc 0e3e 3580 7d3f dfe4 243c
00000310: 2ab4 8a3e 576d 76bf 9224 673f e514 dcbe
00000320: 5ffc 133e 0550 7d3f 4200 2b3c e9e3 29bf
00000330: b380 3fbf c2a1 5e3f d4c0 fcbe 5e3b 193e
00000340: 181e 7d3f a21b 313c a4ef 7cbf 18f4 1d3e
00000350: e0f7 543f e30e 0ebf 5179 1e3e 6fea 7c3f
00000360: 0137 373c 06de cebe 8e2c 6a3f bb33 4a3f
00000370: 1301 1dbf 2db6 233e 08b5 7c3f 5f52 3d3c
00000380: 4d2a 0d3f a98f 553f 9863 3e3f 2d23 2bbf
00000390: e9f1 283e e57d 7c3f ba6d 433c 39fa 7f3f
000003a0: b786 59bc 1f97 313f 7562 38bf 7d2c 2e3e
000003b0: 0745 7c3f 1489 493c f771 073f e73b 59bf
000003c0: 46df 233f 5cad 44bf dd65 333e 6d0a 7c3f
000003d0: 6da4 4f3c c23a dbbe 5f58 67bf 3c4e 153f
000003e0: 97f3 4fbf 039e 383e 17ce 7b3f c3bf 553c
000003f0: 38e5 7dbf ea08 03be 4ff7 053f 3626 5abf
0.0 1.0 0.0 1.0 0.0 1.0 0.0 0.84147096
0.54030234 0.07190645 0.9974114 0.0051794495 0.9999866 0.00037275936 0.9092974 -0.41614684
0.14344062 0.98965895 0.01035876 0.99994636 0.00074551866 0.14112 -0.9899925 0.21423216
0.9767828 0.015537794 0.9998793 0.0011182779 -0.7568025 -0.6536436 0.28391457 0.9588496
0.020716408 0.99978536 0.0014910368 -0.9589243 0.2836622 0.35212708 0.9359522 0.025894469
0.99966466 0.0018637957 -0.2794155 0.96017027 0.41851655 0.90820915 0.031071836 0.99951714
0.0022365544 0.6569866 0.75390226 0.48273927 0.87576413 0.036248367 0.9993428 0.0026093125
0.98935825 -0.14550003 0.54446274 0.83878505 0.041423924 0.99914163 0.0029820704 0.4121185
-0.91113025 0.6033674 0.79746336 0.046598375 0.9989137 0.0033548279 -0.5440211 -0.8390715
0.6591482 0.752013 0.05177157 0.99865896 0.0037275848 -0.9999902 0.004425698 0.71151656
0.7026693 0.05694338 0.9983774 0.0041003413 -0.53657293 0.84385395 0.76020116 0.64968777
0.062113665 0.99806905 0.0044730976 0.42016703 0.9074468 0.80495 0.5933426 0.06728228
0.99773395 0.0048458525 0.9906074 0.13673721 0.84553146 0.5339256 0.07244909 0.9973721
0.0052186074 0.65028787 -0.7596879 0.8817354 0.4717443 0.07761396 0.99698347 0.005591361
-0.2879033 -0.9576595 0.91337436 0.40712067 0.08277674 0.9965681 0.0059641143 -0.96139747
-0.27516335 0.9402846 0.34038928 0.0879373 0.996126 0.006336867 -0.75098723 0.6603167
0.96232677 0.27189565 0.09309551 0.9956572 0.006709618 0.1498772 0.9887046 0.9793867
0.2019943 0.098251216 0.99516165 0.0070823687 0.9129453 0.40808207 0.9913761 0.1310472
0.10340428 0.9946394 0.007455118 0.8366556 -0.54772925 0.99823296 0.059421636 0.10855459
0.9940905 0.007827867 -0.008851309 -0.99996084 0.99992174 -0.012511566 0.11370197 0.9935149
0.008200614 -0.8462204 -0.53283304 0.9964336 -0.08437999 0.118846305 0.99291265 0.00857336
-0.9055784 0.42417902 0.98778677 -0.15581156 0.12398746 0.99228376 0.008946106 -0.13235176
0.99120283 0.97402596 -0.22643647 0.12912527 0.9916283 0.009318849 0.76255846 0.6469193
0.9552223 -0.29588905 0.13425964 0.9909462 0.009691591 0.95637596 -0.29213881 0.93147326
-0.36380976 0.13939038 0.99023753 0.010064333 0.2709058 -0.9626059 0.90290177 -0.4298469
0.1445174 0.98950225 0.010437073 -0.6636339 -0.74805754 0.8696557 -0.49365866 0.14964053
0.98874044 0.010809811 -0.9880316 0.15425146 0.8319073 -0.55491465 0.15475966 0.9879522
0.011182548 -0.40403765 0.91474235 0.78985184 -0.61329764 0.15987463 0.9871373 0.011555283
0.5514267 0.83422333 0.7437072 -0.6685055 0.16498531 0.986296 0.011928016 0.99991184
-0.013276747 0.6937122 -0.72025234 0.17009158 0.9854283 0.012300748 0.5290827 -0.8485703
0.64012563 -0.76827025 0.17519327 0.9845341 0.0126734795 -0.42818266 -0.9036922 0.583225
-0.81231064 0.18029027 0.98361343 0.013046208 -0.99177885 -0.12796369 0.5233049 -0.85214555

encoder.encoder_layers.0.encode_self_attention.W_Q.weight f4 [16, 7]
00000000: 7999 2f3e 914a 11bd 8289 6f3e f49b 893e
00000010: c8bc 943e c5d9 44bc 25d8 78be 1ed3 163d
00000020: 3671 a13e 2ffe a83d b241 533e b28b b8bd
00000030: a9e7 b53e 7c3d 843e f1be 4fbe f8b0 57be
00000040: 1cc4 79bc 7b58 1fbe 594b 083e b480 a43e
00000050: b88e aa3e 68f0 54be b896 efbd 570b 8cbe
00000060: 9c13 6bbe b700 b9be 6c80 a03e cbad b93e
00000070: 6121 8b3e 98e1 b4be 667f 94bd cbaa 733e
00000080: 477d 97bd 82ad 833e 98ee f43d 6ffc 2b3e
00000090: b108 bbbe 01d8 7fbe 0c72 243e 127f adbe
000000a0: 752a bfbe e318 89be 0e8f 5cbd 9dfa 29be
000000b0: 1d44 6abe 9e8a 35bc fe27 52be 2efe 543e
000000c0: 57e1 5b3e 58a0 203e 1418 bcbe 3434 a33d
000000d0: 744c be3c 1ae0 4e3e 61ad 23bd 0d64 b63d
000000e0: 10b7 0b3e 512f a33e cf4d babe f8be fc3c
000000f0: e71f 3f3e 68f0 9fbd 6bf2 4c3e d09e 963c
00000100: 3f57 d33d 509e dabd 3756 233e 5bb4 64be
00000110: 2c4c bbbe acbc a63d cc73 15bd 8cdb 6c3e
00000120: 71fa b0bd b4c4 83bc ff98 0cbe 1845 993e
00000130: d251 dabd dcf2 bebe e7d4 ca3c 05d3 bc3d
00000140: b0e8 5b3c 740c 903e 4130 7bbe 007a d1bc
00000150: e6ed 91be 3243 413e c7d7 503d 7159 723d
00000160: 930c 02be b814 7dbe 1c1b 9e3e c5a5 3abe
00000170: f3fa 6a3e 6ece 6abe ba0f 5f3e 9ef8 b3be
00000180: 48f1 0c3e cf84 b03e b682 683c 6811 2f3e
00000190: 6e66 853e e387 32be ec0b 8cbe 8295 d4bd
000001a0: 2a30 d63d 15c9 bd3e 6eab 583d 5082 bbbe
000001b0: 77c4 493e ad9f a53d e57a 9cbe 6715 84be
0.17148389 -0.035471503 0.23392299 0.26876795 0.2905028 -0.012014811 -0.24301203 0.03682243
0.31531686 0.08251607 0.2063053 -0.0901102 0.35528305 0.2582816 -0.20287682 -0.21063602
-0.01524451 -0.15561096 0.13309993 0.32129443 0.3331201 -0.20794833 -0.11698669 -0.27352402
-0.22956699 -0.36133358 0.31347978 0.36265406 0.27173904 -0.35328364 -0.07250862 0.23795621
-0.07396942 0.25718313 0.11959571 0.16795515 -0.3653007 -0.24984743 0.1605913 -0.3388601
-0.3733708 -0.267768 -0.053847365 -0.16599508 -0.22877546 -0.011080412 -0.20523068 0.20800087
0.21472679 0.15686166 -0.3673712 0.07968941 0.023229815 0.20202675 -0.03996027 0.08905802
0.13644052 0.31872037 -0.36387488 0.03085278 0.18664514 -0.07809526 0.2001435 0.018386275
0.10319375 -0.10674727 0.15950857 -0.22334425 -0.36581552 0.08141455 -0.036487386 0.23130625
-0.08641518 -0.016085006 -0.13730238 0.29935527 -0.10660137 -0.37294662 0.024759723 0.09219936
0.013422176 0.281345 -0.24530126 -0.02557087 -0.28501815 0.18873289 0.05098703 0.05916733
-0.12700109 -0.24714935 0.30880058 -0.18227299 0.22947292 -0.22930309 0.21783343 -0.35150617
0.13763916 0.34476325 0.01419132 0.17096484 0.2605471 -0.17434649 -0.27352846 -0.10380079
0.10458405 0.37067476 0.052897863 -0.36622858 0.19703852 0.08087096 -0.3056251 -0.2579758

encoder.encoder_layers.0.encode_self_attention.W_Q.bias f4 [16]
00000000: 3f29 583e 3ed0 a0be 710d 5a3e 1ddc 9a3e
00000010: 76c8 19be 4f50 98be 1495 333d 907f 053e
00000020: fa70 febd 3b39 8abe 9cd8 b63d 7c49 143c
00000030: bab8 2fbe ed26 7dbe 9c87 543d 1d72 873e
0.21109484 -0.31408876 0.2129419 0.30246058 -0.15017876 -0.2974877 0.043843344 0.13036942
-0.12423892 -0.26996788 0.08928034 0.009050723 -0.17160311 -0.2472188 0.05188714 0.2645425

encoder.encoder_layers.0.encode_self_attention.W_K.weight f4 [16, 7]
00000000: b0a9 bcbe 9900 aebe 6a38 8ebe 6361 54bd
00000010: 1244 bebe c206 423d db1f bfbe 146e 93be
00000020: b826 213e af7f 86be 9b46 94bd eab1 473e
00000030: 9cff 18bd ef23 b7be a321 2dbe 1619 293e
00000040: 8070 babd dea2 ea3d 7ef6 6b3e 9c68 6d3d
00000050: e910 9d3e 6165 533c f281 9a3e e62e 19be
00000060: 5c95 2a3e bb10 87be fd0b 98be 0a6d df3d
00000070: 8fab a6be 0a05 adbe 58db 97bd 7190 3bbe
00000080: abc6 df3d 76be 7a3e 8bd1 873e 616b 01be
00000090: 1ac4 1bbe 1691 9dbe eae5 7b3e 9b90 ae3e
000000a0: 7cc6 543d 3b3c 9fbe aab8 893e e410 3a3e
000000b0: 5046 bdbe b096 4d3d db33 aa3e c417 283e
000000c0: de7a 913e 3860 acbe a33a 703e a8ee c1bd
000000d0: 1fef 9aba 96b9 673e 79de 2ebe 35a7 cabd
000000e0: 749e 8dbe 9303 8a3e 71a5 40be 8728 8f3e
000000f0: 9f24 253e ed56 ff3d a723 ee3d a029 98bd
00000100: 66b7 a13e f7a4 63be f898 abbe de37 abbd
00000110: 7c2e 9a3d ea22 b7be 8161 9e3e ce0d 17bd
00000120: 2293 45be b680 f93d 0a30 b63e 2621 903d
00000130: 8de2 063e 8468 d73d f9fe 8a3e 7b32 233e
00000140: 6edb 863b eef9 aa3e 9ca2 b33e 9559 bb3e
00000150: 8b1f 9dbe 7924 2abe 9267 a43e 5730 703e
00000160: 79b6 083e 1dfb f43c dd51 963e 729c 363d
00000170: 18c7 88be 698c 6fbd 1265 a43e ac4f bc3e
00000180: 47eb 383d 9627 813e f87b 8a3d 162f 46be
00000190: dd6e ad3e 291f ba3e c77a ae3e 1eaa 8dbe
000001a0: 9219 ed3c 38c0 94be 0b53 033d 8f8c afbe
000001b0: 527c b73e fd38 983e 1033 853d 4827 3abe
-0.3684821 -0.3398483 -0.27777416 -0.051850688 -0.3716131 0.047369726 -0.3732899 -0.2879492
0.15737426 -0.2626929 -0.072400294 0.19501463 -0.037353143 -0.35769603 -0.16907363 0.16513476
-0.09103489 0.11456846 0.23043248 0.05796109 0.30676964 0.012902589 0.30177265 -0.14959297
0.16658539 -0.26379952 -0.29696646 0.109094694 -0.32552764 -0.33792907 -0.074148834 -0.18316819
0.10926565 0.24486718 0.26527056 -0.12638618 -0.15211526 -0.30774754 0.24599424 0.340947
0.051947102 -0.3110064 0.268987 0.18170506 -0.36967707 0.050192535 0.33242688 0.16415316
0.28414053 -0.3366716 0.23459868 -0.09469348 -0.0011820531 0.22629389 -0.17077054 -0.098951735
-0.27659953 0.26955852 -0.18813111 0.27960607 0.16127251 0.12467752 0.11627894 -0.07429814
0.31585234 -0.22230898 -0.33515143 -0.08360265 0.075283974 -0.35768825 0.30933765 -0.0368784
-0.19294408 0.12182753 0.35583526 0.070375726 0.1317236 0.10517982 0.27147654 0.15937226
0.0041155135 0.33393806 0.35085 0.36591783 -0.30688128 -0.16615476 0.32110268 0.2345594
0.13350858 0.029904896 0.29359332 0.04458279 -0.26714396 -0.058483515 0.3210836 0.36779535
0.045146253 0.25225514 0.067619264 -0.193539 0.33873644 0.36351898 0.34078047 -0.27668852
0.028942857 -0.290529 0.032061618 -0.34286925 0.35837036 0.2973098 0.0650388 -0.18179047

encoder.encoder_layers.0.encode_self_attention.W_K.bias f4 [16]
00000000: 288d 96bd 2f9f 98be f038 823d 4986 b83e
00000010: 68e9 f63d 70eb 933c f0e9 403d 745d 84bd
00000020: 40ab b33c a045 963d 0558 803e 9278 723e
00000030: ccc8 63be dda1 a63e a6a3 1b3e 1284 683e
-0.07351142 -0.29808947 0.06358516 0.3603995 0.120562375 0.018056601 0.0470981 -0.06463137
0.021932244 0.07337499 0.25067154 0.23678806 -0.22244567 0.32545367 0.15199146 0.22706631

encoder.encoder_layers.0.encode_self_attention.W_V.weight f4 [16, 7]
00000000: 9f8c 57be adcb 243e 2830 28be 18a3 28be
00000010: 702e a23e c233 343e 4213 bcbe aab3 f2bd
00000020: 5037 03bd 06c4 a53e baec 973e f594 91be
00000030: dfdb 793e 66ed 9dbe 9240 05be 2e71 bc3e
00000040: 27af 933e 2987 7b3e edf9 f13c d5fb 773d
00000050: 2ca2 703e 195a f9bc e72d 973e 557d 0e3e
00000060: cb03 3dbe 2c81 a6bd d99a 84bd c6cd 183e
00000070: 21b4 90be 8211 a63d 18fe 853d bf84 693c
00000080: 913e 283e 46cb 30be 89a9 273e abf6 97be
00000090: 5893 07be b1ad a23e 9ac4 83be 2fd2 e23c
000000a0: a3b7 b8be bee9 49be 280d 09be 29d9 46be
000000b0: 5b2b 663e 2266 15be 969e 933d 828d 283e
000000c0: c2a1 973c 3a71 77bd 85ac 723e 0b1e b53e
000000d0: 5491 1bbd 9c7f fa3c 2bf6 153e 90b7 6a3e
000000e0: f837 88be efbc 133e b8c6 a4bd 7eb0 87be
000000f0: 7293 543e 4748 b8be 949d 083e 5164 903c
00000100: e035 a93e 92c2 97be eb7f a4be da0b 58be
00000110: 6247 d2bd 9979 e43d 489e 08be b782 7d3e
00000120: 7ed0 96bd 8ed4 c0be 64cb 873d 89c3 74bd
00000130: 356d 813e 6a52 80be 6db4 173e 186e 41bc
00000140: d647 513e de65 adbd ef86 b63c d9d9 8cbe
00000150: ef4d 9cbe f64f 91be 215f b4be fde8 47be
00000160: 03a4 bdbe 27b3 bb3e 8c51 78be 19b2 1fbe
00000170: 12fb 5fbd b711 833e 03a9 4f3e f09f 61be
00000180: 510d 763e e868 ebbc 9684 1a3e 18e2 b33e
00000190: ff61 50bd 7caf 5fbe 1be2 c73d 6dcd 753e
000001a0: 06ac a53e 8045 b6be 5060 2bbe e900 16be
000001b0: 8027 853e 67c9 713c fe6c a83c c3d1 6c3e
-0.21049736 0.16093321 -0.1642462 -0.16468465 0.31676054 0.17597869 -0.36733443 -0.118506745
-0.032035172 0.32376117 0.29672796 -0.28433958 0.2440028 -0.30845183 -0.13012913 0.368051
0.28844568 0.24563278 0.02953812 0.0605429 0.23499364 -0.03043847 0.29527208 0.13914998
-0.18458478 -0.08130106 -0.06474847 0.14922246 -0.28262427 0.08108808 0.06542605 0.014252841
0.16430117 -0.17265043 0.16373266 -0.2968038 -0.13239801 0.3177314 -0.25735933 0.027688114
-0.36077604 -0.19718072 -0.13383925 -0.19418778 0.22477476 -0.14589742 0.07207982 0.16460231
0.01850975 -0.060410716 0.23698623 0.35374483 -0.037980393 0.030578427 0.14644687 0.22921586
-0.266052 0.14427541 -0.08045715 -0.2650184 0.20759371 -0.35992643 0.13341361 0.01762596
0.33048916 -0.29640633 -0.32128844 -0.21098271 -0.102675214 0.111560054 -0.1334163 0.24756895
-0.073639855 -0.37662166 0.066305906 -0.05975679 0.2527863 -0.25062877 0.1481492 -0.011806034
0.2043756 -0.08466695 0.022281138 -0.27509955 -0.3052821 -0.28381318 -0.35228828 -0.19522472
-0.37039194 0.3666012 -0.24249858 -0.15595283 -0.0546828 0.25599453 0.20279317 -0.22033668
0.24028517 -0.028736547 0.1508964 0.35133433 -0.050874706 -0.21844286 0.09759923 0.24004145
0.32357806 -0.355999 -0.16735959 -0.14648785 0.260067 0.014757491 0.020559784 0.23126893

encoder.encoder_layers.0.encode_self_attention.W_V.bias f4 [16]
00000000: 52bc 4d3e 144f 1b3e 569d 60be 1904 603e
00000010: d778 b7be 0863 a2be 2dbf f0bd be84 6ebe
00000020: 0a6f 1abb 5cfe 8dbe 9ef8 c33d c1db 423e
00000030: 8926 92be 7c31 8fbe ac52 ba3e 377d 273e
0.2009137 0.15166885 -0.21935019 0.21876563 -0.3583438 -0.3171618 -0.11755214 -0.23292825
-0.002356472 -0.27733123 0.09568904 0.19029142 -0.28545025 -0.2796744 0.363912 0.1635636

encoder.encoder_layers.0.encode_self_attention.fc.weight f4 [7, 16]
00000000: b7ac 773e 2682 bc3d da15 79be eac4 1a3e
00000010: a3e3 7d3e 20bc 333e fd22 583e 8df5 73be
00000020: 26c5 a83d 105d 803d 7731 9e3d d501 2b3e
00000030: 1b68 4f3e 59e5 283e 37a2 3f3e a2c1 33be
00000040: 1703 41bc cb36 39be 07b8 563e 5602 303e
00000050: 3e8d 9a3b 4de1 16be 4e4d d3bd 71bb 013d
00000060: 9f24 56be 817b 363e e58d 9c3d 0b34 243d
00000070: 6229 d03c f3a2 203e bdef 08be f47b 4cbc
00000080: ccbd 253e 714e 7d3e c8b6 0bbe 1c24 6abe
00000090: 5f01 5fbe 0334 d53d a4f8 13bd 5c18 25be
000000a0: 0304 5ebc e4d4 f6bd 214b ac3d d8a4 01bd
000000b0: 14dc 7a3e 7412 3d3e bfa7 c23d 36ce 7dbe
000000c0: e552 17be d9dd 59be 8853 68be 377e 36be
000000d0: 2f16 52be e4df e1bd e939 5a3e c640 643e
000000e0: 3427 0a3e c5d4 103e 34a2 573d 690d 9bbd
000000f0: bc42 31bc a5ea cd3d 1976 70be bcc9 95bd
00000100: e70d 233e 4ea9 753e d2ee 7b3e b5c0 76bd
00000110: 2c57 3cbd 6cdd fcbd 8396 e8bd 7d27 34be
00000120: d45e 2fbe 21e0 7f3e 7869 cb3c 7486 bcbd
00000130: 6b08 053c 4830 d83c 0785 34bc a0b1 833d
00000140: ac8a 383e b363 d4bd dd0d 9c3d bf84 3cbb
00000150: 6b20 a0bc b3be 983d 9534 02be a811 97bd
00000160: d6bf 12be 7118 cb3d a74e 07be 9213 4f3e
00000170: 80d1 fa3d 2170 23be f920 bebd 56c5 113d
00000180: 5858 2abe a8d4 103e 2251 133e 2d8f d83c
00000190: 6c4d fc3d abb6 863d 8f23 bfbd de90 973d
000001a0: ea70 c93c 740a 86bd 5210 743e 9ee3 1d3e
000001b0: 21ed ca3b d9f8 b2bd 6513 643e 1f7f 61be
0.24186979 0.09204511 -0.24324742 0.15114179 0.24793868 0.17552233 0.21107097 -0.23824139
0.08240728 0.0626775 0.077242784 0.16699918 0.20254557 0.16493739 0.18714224 -0.17554334
-0.011780522 -0.18087308 0.20968638 0.17188391 0.0047165444 -0.14734383 -0.10317479 0.0316729
-0.20912407 0.1782055 0.07644252 0.040088695 0.025410358 0.1568716 -0.13372703 -0.012480725
0.16185683 0.24736954 -0.13643944 -0.22865337 -0.21777867 0.10410311 -0.036125794 -0.16122574
-0.013550761 -0.120523244 0.08412767 -0.031651348 0.24498016 0.1846407 0.09504651 -0.24785694
-0.14777716 -0.21276034 -0.22688115 -0.17821585 -0.20516275 -0.11029032 0.21311153 0.22290334
0.13491517 0.14143665 0.052644923 -0.07570917 -0.010819133 0.100545205 -0.2348255 -0.073138684
0.15923272 0.23990366 0.24602821 -0.060242373 -0.04598157 -0.1234692 -0.11356833 -0.17593189
-0.17126018 0.24987842 0.024830565 -0.092053324 0.008119683 0.02639021 -0.011018044 0.06430364
0.18021649 -0.103705786 0.07619832 -0.0028765646 -0.019546708 0.07458248 -0.12715371 -0.073764145
-0.14330992 0.09916771 -0.13213597 0.20222309 0.1224699 -0.15960743 -0.09283633 0.035588585
-0.16635263 0.14143622 0.14386418 0.026435459 0.123194546 0.0657781 -0.09332954 0.07400678
0.024589974 -0.065449625 0.2383435 0.1541886 0.0061928187 -0.0873887 0.22273023 -0.22021149

encoder.encoder_layers.0.encode_self_attention.fc.bias f4 [7]
00000000: e8b5 7b3e 14a2 2cbd 2757 a2bc 63bc 493e
00000010: 087b 2dbc a8a8 53be 8ade 26bd
0.2458111 -0.042146757 -0.019816948 0.1970077 -0.010588415 -0.20669806 -0.040739574

encoder.encoder_layers.0.encode_self_attention.layer_norm.weight f4 [7]
00000000: 1db4 7f3f 6fb2 7f3f 2a11 803f fece 7f3f
00000010: 3e09 803f 4c27 803f 111c 803f
0.99884206 0.99881643 1.0005238 0.9992522 1.000282 1.0011992 1.0008565

encoder.encoder_layers.0.encode_self_attention.layer_norm.bias f4 [7]
00000000: fbe6 61ba d7b2 a23a 70d0 ad3a 633e 5eba
00000010: 608b c2ba 18bc 9b3a 273e 2bba
-0.00086174876 0.0012412918 0.0013260972 -0.0008477924 -0.0014842562 0.0011881618 -0.0006532394

encoder.encoder_layers.0.feed_forward.conv.0.weight f4 [7, 7, 3]
00000000: 2ee3 7bbd b266 373e 2518 3e3e f9e6 283e
00000010: 0674 4a3e a35a 34bb 57ac 783d 3e0e 96bd
00000020: 2da1 01bd b21c 08be ecdf 883d 19f9 5ebe
00000030: 6627 02b9 3e23 0bbe db8c edbb fe02 0ebe
00000040: d28b a43d 9802 8d3d 5b05 20be 1002 3dbe
00000050: 31a5 5bbe 0a31 ffbd dc31 e4bd b050 6dbc
00000060: 88ab 08be eb5d 293d 3499 4a3e 09a0 17be
00000070: 6c6a 3a3e e74c 63bd c69b 59be 47f2 08bc
00000080: ceff 333e 4a80 53bd 5f79 633d 6668 463c
00000090: cbcd 3b3e 1ab0 01be 8761 f83c a5d7 123c
000000a0: 4e5c 383c d38c 43be 3df6 143e 0803 cdbd
000000b0: c162 523e 2c0a b63d 5e01 eebc 4f61 41be
000000c0: 2561 f73d 2266 7ebd c64c 20be 0060 343e
000000d0: 3983 2cbe 283f ba3d 3f30 16be 103f 0f3e
000000e0: 295a 16be 5170 e23d f7e2 28be e8bd f53d
000000f0: a6e7 03be a727 d0bd e29e 213d b6de 52be
00000100: 2b37 513e e87e 5bbe df1f 5ebe 30c2 bdbc
00000110: 3a87 ee3d ea21 11be e97e 153d 1221 903d
00000120: a744 3b3e 61b3 493d 56a8 99bc e40e 46bd
00000130: 4485 2dbe 37b2 593e ba2a 413e 637f 9f3d
00000140: 7bfd 05be 88e3 5c3b 13be 05be 46b7 f13d
00000150: 44a9 abbd 303a 1ebd dc0a aa3d d2d9 a93c
00000160: e716 1cbd 81d7 373d 4404 3dbe 8ccd 413e
00000170: 8471 263e cd28 193d 628a c43d a649 0fbe
00000180: a3c9 453e 33a1 893d ed15 803d 228a e0bd
00000190: 776d a2bd c2d5 edbb 23ca 2b3e 560a 0dbe
000001a0: 3b1e 05be b8cd 153e 123e 343e dbf9 483e
000001b0: 7da8 c0bc 2844 4bbe 4c98 c1bc 1a2d 9c3d
000001c0: 8f39 b5bd 05b6 c93c 0108 59bd 53fe 573e
000001d0: 1596 87bc 374e 0f3d f37f 8bbd 8317 52be
000001e0: dc26 5b3c 967e 32be 22df b3bd e387 9fbd
000001f0: 76ff a0bc a818 c3bd 9070 58bd a06e d7bd
00000200: 2dbe b6bd ff06 4c3d 7398 d93d 340e 04bc
00000210: 5e5c 033e 6d40 18be 4dfe 013e 8f49 e53d
00000220: 651d 783d abb7 35be 1270 633d e4d1 1abe
00000230: 8a09 b33b a7e3 d3bd 09a8 0dbd 0125 a9bd
00000240: 0819 063e d314 4cbe c00d 9ebd
-0.061495952 0.17910269 0.18563898 0.16494359 0.19770822 -0.0027519844 0.06071123 -0.07326935
-0.03164785 -0.13292196 0.06683335 -0.2177471 -0.00012412443 -0.13587663 -0.0072494573 -0.13868329
0.08034481 0.0688526 -0.15627043 -0.18457818 -0.21449734 -0.12460525 -0.111423224 -0.014484569
-0.13346684 0.041349333 0.19785005 -0.14807142 0.18204659 -0.05549326 -0.21250829 -0.008358545
0.1757805 -0.051636018 0.05553567 0.012109851 0.18340223 -0.12664834 0.030319942 0.0089625465
0.011252476 -0.19096689 0.14547057 -0.10010344 0.20545484 0.08888659 -0.029053386 -0.18884777
0.12079076 -0.06210912 -0.15654287 0.17614746 -0.16846932 0.09094077 -0.14666842 0.139889
-0.14682831 0.11056579 -0.1649283 0.11999112 -0.12881336 -0.10163813 0.039458163 -0.2059277
0.20431201 -0.2143513 -0.21691845 -0.023163885 0.11646886 -0.14173093 0.036497984 0.07037558
0.18287908 0.049243335 -0.018757027 -0.048354045 -0.16945368 0.2125939 0.18863955 0.07787969
-0.13084976 0.0033704955 -0.13060789 0.11802535 -0.08381894 -0.03862971 0.083028525 0.020733748
-0.03810778 0.044883255 -0.18458658 0.18926066 0.1625424 0.037392426 0.09596707 -0.13992938
0.193152 0.067201994 0.06254182 -0.10963847 -0.07931035 -0.007258148 0.16776328 -0.13773474
-0.12999813 0.14629257 0.17601803 0.19626562 -0.023517841 -0.19850218 -0.023632191 0.0762579
-0.08848869 0.024622926 -0.05298615 0.2109311 -0.016551057 0.0349867 -0.06811514 -0.20516782
0.013375964 -0.17431101 -0.087827936 -0.0778959 -0.019653063 -0.09526187 -0.052841723 -0.10519147
-0.08922992 0.04981136 0.106247805 -0.008060027 0.12828204 -0.14868326 0.12694664 0.11195671
0.060574908 -0.17745845 0.0555268 -0.1511913 0.0054637836 -0.103461556 -0.03458408 -0.08259011
0.13095486 -0.19929819 -0.07717466

encoder.encoder_layers.0.feed_forward.conv.2.weight f4 [7, 7, 3]
00000000: 8040 cc3d 3731 d63d eeb8 053e 7ff7 913d
00000010: 5e4b c6bd 7d71 e93d 03a1 51be 4043 02be
00000020: e69b 123d be4a c43c 4fec 083e adaf c73d
00000030: c02c acbc da70 a83d 7ff1 3c3e ca2f c4bd
00000040: 72c4 47be 249f d2bd ef45 9ebc d52a 513e
00000050: e7b5 f13b a453 223e 98f6 87bc 54b9 0abe
00000060: 5da5 013e ba3c 38be 867b 04be 34c6 203d
00000070: 50bc b03c 4c78 e23d 7517 35be 7c46 98bd
00000080: d644 3d3e 39f4 32bd b34b 15be c2b9 753d
00000090: cae0 2a3e 8eda 0b3e 4fed edbd 1c22 e33c
000000a0: 1ef9 5cbd 4319 2dbe 93c0 4b3e fac9 3abe
000000b0: 952e ae3d 8d4a 153d 895c b2bc 4c8c f43c
000000c0: 6147 5a3e 6cb5 d1bd 4210 2bbe d059 40bb
000000d0: a5b5 9f3d 9a9d 7c3d 1fc8 ba3d f1cd b3bb
000000e0: 8622 1e3e aa7c 0bbe c35d 38be e0a0 113e
000000f0: cfab 353d cb7a 8d3d 52df 16be 0c5a 86bd
00000100: cfe2 6bbc 7426 f7bd 0ecd 00be 053d a8bc
00000110: 0cdd ce3d a392 af3c bac4 d2bd f1b2 81bd
00000120: a775 d9bd f703 2dbe 4355 3c3e 8d4a 593d
00000130: 210f abbb feaa 3c3d d0c9 253e abd5 31be
00000140: 52ba 543e ffbe f43d 7a4e 533e b427 b7bd
00000150: 1395 f5bd a5f7 e8bc cf41 f1bd 0570 84bd
00000160: 37e6 01be 3a0a 543e bf70 b13d de79 353e
00000170: f621 b1ba c4f3 213e 49a3 b03d 4c77 d13c
00000180: 77ef 14bd 8375 07be e4a2 b13d 8b4e 063d
00000190: 536a 1a3e 8d99 26be e1a1 503e cc36 533d
000001a0: 914f c8bd edd7 153d 8e59 cfbd 3baa 36bb
000001b0: 973a 0cbe 5561 4f3e bf90 90bd bc80 953c
000001c0: a144 26be db21 2e3e 65e5 d93c 82af 45be
000001d0: aac7 39bb fe05 5ebc 76bb fcbd b547 17bc
000001e0: 3bc8 0fbe 954c 1a3e d98e a6b8 0b9a 363e
000001f0: 2b34 bcbd 1ccd c2bc 4a39 a53c 7bee 39be
00000200: 5087 c73d 3bab be3d 4a78 b0bc adbc 36be
00000210: 6e50 43be e746 8c3d d0f5 f1bc 2d80 113e
00000220: f6b5 143e ad59 3dbc 382d bb3d 084a 223d
00000230: 85fb c43d 423c e3bd fc28 85bd 8ff1 243e
00000240: 5a90 5b3e 70e5 d2bd e3d0 ac3c
0.0997324 0.10458606 0.13058826 0.07127284 -0.09682344 0.11398599 -0.20471577 -0.12720966
0.035793208 0.023961421 0.13371395 0.09750304 -0.021017432 0.0822465 0.18451498 -0.095794275
-0.19508532 -0.1028426 -0.019320456 0.20426495 0.007376421 0.15852219 -0.016597077 -0.1354726
0.12660737 -0.17991915 -0.12937745 0.03925152 0.02157417 0.11058101 -0.1768473 -0.07435319
0.1848329 -0.04368994 -0.14579658 0.059991606 0.16687313 0.13657591 -0.11617529 0.027726226
-0.053948514 -0.16904168 0.1989768 -0.1824111 0.085049786 0.03644805 -0.02177264 0.029852055
0.21316291 -0.102396816 -0.1670542 -0.0029350407 0.07798318 0.061673738 0.09120201 -0.0054871966
0.15442857 -0.13621774 -0.18004517 0.14221525 0.044353303 0.069081865 -0.14733627 -0.06560144
-0.014397337 -0.12067881 -0.12578222 -0.020536909 0.10100755 0.021432227 -0.10291429 -0.063329585
-0.106181435 -0.16896044 0.183919 0.053049613 -0.0052203094 0.04606151 0.16190267 -0.17366664
0.207742 0.11950492 0.20635405 -0.0894312 -0.11991324 -0.028438399 -0.1178013 -0.064666785
-0.12685476 0.20707026 0.08664083 0.1772227 -0.001351415 0.15815645 0.08624894 0.02556958
-0.036361184 -0.13228421 0.08673647 0.03278975 0.15079622 -0.16269512 0.20374252 0.05156593
-0.09780801 0.036582876 -0.10124503 -0.0027872461 -0.13694225 0.20251973 -0.07058858 0.018249862
-0.16237117 0.17005102 0.026598642 -0.19305232 -0.0028347769 -0.013551233 -0.12340443 -0.009233405
-0.14041226 0.15068276 -7.942104e-05 0.178322 -0.09189638 -0.023779444 0.02016892 -0.1815738
0.09742606 0.09310003 -0.021541733 -0.17845412 -0.1907365 0.06849461 -0.029536158 0.14209051
0.14522538 -0.011557025 0.09139484 0.039621383 0.09618286 -0.11095478 -0.06501958 0.16107772
0.21441785 -0.10297668 0.021095699

encoder.encoder_layers.0.feed_forward.layer_norm.weight f4 [7]
00000000: 0dae 7f3f f7af 7f3f 1df0 7f3f ebbc 7f3f
00000010: 6e04 803f f51c 803f ed17 803f
0.99874955 0.99877876 0.9997576 0.9989764 1.0001352 1.0008837 1.0007302

encoder.encoder_layers.0.feed_forward.layer_norm.bias f4 [7]
00000000: cde0 87ba 34be 6a3a 0963 9f3a efb1 65ba
00000010: 5c13 c4ba afb8 543a 1c7d 78ba
-0.0010366678 0.0008954734 0.0012160252 -0.0008762171 -0.0014959383 0.0008114678 -0.0009479092

encoder.encoder_layers.1.encode_self_attention.W_Q.weight f4 [16, 7]
00000000: b2fa 4bbe 19d6 8cbe 97e3 f3bd fc35 95be
00000010: 01cd f0bc 0ed5 a1be 1e0d c0be c831 bcbe
00000020: 1b94 57be 7683 eabd 8ed3 a4be a3f2 16bd
00000030: 6f46 9f3e 9345 933e 8250 8e3d a32a 8abe
00000040: f8ce 483d 239d 80be d2ed bcbe d461 e13c
00000050: 0d28 b63e 5176 36be fd53 d23d 0c1f b43e
00000060: 5a99 efbd 95a5 abbe 6196 343d 3afd b9bd
00000070: f89c f23d 1546 b53e 3e1d 3e3e 340a ff3d
00000080: 8bb6 18be e20d adbe 8a7e 02be 1678 893d
00000090: f344 77bd 7a5b ab3d 0e6d a9be dfd7 803e
000000a0: 4ddd b0bd f3e0 a93e 0ae0 fcbd ef04 b4be
000000b0: f768 b33e 7cc5 08be 0369 b53e e1df 8d3e
000000c0: c244 8e3d 77c5 c7bb 5e5a 9f3e d715 ff3d
000000d0: 4e35 64be 2d56 053e cadb a6be ed36 0c3e
000000e0: b80e 303e e6c4 473e a279 a9be d18a f83d
000000f0: 105c 16be 443c 493d 46b7 953e fe69 1ebe
00000100: d0bc cc3c 1aeb 183e 1c3b 943e 1dc5 743e
00000110: da69 d53d 70e7 9fbe 3b72 ac3e d610 9cbe
00000120: 31b5 dabd 779a eabb a7fa 0b3e 41bb 903e
00000130: ef89 81bc 2904 e1bd 93ef b03e 8c6c b1be
00000140: 4fb0 8c3e 0e05 303e 30d6 aa3e 68ce b33e
00000150: 1445 4c3d c089 0d3e 6426 943c 66b2 843e
00000160: 254d 883e 927f 773e 39ff 95be af6e ad3e
00000170: 5824 263e 63e7 a0be c159 9dbe d692 99be
00000180: d289 e53d 5268 233e 91c2 983e 1301 a5be
00000190: 872e f2bc 6d5f 2ebe 8750 5bbe 1d57 103d
000001a0: bd92 abbe 462b 7e3e 977f aabe ac35 13bd
000001b0: 3a99 1c3e a601 86bd ef76 abbd ac31 c63c
-0.19919851 -0.27507094 -0.11908644 -0.2914275 -0.029394628 -0.3160786 -0.37510008 -0.3675673
-0.21052592 -0.114508554 -0.32192653 -0.03685249 0.31108424 0.28764018 0.069489494 -0.26985654
0.049025506 -0.25119886 -0.36900192 0.027512468 0.3557743 -0.17818572 0.10269926 0.35179937
-0.11699171 -0.33524767 0.044088725 -0.09081502 0.11846346 0.3540503 0.18565843 0.12453118
-0.14913385 -0.33799654 -0.12743583 0.06712358 -0.06036849 0.08367057 -0.33091015 0.25164697
-0.0863596 0.33179435 -0.123474196 -0.35160014 0.3504102 -0.13356584 0.3543168 0.2770987
0.06946708 -0.0060965377 0.31123632 0.124553375 -0.22285959 0.13021155 -0.3258956 0.13692828
0.17193115 0.19508705 -0.3310061 0.12135852 -0.14683557 0.04912974 0.2924139 -0.1547012
0.024992377 0.14933434 0.28951347 0.23903318 0.1042058 -0.3123126 0.336809 -0.30481595
-0.10679091 -0.007159527 0.13669835 0.28267863 -0.015812842 -0.109871216 0.3455778 -0.34653127
0.27478263 0.17189428 0.33366537 0.35118413 0.049870566 0.13822079 0.018084712 0.25917357
0.26621357 0.24169758 -0.29296282 0.33873507 0.16224802 -0.31426534 -0.3073254 -0.2999484
0.11207928 0.15957764 0.29835942 -0.32227382 -0.029563202 -0.1702859 -0.21417437 0.035239328
-0.3351039 0.24821195 -0.33300468 -0.035939857 0.15292826 -0.06543283 -0.08372294 0.024193607

encoder.encoder_layers.1.encode_self_attention.W_Q.bias f4 [16]
00000000: aa23 e2bc c6ab acbe f7c2 18bd aa0e 8c3e
00000010: aeb7 65be b4aa 553e 8626 80be 568c acbb
00000020: 2075 a8be 7668 9e3e 73d0 9f3e d8c7 67be
00000030: 9452 683e 1ed8 873e 6861 98be 9a99 6abe
-0.027604897 -0.33724803 -0.037295308 0.27354938 -0.2243335 0.208659 -0.2502939 -0.005265753
-0.3290186 0.30939072 0.31213722 -0.22634828 0.22687751 0.26532072 -0.29761815 -0.22910157

encoder.encoder_layers.1.encode_self_attention.W_K.weight f4 [16, 7]
00000000: f815 6a3e 9c25 d2bd 6229 0d3e bfae 3e3e
00000010: abea 1f3d f4c5 5fbe b66c b13e 48d3 a33e
00000020: 69c0 bdbe f0ee 3cbe a53b 9d3e e48a f8bd
00000030: 7eff 843e 63b7 673d f848 21be 33d2 e9bb
00000040: 82aa b5be 43b9 943e 0d38 54be a51d 623e
00000050: 65d6 9e3e 0787 ccbd ca26 a13e 1bed b63d
00000060: c7cf 9abe e423 41be b220 de3d e932 3c3d
00000070: cd2f 6b3e e86e 36be 6d82 87bd d1fa 8a3e
00000080: 6c0c 94bd 38c0 803e 7a26 953e 1d83 43be
00000090: f2f9 8d3c b410 a03e 75f3 bbbc 9c3f babe
000000a0: d146 bf3d d110 0abd d95e 1abe 7bd4 11be
000000b0: 6206 cc3d 990a c1bd b878 993d 87e6 513e
000000c0: 67b5 983e 1b2e 47be 3cd2 a9be c90a 4f3e
000000d0: 2790 4a3e ab7f 473e 4f02 a4be 0710 693e
000000e0: f25b b3be 79ec 70bd 7f6d 023e 5bea 013e
000000f0: 35b2 efbd dd40 b5be c868 a73e 0226 bebd
00000100: d9c9 55bd d4aa f8bd beb7 0bbe 9df0 073e
00000110: ad59 563e 6931 183e 0375 ffbd a0cf b83c
00000120: ae62 8d3e 5371 423e 410c b33e 7678 3bbe
00000130: 61f2 c9bc 2314 823e c204 833e 73b8 843e
00000140: e214 cd3d 1cc9 5c3e 19c1 debd a27c b93d
00000150: d268 11be d5fd 453e 1600 30bc f14c a63c
00000160: 9f35 8f3d b678 523e cd76 9cbe 8086 3abe
00000170: 1266 b2bd bc91 e53d 223f 673e 8895 143d
00000180: 7430 883e 7b18 943d 731e bcbe c82f dabc
00000190: ebde 1ebe 5a49 dbbc 2e68 dbbd b2a3 863e
000001a0: 108c 8c3d 258d 31bd b4c6 85be c84f 333e
000001b0: 0770 29be 891b 6a3e e9cd 703e c50c b2be
0.22859943 -0.1026108 0.13785318 0.18621348 0.039042156 -0.21852857 0.34653252 0.31997132
-0.3706086 -0.18450522 0.30709568 -0.12135866 0.25976175 0.056571376 -0.15750492 -0.0071356534
-0.3548165 0.29047593 -0.20724507 0.22081621 0.31022945 -0.09986692 0.31474906 0.08931943
-0.30236647 -0.18861347 0.1084608 0.04594699 0.22967453 -0.17815745 -0.066166736 0.27144483
-0.07228932 0.2514665 0.29130918 -0.19092984 0.017331097 0.31262743 -0.022943238 -0.36376655
0.09339679 -0.033707444 -0.15075244 -0.14241211 0.09962155 -0.094258495 0.074937284 0.20498095
0.298259 -0.19451182 -0.3316821 0.20218958 0.19781552 0.19482295 -0.3203301 0.2276002
-0.35031086 -0.058819268 0.12737082 0.12687056 -0.11703912 -0.3540105 0.3269713 -0.09284593
-0.05219445 -0.12141958 -0.13644311 0.1327538 0.20932646 0.14862598 -0.1247349 0.02255994
0.2761435 0.18988542 0.34970286 -0.18307671 -0.024651708 0.25405988 0.25589567 0.25921974
0.10013749 0.21561092 -0.10876674 0.09056975 -0.14200142 0.1933511 -0.010742208 0.02030036
0.06992649 0.2055386 -0.30559388 -0.1821537 -0.087108746 0.11209437 0.22582677 0.036275417
0.26599467 0.07231232 -0.3674198 -0.026634112 -0.15514724 -0.026768375 -0.1071323 0.26296765
0.06862652 -0.043347497 -0.2612816 0.17510903 -0.16546641 0.22862066 0.23516048 -0.34775367

encoder.encoder_layers.1.encode_self_attention.W_K.bias f4 [16]
00000000: 7117 07be 80ac b2be 886b b9be 9400 b83d
00000010: a236 673e e4fc eebd e69f 693e e8ac 5d3d
00000020: da92 053e 71d6 8c3e f0d6 b43d 12d2 273e
00000030: d7bf 893e 480a 933d 9afd 163e 911f bb3e
-0.13192536 -0.34897232 -0.36214852 0.08984485 0.22579435 -0.11669329 0.22814903 0.054119974
0.130443 0.27507356 0.088300586 0.16388729 0.26904175 0.07179695 0.14745179 0.3654752

encoder.encoder_layers.1.encode_self_attention.W_V.weight f4 [16, 7]
00000000: a83a b0be ef37 373e 7e06 b2be 479e 86bc
00000010: 6760 66be bf4a 86bd 9700 7a3d d00f 443e
00000020: fa72 74be 04de 403e c0b6 9bbe 6223 b73d
00000030: 69fe 6f3d 1fab d93c bca4 8b3c 15e7 8d3d
00000040: a3d9 993e 912d 40be 796a 4b3e 1ce8 8b3e
00000050: 16e6 bf3e 8612 a2be 41ca 4d3d a903 693c
00000060: 9055 cbbd e82f 91be 0d6d efbd fa7e 21be
00000070: 4681 a8be 3192 9fbe 30fd 8b3e 59cf 8abd
00000080: c63a 27bd e992 7cbe 84ae 863e 45d0 8f3e
00000090: e255 423e 7e6a 193c b6d6 cebd 991f 633e
000000a0: 7c1d f6bd 36fe 993e 82e6 1fbd 57b3 a8be
000000b0: ba19 b93e f487 4e3e d38b 513e 48e9 683e
000000c0: 10d7 13be a5b3 483e 9992 1e3e 5519 e8bd
000000d0: 24fb 02be 7b39 b7be ae31 613d 2d24 b7be
000000e0: 68b5 1f3e f511 0e3e 1f08 c3bd 4d7e 78be
000000f0: 844c 64be f563 5f3e d898 59bc cd88 87bd
00000100: eda5 913e b557 80bc 3ebf 25bd bf8b 073d
00000110: 2597 db3c 1ed9 783e 04e0 1e3e 3c84 c63d
00000120: 4827 a0be 7353 523d 35ef 9cbe f52f 233e
00000130: 3861 b43d f815 0dbe 556b 41be 2db5 0dbe
00000140: b89e 5d3e 5b88 16bc 65e3 153e 4125 64be
00000150: 43dd fb3b d0c9 0b3e c7a4 83be 1b51 973e
00000160: 39eb ce3d dcf9 a53e 8698 98be a00f 2f3d
00000170: 439d e93c a7b2 853e 893d a13e f87e 823d
00000180: 916a 8b3e 832d 903e 0620 193e ecfd 8abd
00000190: d181 633d db53 87bc d1c7 3c3e 288d 4b3e
000001a0: 73b6 ba3e 5d69 69be 9735 a73e 1282 86bd
000001b0: 776e 93bd 314b 68be e2d7 92be 04b3 ddbd
-0.3441975 0.1789243 -0.34770578 -0.016432894 -0.22497712 -0.065572254 0.06103572 0.19146657
-0.23871985 0.18834692 -0.30412865 0.089422956 0.058592234 0.026570855 0.017046325 0.06928841
0.30048856 -0.18767382 0.19864835 0.27325523 0.3748023 -0.31654757 0.050241712 0.014222064
-0.09928429 -0.28356862 -0.11690722 -0.15771094 -0.32911128 -0.31166223 0.27341604 -0.0677783
-0.040827535 -0.24665417 0.2630502 0.28088585 0.18978074 0.009363769 -0.100995466 0.22180022
-0.120173424 0.3007676 -0.03903819 -0.32949325 0.3615244 0.2016905 0.20463495 0.2274524
-0.14437509 0.19599779 0.1548561 -0.11332957 -0.12791115 -0.35786042 0.05497902 -0.35769787
0.15596545 0.13874038 -0.09523033 -0.2426693 -0.22294813 0.21815474 -0.01328107 -0.066178896
0.28446904 -0.015666822 -0.040465586 0.033092257 0.02680547 0.24301574 0.15515143 0.096931905
-0.3127997 0.051349115 -0.3065125 0.15936263 0.088076055 -0.13777912 -0.188886 -0.13838644
0.21642578 -0.009187783 0.14637525 -0.22279836 0.0076862886 0.13651204 -0.25711653 0.29554066
0.10103459 0.3241719 -0.29803866 0.04273951 0.028517371 0.26112863 0.3149226 0.063718736
0.2722974 0.28159723 0.14953622 -0.06786713 0.055543724 -0.016519478 0.18435599 0.19878066
0.36467323 -0.22794099 0.32658073 -0.06567778 -0.07198804 -0.22684933 -0.2868033 -0.1082516

encoder.encoder_layers.1.encode_self_attention.W_V.bias f4 [16]
00000000: cf7a f0bd 41a0 2d3e 213c 78bd d9a3 62be
00000010: 9bdd a7be b043 ed3d 77bd 873e d527 91bd
00000020: a21e b2be 1a88 1dbe 5e40 103e dbe5 10bc
00000030: 93d6 b03d b522 93be 190d e1b8 88ad ccbc
-0.11742174 0.16955663 -0.06060422 -0.22132815 -0.3278626 0.11585176 0.26511738 -0.070876755
-0.34788996 -0.1538395 0.14087054 -0.008843864 0.08634677 -0.28737417 -0.00010731276 -0.02498509

encoder.encoder_layers.1.encode_self_attention.fc.weight f4 [7, 16]
00000000: 7a75 5c3d 4c0d d83d 3626 ed3b 7d5e 513c
00000010: 9644 2a3e 3240 93bd a706 6abe 4f82 2b3e
00000020: 7b1a 55be 92e8 463e cf81 9ebd 4687 4ebe
00000030: d281 c9bd d402 603e 9d58 2cbd ba96 8f3d
00000040: 89af 623d 61de 38be 0dac 233e 2ecf eebd
00000050: a2b9 f73d fca4 dbbd 927a a9bd ca44 053e
00000060: 2182 0abe d332 62be 1585 443e 6d03 73be
00000070: b05f d1bb 3479 35be 8383 6cbe b455 453e
00000080: 9423 633e b573 8e3d 3694 14be 128c f33d
00000090: f6f5 6fbe e960 5f3c 4449 183e 5216 ce3d
000000a0: e128 75bd 78b4 5a3e 0902 c53d 4ed5 37be
000000b0: 6434 8bbd 2f23 8ebd 4065 7f3e 549a fabc
000000c0: 48aa 153d 287b fc3c 72d8 493e 9236 d1bd
000000d0: 5f2f 11be 03c6 3d3e 1cfe 203d 5b0e 543d
000000e0: 675d 34be 5814 7a3e 0d97 6cbe f67f 983d
000000f0: 9902 babd 05e4 48be dd16 753e a5f2 923c
00000100: d149 a6bd 8d65 95bc 08c0 bbbb 1b8c 233e
00000110: 15f8 b7bc e780 8d3d dc86 04be c944 0cbe
00000120: 3407 e53a cbd2 c23d c723 05bd c35f 2cbd
00000130: f728 dabc 6ec7 603e 16e5 653e 987b 60be
00000140: cb9d 09bb 3e0c 51bd ace5 0d3e 0817 36be
00000150: f7fc 113d aeda 213e 4468 833d 9af7 e63c
00000160: 56e8 0fbe ea26 89bd 6b06 403e 55af 143e
00000170: 5d9e 72be f0b7 7abe 76ec 503e 70c4 f53d
00000180: 8c73 3c3c b1af d83d adbd 1fbe 2e40 863c
00000190: c62c a43d 3b0f 0bbe bec1 d73d 231a 073e
000001a0: 9844 523d 3e1f 01be 0fdd 613e a0a5 83bd
000001b0: b385 493e 74bb 5fbe 6084 51be 5985 e13c
0.053822972 0.10549411 0.007237221 0.012778875 0.16627726 -0.07189979 -0.228541 0.16748928
-0.20810883 0.19424656 -0.07739603 -0.2016879 -0.098392144 0.21876079 -0.042076696 0.07011171
0.055343185 -0.18053581 0.15983601 -0.1166061 0.120959535 -0.10724828 -0.082753316 0.13014522
-0.13526203 -0.220897 0.19191392 -0.23731776 -0.0063895807 -0.17722017 -0.23097043 0.19270974
0.2218154 0.06955663 -0.14509663 0.11891951 -0.2343367 0.013633945 0.14871699 0.10062851
-0.05985344 0.21357906 0.09619529 -0.17952463 -0.06797102 -0.069403045 0.24940968 -0.030591168
0.036539346 0.030820444 0.19711474 -0.102154866 -0.14178227 0.18532567 0.039304838 0.051771503
-0.17613755 0.24421823 -0.23104496 0.074462816 -0.09082527 -0.19618233 0.23934503 0.017937968
-0.08119548 -0.0182369 -0.005729679 0.15971415 -0.022457162 0.06909352 -0.1294207 -0.13698114
0.001747346 0.09512862 -0.032504823 -0.042083513 -0.026630862 0.21951076 0.2245067 -0.21922147
-0.0020998593 -0.051037066 0.13857144 -0.17782223 0.035641637 0.15806076 0.064163715 0.028194238
-0.14053473 -0.066968754 0.18752448 0.14520009 -0.23693223 -0.24484229 0.20402703 0.12000358
0.011502158 0.105803855 -0.155997 0.016388025 0.08016352 -0.13580029 0.10535 0.13193564
0.051334947 -0.12609574 0.22056983 -0.06428075 0.19679908 -0.21848851 -0.20460653 0.027529405

encoder.encoder_layers.1.encode_self_attention.fc.bias f4 [7]
00000000: 3b55 6e3e f286 543e 4a35 723e 0c1f 6f3e
00000010: eace b03c 3785 93bc a40f 55bd
0.232747 0.20754603 0.2365314 0.23351687 0.02158304 -0.018007858 -0.05201687

encoder.encoder_layers.1.encode_self_attention.layer_norm.weight f4 [7]
00000000: f1b3 7f3f 7ab7 7f3f c625 803f b9a5 7f3f
00000010: 621b 803f 4b1e 803f 34f3 7f3f
0.99883944 0.9988934 1.0011528 0.9986225 1.0008357 1.0009245 0.99980474

encoder.encoder_layers.1.encode_self_attention.layer_norm.bias f4 [7]
00000000: e9ca 83ba 2cc3 203a ea48 a83a cf1e 69ba
00000010: 081d aeba fd15 573a 9c89 b539
-0.0010054979 0.00061325985 0.0012839113 -0.00088928355 -0.0013283798 0.00082048756 0.00034625537

encoder.encoder_layers.1.feed_forward.conv.0.weight f4 [7, 7, 3]
00000000: a21d 05be 82f2 88bc 3dbd 40be 1df4 e83c
00000010: 4e74 ad3d 808d 03be 83c4 433d 9b90 193e
00000020: 3668 42be 0d5d c13d 9096 56be aa4b 5dbe
00000030: cf1d 3d3e b739 64bd 04c2 1b3e 1c88 99bd
00000040: 9a0f 073e 72c7 593d bbd1 2ebe 66af 0a3c
00000050: 91a7 0b3e 2ef0 543d d1e7 cf3c 9855 f23d
00000060: e157 633c e9d7 83bd e38b 533e 0154 36bd
00000070: 3b04 8e3d 0fbe 24be 7f8a e9bd c9be b1bd
00000080: ca53 93bd d51f 833d a9ce 303e 9788 093d
00000090: 7b46 41bc 2dba f6bb 7fc4 78bd 5305 b23d
000000a0: a5db 4a3e 7c38 0e3e 6383 d7bd d190 2e3e
000000b0: 1b2a 5abe 7ee0 8a3d a079 683d 4fd5 0d3b
000000c0: 0ee7 403e 23ed 563e 7729 0d3e f7a3 d3bd
000000d0: b9dc 933c 49a1 003e 3d7e 163c c50a 34be
000000e0: 426c f4bd 08ed 07be 7cc2 eabd 567a 80bd
000000f0: 9544 21be 4827 473e 09db 52be 0a70 533e
00000100: 50ee 15be 6b72 3b3b 600b 11bd a2e2 293e
00000110: 9fba ff3d 6a8d f3bd 66fe f5bd 9486 50bd
00000120: ee9f 5a3e b446 99bd 5b37 ce3d d4df 433e
00000130: ee85 943d ce44 613d 56ec aa3d 6af5 5dbd
00000140: dda2 bc3d 4263 e2bd 1b6e 92bc 8a98 eb3d
00000150: b11b fabd fd64 f0bd bcce f0bd 96ca af3c
00000160: c59a b43d 4982 2abe 7c02 6e3c 13c9 5abe
00000170: 833b 913d 5d88 ebbd 470f 193e a2cb 413d
00000180: d80b 3dbe a52c 0f3c 5253 5e3e 2c2b 0dbe
00000190: 5462 c23d f89b 333d f094 cb3d 5d1b 54bc
000001a0: 417c 4cbe aa87 7bbc f980 703d 9232 cd3d
000001b0: 8740 ff3c 0db2 4f3e 9ee2 913d 2ba7 33be
000001c0: 4cf9 9c3d 5b11 3d3e cd92 243e 4990 393e
000001d0: 02fe f73d 22c2 53bd 13a2 1a3e f40b 493e
000001e0: 3be1 3abe 279c 01bd c399 5abe 09be 0dbc
000001f0: a639 24be a05c 0f3e d95b 983d 5353 20be
00000200: e9aa efbd 3d54 583e e08e a8bd 9a1e fd3c
00000210: 997b 023e 1178 14be 3297 a4bd 0b5e 5a3c
00000220: e8e5 42be f003 4cbe d201 bebd 119d 2d3e
00000230: 03e1 fabd 7fcd 533d 9ce0 45be 69f5 21be
00000240: 624d 06be 8a10 2ebe 6e47 8cbc
-0.12999585 -0.0167172 -0.18822189 0.028436715 0.08469449 -0.12846947 0.04779483 0.14996569
-0.18985066 0.09441576 -0.20955873 -0.21610895 0.18468402 -0.055719104 0.1521073 -0.07496664
0.13189545 0.05316872 -0.17072193 0.00846467 0.1363814 0.051986866 0.025379093 0.11832732
0.013875932 -0.06437666 0.20658831 -0.044513706 0.06934401 -0.16088127 -0.11403369 -0.086789675
-0.07193716 0.06402556 0.17266335 0.033577528 -0.011796589 -0.007529518 -0.06073427 0.08692422
0.1981035 0.13888735 -0.10523107 0.1704743 -0.21305124 0.067811 0.056756616 0.0021642034
0.1883814 0.20988898 0.13785349 -0.10334008 0.018049585 0.12561525 0.009185371 -0.17582233
-0.11934711 -0.13274014 -0.11462876 -0.06273334 -0.15748818 0.19448578 -0.20591368 0.20648208
-0.1464169 0.0028602134 -0.03541124 0.1659036 0.12486767 -0.11892207 -0.12011413 -0.050909594
0.21350071 -0.07484189 0.10069152 0.19128352 0.072521076 0.054997258 0.08345859 -0.054189123
0.09210751 -0.11054088 -0.017874768 0.11503704 -0.12212313 -0.11738012 -0.117581815 0.021458905
0.088185824 -0.16651262 0.0145269595 -0.21365766 0.07091429 -0.115006186 0.14947234 0.04731334
-0.1846155 0.008738671 0.21711472 -0.13786 0.09491411 0.043849915 0.09940517 -0.012945977
-0.19969274 -0.015352169 0.058716748 0.10019411 0.031158699 0.20282765 0.07123302 -0.17544238
0.07664737 0.18463652 0.16071625 0.18121447 0.12108995 -0.05169881 0.15100889 0.19633466
-0.18249981 -0.03164306 -0.21347718 -0.008651265 -0.16037616 0.14000177 0.074393936 -0.15656786
-0.117025204 0.21125884 -0.08230376 0.030898381 0.12742461 -0.14498927 -0.08036651 0.013328086
-0.19033015 -0.19923377 -0.09277691 0.16954447 -0.12249949 0.05170965 -0.19323963 -0.15816273
-0.13115457 -0.16998497 -0.017123904

encoder.encoder_layers.1.feed_forward.conv.2.weight f4 [7, 7, 3]
00000000: bf4a 84bc d836 eabd bffa 42be 9752 12bd
00000010: db38 783d 2997 21be b9e4 c23d 2248 9e3d
00000020: b326 16bd c55a 7bbd d771 693d 2073 793d
00000030: ca6e 4bbe b46e b9bd 73fb 143d 5c19 1b3d
00000040: f993 25bd d7e9 9cbd 475c 8abc a9f1 08be
00000050: c62d b2bd 67ac 063e b8a9 ac3d af56 9f3d
00000060: 7fb0 293e 0070 fe3d 340e 0ebe d30b d73d
00000070: 8cb7 9bbc 9249 97bd 778d c73d d55f 313e
00000080: e6ef e63d b563 853d f08a 5e3e 96b2 fc3d
00000090: 605b 253e a845 10be 3a36 a33d ba0b 4abd
000000a0: 53d5 de3d 2945 373e 98b7 023e fece 8c3d
000000b0: 13f6 0f3e 607f adbd b562 c0bd 6e7e fd3d
000000c0: 5722 143e 2a16 4e3e 27c0 5f3e 6958 883b
000000d0: 82ec 0f3e f389 65bc 2627 a4bd 2466 24bc
000000e0: 3022 5e3e d6e1 cabc cbd3 5d3d df32 4ebc
000000f0: 4967 383e 5878 463d bee2 9f3d 4628 86bd
00000100: 1200 853d b4c8 413b 87a3 57be 733d 9cbd
00000110: e8c5 013e a56a 423e 5531 5abe 97d7 4a3e
00000120: 17df 4e3e 9796 5c3c f77d b63c b27f 043e
00000130: 468a 253e 59c9 17be 5ae0 423e 5296 e7bc
00000140: db23 4bbe 28ab 583e 1815 0a3e b4ac 10be
00000150: e39b 7c3d 3dca d9bd 0a5c dbbd e42e 00be
00000160: 4b3d f53d 637d bf3d ad5a 83bd 02e0 ed3d
00000170: 47c1 c83d 3b7b 953c 659f 3b3e d1f3 cc3d
00000180: 9256 143d 4abc 82bd 4fa1 1ebd 9140 553e
00000190: 865d 543e abad 0f3e 65b3 4f3e 7381 0bbe
000001a0: e518 2b3e 92f0 2c3e 927d 9dbd 4227 c9bc
000001b0: 5227 3dbe 00e2 aebd 5039 9ebd 8cba 75bd
000001c0: 31dd b03d bc4c f4bc 1e0c 503e ce27 3a3d
000001d0: a1fe 1c3e 67a1 2ebe 4067 26be cd2e 08be
000001e0: 50e4 733d 3300 0b3b 130b 253e 6d54 cabd
000001f0: bedb acbd a0c1 65bd 56a7 24be 985b 1f3e
00000200: 58cf 133e 8cff 12be fa06 47be da6f 0bbd
00000210: 94b0 aabd 7462 3c3e 9d53 363d 0de2 82bd
00000220: db28 16be 5837 bdbd c465 63bd dbd4 8e3d
00000230: 428e f03d a8e0 23be 0b83 91bd 25c0 5b3e
00000240: 5a97 213d b8d4 ec3c 0357 383e
-0.016148923 -0.11436242 -0.19040965 -0.035723295 0.060601097 -0.1578032 0.09516282 0.07728602
-0.036658 -0.06136586 0.05699333 0.060900807 -0.19866481 -0.09054318 0.036372613 0.03786598
-0.04042432 -0.07661789 -0.016889704 -0.13373436 -0.08700137 0.13151704 0.08430809 0.077802055
0.16571234 0.12423706 -0.13872606 0.10500302 -0.01900842 -0.07387079 0.09743779 0.17321713
0.11276226 0.06513158 0.21732688 0.1233875 0.16148138 -0.14089072 0.07969327 -0.04932759
0.10880532 0.17897476 0.12765348 0.06875418 0.14058714 -0.084715605 -0.09393827 0.1237763
0.14466225 0.20125642 0.21850644 0.00416093 0.14055064 -0.01400994 -0.080152795 -0.010034118
0.21692729 -0.02476589 0.05415706 -0.012585371 0.1800815 0.048454612 0.078069195 -0.0655065
0.06494154 0.0029569091 -0.21058474 -0.07628908 0.12673151 0.18985994 -0.21307881 0.19808803
0.2020229 0.013463638 0.022276862 0.12939337 0.16166028 -0.14822902 0.19030896 -0.02826992
-0.19837897 0.21159041 0.13484609 -0.14128381 0.061672103 -0.10634277 -0.107109144 -0.12517887
0.11974581 0.093500875 -0.064137794 0.11614992 0.0980249 0.018247237 0.18322523 0.10007442
0.036215372 -0.063835695 -0.038728055 0.20825411 0.20738801 0.14031093 0.20283277 -0.136236
0.16708715 0.16888645 -0.07689966 -0.024554852 -0.18472031 -0.085392 -0.07725775 -0.059992358
0.08635939 -0.029821746 0.20317122 0.045448117 0.15331508 -0.17053758 -0.16250324 -0.13299103
0.059543908 0.0021209836 0.16117506 -0.09879384 -0.0844035 -0.05609286 -0.16079459 0.15562284
0.14434564 -0.14355296 -0.19436255 -0.034042217 -0.08334461 0.18396932 0.044513334 -0.06390772
-0.14664023 -0.092390716 -0.055516973 0.06974193 0.117458835 -0.16003668 -0.071050726 0.21460016
0.03945098 0.028910026 0.18001942

encoder.encoder_layers.1.feed_forward.layer_norm.weight f4 [7]
00000000: 47b8 7f3f aeab 7f3f a328 803f 59ab 7f3f
00000010: 021c 803f 3c23 803f e8d1 7f3f
0.9989056 0.9987134 1.0012401 0.9987083 1.0008547 1.0010753 0.99929667

encoder.encoder_layers.1.feed_forward.layer_norm.bias f4 [7]
00000000: f93d 27ba ed43 5d3a 01f2 a93a ace3 2dba
00000010: 6e5a acba bdfc 713a b45c 473a
-0.0006379779 0.00084406027 0.00129658 -0.0006633352 -0.0013149509 0.00092310813 0.00076050614

encoder.encoder_layers.2.encode_self_attention.W_Q.weight f4 [16, 7]
00000000: c7b4 a4be 861f efbd bbe6 fb3d 3a3b 2c3e
00000010: 9592 923e 955d 58be c82e 873e ba79 c3bd
00000020: b436 3a3b cdd6 ab3e 9234 8f3d 821e 79bd
00000030: f74c 4abe 1058 94be df37 833e 8ecf bd3e
00000040: 6e97 a0be f794 553e c897 0abe a238 b2bd
00000050: 0c7e 933e 567b d1bd e355 df3d d511 2ebe
00000060: 0ee9 aebd 1198 8dbd a755 023e 92b3 8d3e
00000070: d8e3 713e 0d74 603e 12bf 823e 7709 743e
00000080: 6de9 6f3e 9378 9fbe c874 5d3e e87f 313e
00000090: 09a0 a73e 9c53 05be 83bc 43be 4253 e73d
000000a0: 4a3e b13e 3c6b 2bbe 55cc a3bd 1e81 a8bd
000000b0: 7a3d 81bd b512 94bd 0f87 8cbe 4cb9 563e
000000c0: e89c bf3e 8a7b e13c dca9 aebe b4b6 613e
000000d0: 0743 8c3d 13e9 aabe 6e38 383e cb97 a5be
000000e0: 7c0f a73e 9572 70bb 2220 e53c 77c4 22bd
000000f0: 1f93 abbe 71b4 303e 70ed 49be 0b90 9a3c
00000100: 90f6 8b3e b769 0abe a585 17be 5bfb 503c
00000110: dab1 af3e d4db 44be bc8f 823e 8279 a53d
00000120: 073a b1be 0e88 21be d189 8e3e e956 ac3d
00000130: 8963 15be 5e63 233e 9eed 943e 4672 63be
00000140: d1a6 af3e 625b 10be e8b4 a53e 9f97 9e3e
00000150: 6001 52be 7dff 45be e35e 543d 184e 35bd
00000160: f17c 9fbe d836 3dbe d780 b1bc e604 6b3e
00000170: 7c38 963e 184c 923d ce7c 7bbe c5a6 6bbd
00000180: 3040 06be c6f5 5ebd d5dd 26be f0d2 da3d
00000190: 9c97 be3e d2fe 0d3e 899a bb3e 77bc 063d
000001a0: 795d b63e d6ca 9abe 6df8 c0be d172 473e
000001b0: d301 843e e964 3dbc 6f3b 263e 53af 8b3e
-0.32169172 -0.116759345 0.12299868 0.16819468 0.28627458 -0.21129449 0.2640288 -0.09544702
0.0028413953 0.33562317 0.06992449 -0.06082011 -0.19755922 -0.28973436 0.25628564 0.37072414
-0.31365532 0.20857607 -0.13534462 -0.08702208 0.28807104 -0.102286026 0.109050535 -0.1699899
-0.085405454 -0.0691377 0.12727986 0.27676064 0.23622072 0.2191927 0.255364 0.23831736
0.23428889 -0.31146678 0.2162658 0.17333949 0.32739285 -0.13020176 -0.1911488 0.11295177
0.34617835 -0.16740125 -0.079979576 -0.08227752 -0.06310554 -0.072301306 -0.27446792 0.20969123
0.37424397 0.027524728 -0.34113967 0.22042352 0.06848722 -0.33380947 0.17990276 -0.3234237
0.32629 -0.003668939 0.027969424 -0.039738145 -0.33510682 0.17256333 -0.19719481 0.018867513
0.2733655 -0.1351689 -0.14797075 0.01275524 0.34315377 -0.19224483 0.25500286 0.080798164
-0.34614584 -0.15774557 0.2783952 0.08415014 -0.14588751 0.15955874 0.29087538 -0.2221156
0.34306958 -0.1409736 0.32364583 0.30975053 -0.20508337 -0.19335742 0.051848304 -0.04426393
-0.3115001 -0.18477952 -0.021667881 0.22951087 0.2933997 0.0714342 -0.24559328 -0.05753209
-0.13110423 -0.054433607 -0.1629556 0.106847644 0.37225044 0.13866737 0.36641338 0.032894578
0.3561819 -0.30232877 -0.37689534 0.19477393 0.25782642 -0.011559703 0.1623361 0.272822

encoder.encoder_layers.2.encode_self_attention.W_Q.bias f4 [16]
00000000: 3375 7e3d 0f8e 063e b566 a5bd fca3 5a3e
00000010: e982 2cbe d236 b23e fb0e 4abe 1c86 98be
00000020: 54d0 943d 5339 7fbe 22e4 b3be 57ef 953e
00000030: 947c a33d bb46 3bbe cfea 10bc 2826 b7be
0.06212349 0.13140129 -0.080762304 0.21351618 -0.16846813 0.3480745 -0.19732277 -0.29789817
0.07266298 -0.24924211 -0.3513499 0.29284164 0.07982746 -0.182887 -0.008845045 -0.35771298
