Transformer/model_EnDeTransformer/best_epoch_model_newnewnewStart.pth (torch, 77845 bytes, 118 tensors)

encoder.pos_embedding.positional_encoding f4 [96, 7]
00000000: 0000 0000 0000 803f 0000 0000 0000 803f
00000010: 0000 0000 0000 803f 0000 0000 a46a 573f
00000020: 4151 0a3f b043 933d 5a56 7f3f 5fb8 a93b
00000030: 1fff 7f3f ea6e c339 b7c7 683f 3311 d5be
00000040: 19e2 123e 4a5a 7d3f cab7 293c 7cfc 7f3f
00000050: e96e 433a c381 103e 2670 7dbf ad5f 5b3e
00000060: 700e 7a3f 3b92 7e3c 17f8 7f3f 2e93 923a
00000070: cfbd 41bf 3055 27bf 405d 913e 2b77 753f
00000080: 75b5 a93c eff1 7f3f e56e c33a 107c 75bf
00000090: 2c3c 913e 004a b43e 909a 6f3f a320 d43c
000000a0: 06ea 7f3f 9b4a f43a 8c0f 8fbe b8cd 753f
000000b0: cd47 d63e 6580 683f 5d8a fe3c 5be0 7f3f
000000c0: 2893 123b 4630 283f bdff 403f 9a29 f73e
000000d0: 1432 603f 2b79 143d eed4 7f3f 0001 2b3b
000000e0: 9546 7d3f f6fd 14be e961 0b3f 9eba 563f
000000f0: 22ac 293d bfc7 7f3f d76e 433b 3201 d33e
00000100: d53f 69bf 4976 1a3f 8f26 4c3f f0dd 3e3d
00000110: cfb8 7f3f acdc 5b3b f844 0bbf 64cd 56bf
00000120: f0bd 283f ed83 403f 6d0e 543d 1da8 7f3f
00000130: 7f4a 743b 5cff 7fbf 7205 913b f325 363f
00000140: 23e2 333f 763d 693d a995 7f3f 285c 863b
00000150: d85c 09bf d006 583f 8b9c 423f f051 263f
00000160: e66a 7e3d 7481 7f3f 1093 923b 2220 d73e
00000170: 6f4e 683f 3411 4e3f 4de5 173f 4bcb 893d
00000180: 7e6b 7f3f f5c9 9e3b 7298 7d3f d704 0c3e
00000190: c074 583f 59af 083f 3060 943d c753 7f3f
000001a0: da00 ab3b 4479 263f e87a 42bf 69b9 613f
000001b0: 7888 f13e 11f4 9e3d 4f3a 7f3f bc37 b73b
000001c0: 1068 93be 2c29 75bf e7d2 693f 1f72 d03e
000001d0: da86 a93d 161f 7f3f 9e6e c33b 251e 76bf
000001e0: 36e2 8cbe 7eb6 703f 8147 ae3e 7918 b43d
000001f0: 1d02 7f3f 7ea5 cf3b b340 40bf 840a 293f
00000200: 0c5b 763f e835 8b3e dca8 be3d 64e3 7e3f
00000210: 5bdc db3b 6979 193e bf1b 7d3f 16b9 7a3f
00000220: 98d7 4e3e ef37 c93d eac2 7e3f 3713 e83b
00000230: c8b6 693f 22f0 d03e d3ca 7d3f 3d31 063e
00000240: a0c5 d33d b0a0 7e3f 104a f43b 102f 563f
00000250: fc37 0cbf 328c 7f3f 1a64 733d de51 de3d
00000260: b77c 7e3f 7440 003c 1505 11bc 6ffd 7fbf
00000270: dffa 7f3f 50fd 4cbc 94dc e83d fe56 7e3f
00000280: de5b 063c e6a1 58bf bf67 08bf 4616 7f3f
00000290: 6bcf acbd b165 f33d 862f 7e3f 4777 0c3c
000002a0: fcd3 67bf fe2d d93e 98df 7c3f 118d 1fbe
000002b0: 23ed fd3d 4f06 7e3f b092 123c 3887 07be
000002c0: 78bf 7d3f c459 793f f6de 67be 6a39 043e
000002d0: 5adb 7d3f 16ae 183c 0837 433f 819c 253f
000002e0: 7389 743f c57e 97be 5c7b 093e a6ae 7d3f
000002f0: 7bc9 1e3c 0ed5 743f 3893 95be 0875 6e3f
00000300: 4645 babe 5abc 0e3e 3580 7d3f dfe4 243c
00000310: 2ab4 8a3e 576d 76bf 9224 673f e514 dcbe
00000320: 5ffc 133e 0550 7d3f 4200 2b3c e9e3 29bf
00000330: b380 3fbf c2a1 5e3f d4c0 fcbe 5e3b 193e
00000340: 181e 7d3f a21b 313c a4ef 7cbf 18f4 1d3e
00000350: e0f7 543f e30e 0ebf 5179 1e3e 6fea 7c3f
00000360: 0137 373c 06de cebe 8e2c 6a3f bb33 4a3f
00000370: 1301 1dbf 2db6 233e 08b5 7c3f 5f52 3d3c
00000380: 4d2a 0d3f a98f 553f 9863 3e3f 2d23 2bbf
00000390: e9f1 283e e57d 7c3f ba6d 433c 39fa 7f3f
000003a0: b786 59bc 1f97 313f 7562 38bf 7d2c 2e3e
000003b0: 0745 7c3f 1489 493c f771 073f e73b 59bf
000003c0: 46df 233f 5cad 44bf dd65 333e 6d0a 7c3f
000003d0: 6da4 4f3c c23a dbbe 5f58 67bf 3c4e 153f
000003e0: 97f3 4fbf 039e 383e 17ce 7b3f c3bf 553c
000003f0: 38e5 7dbf ea08 03be 4ff7 053f 3626 5abf
0.0 1.0 0.0 1.0 0.0 1.0 0.0 0.84147096
0.54030234 0.07190645 0.9974114 0.0051794495 0.9999866 0.00037275936 0.9092974 -0.41614684
0.14344062 0.98965895 0.01035876 0.99994636 0.00074551866 0.14112 -0.9899925 0.21423216
0.9767828 0.015537794 0.9998793 0.0011182779 -0.7568025 -0.6536436 0.28391457 0.9588496
0.020716408 0.99978536 0.0014910368 -0.9589243 0.2836622 0.35212708 0.9359522 0.025894469
0.99966466 0.0018637957 -0.2794155 0.96017027 0.41851655 0.90820915 0.031071836 0.99951714
0.0022365544 0.6569866 0.75390226 0.48273927 0.87576413 0.036248367 0.9993428 0.0026093125
0.98935825 -0.14550003 0.54446274 0.83878505 0.041423924 0.99914163 0.0029820704 0.4121185
-0.91113025 0.6033674 0.79746336 0.046598375 0.9989137 0.0033548279 -0.5440211 -0.8390715
0.6591482 0.752013 0.05177157 0.99865896 0.0037275848 -0.9999902 0.004425698 0.71151656
0.7026693 0.05694338 0.9983774 0.0041003413 -0.53657293 0.84385395 0.76020116 0.64968777
0.062113665 0.99806905 0.0044730976 0.42016703 0.9074468 0.80495 0.5933426 0.06728228
0.99773395 0.0048458525 0.9906074 0.13673721 0.84553146 0.5339256 0.07244909 0.9973721
0.0052186074 0.65028787 -0.7596879 0.8817354 0.4717443 0.07761396 0.99698347 0.005591361
-0.2879033 -0.9576595 0.91337436 0.40712067 0.08277674 0.9965681 0.0059641143 -0.96139747
-0.27516335 0.9402846 0.34038928 0.0879373 0.996126 0.006336867 -0.75098723 0.6603167
0.96232677 0.27189565 0.09309551 0.9956572 0.006709618 0.1498772 0.9887046 0.9793867
0.2019943 0.098251216 0.99516165 0.0070823687 0.9129453 0.40808207 0.9913761 0.1310472
0.10340428 0.9946394 0.007455118 0.8366556 -0.54772925 0.99823296 0.059421636 0.10855459
0.9940905 0.007827867 -0.008851309 -0.99996084 0.99992174 -0.012511566 0.11370197 0.9935149
0.008200614 -0.8462204 -0.53283304 0.9964336 -0.08437999 0.118846305 0.99291265 0.00857336
-0.9055784 0.42417902 0.98778677 -0.15581156 0.12398746 0.99228376 0.008946106 -0.13235176
0.99120283 0.97402596 -0.22643647 0.12912527 0.9916283 0.009318849 0.76255846 0.6469193
0.9552223 -0.29588905 0.13425964 0.9909462 0.009691591 0.95637596 -0.29213881 0.93147326
-0.36380976 0.13939038 0.99023753 0.010064333 0.2709058 -0.9626059 0.90290177 -0.4298469
0.1445174 0.98950225 0.010437073 -0.6636339 -0.74805754 0.8696557 -0.49365866 0.14964053
0.98874044 0.010809811 -0.9880316 0.15425146 0.8319073 -0.55491465 0.15475966 0.9879522
0.011182548 -0.40403765 0.91474235 0.78985184 -0.61329764 0.15987463 0.9871373 0.011555283
0.5514267 0.83422333 0.7437072 -0.6685055 0.16498531 0.986296 0.011928016 0.99991184
-0.013276747 0.6937122 -0.72025234 0.17009158 0.9854283 0.012300748 0.5290827 -0.8485703
0.64012563 -0.76827025 0.17519327 0.9845341 0.0126734795 -0.42818266 -0.9036922 0.583225
-0.81231064 0.18029027 0.98361343 0.013046208 -0.99177885 -0.12796369 0.5233049 -0.85214555

encoder.encoder_layers.0.encode_self_attention.W_Q.weight f4 [16, 7]
00000000: d645 22be 22c3 1abe ac2e 7dbe 8195 aabe
00000010: bd74 763c 93bf 03be f2c2 e83d 8dcc 803e
00000020: 2104 6b3e 8d73 d53d cf7e 74bd e957 a4bd
00000030: b305 393e 50e1 94bc e289 b03e b04a 49be
00000040: 67cd b6be 78b0 333e e39d 043e ed34 87bd
00000050: 86d6 db3c f02f 883e 1da1 ba3e 541c 9fbe
00000060: 3734 b0bd 0f28 823d 89d9 aabc 9109 7d3e
00000070: 9614 8b3d 8489 943e 9155 babe f495 743d
00000080: 7b0f 05be 3855 97bb 46b2 f2bd 9e22 09be
00000090: aff9 223e 8525 9ebe 9a75 a0bc e7e2 20be
000000a0: e805 00be a244 2d3b 54b5 8c3e d1c9 5b3c
000000b0: 8c6b 25bd 7997 5b3e 9ffe 97be 0cad 3dbe
000000c0: 9a4a 683e 8c28 803e 0fb9 363c a2f9 83be
000000d0: 099d 95bd 8ce2 1dbe e2a9 a83e deb1 b4bd
000000e0: dac8 15be 3b89 b0be c21b 9fbe 20df bbbe
000000f0: c89d c93d e507 883e 711b b83e f9d4 843e
00000100: 22ff 603e 8b56 9dbd a9bc a0be 87c5 fb3d
00000110: b4a2 333e 8db5 9f3e f506 253e c5b5 0b3e
00000120: 4b3e 96be dc72 84be 52e8 2ebe 27e7 b43e
00000130: 5120 c0be df6e c33e 9c3d a63e 1fad 85bd
00000140: b938 1abe 9f0b 463e 43a9 a0be 2272 55bd
00000150: 9084 af3e 149c a93c b332 07be 7d34 9e3e
00000160: 7592 2dbe 7d8a abbe 0b65 15be 243c 97bc
00000170: ba79 aa3e 4a83 20be 86d4 5ebe 2a93 cfbc
00000180: 3853 543d 6f6a a2be 4ddd b7bd 0762 0c3e
00000190: 6b67 533e 97aa 41be 4799 7ebc e5bb 0bbe
000001a0: c9c8 33bd 5289 a33e 02a5 d5bd 5124 143e
000001b0: 828d aa3d 67a0 d1bd 0169 993e 2cd3 02be
-0.15846953 -0.151135 -0.24724835 -0.33317187 0.015042481 -0.12866049 0.11365308 0.2515606
0.22950794 0.1042243 -0.059691247 -0.0802458 0.1806858 -0.018173844 0.34480196 -0.19657397
-0.35703585 0.17547786 0.12950854 -0.06601892 0.026835691 0.26599073 0.36451045 -0.310763
-0.08603709 0.06355297 -0.020855682 0.2471068 0.06791036 0.29011166 -0.36393407 0.05971332
-0.12994187 -0.004618313 -0.11850409 -0.13392112 0.15915559 -0.30888 -0.019587327 -0.15711556
-0.12502253 0.0026438613 0.27482092 0.013414816 -0.040385768 0.21444501 -0.29686448 -0.18523043
0.22684708 0.25030935 0.01115252 -0.25776392 -0.07305343 -0.15418452 0.3294211 -0.08822988
-0.146274 -0.344797 -0.31075865 -0.36693668 0.098445475 0.26568523 0.35958436 0.25943735
0.21972325 -0.076825224 -0.31393936 0.12293535 0.17542535 0.311932 0.16115935 0.13643558
-0.293444 -0.2586888 -0.1708081 0.35332605 -0.37524655 0.38170525 0.3246888 -0.06527161
-0.150607 0.1934037 -0.31379136 -0.0521108 0.34280825 0.020704307 -0.13202934 0.3089942
-0.169504 -0.33504096 -0.14589326 -0.018461294 0.33295995 -0.15675083 -0.21760759 -0.025338728
0.051837176 -0.31721827 -0.08977757 0.1370927 0.2064492 -0.18912731 -0.015539474 -0.13645895
-0.043892656 0.31940705 -0.10431863 0.14466979 0.08327772 -0.102356724 0.29962924 -0.12775868

encoder.encoder_layers.0.encode_self_attention.W_Q.bias f4 [16]
00000000: 0700 a1be 482b b03e 1ab4 f8bd f4a0 cbbd
00000010: 4338 81be 2fc1 9f3d 03d0 5dbe bfcd ab3e
00000020: 9240 983e f743 893e b9c0 843e 4654 d7bd
00000030: 07fa 313d e523 8a3e ad54 0e3d a55e f63c
-0.31445333 0.3440802 -0.12143727 -0.09942809 -0.25238237 0.07800519 -0.21661381 0.3355541
0.29736763 0.26809666 0.25928286 -0.10514121 0.043451335 0.2698051 0.034748722 0.030074427

encoder.encoder_layers.0.encode_self_attention.W_K.weight f4 [16, 7]
00000000: 9452 173d 46a7 833e c645 373e ef49 373e
00000010: 8dcc 6f3e 1132 cabd 0ec2 a5be d101 223e
00000020: 2961 86be 9244 8ebe 5d2d a73e 5cab e33d
00000030: 8160 e73d 1425 a8be d4a8 8ebd 2940 8d3e
00000040: b0a4 153e a41a b8be f232 b7be 034c edbd
00000050: 3d49 8c3e c6d5 b7be e669 a2be fa6b b63e
00000060: 5a9e 603c a91f da3d baf9 d2bd 2ad5 dc3d
00000070: 0e82 243e 8677 80be cf39 48be f439 1dbe
00000080: b44d 7fbd a92b 9bbe 3fb6 0cbe fb6b 9b3e
00000090: 0741 73bd 9bf6 86be dc47 8bbe 510a 983e
000000a0: b875 63be 895d 42be cbe6 b73e d870 573e
000000b0: 775d 85be 2f9e 413e 6ae7 573e cd62 653e
000000c0: cfe6 32bd 8758 18be 6b9d 4dbe b47d ab3c
000000d0: 6250 b23e f8a3 323e a080 d33d f1ad bd3e
000000e0: c364 73be 0b5e a2be 7ad9 aa3e e7fe 803e
000000f0: 0568 be3d 349f a2bd c490 52bd 6b53 013e
00000100: 8057 b23e 26f1 02be 2e42 5cbe 01c8 1a3e
00000110: 40f3 833e 5d62 2f3e da59 e63d 4a8d 81be
00000120: 0174 9fbe 275e 50bc 5448 82be 389a 9dbd
00000130: 868f 85be a65e 74be 5f4e e2bd 0abf 9cbe
00000140: e7d6 a0be e769 c93c 065d bfbe 8d4e b33d
00000150: b13b 5dbd edd7 953e 0f9e 4fbe 1822 933d
00000160: 8e99 493e 8dd9 c13d a0b5 b73e 5bf4 58be
00000170: 4fc5 25be 52b4 7c3e c2bb 13bc 26b8 8b3e
00000180: 25b3 6e3d 2bdf 82be 7950 1b3e 7a4e 07be
00000190: a844 adbe 6742 35be f385 7fbe 88b4 573e
000001a0: 2df7 26be 2101 32be 1ff8 983e 52b5 8f3d
000001b0: a021 13be 1e19 a8be f963 d4bd 7f5e 90be
0.036943987 0.25713557 0.1789771 0.17899297 0.23417874 -0.09872831 -0.32374614 0.15821005
-0.26246002 -0.2778669 0.32651797 0.111166686 0.112977035 -0.32840788 -0.06965795 0.27588013
0.14613605 -0.35957825 -0.35781056 -0.11586764 0.27399626 -0.35905284 -0.3172142 0.35629255
0.013709629 0.1065057 -0.10301538 0.10782845 0.16065237 -0.2509119 -0.19553302 -0.15354139
-0.062329963 -0.30306748 -0.13741396 0.3035582 -0.059388187 -0.2636002 -0.27203262 0.2969537
-0.22212875 -0.18980993 0.3591827 0.2103914 -0.2604787 0.18907999 0.21084371 0.22400971
-0.043677147 -0.1487752 -0.20079581 0.020933963 0.34826952 0.17445362 0.10327268 0.3704677
-0.23768906 -0.31712374 0.33369046 0.25194475 0.09297184 -0.07940522 -0.05140759 0.12629478
0.34832382 -0.12787303 -0.2150962 0.15115358 0.25771523 0.17127366 0.112476066 -0.25303108
-0.3114319 -0.01271776 -0.25445807 -0.076954305 -0.26086062 -0.2386423 -0.11050104 -0.306145
-0.31413957 0.024586631 -0.3737566 0.08755217 -0.054012004 0.292663 -0.20275138 0.07184237
0.19687483 0.09465323 0.35880756 -0.21186964 -0.16188549 0.24678162 -0.009016933 0.27288932
0.058276314 -0.2556089 0.15167417 -0.1321353 -0.33841443 -0.17701112 -0.24953441 0.21064961
-0.16305228 -0.17383243 0.298768 0.07017006 -0.14368296 -0.32831663 -0.10370631 -0.28197095

encoder.encoder_layers.0.encode_self_attention.W_K.bias f4 [16]
00000000: 9412 96bc e8e5 4c3e 47de 7bbe 4968 9abe
00000010: 850f 9d3e 4694 263e a794 9f3e e69f 783e
00000020: 758a db3d 6d91 853e cac0 88be 5db2 a8be
00000030: 69b5 c0be c511 bebe 02de 273e 02b4 163e
-0.018319406 0.20009577 -0.24596511 -0.30157688 0.30675903 0.162675 0.311681 0.24279746
0.10719768 0.26087514 -0.26709586 -0.3294858 -0.37638405 -0.37122932 0.16393283 0.14717105

encoder.encoder_layers.0.encode_self_attention.W_V.weight f4 [16, 7]
00000000: b847 b33d 57ff b83e 6f0e 293d 44c9 a23d
00000010: be4d 0dbe 16e9 2abd b9bb 6fbb 260d f7bd
00000020: ec3b 463e c7ec 383e 912d a6be d519 11bb
00000030: 5128 16be a900 bdbb 4f83 13be 0a31 c03e
00000040: 9981 82be 8dc0 103e 3375 ed3d d558 9bbe
00000050: 5bb9 353e c609 abbe 8792 10be 76c2 b8be
00000060: 2079 aabe f4a2 51be 327b c03e 7d1a b7bd
00000070: ea87 7b3b 4040 323e 7606 203e 15fe 49be
00000080: 8fc5 353e e66e 983e cde6 7bbe 6403 bebe
00000090: e229 ad3e 235b a4be 2282 d4bd 2cad 933e
000000a0: e6de 50be 45f4 d9bd 0797 36be 8f96 54be
000000b0: 332a e5bb a786 f83d f0cb b03e deda 98bd
000000c0: 0c41 37bb ce1e aebd 9531 b93d 65e9 e0bd
000000d0: 5e2e 9cbe 3292 e2ba ce78 003e 3740 a0be
000000e0: b1d0 a639 822a 80bd 0ae2 5ebd 1e48 a63e
000000f0: 5386 9f3c a485 34bd 1ffd acbd d740 763e
00000100: c46f a33e e52a ffbd d728 3a3d 0561 e5bb
00000110: c993 9e3e 92ee 143d ca29 07be a0c4 86be
00000120: 42c7 983e 0766 82be 1190 bebe fe32 243e
00000130: 9509 aabe 084f 6e3e 8e1c 8b3e 880f 043d
00000140: b85b 013e 95fb e8bd 0c85 4c3e b946 493e
00000150: 830e c0bd 8dfc 80be fe7d 24bd 4481 313e
00000160: 1a33 3e3e 3d36 6fbe eb2c 77be 65ec 2e3d
00000170: e564 463e feb5 db3d 801d 803e df1f 263e
00000180: 649e 853e b053 bc3e 1b98 a93c 103e be3c
00000190: c2a1 3abe 564e 92bd 0811 2bbe 415f 81be
000001a0: c952 babe 49fa a73e b6a5 9fbe 0162 b73e
000001b0: aa7c 283e aea6 33bd 3d71 abbe eb75 713e
0.08753914 0.3613231 0.04127353 0.079485446 -0.13799188 -0.041726194 -0.0036580397 -0.12063055
0.19358796 0.18059073 -0.3245664 -0.0022140641 -0.14663817 -0.005767901 -0.14405559 0.37537414
-0.254895 0.14135952 0.115946196 -0.3034121 0.17746489 -0.33405894 -0.14118396 -0.36085862
-0.33295536 -0.20472318 0.3759399 -0.08940599 0.0038380572 0.17407322 0.15627465 -0.19725831
0.17751144 0.2977211 -0.24599762 -0.37111962 0.33821017 -0.32100782 -0.10376383 0.28843057
-0.20397529 -0.10642294 -0.1783105 -0.20760559 -0.006993556 0.12135058 0.34530592 -0.074636206
-0.0027962355 -0.08501969 0.0904266 -0.109820165 -0.30504125 -0.0017286001 0.12546083 -0.31298992
0.00031817475 -0.06258108 -0.054414786 0.32476896 0.01947323 -0.044072762 -0.084467165 0.24048172
0.31921208 -0.12459353 0.045449104 -0.007000091 0.30972126 0.03636033 -0.13199535 -0.26321888
0.29839522 -0.25468466 -0.3721929 0.16035077 -0.33210436 0.23272336 0.27170223 0.032241374
0.12632644 -0.113761105 0.19972628 0.19655885 -0.09377768 -0.2519268 -0.040159218 0.17334467
0.18574181 -0.23360534 -0.24138229 0.042705912 0.19374426 0.10728072 0.25022507 0.16223095
0.26097405 0.36782598 0.020702412 0.023222953 -0.18225768 -0.07143848 -0.16705716 -0.25267985
-0.36391285 0.3280814 -0.31181115 0.3581696 0.16453806 -0.04386013 -0.3348483 0.23580138

encoder.encoder_layers.0.encode_self_attention.W_V.bias f4 [16]
00000000: ad68 aa3e d548 6e3e 4670 493d c63b a5be
00000010: ab3c 8dbe ce9b 483e 0c9a 143e 9395 dfbd
00000020: b36f 443e 9b34 50be a182 2c3e 540e bc3e
00000030: bd83 813e e5c1 73be 63fd e3bd 1d06 b2be
0.33282986 0.2326997 0.049179338 -0.32272166 -0.27585348 0.19590685 0.14511889 -0.10917201
0.19183235 -0.20332567 0.16846706 0.36729681 0.2529582 -0.23804434 -0.11132314 -0.3477029

encoder.encoder_layers.0.encode_self_attention.fc.weight f4 [7, 16]
00000000: 8163 41be 5cfc 1dbe 6b7e f7bd 025e fa3b
00000010: fb80 0b3d b19b fd3d fbe1 8abd 542e 613e
00000020: 1b88 59be 0849 45be 7a1b 863c 7f3d ac3d
00000030: 1590 7bbd 2379 2dbe 7f96 e63c b83d 22be
00000040: 7821 d13d 9091 10bd 65ee 723e f543 aebd
00000050: c17f 4c3e a674 3b3e 4828 013e 9bff 3cbe
00000060: 1b4a 8c3d 50d8 bebd 4d28 ecbd 7a33 383c
00000070: 14d3 36be 8669 f93c 7093 39be a663 013e
00000080: b419 00be 6a86 493e 8ae7 243e 9f7c 343e
00000090: 76af 393e e1bd f8bd b83d 533e e638 153e
000000a0: 8450 433e b5a1 63ba 6706 07bc b455 653d
000000b0: 3df8 e53c 54b1 763e e8fb 923d 58b7 c2bc
000000c0: b672 e83d 6e7c 793c 7813 1f3e 7329 633e
000000d0: e0a1 e3ba fa57 b3bd 1a6b 4e3e a0ca c6bb
000000e0: b9f4 1c3e 1643 f13d ee70 55bd 4aaa a93d
000000f0: aec8 febc 098f 273e 1d92 3fbb 6c25 bf3d
00000100: b967 573e ec58 e0bd 791e 363d 24e0 f83d
00000110: 0221 453e 8a03 a3bd 69d2 45be a1a8 423e
00000120: f4ce 54bd 832f 383e 5d4d 2fbe aa4a 62be
00000130: 8409 53be cc15 063e 6713 0dbe c38b 03be
00000140: e31c 4e3e b7ad 323e 7008 6fbe c708 45be
00000150: be44 653d dc2f 6c3e 82f9 ca3a 9be3 b5bd
00000160: 4506 05be e91f 693e c32d a23d 685e 42be
00000170: ff45 08be b898 c83d 644d 6e3e 86d2 54be
00000180: 5bf4 de3d 940a 013e 87e5 52be 6f48 f23d
00000190: 3468 b0bd 6bd7 1abe 443f 09bd f0b5 6d3d
000001a0: 1e76 a93d 88a7 58be 02a5 27be a081 5e3e
000001b0: 649a 0b3e 2bbf 0e3e f1c7 033e 1b38 11bc
-0.18885614 -0.15428299 -0.12084659 0.007640601 0.034058552 0.123832114 -0.067813836 0.21990329
-0.21243326 -0.1926614 0.016370524 0.08410167 -0.061416704 -0.16940741 0.028147934 -0.15843856
0.10211462 -0.03529507 0.23723753 -0.085090555 0.19970609 0.18306217 0.12613022 -0.18456881
0.06850072 -0.09318602 -0.11531124 0.011242742 -0.17853957 0.030445825 -0.18122649 0.12635669
-0.12509805 0.19680181 0.1610395 0.17625664 0.1813334 -0.121455915 0.20629013 0.14572486
0.19073683 -0.0008683459 -0.0082412725 0.055989936 0.02807247 0.24091083 0.071769536 -0.023769066
0.113500044 0.01522742 0.1553477 0.2218378 -0.0017366968 -0.087570146 0.20158044 -0.0060666353
0.1532773 0.11780374 -0.05210965 0.08284433 -0.03110155 0.16363157 -0.0029231377 0.093333095
0.21035661 -0.109544605 0.044462655 0.121521264 0.19250873 -0.079596594 -0.19318546 0.1900964
-0.05195518 0.17986874 -0.17119355 -0.22098795 -0.20609099 0.13094252 -0.13776933 -0.12846284
0.20128207 0.1744908 -0.23343062 -0.1924163 0.05597376 0.23065132 0.0015485736 -0.08881303
-0.12990673 0.22766079 0.079188846 -0.18981326 -0.13307951 0.09794754 0.2327171 -0.20783433
0.10886451 0.12601691 -0.2059537 0.11830222 -0.08613625 -0.15121238 -0.0335076 0.058034837
0.08274482 -0.21157658 -0.16371539 0.21729136 0.13633114 0.13940112 0.1286924 -0.008863474

encoder.encoder_layers.0.encode_self_attention.fc.bias f4 [7]
00000000: 0c8b 5a3e 6a42 3abe ac45 163e a817 6cbe
00000010: ebc1 363e 6a4a 973d 6ccc 813d
0.21342105 -0.18189397 0.14675015 -0.23055899 0.17847411 0.0738724 0.063378185

encoder.encoder_layers.0.encode_self_attention.layer_norm.weight f4 [7]
00000000: 6b66 7e3f f5b8 803f 614f 7e3f 4c0b 803f
00000010: d0bd 7e3f dfaa 803f 63c8 7e3f
0.9937503 1.0056444 0.9933987 1.0003448 0.9950838 1.0052146 0.99524516

encoder.encoder_layers.0.encode_self_attention.layer_norm.bias f4 [7]
00000000: f0d1 9cbb 1b93 ecbb 04a0 c53b 7a96 aebb
00000010: 7802 c73b 17db b03b 4a73 b03b
-0.0047857687 -0.007219685 0.0060310382 -0.005327997 0.0060732923 0.0053972113 0.0053848373

encoder.encoder_layers.0.feed_forward.fc.0.weight f4 [7, 7]
00000000: 5077 9cbe 2749 a83e a488 75bd 126b b43e
00000010: 3502 0fbe 6738 b73e 8733 183e a111 d3bb
00000020: eeeb 70bd 2143 9c3e a2c0 1abc a4f9 81bc
00000030: b9dd 83be 4d67 ad3d 63c4 aabe 9f93 3dbe
00000040: 53bb b43e fe82 84be f06b 823e 0157 48be
00000050: fb8b bd3d 8dcd 2abe 04ef a53e 2c13 783e
00000060: c466 a7be 8b66 953e f7e4 eabd 3216 b4be
00000070: 3696 9d3e 7536 87be f053 583e 187b 7dbd
00000080: 93cd f03d 2b3d bc3e b491 97be e5b4 07be
00000090: 265a 28be 7b88 d6bd c3e9 88bc 38de abbd
000000a0: 6ef1 443e 3b9f afbc c543 b6be c6bd 38be
000000b0: 46d0 b0be 7c18 243e 1497 4ebe 2077 26be
000000c0: 0c86 92be
-0.30559778 0.3286831 -0.059944764 0.35237938 -0.13965686 0.3578522 0.14863406 -0.0064413105
-0.05881875 0.30519965 -0.009445341 -0.015866108 -0.25755098 0.08466969 -0.33352956 -0.18513344
0.35299167 -0.2588119 0.25472975 -0.1956444 0.09255215 -0.16679974 0.32408917 0.24226063
-0.3269559 0.29179797 -0.11469453 -0.35173184 0.30778664 -0.26408735 0.2112577 -0.06188497
0.1175796 0.36765417 -0.2960335 -0.132526 -0.16440639 -0.1047525 -0.016713029 -0.08391994
0.19232723 -0.021438232 -0.3559858 -0.18041143 -0.345339 0.16024965 -0.20174819 -0.1625638
-0.28617895

encoder.encoder_layers.0.feed_forward.fc.2.weight f4 [7, 7]
00000000: c645 be3e 49bf b13e d113 42be 6257 033e
00000010: daa7 803e b3aa a2be 14b5 463e 67dd 1bbe
00000020: 106d a43e 8f6c 7bbd 5739 ae3e 89bb 1e3e
00000030: ca87 1d3e 9b45 473e 86c3 b53e 371f f43b
00000040: 3ea9 5e3e 2a3f c1be c23b 7e3e 79c4 023e
00000050: a5f6 9e3d 2d0a 36bd 493a 48bd 2bf9 79be
00000060: c238 05bd 5523 cdbd 73a4 82be 417c b53e
00000070: 33b8 523e 7c92 f13d 7b35 81be 9510 a9bd
00000080: 877a d43d caf5 373e 2889 5d3d b3b7 6bbe
00000090: a471 0a3e 74c3 8fbd c634 073e 6916 8cbe
000000a0: eec6 c7bd 1294 0ebe d5ce b4be 9fe2 bbbc
000000b0: fd32 84be f387 213e 5485 53be ad00 b53d
000000c0: 0c2a 823e
0.37162608 0.34716251 -0.18952872 0.12826303 0.2512806 -0.31770858 0.19405013 -0.15221177
0.32114458 -0.061382826 0.34028122 0.15501226 0.1538383 0.19460146 0.35500735 0.00745001
0.21744248 -0.37743503 0.24827483 0.12770261 0.077618875 -0.044443298 -0.04888371 -0.24411456
-0.03252483 -0.10016505 -0.2551609 0.3544636 0.20578079 0.11795518 -0.25236115 -0.08255116
0.10374933 0.17964855 0.05408588 -0.23019294 0.13519913 -0.070197016 0.13203725 -0.27360848
-0.0975474 -0.13923672 -0.3531405 -0.02293521 -0.2582015 0.15774517 -0.2065633 0.088380195
0.25422704

encoder.encoder_layers.0.feed_forward.layer_norm.weight f4 [7]
00000000: ca77 7e3f 78ca 803f efbc 7f3f f891 803f
00000010: 38f9 7e3f cfa1 803f 69c2 7e3f
0.99401534 1.0061789 0.99897665 1.0044546 0.9959903 1.004938 0.99515396

encoder.encoder_layers.0.feed_forward.layer_norm.bias f4 [7]
00000000: 0135 97bb 2915 e0bb 471b d43b 6090 babb
00000010: 78ad ce3b 5522 ad3b aba8 a13b
-0.004614473 -0.00683846 0.0064729783 -0.0056934804 0.0063073 0.0052836337 0.004933437

encoder.encoder_layers.1.encode_self_attention.W_Q.weight f4 [16, 7]
00000000: bb15 b3be de48 993c df28 a83d 8d8e 683e
00000010: e121 73bd 0409 b93d d000 503d a72b 15be
00000020: df31 8a3e 2705 113e 1d9f ad3c c88b 613e
00000030: 0b96 adbd fd57 783e 37ba a33e 5e2b a8be
00000040: b31b 473e d27e 8e3e 6e5a 25be 8570 be3e
00000050: 1ac1 7dbe dcf0 8a3e 0e67 39bc 5b32 2abe
00000060: f1b5 fdbd cb6f af3e c2eb 5bbe 8807 8a3e
00000070: b01a 97be fdf2 80bd 13bc 1ebd 5609 8f3e
00000080: 481a a73e cd71 5cbe 4089 b03e 3f80 4d3e
00000090: 90bf 74be 35b7 fbbd d792 bbbe a66c 9a3e
000000a0: c739 603e 2198 87be 939a c0be 7ac1 e53d
000000b0: 51f1 933e 7019 453e 910f 813e 3d34 6dbd
000000c0: a45c 29be 61eb 663e ebc0 bbbe e2ec 933e
000000d0: 29f7 b939 947a f2bd 72f1 9c3e 8b30 453e
000000e0: 4479 9b3e 43ce 243e 3e17 733e 9746 c6bc
000000f0: 8800 9f3e 1e2e 68be 7074 923d de12 2e3d
00000100: 666a 1cbe 828c 3a3c 9452 24b9 7f82 873b
00000110: db1c 7abe f6bd 76be b9b4 883e dc1b 5dbd
00000120: 28bd ba3e da68 cb3d 27af 9a3d f9d8 ba3e
00000130: 6845 be3d 98d3 64be 3642 b13e d9c0 1bbe
00000140: 5406 513e b2e1 98bd f61e 453d 8343 d43d
00000150: ab27 92be bef1 b13e a642 8a3e 24cd 89bd
00000160: 7ffb 5ebe 93c7 42be 93ad 91be b077 df3d
00000170: 5d6b 0fbe 9d4a 8a3c c949 d03d 2af8 363e
00000180: 4ba0 8bbe 5c1d b63e 0f4e a23e 7f9a a93e
00000190: 90d8 89bd 7240 8ebe aa2d adbe 25d9 2e3e
000001a0: c8ff 40be 7562 45be 615f fa3c f896 0b3e
000001b0: f07a b9be 0c9b 293e 11a9 30be e990 29ba
-0.34977517 0.018711504 0.082109205 0.22710629 -0.05935848 0.09034923 0.050782025 -0.14567433
0.26991174 0.14162122 0.021194035 0.22025979 -0.08475884 0.24252315 0.31978008 -0.32845587
0.1944416 0.2783113 -0.16147777 0.3719522 -0.24780694 0.27136886 -0.011316074 -0.16620772
-0.12388218 0.3426498 -0.21476653 0.2695887 -0.29512548 -0.06296346 -0.03875358 0.2793681
0.32637239 -0.21527787 0.34479713 0.20068453 -0.239012 -0.12290803 -0.36635467 0.30161017
0.2189704 -0.26483253 -0.3761793 0.11218543 0.28895047 0.19247985 0.2520719 -0.057911146
-0.16539246 0.22550727 -0.36670622 0.28891665 0.00035470098 -0.11839786 0.30652958 0.19256799
0.30365956 0.16094308 0.23739335 -0.024203582 0.31055093 -0.22673842 0.07151115 0.042498462
-0.15274963 0.011386039 -0.00015671022 0.0041354294 -0.2442507 -0.24095902 0.2670038 -0.053981647
0.3647244 0.09932108 0.07552939 0.36493662 0.09290582 -0.22346342 0.34620827 -0.15210284
0.2041257 -0.07464923 0.04812523 0.10364439 -0.2854589 0.34754747 0.27003974 -0.067285806
-0.21775626 -0.19021444 -0.2845274 0.109115005 -0.140058 0.016881282 0.101703234 0.17868105
-0.2727073 0.35569274 0.3170018 0.33125684 -0.06730759 -0.27783543 -0.338239 0.17075022
-0.18847573 -0.1927584 0.030563058 0.13631809 -0.36226606 0.16563052 -0.17251994 -0.00064684317

encoder.encoder_layers.1.encode_self_attention.W_Q.bias f4 [16]
00000000: 6443 63be 790b 1e3e 4535 acbe c2f5 733e
00000010: 5f6e a6be 88ef b73d b316 e6bc 2ea6 ac3e
00000020: 5f92 c33e a435 1dbe a1b3 ba3e 719c aa3d
00000030: d0a1 2ebd 4b80 483e d6e7 043e ff44 9dbd
-0.22193676 0.15434064 -0.3363439 0.23824218 -0.3250608 0.08981234 -0.028086996 0.33720535
0.3819761 -0.15352494 0.3646517 0.0833062 -0.042634785 0.1958019 0.12979063 -0.076791756

encoder.encoder_layers.1.encode_self_attention.W_K.weight f4 [16, 7]
00000000: 34f2 923e ebf7 8a3d 3e57 bfbe 4660 b13a
00000010: 597a 523e dc6b 34be dc38 b33e 7870 643e
00000020: 9a56 3d3e eb65 6d3e 5b85 953e 99d4 943e
00000030: 8fc6 91be 850f cbbd 81c9 b53e e2f9 333e
00000040: f1d3 1fbd 573b 35be 9d3f 7cbe 22a3 113e
00000050: bfd0 b73c 73f7 be3d 3cd0 0c3e b247 053d
00000060: ed2d 25be da3b 133d a080 943e f7ad 863e
00000070: 2033 0fbe 2d8b 873e 6db0 98be 6e93 ba3e
00000080: 034c 33be e69d 2d3e 0be4 823e 544b 04be
00000090: d087 9e3d c93d 7f3e 1aea 2f3e 22da 2c3e
000000a0: 9c84 8d3d 4500 c23d 2878 6abd df03 acbe
000000b0: a81e 973e e8f4 143d 043d 963e 02bb 453d
000000c0: 84e8 a0bd a6e5 af3e ccdd fc3c ddca 2cbe
000000d0: 5863 b93e 10f1 033d beb9 993e 1f4d 99be
000000e0: 3a15 723e abae c4be e454 a33e b930 bdbe
000000f0: 5edf d4bb 69aa afbd 4659 79be 036e 643e
00000100: 1384 58be 172f e53d 0578 733e 992c a73e
00000110: a433 46bd f262 51bd 46ab d1bd e1e2 8d3e
00000120: 3102 99be d12e b03e 479b 4c3e d0e7 b6bb
00000130: db95 313e ba48 9a3e 0796 1cbe 323d 1c3e
00000140: 6de5 0a3e 238f 85be f3c5 6b3e 3101 af3e
00000150: 5867 36bd 1030 953e ddf5 0b3e 4e7c 563e
00000160: fdda 593e 1140 b1be c804 88be bbdf 863e
00000170: a849 6dbd 8ee6 9b3e 5c49 71be 39a5 373e
00000180: b190 433e 7f2d 8a3c acb2 a43e cb7c a03e
00000190: d696 be3e cf82 933e cd99 47bd 97e4 b3bd
000001a0: 5db0 ad3d c8a7 a9be 8d41 c33e 02ef 8b3d
000001b0: 3202 f73d da78 68be fb00 633e d984 9b3e
0.2870041 0.06785568 -0.37371248 0.001353272 0.20554484 -0.1761927 0.35004318 0.22308528
0.18490067 0.2318341 0.29203305 0.2906845 -0.284718 -0.099150695 0.35505298 0.17575791
-0.039020482 -0.17698418 -0.24633642 0.14222386 0.022438405 0.09324541 0.1375131 0.032539077
-0.161308 0.03594575 0.29004383 0.263046 -0.13984346 0.2647337 -0.29822102 0.36440605
-0.17509465 0.16954765 0.25564608 -0.1291936 0.07740748 0.24925913 0.17179146 0.16880086
0.06910059 0.09472708 -0.057243496 -0.33596703 0.29515576 0.036366373 0.29343426 0.048274048
-0.07856849 0.34354895 0.03086748 -0.16874261 0.36208606 0.032212317 0.30024523 -0.2994165
0.2364091 -0.3841451 0.31900704 -0.36951235 -0.006496354 -0.08577425 -0.24350461 0.22307591
-0.21144132 0.11190622 0.23776253 0.32651213 -0.048389092 -0.051119752 -0.10237746 0.27712157
-0.29884484 0.34410718 0.19981109 -0.0055818334 0.17342322 0.3013361 -0.15291606 0.15257719
0.13564081 -0.26085767 0.2302473 0.34180596 -0.04453215 0.2913823 0.13668008 0.20945856
0.21274944 -0.3461919 -0.26566148 0.26342568 -0.057931572 0.30449337 -0.2356314 0.17934121
0.19098164 0.016867397 0.32167566 0.3134521 0.37224454 0.28810737 -0.04873066 -0.087838344
0.08480904 -0.3313582 0.3813595 0.068326965 0.120609656 -0.22702351 0.22168343 0.30374792

encoder.encoder_layers.1.encode_self_attention.W_K.bias f4 [16]
00000000: 5d94 9bbb 6cc6 5fbe 6dc5 56be bca4 a53d
00000010: 734a 9dbe e32c a7be 711f a13e af25 b63e
00000020: c62d aebe 162f 183e 48cd 953d 753d 6cbe
00000030: 52d1 36be 8a55 303e ec27 49be 64cc 91be
-0.004747911 -0.21853036 -0.2097375 0.08088061 -0.30720863 -0.32651433 0.314693 0.35575625
-0.34019297 0.14861712 0.07314545 -0.23070319 -0.17853287 0.1722013 -0.19644135 -0.2847625

encoder.encoder_layers.1.encode_self_attention.W_V.weight f4 [16, 7]
00000000: 5e81 3dbd 122c 983c a4d8 4ebe 478c 453e
00000010: 3e9c 243e 3381 bdbe 65f1 3cbe 3165 823e
00000020: e5af 0f3e 5688 8abe 88bb 02be 1d93 503c
00000030: c457 01bd 186d 523e 970d 72be 19f2 a53e
00000040: 6c72 0fbe 0f6a 483e 12dc 2dbe 9aba 9f3e
00000050: c1c1 88be 9696 b63e 1b87 59bd ca69 6abe
00000060: 50ed 4f3e dadb cabd cc91 493e 3624 6f3e
00000070: 29e0 563e 29d9 77be 4adf bf3a a636 243d
00000080: 81a3 0b3e c141 873e 0fb0 9b3c 3c26 4bbe
00000090: eefe c8bd adcb 60be d5e5 64be 6155 443c
000000a0: 9da9 b33e 5323 993e 0257 973e b951 86bd
000000b0: e0e8 573d 653d d7bd ab4c e0bd d421 87be
000000c0: 37cf fd3d ac20 1e3e a8ec 9cbe 365f fe3d
000000d0: a934 b33e 2b73 563e 69df 75be 702a 5f3d
000000e0: 21e3 2fbe 50eb 143d b1ea c23e 4eea 9d3e
000000f0: bb48 983d 0527 b1be 9ec7 023d a7ac 73bd
00000100: 108d 55be 9443 aa3b 2cc9 17be fb7f 963b
00000110: 54b2 513c 7374 a83e 52b9 d13d c4c3 8bbe
00000120: 8edb 263e 21cc 3b3c 33a9 54be 131f cf3c
00000130: 3f05 913d 0dd4 0c3c fdcc 81be 4961 be3e
00000140: 0b12 273e 8034 373e 384f 87be 39a2 d4bd
00000150: ab61 5ebe 4973 55bc cbdb b6be 2535 b1be
00000160: 04c8 4ebe 4b52 2f3e 99ee 52bd 4002 95be
00000170: 71db 783e 0476 a93e 4bed ff3d 650f 9dbd
00000180: 5265 9cbe f680 a63d deb6 903e 2566 a73e
00000190: 96ca 203d 5aa1 29bc d072 abbe b349 883d
000001a0: 5b06 98bd 1260 bdbe 75e0 4cbe b8c2 70be
000001b0: f723 903e 7af3 96bc cf31 a7be 7ced e83d
-0.046265952 0.018575702 -0.2019983 0.19291793 0.16075227 -0.37012634 -0.1845146 0.25467828
0.14031942 -0.2705714 -0.1276685 0.012730387 -0.03157784 0.20549428 -0.23637997 0.32411268
-0.14008492 0.19571708 -0.16978481 0.31197053 -0.26710322 0.35661763 -0.053107362 -0.22891918
0.20305371 -0.099052146 0.19684523 0.23353657 0.20983948 -0.24203934 0.0014638689 0.04009118
0.1363659 0.26417354 0.01900485 -0.19838804 -0.09814249 -0.21952696 -0.22353299 0.011983247
0.35090342 0.29909763 0.2955857 -0.06558556 0.05271232 -0.10509757 -0.10952123 -0.26392996
0.12393039 0.15442151 -0.30649304 0.12420504 0.35001114 0.2094237 -0.24011005 0.05448383
-0.17176487 0.036357224 0.3806968 0.30842823 0.07435747 -0.34600082 0.03192865 -0.059490826
-0.20854592 0.005196044 -0.14822835 0.004592893 0.012798864 0.32901344 0.10240425 -0.27297795
0.16294691 0.011462242 -0.2076767 0.025283372 0.07081079 0.008595479 -0.25351706 0.37183598
0.16315477 0.17891121 -0.26427627 -0.10382504 -0.21716945 -0.013027974 -0.35714564 -0.3461086
-0.20193487 0.17121236 -0.051497076 -0.2910328 0.2430246 0.3309785 0.12496432 -0.07668952
-0.3054605 0.08130066 0.28264517 0.32695118 0.0392557 -0.010353411 -0.33486032 0.06654682
-0.07423087 -0.36987358 -0.20007499 -0.2351178 0.2815244 -0.018426646 -0.32655188 0.113734215

encoder.encoder_layers.1.encode_self_attention.W_V.bias f4 [16]
00000000: bec9 793e 0201 4dbb 1852 ad3e d15b e13d
00000010: 55b8 53be 1c4a 9dbd bf91 ae3e 0da9 183e
00000020: 4ef4 d3bd 8b27 1fbe d2a4 b83e ccf7 383e
00000030: 6614 853e bcf3 be3e 4d37 bc3e 346a 6d3e
0.24393365 -0.0031281118 0.33851695 0.11003841 -0.20675786 -0.07680151 0.3409557 0.14908238
-0.10349332 -0.15542428 0.36063248 0.18063277 0.25992125 0.3729533 0.3676094 0.23185045

encoder.encoder_layers.1.encode_self_attention.fc.weight f4 [7, 16]
00000000: 1e66 2e3e ab02 04bd a5e0 6ebe 4e69 c5bc
00000010: 16df ea3c cb56 973d 91a8 ba3d 7dcd 933c
00000020: 924d c7bd e243 62be 5d3c 213e ba27 a3bd
00000030: 5f6c 023e 5427 293d 7307 633e e5c6 00be
00000040: 6e62 063e bf6f 76be 3cff 673e 630e b4bd
00000050: bdb1 07be c3d2 683e 8339 0c3e 18cc 5b3e
00000060: 3b4a 01be 0d77 4a3c db4c 493e 6d06 43be
00000070: 96cc 543d aaa2 6dbe 793b 833c 0ceb 44be
00000080: f1bb 523e baef 323e 098e 73be c65a 333e
00000090: b85e c63d 8b38 823d 15f8 3dbe 75c5 11be
000000a0: bfdd 82be ff25 6a3d 688e 29bc af90 dcbd
000000b0: 5cd7 09be f230 5c3d 937e 55bd f7da 37be
000000c0: de3b 1fbd d675 aaba c5e4 00bd cf3c 22be
000000d0: cca8 903d 9998 273e 0a8e 81be 86e5 7fbe
000000e0: c1ff 6a3d 0b99 023e e4b0 0bbc 4468 223e
000000f0: aa55 0ebe 3464 683e f6f9 993d 8e75 743d
00000100: 2b27 6ebe 1d3b babd 99c1 7bbd af46 b5bd
00000110: 59bc 523e 8c82 263e f693 a9bc e14d f6bc
00000120: 44fe 1f3e 5817 273e 0ab3 563e 53ea 4f3e
00000130: 838c f8bd 8d11 ad3b a48d c93d 21ab 6f3e
00000140: c471 79be 422a 38be aa27 703e fc74 c2bc
00000150: 6c2c 1a3e 258f 03bd f506 a33d c8b1 4dbe
00000160: 0348 04be 5228 ea3d a737 ec3c 3298 7abe
00000170: 4c67 99bd ac5c 313e 92f6 a9bc 5062 babd
00000180: cc69 683e cea1 923d 0885 80bd 1939 4e3e
00000190: 0065 54bb 275d e6bd f515 bc3d d58f 3b3e
000001a0: 0f1a 723e 658d b83c 9c79 1b3e 228c ecbd
000001b0: 01e8 8c3d f7a6 4bbe 4c80 703c d566 293d
0.17031142 -0.032229107 -0.23327883 -0.024098065 0.028670829 0.07389601 0.09114183 0.01804232
-0.09731592 -0.22096208 0.15745683 -0.079665616 0.12736653 0.04129727 0.2217081 -0.12575872
0.13123485 -0.24066065 0.22655958 -0.087918065 -0.13251396 0.22736649 0.13693814 0.21464574
-0.12625973 0.0123574855 0.19658224 -0.1904542 0.05195292 -0.23206583 0.01601957 -0.19230288
0.20579506 0.17474261 -0.23784651 0.17515096 0.09686035 0.06358441 -0.18551667 -0.1423548
-0.25559804 0.057165142 -0.010348894 -0.10769784 -0.1346106 0.053757615 -0.052122664 -0.17954622
-0.038875453 -0.0013005089 -0.03146817 -0.15843509 0.070634454 0.16366805 -0.2530368 -0.249899
0.057372812 0.12753694 -0.008526061 0.15860087 -0.13899866 0.22694474 0.075183794 0.05968242
-0.23257129 -0.09093306 -0.061463926 -0.088513725 0.20579661 0.16260737 -0.020700436 -0.030066432
0.15624338 0.16317499 0.20966735 0.20304231 -0.121361755 0.005281633 0.09841469 0.23405124
-0.24359804 -0.1798487 0.2345263 -0.023737423 0.15056008 -0.032118935 0.07960311 -0.2008735
-0.12918095 0.11433472 0.02883513 -0.2447212 -0.074904054 0.17320508 -0.020747457 -0.09100783
0.22696608 0.07159768 -0.06275374 0.20138969 -0.0032408834 -0.11248236 0.091838755 0.18316586
0.23642753 0.02252836 0.15183109 -0.11550166 0.06880189 -0.19887911 0.014679026 0.041357834

encoder.encoder_layers.1.encode_self_attention.fc.bias f4 [7]
00000000: ca51 ef3c 8d97 01be c60f 04be cb52 eabd
00000010: 49ef e33d 02c6 db3c f50a 56be
0.029213805 -0.12655468 -0.12896642 -0.11441573 0.111296244 0.026827816 -0.20902617

encoder.encoder_layers.1.encode_self_attention.layer_norm.weight f4 [7]
00000000: bf8b 7e3f 7793 803f a744 7e3f cab3 803f
00000010: 021c 7f3f fdb9 803f c0dd 7e3f
0.99431986 1.0045003 0.99323505 1.0054867 0.9965211 1.0056759 0.99557114

encoder.encoder_layers.1.encode_self_attention.layer_norm.bias f4 [7]
00000000: a606 a2bb a1d2 c1bb 0394 bf3b e382 bebb
00000010: 1279 cf3b 5435 c03b 9e61 883b
-0.00494464 -0.0059150015 0.005846502 -0.0058139428 0.0063315714 0.005865732 0.0041620275

encoder.encoder_layers.1.feed_forward.fc.0.weight f4 [7, 7]
00000000: f59f 603c 7482 8f3e b171 0ebe cecb dbbd
00000010: 5387 3cbe 79e4 1abe 6176 a03e c701 b73d
00000020: f980 1ebe 611d b03e c656 d0bc 953a 583e
00000030: 293c 843e 0f21 a33d 6170 253e 1e71 d0bd
00000040: 6837 bdbe 6065 9bbe ca75 8c3c f8f3 32be
00000050: 7a06 343d bb21 9ebe 67ec 4ebe e226 b23e
00000060: 4292 9f3c a62e 583e 95da a33e 78a7 8bbd
00000070: 2734 863e 490c 533d 751b 1bbe 98ad 833e
00000080: bc49 75be 732c 49be 5ba7 5b3d 9dd7 8b3d
00000090: 8a3e 84be 3bad 5bbe e142 94be d292 9c3e
000000a0: eea1 583e bc82 553e 6ff2 a1be 16cc 8b3e
000000b0: 5784 953e 9271 61be c557 33be 2142 7d3e
000000c0: bc7c 6e3e
0.013710012 0.28029215 -0.13910557 -0.10732232 -0.18410997 -0.15126218 0.31340316 0.08935886
-0.15478887 0.34397414 -0.025432002 0.21116097 0.2582715 0.0796529 0.1615615 -0.101778254
-0.36956334 -0.3035078 0.01714601 -0.17475879 0.04395149 -0.3088511 -0.20207368 0.3479529
0.01947892 0.21111545 0.32002702 -0.068190515 0.26211664 0.051525388 -0.15147193 0.2571838
-0.23953909 -0.19645862 0.0536264 0.06828234 -0.25828964 -0.21452801 -0.28957275 0.30580765
0.21155521 0.20850652 -0.31630275 0.27304143 0.2920253 -0.2201598 -0.1751395 0.24732257
0.2328977

encoder.encoder_layers.1.feed_forward.fc.2.weight f4 [7, 7]
00000000: 681f 453e 9f84 12be ff99 853e 6c31 b2be
00000010: db79 883e 03a1 92be f17f 16be f44a 1e3e
00000020: 1e8a 493c 56a7 01be c599 893e 75db 66bd
00000030: f1b4 a0be a69e 5f3e 5705 a1be e1a5 363e
00000040: 0917 a6be 2756 5abe 0e37 39bd f433 bb3d
00000050: dcfc ea3c 11fb 96be 5ec2 823e cd91 b83e
00000060: 256f 12be 6cbb edbc 62a0 77be 9d74 bb3e
00000070: 9075 e23d 985b 3e3e b62e bdbe a3e3 0cbd
00000080: 00b3 853e e9a9 1bbe 8ef9 873d bd1a 16be
00000090: 938e 4fbe 96df cc3b 0758 27bc 821c 97bc
000000a0: c201 babe e4ff 5dbe 2a7e bdbe 7447 4abe
000000b0: 87d0 80bb 9b46 3fbd ca1a 88be 7894 873c
000000c0: f40c cd3c
0.19250262 -0.14308403 0.26094052 -0.3480333 0.26655468 -0.28638467 -0.14697243 0.1545828
0.012300996 -0.1266149 0.2687513 -0.056361634 -0.31388047 0.21837863 -0.31449386 0.17836715
-0.3243945 -0.21321927 -0.04521852 0.09140769 0.028685026 -0.29488423 0.25538915 0.36048737
-0.14300211 -0.029020034 -0.24182275 0.36612406 0.110575795 0.18589628 -0.369497 -0.03439678
0.2611313 -0.15201534 0.06639396 -0.14658637 -0.20269231 0.0062522395 -0.010213858 -0.01844621
-0.36329466 -0.21679646 -0.37010318 -0.1975382 -0.0039311084 -0.046698194 -0.26582938 0.016550288
0.02503059

encoder.encoder_layers.1.feed_forward.layer_norm.weight f4 [7]
00000000: 8873 7e3f 5f5e 803f 98d0 7e3f 3eb4 803f
00000010: e2e0 7e3f e7cb 803f 80db 7e3f
0.99395037 1.00288 0.9953704 1.0055006 0.99561894 1.0062226 0.9955368

encoder.encoder_layers.1.feed_forward.layer_norm.bias f4 [7]
00000000: a366 b0bb a0bd bbbb f93a d43b a487 bdbb
00000010: b0cf d33b 6468 cb3b ed2f 863b
-0.005383329 -0.005729392 0.0064767567 -0.005783992 0.0064639673 0.0062075127 0.0040950687

encoder.encoder_layers.2.encode_self_attention.W_Q.weight f4 [16, 7]
00000000: 5074 4fbe d7ec f23b accb 0f3c 3c8c 41be
00000010: b1f3 9bbe efe7 13be cc62 813c 4a5c 18be
00000020: e061 be3e 792b bd3e cc55 be3c 5d36 393e
00000030: 91ee dbbc 18f1 1abe 7816 8a3c c532 b23e
00000040: 02e1 abbc 15da b33c 11df 5d3e 8a9c 933e
00000050: 5734 68be 73f4 12be 1266 38be bc8d 103e
00000060: ea77 273e 4f71 c03e e9ca 93bd bee0 7c3e
00000070: c88f dbbb 138f 39be e9ea 463d 6e12 9dbe
00000080: cae7 b23e fc21 f93d 76bd bcbc e5bd 853e
00000090: 6658 93bd f5b7 afbe dcff 70bd b1d8 7dbe
000000a0: 31e8 91be 93fd be3d cacf b63e b8ea 0e3e
000000b0: 1a9a a3bd e773 dc3d 7c3a 9ebe 0d3f b1be
000000c0: f136 8f3e ddf7 313e a15b 8b3e 7bdb 8e3e
000000d0: f9b0 f7bd b524 c3bd 190d 60be 66f4 54be
000000e0: 282f 643e 3e32 a7be 2b5e 2ebe 49f0 e0bb
000000f0: 173c 353e cef0 2fbe 3d3c aa3d ba0a 4d3d
00000100: 92c2 4cbe 26fb 1fbe 158e 84be 432f 36be
00000110: d073 5b3e 123a 74be be67 883e 8e07 bebe
00000120: 3f76 07be f1a8 713e 6f0b 663e 89db 893e
00000130: 9def ffbc 10c0 27bd 996d 8abe a445 963e
00000140: 7e6f 693e 63b8 a2be 60b2 c73d eb2f 863e
00000150: 35d8 e7bc e2e7 ff3c 5b01 b03e d8b2 1bbe
00000160: 793e 873e a99d a5be 982f 92be da84 2fbe
00000170: a665 8c3d 7fb1 a13d 2f12 123e 7e44 623e
00000180: dea1 21be cac9 ba3d 05b8 22be cc9c 0abe
00000190: 0f9a 92be 91d4 d13c 9448 98be 34f0 62be
000001a0: f96d 3c3e 1b7e 53be 0297 2ebe 59f4 51bc
000001b0: 217c 53be 1795 a1be 1a4e 6dbe 40b1 9abd
-0.20259213 0.0074134874 0.0087765865 -0.18901151 -0.3045936 -0.14443944 0.01579418 -0.14878955
0.37184048 0.3694723 0.02323427 0.18087144 -0.026847156 -0.15131032 0.016856417 0.3480436
-0.020981316 0.021954576 0.21667124 0.28830367 -0.22676216 -0.14351062 -0.18007687 0.14116567
0.16354337 0.37586448 -0.072164364 0.24695107 -0.0067004897 -0.18120985 0.04856387 -0.30678123
0.34942466 0.12164685 -0.02303956 0.2612144 -0.07194595 -0.34320036 -0.058837757 -0.24789692
-0.2849746 0.09325709 0.35705405 0.13956726 -0.07988377 0.10764294 -0.30903995 -0.34618416
0.27971604 0.17379709 0.27218345 0.27901825 -0.12094302 -0.09528486 -0.21879996 -0.20796356
0.22283614 -0.3265552 -0.1702811 -0.0068645817 0.17698704 -0.17181703 0.08312271 0.050059058
-0.19996098 -0.1562315 -0.2588965 -0.17791466 0.21430898 -0.23850277 0.2664165 -0.3711514
-0.13228701 0.23599602 0.22465299 0.26925305 -0.031242186 -0.04095465 -0.2703674 0.29350007
0.22796437 -0.317813 0.09750819 0.26208434 -0.028301338 0.0312385 0.34376034 -0.15204942
0.2641485 -0.32346848 -0.28551936 -0.17140523 0.068553254 0.07895183 0.14264749 0.2209644
-0.15784404 0.091205195 -0.1589051 -0.13536376 -0.28633162 0.025614055 -0.29742873 -0.22161943
0.18401326 -0.20653574 -0.17049792 -0.012814605 -0.2065282 -0.3155906 -0.23174325 -0.07553339

encoder.encoder_layers.2.encode_self_attention.W_Q.bias f4 [16]
00000000: f3c9 aebe 00dd a73e 69a2 853d 3ac3 dfbd
00000010: ffa0 0fbe 2a22 49be f404 7abe e794 adbe
00000020: 64e0 b83c e8fe 98be a1b2 5c3e 47b6 61be
00000030: 91bf 7fbe dfac c43d 0c7e 203e d7aa 11bd
-0.3413845 0.32785797 0.06525118 -0.109259084 -0.14026259 -0.19641939 -0.24415952 -0.33902666
0.022567935 -0.29881978 0.21552517 -0.2204219 -0.2497542 0.09603285 0.15673083 -0.035563316

encoder.encoder_layers.2.encode_self_attention.W_K.weight f4 [16, 7]
00000000: 840e f2bd 085b 78be 870f a83c c1ac dd3d
00000010: a04d 313e 96b9 49bd 2226 42be 029c 963e
00000020: 23d5 ba3e 961b 963d 6af7 59be ea13 a83e
00000030: 9d77 443d 7b73 aebe c481 083e 3841 b0be
00000040: c416 90be 30d3 a3be 9083 8b3d af13 91be
00000050: c926 dabd 6699 ff3d c126 91be 1cf4 a23e
00000060: dd2a 3bbe c6bc ae3e 5dfd 89be db66 70be
00000070: 35e0 7bbd 55eb 0ebe 60a8 a6bd df0f a23e
00000080: 90f3 7bbd 8e28 983b 882f a2be 3116 b13e
00000090: caf4 bd3e f1df 2cbe b2cb 6e3e 8c19 f53d
000000a0: 5902 b63e 913c f23b 47d1 e3bc 50ed bdbe
000000b0: 64f1 083c 3b73 5fbe 4211 be3d 857a 683e
000000c0: af86 e83d 19fb c6bd 0719 a93c cd74 473c
000000d0: 6d41 2a3e 1b81 57be 6e0c ddbd c7e8 ae3d
000000e0: 208f 843d 08be bebd 67bd 703e 4fbe aebe
000000f0: 0851 263e 0d20 833e 0ea0 3bbe f0e1 e1bd
00000100: 69e5 b33e 73e9 983e 60d1 aa3e d1ed 893c
00000110: bbb7 a4bd 1eca 973e 37e6 e9bc 57e3 ccbd
00000120: a57c 913e 5d32 a83e 9bd3 9c3d c8c2 5a3e
00000130: 2d78 a13e e1ae 3b3e 1726 7d3e 5217 14be
00000140: aaf0 d23d 227b 4dbc a869 633e 03f1 273e
00000150: 33b7 80be 2758 4fbe 3a54 c13d d3be fdbd
00000160: b4c9 acbe a8b9 523e 2b8a d53b e53f 0abe
00000170: 3d08 f93c e7d1 6b3d 9354 a8bc 8343 173e
00000180: b7cb 3b3d 15b3 023e 2fe8 8d3e e22f e73d
00000190: 1872 d3bd a22e 8d3e 15cc abbd 281a 7a3d
000001a0: 17a3 873e 4564 25be fc15 bcbe 9b86 7dbe
000001b0: 0651 31bd 87b1 50be 58c1 d93d 674e f33c
-0.11819175 -0.24253476 0.020515217 0.10823966 0.17314768 -0.049249254 -0.18959859 0.294159
0.36490735 0.0732948 -0.21285787 0.32827693 0.047965635 -0.3407248 0.13330752 -0.34424758
-0.2814237 -0.3199706 0.06812203 -0.2833533 -0.10651929 0.1248043 -0.2834988 0.31826866
-0.1827807 0.34128398 -0.26951113 -0.23476736 -0.061493117 -0.1395696 -0.08137584 0.31652734
-0.061511576 0.0046435064 -0.31676888 0.34587243 0.37100822 -0.16882302 0.23319891 0.11967763
0.35548666 0.007392474 -0.027809752 -0.37095118 0.008358333 -0.218213 0.092806354 0.22702987
0.11353814 -0.09715862 0.020641817 0.012173844 0.1662652 -0.21045344 -0.107933864 0.085404925
0.064726114 -0.09313589 0.23509751 -0.3412957 0.16241848 0.2561039 -0.18322775 -0.11029422
0.35135964 0.29865608 0.33362865 0.016837033 -0.08042856 0.2964639 -0.028552158 -0.10004299
0.2841541 0.32850924 0.07657548 0.21363366 0.31537 0.1832843 0.24721561 -0.14462021
0.10299809 -0.012541564 0.22208273 0.16400532 -0.2513977 -0.20248471 0.09439893 -0.123899125
-0.33747637 0.20578635 0.006516715 -0.13500936 0.030399436 0.057573225 -0.02054814 0.14771847
0.045848574 0.12763627 0.27716205 0.1128843 -0.10324496 0.2757464 -0.08388535 0.0610601
0.26491615 -0.16151531 -0.36735523 -0.24758379 -0.04329016 -0.20380221 0.106325805 0.029700471

encoder.encoder_layers.2.encode_self_attention.W_K.bias f4 [16]
00000000: 8e64 8cbc 73c2 473e 047f 84bd d4f0 69bd
00000010: d020 8dbe 2677 c83d aae4 43be 355f a93d
00000020: caec 1dbd bae0 64be e3aa b93d 26a5 233c
00000030: 74d7 6cbe 491b 503d 86c0 ccbd e529 973e
-0.017137792 0.1950777 -0.06469539 -0.057114437 -0.27564096 0.09788351 -0.19130197 0.082701124
-0.038555898 -0.22351351 0.09065797 0.009988105 -0.23129064 0.05080727 -0.099976584 0.2952415

encoder.encoder_layers.2.encode_self_attention.W_V.weight f4 [16, 7]
00000000: a6df edbd b5d3 b13e ef94 983e 9b6a 273e
00000010: 26ac 93be c8e2 e5bd edd6 1f3d 345e 52bc
00000020: 57fc bcbe 22a3 573d f0bb 2bbe da5a 61be
00000030: ea78 f2bd 2416 1b3e 2e23 8fbe 528c 903e
00000040: 6043 6ebe fb6f 3bbd b44f 8b3e 62a2 ac3e
00000050: 83b3 b2be 00cc ff3d a5f4 9fbe 2846 b6be
00000060: 365f 9a3d 0f63 763e dcec a9be 6a4d 1d3e
00000070: 6b9f 44be 0001 43be 62d4 53be 44e1 833e
00000080: 1ac4 0d3d b329 3b3c aa6a a5be cee4 e13d
00000090: ea0e 9e3e b387 933d 64fd 183e a2ce 743c
000000a0: 5bec 7b3d e619 c03e 4de0 24be 4ce1 33bc
000000b0: 555d 8bbe 10ef 9b3e 1f32 0e3d ddd0 8ebe
000000c0: 3b20 8b3e ca4d 743e ee5f 313e 1667 74be
000000d0: 1bab 063e 1d2a 773e 7964 283e 27ed eabc
000000e0: c899 b0be 213f adbe 0bd5 b33e 6b7d ca3c
000000f0: a500 1e3e fb6d 4a3b 3ace d03d 53f5 a73e
00000100: 5618 f73d 730b 6b3e 72c2 d1bc 68d9 eb3d
00000110: e4dc 853d cf5f 91be d9d2 8b3d 0594 8bbe
00000120: e41e 41be 129b 983d 5acb b3be 2433 40bd
00000130: 38a8 943e 0ca6 78bd e461 a53e f913 d33c
00000140: feaa 903e cb3f 9ebe fc3b 3ebe cb6f 273e
00000150: 5984 d63a 8809 35bd 7a75 8cbd 589e a0be
00000160: be81 c13c 6f66 bcbd 6858 93be 760d 1cbe
00000170: 269d c63c 67b9 be3d 41fe 823e a5eb 553e
00000180: 66ed 63be 075c 32be f617 81be 3e29 93bd
00000190: b00e 12bd 7a7d 81be a2b0 9b3e b0d9 f9bd
000001a0: b3c2 463e 3f76 b1be 7c1d c5bd 9208 603d
000001b0: fe9a d43d 3eb3 b83d 804d 2fbe 6eef bebd
-0.11614923 0.34731832 0.29801127 0.1634926 -0.28842276 -0.11224896 0.03902333 -0.012839843
-0.3691127 0.05264581 -0.16770911 -0.22007313 -0.11839469 0.15145165 -0.27956527 0.28232056
-0.23267889 -0.04576109 0.27209246 0.33717638 -0.34902582 0.12490082 -0.31241336 -0.356004
0.07537691 0.24061225 -0.33188522 0.15361562 -0.19201438 -0.1904335 -0.20686486 0.25757802
0.034610845 0.011423516 -0.3230794 0.11029969 0.30870754 0.07203617 0.14940411 0.014941843
0.061504703 0.3751976 -0.16101189 -0.010979008 -0.27219644 0.30455828 0.034715768 -0.27893725
0.27173027 0.23857799 0.1732175 -0.23867449 0.13151209 0.24137159 0.16444577 -0.028677536
-0.34492326 -0.33837226 0.35123476 0.024718007 0.15429933 0.0030888307 0.101955846 0.32804355
0.120651886 0.22953586 -0.025605414 0.11516076 0.06536272 -0.2839341 0.068273254 -0.27261367
-0.1885944 0.07451452 -0.35116082 -0.04692377 0.2903459 -0.06070523 0.32301247 0.02576636
0.28255457 -0.30908045 -0.1857757 0.1635124 0.0016366347 -0.044198543 -0.068583444 -0.31370807
0.023621436 -0.09199225 -0.28778386 -0.1523951 0.024244856 0.093127064 0.25584605 0.20890673
-0.22258529 -0.17417918 -0.25213593 -0.07185601 -0.03565854 -0.25291044 0.30408198 -0.12199724
0.1941021 -0.34660527 -0.09624764 0.054695673 0.10381125 0.09018563 -0.17119408 -0.09323011

encoder.encoder_layers.2.encode_self_attention.W_V.bias f4 [16]
00000000: 21f0 8ebd 992b a3be b2c4 0fbd 6191 7fbe
00000010: ad6a b8be 415d 9d3e 0852 d13d 0d2c 8f3e
00000020: e3e3 113e 403d a63e f43a 46bd ece7 6c3e
00000030: 0c2e 86be 9f52 8dbd 3e49 9a3e 8d60 153e
-0.06979395 -0.318692 -0.035099693 -0.24957801 -0.36018887 0.3073521 0.10220724 0.27963296
0.14247088 0.32468605 -0.048396066 0.23135346 -0.26207006 -0.06900524 0.30134004 0.14587612

encoder.encoder_layers.2.encode_self_attention.fc.weight f4 [7, 16]
00000000: 6c4f b83d 5020 523c 63c7 703e 8651 763e
00000010: 3ff8 763e 10f7 82bb 78ef 0ebe dd8a e3bc
00000020: fba3 79be 5dde 74be af3e 04bc 4f98 453e
00000030: d8ba 69be 3be8 b2bd a30e 8e3d e1a9 75be
00000040: 5845 0a3e fefb 6b3e 1840 93bd fd36 303e
00000050: d8da 5ebe 753c c2bb f231 1ebe 4665 3cbe
00000060: 3915 b23d 069a fe3c 654c 323e db7a 69bb
00000070: 5cef 12be 873e 91bd bc21 bebd 4cd8 c5bc
00000080: 8649 363d 0062 683e b1ba 513e 4c55 67be
00000090: 0e54 debd f092 883d 593b eebc dac2 12be
000000a0: 2288 13bd 9a8c 3ebe 9cef fb3c bb18 9dbd
000000b0: ad15 1cbc 3765 bcbc 061d 583e 8a32 23be
000000c0: 7873 1bbe 42fe ad3d 60a6 1f3e a21e 773e
000000d0: ffe3 21be e72c 83bd 285c 663e 9eba 613e
000000e0: dba9 fd3d 11cf 083d d936 ce3d f8e9 96bc
000000f0: 9abc 71be da64 8e3d caa6 a8bd b5e1 24be
00000100: 6e77 493e ef4e 653e 4f40 263e d341 09be
00000110: 8405 80be 5254 b2bd 256b 6e3e d6a0 30be
00000120: ec96 aa3d ab74 dfbd 21ff 69bd 8994 80bd
00000130: d30c 503e 61d9 703e fa41 c7bd a365 69be
00000140: 4bc8 093e da8b 5e3d 18ff 3c3e cf57 66be
00000150: ef75 ddbc e888 20be 45a7 db3d ac63 7ebd
00000160: 0113 3e3e 0558 3f3e f0db 2a3e cabf d4bd
00000170: d98a 0bbe 1ae2 313d e4dd 76be c84c 963d
00000180: 7851 d53d af25 683e 772b 3fbe 475d 30be
00000190: 74e2 3abe 7027 aa3b 9ca4 1d3e dd88 61be
000001a0: 10bb 28be 483c 833d 8f95 0abe 92b0 653e
000001b0: 1c6c b33c 61d2 973d 818c 0d3e bc6b 1b3e
0.089995235 0.012825087 0.2351356 0.24054536 0.24118136 -0.0039967373 -0.13958538 -0.027776176
-0.2437896 -0.2391295 -0.008071586 0.19296382 -0.22825181 -0.08735701 0.069363855 -0.23990585
0.13503015 0.23045346 -0.07189959 0.17208476 -0.2176317 -0.005927617 -0.1544874 -0.18398008
0.08695454 0.031079303 0.17411955 -0.0035626206 -0.14349121 -0.07092004 -0.09283778 -0.02415099
0.04450371 0.22693634 0.20481373 -0.22591132 -0.10855876 0.06668651 -0.029081034 -0.14332142
-0.0360185 -0.18608323 0.030753903 -0.076707326 -0.009526652 -0.022997482 0.21104822 -0.15937248
-0.15180767 0.084957615 0.15590811 0.24132779 -0.1580963 -0.06405049 0.22496092 0.22043845
0.12385913 0.0334006 0.10069055 -0.018422112 -0.23607102 0.0695283 -0.082349375 -0.16101725
0.19674465 0.22393392 0.1623547 -0.13404016 -0.25004208 -0.08707489 0.2328306 -0.17248854
0.08329567 -0.109109245 -0.057128076 -0.06278331 0.20317392 0.23520423 -0.09729381 -0.22792678
0.13455312 0.05433259 0.18456686 -0.22494434 -0.027033774 -0.15677226 0.107252635 -0.062106773
0.18561937 0.1868592 0.16685462 -0.10388143 -0.13627185 0.043428518 -0.24108082 0.073388636
0.104159296 0.22670625 -0.18668924 -0.17223082 -0.18250448 0.0051926896 0.15394825 -0.22024865
-0.16477609 0.06407982 -0.13533615 0.22430637 0.021902137 0.074131735 0.13823129 0.15177816

encoder.encoder_layers.2.encode_self_attention.fc.bias f4 [7]
00000000: cce2 7fbe cf8b 21be 2efe 8e3d a92f b7bc
00000010: ad7d 0bbe f6ee e3bc fe1f 1dbe
-0.2498886 -0.15775989 0.06982075 -0.022361593 -0.1362216 -0.027823906 -0.15344235

encoder.encoder_layers.2.encode_self_attention.layer_norm.weight f4 [7]
00000000: e46d 7e3f df42 803f 5c3d 7f3f e7b1 803f
00000010: 9dcf 7e3f efc9 803f bb8f 7e3f
0.9938643 1.0020407 0.99703 1.0054291 0.9953554 1.0061625 0.99438065

encoder.encoder_layers.2.encode_self_attention.layer_norm.bias f4 [7]
00000000: cc39 90bb fb5b 94bb 4e5f 7539 1a6a babb
00000010: 3497 c63b d641 c93b 2ec7 c03b
-0.004401421 -0.0045275665 0.00023400525 -0.005688918 0.0060605053 0.0061418815 0.005883119

encoder.encoder_layers.2.feed_forward.fc.0.weight f4 [7, 7]
00000000: 367a 3abe 3305 a6be b6fa 233d 4f0d b5be
00000010: 1763 2abe 2976 493d bd66 2b3d 0f6d acbe
00000020: 8f42 3d3d 78f5 a9be 68e3 943e ea2a 9ebe
00000030: 2290 c4bd 3b32 53be d992 b33e 4730 3abe
00000040: b539 be3e e475 1d3e 9ec6 af3e 3ea3 7c3e
00000050: 924a ef3b 73ab 3abe ad1a 91bd 8dc7 9dbe
00000060: 0adf 823d e3d1 92bd ac51 81be b605 a2bc
00000070: 10fb 473e cbf9 aebe 0373 56be 9738 edbd
00000080: 1410 ef3d 5647 a43d 6e3e 8f3e efdb cfbc
00000090: 031c 5e3e 7dc6 3fbe d414 9f3d c0e5 87be
000000a0: 0b2e bf3e ae8c 61be 8cbb 01bc 4ef3 b63e
000000b0: 7eee 483e c273 c2bd b683 7a3e eba4 483e
000000c0: e59a 4bbe
-0.18210682 -0.32425842 0.04003402 -0.35361716 -0.16639362 0.049184952 0.041846026 -0.33676955
0.046206053 -0.3319509 0.29079747 -0.30892116 -0.09597804 -0.2062463 0.35072973 -0.18182479
0.37153402 0.15377003 0.3433122 0.24671647 0.0073025906 -0.18229465 -0.07085166 -0.30816308
0.063901976 -0.07168939 -0.25257623 -0.019778114 0.19529366 -0.34174952 -0.20942311 -0.11583059
0.116729885 0.08021419 0.27977318 -0.025373427 0.21690373 -0.18728061 0.077676445 -0.26542473
0.37339815 -0.22026321 -0.00791825 0.35732502 0.19622228 -0.09494735 0.24464306 0.19594161
-0.19883306
