Transformer/model_EnDeTransformer/best_epoch_model_96.pth (torch, 76798 bytes, 118 tensors)

encoder.pos_embedding.positional_encoding f4 [96, 7]
000000 00 00 00 00 00 00 80 3f 00 00 00 00 00 00 80 3f
       0.0 1.0 0.0 1.0
000010 00 00 00 00 00 00 80 3f 00 00 00 00 a4 6a 57 3f
       0.0 1.0 0.0 0.84147096
000020 41 51 0a 3f b0 43 93 3d 5a 56 7f 3f 5f b8 a9 3b
       0.54030234 0.07190645 0.9974114 0.0051794495
000030 1f ff 7f 3f ea 6e c3 39 b7 c7 68 3f 33 11 d5 be
       0.9999866 0.00037275936 0.9092974 -0.41614684
000040 19 e2 12 3e 4a 5a 7d 3f ca b7 29 3c 7c fc 7f 3f
       0.14344062 0.98965895 0.01035876 0.99994636
000050 e9 6e 43 3a c3 81 10 3e 26 70 7d bf ad 5f 5b 3e
       0.00074551866 0.14112 -0.9899925 0.21423216
000060 70 0e 7a 3f 3b 92 7e 3c 17 f8 7f 3f 2e 93 92 3a
       0.9767828 0.015537794 0.9998793 0.0011182779
000070 cf bd 41 bf 30 55 27 bf 40 5d 91 3e 2b 77 75 3f
       -0.7568025 -0.6536436 0.28391457 0.9588496
000080 75 b5 a9 3c ef f1 7f 3f e5 6e c3 3a 10 7c 75 bf
       0.020716408 0.99978536 0.0014910368 -0.9589243
000090 2c 3c 91 3e 00 4a b4 3e 90 9a 6f 3f a3 20 d4 3c
       0.2836622 0.35212708 0.9359522 0.025894469
0000a0 06 ea 7f 3f 9b 4a f4 3a 8c 0f 8f be b8 cd 75 3f
       0.99966466 0.0018637957 -0.2794155 0.96017027
0000b0 cd 47 d6 3e 65 80 68 3f 5d 8a fe 3c 5b e0 7f 3f
       0.41851655 0.90820915 0.031071836 0.99951714
0000c0 28 93 12 3b 46 30 28 3f bd ff 40 3f 9a 29 f7 3e
       0.0022365544 0.6569866 0.75390226 0.48273927
0000d0 14 32 60 3f 2b 79 14 3d ee d4 7f 3f 00 01 2b 3b
       0.87576413 0.036248367 0.9993428 0.0026093125
0000e0 95 46 7d 3f f6 fd 14 be e9 61 0b 3f 9e ba 56 3f
       0.98935825 -0.14550003 0.54446274 0.83878505
0000f0 22 ac 29 3d bf c7 7f 3f d7 6e 43 3b 32 01 d3 3e
       0.041423924 0.99914163 0.0029820704 0.4121185
000100 d5 3f 69 bf 49 76 1a 3f 8f 26 4c 3f f0 dd 3e 3d
       -0.91113025 0.6033674 0.79746336 0.046598375
000110 cf b8 7f 3f ac dc 5b 3b f8 44 0b bf 64 cd 56 bf
       0.9989137 0.0033548279 -0.5440211 -0.8390715
000120 f0 bd 28 3f ed 83 40 3f 6d 0e 54 3d 1d a8 7f 3f
       0.6591482 0.752013 0.05177157 0.99865896
000130 7f 4a 74 3b 5c ff 7f bf 72 05 91 3b f3 25 36 3f
       0.0037275848 -0.9999902 0.004425698 0.71151656
000140 23 e2 33 3f 76 3d 69 3d a9 95 7f 3f 28 5c 86 3b
       0.7026693 0.05694338 0.9983774 0.0041003413
000150 d8 5c 09 bf d0 06 58 3f 8b 9c 42 3f f0 51 26 3f
       -0.53657293 0.84385395 0.76020116 0.64968777
000160 e6 6a 7e 3d 74 81 7f 3f 10 93 92 3b 22 20 d7 3e
       0.062113665 0.99806905 0.0044730976 0.42016703
000170 6f 4e 68 3f 34 11 4e 3f 4d e5 17 3f 4b cb 89 3d
       0.9074468 0.80495 0.5933426 0.06728228
000180 7e 6b 7f 3f f5 c9 9e 3b 72 98 7d 3f d7 04 0c 3e
       0.99773395 0.0048458525 0.9906074 0.13673721
000190 c0 74 58 3f 59 af 08 3f 30 60 94 3d c7 53 7f 3f
       0.84553146 0.5339256 0.07244909 0.9973721
0001a0 da 00 ab 3b 44 79 26 3f e8 7a 42 bf 69 b9 61 3f
       0.0052186074 0.65028787 -0.7596879 0.8817354
0001b0 78 88 f1 3e 11 f4 9e 3d 4f 3a 7f 3f bc 37 b7 3b
       0.4717443 0.07761396 0.99698347 0.005591361
0001c0 10 68 93 be 2c 29 75 bf e7 d2 69 3f 1f 72 d0 3e
       -0.2879033 -0.9576595 0.91337436 0.40712067
0001d0 da 86 a9 3d 16 1f 7f 3f 9e 6e c3 3b 25 1e 76 bf
       0.08277674 0.9965681 0.0059641143 -0.96139747
0001e0 36 e2 8c be 7e b6 70 3f 81 47 ae 3e 79 18 b4 3d
       -0.27516335 0.9402846 0.34038928 0.0879373
0001f0 1d 02 7f 3f 7e a5 cf 3b b3 40 40 bf 84 0a 29 3f
       0.996126 0.006336867 -0.75098723 0.6603167
000200 0c 5b 76 3f e8 35 8b 3e dc a8 be 3d 64 e3 7e 3f
       0.96232677 0.27189565 0.09309551 0.9956572
000210 5b dc db 3b 69 79 19 3e bf 1b 7d 3f 16 b9 7a 3f
       0.006709618 0.1498772 0.9887046 0.9793867
000220 98 d7 4e 3e ef 37 c9 3d ea c2 7e 3f 37 13 e8 3b
       0.2019943 0.098251216 0.99516165 0.0070823687
000230 c8 b6 69 3f 22 f0 d0 3e d3 ca 7d 3f 3d 31 06 3e
       0.9129453 0.40808207 0.9913761 0.1310472
000240 a0 c5 d3 3d b0 a0 7e 3f 10 4a f4 3b 10 2f 56 3f
       0.10340428 0.9946394 0.007455118 0.8366556
000250 fc 37 0c bf 32 8c 7f 3f 1a 64 73 3d de 51 de 3d
       -0.54772925 0.99823296 0.059421636 0.10855459
000260 b7 7c 7e 3f 74 40 00 3c 15 05 11 bc 6f fd 7f bf
       0.9940905 0.007827867 -0.008851309 -0.99996084
000270 df fa 7f 3f 50 fd 4c bc 94 dc e8 3d fe 56 7e 3f
       0.99992174 -0.012511566 0.11370197 0.9935149
000280 de 5b 06 3c e6 a1 58 bf bf 67 08 bf 46 16 7f 3f
       0.008200614 -0.8462204 -0.53283304 0.9964336
000290 6b cf ac bd b1 65 f3 3d 86 2f 7e 3f 47 77 0c 3c
       -0.08437999 0.118846305 0.99291265 0.00857336
0002a0 fc d3 67 bf fe 2d d9 3e 98 df 7c 3f 11 8d 1f be
       -0.9055784 0.42417902 0.98778677 -0.15581156
0002b0 23 ed fd 3d 4f 06 7e 3f b0 92 12 3c 38 87 07 be
       0.12398746 0.99228376 0.008946106 -0.13235176
0002c0 78 bf 7d 3f c4 59 79 3f f6 de 67 be 6a 39 04 3e
       0.99120283 0.97402596 -0.22643647 0.12912527
0002d0 5a db 7d 3f 16 ae 18 3c 08 37 43 3f 81 9c 25 3f
       0.9916283 0.009318849 0.76255846 0.6469193
0002e0 73 89 74 3f c5 7e 97 be 5c 7b 09 3e a6 ae 7d 3f
       0.9552223 -0.29588905 0.13425964 0.9909462
0002f0 7b c9 1e 3c 0e d5 74 3f 38 93 95 be 08 75 6e 3f
       0.009691591 0.95637596 -0.29213881 0.93147326
000300 46 45 ba be 5a bc 0e 3e 35 80 7d 3f df e4 24 3c
       -0.36380976 0.13939038 0.99023753 0.010064333
000310 2a b4 8a 3e 57 6d 76 bf 92 24 67 3f e5 14 dc be
       0.2709058 -0.9626059 0.90290177 -0.4298469
000320 5f fc 13 3e 05 50 7d 3f 42 00 2b 3c e9 e3 29 bf
       0.1445174 0.98950225 0.010437073 -0.6636339
000330 b3 80 3f bf c2 a1 5e 3f d4 c0 fc be 5e 3b 19 3e
       -0.74805754 0.8696557 -0.49365866 0.14964053
000340 18 1e 7d 3f a2 1b 31 3c a4 ef 7c bf 18 f4 1d 3e
       0.98874044 0.010809811 -0.9880316 0.15425146
000350 e0 f7 54 3f e3 0e 0e bf 51 79 1e 3e 6f ea 7c 3f
       0.8319073 -0.55491465 0.15475966 0.9879522
000360 01 37 37 3c 06 de ce be 8e 2c 6a 3f bb 33 4a 3f
       0.011182548 -0.40403765 0.91474235 0.78985184
000370 13 01 1d bf 2d b6 23 3e 08 b5 7c 3f 5f 52 3d 3c
       -0.61329764 0.15987463 0.9871373 0.011555283
000380 4d 2a 0d 3f a9 8f 55 3f 98 63 3e 3f 2d 23 2b bf
       0.5514267 0.83422333 0.7437072 -0.6685055
000390 e9 f1 28 3e e5 7d 7c 3f ba 6d 43 3c 39 fa 7f 3f
       0.16498531 0.986296 0.011928016 0.99991184
0003a0 b7 86 59 bc 1f 97 31 3f 75 62 38 bf 7d 2c 2e 3e
       -0.013276747 0.6937122 -0.72025234 0.17009158
0003b0 07 45 7c 3f 14 89 49 3c f7 71 07 3f e7 3b 59 bf
       0.9854283 0.012300748 0.5290827 -0.8485703
0003c0 46 df 23 3f 5c ad 44 bf dd 65 33 3e 6d 0a 7c 3f
       0.64012563 -0.76827025 0.17519327 0.9845341
0003d0 6d a4 4f 3c c2 3a db be 5f 58 67 bf 3c 4e 15 3f
       0.0126734795 -0.42818266 -0.9036922 0.583225
0003e0 97 f3 4f bf 03 9e 38 3e 17 ce 7b 3f c3 bf 55 3c
       -0.81231064 0.18029027 0.98361343 0.013046208
0003f0 38 e5 7d bf ea 08 03 be 4f f7 05 3f 36 26 5a bf
       -0.99177885 -0.12796369 0.5233049 -0.85214555

encoder.encoder_layers.0.encode_self_attention.W_Q.weight f4 [16, 7]
000000 7a 64 5e be 0b 71 aa be 84 3c 7c bb a0 67 09 be
       -0.21718016 -0.3328937 -0.0038488219 -0.13418436
000010 e1 69 9a be 4b a2 6f be 56 97 93 bd e5 df 49 3e
       -0.30158904 -0.23401754 -0.072065994 0.19714315
000020 67 10 b0 be f6 d5 b7 3c 0a ac 9a 3e 06 cc c6 bc
       -0.34387514 0.022440892 0.3020938 -0.024267208
000030 9d 13 68 be 95 03 06 be e0 ad 10 3e 78 58 49 3e
       -0.22663732 -0.13087304 0.14128828 0.19662654
000040 77 24 b2 3e 6a ab 1f 3e 92 9b 6e be bb cc a9 bd
       0.34793445 0.15592733 -0.23301533 -0.08291002
000050 10 39 e8 3d 46 35 8d 3d a4 24 a5 be c5 6c 94 bc
       0.11339009 0.06894927 -0.32254517 -0.018118272
000060 f0 f9 b1 3e fd e3 38 3d e1 fd a4 bc 5b 9d ce bd
       0.34761 0.0451393 -0.02014059 -0.10088607
000070 1d 9b 56 3d c5 3f 83 3e ed cb ad 3e 4c 25 6a 3d
       0.05239402 0.2563459 0.33944646 0.057164475
000080 85 2e b9 be 8b 39 af 3e 8c 17 2b 3c a3 d1 b7 3e
       -0.36168304 0.3422359 0.010442626 0.35902128
000090 02 c7 76 3e d6 d3 3c be 39 84 0c bb 91 32 63 3d
       0.24099353 -0.18440184 -0.0021441116 0.055468146
0000a0 ab 19 aa 3e f9 32 90 3e a1 90 0c 3d bf 95 c5 3d
       0.33222708 0.2816389 0.034317616 0.096477024
0000b0 3b 1a 77 3e 0d e0 3a 3e a4 30 a8 3e ef 65 23 3e
       0.241311 0.18249531 0.3284961 0.15956853
0000c0 3d fd 57 3e 37 49 b6 3e 6c 96 17 3e 11 db d8 bd
       0.21092696 0.35602733 0.14803475 -0.105886586
0000d0 e6 d2 02 be 4c 02 fc bd 21 b1 90 be dc 2b b7 bc
       -0.12775764 -0.123051256 -0.2826014 -0.022359781
0000e0 fe 9b 79 be 68 00 ab 3e 44 74 97 be 12 74 73 3e
       -0.24375913 0.33398747 -0.2958089 0.23774746
0000f0 bb bc a1 3e e3 55 5c be 83 1a 9b be c7 54 bc be
       0.31589302 -0.21517138 -0.30293664 -0.3678343
000100 3a 43 a4 3e d5 f1 48 be 3e c9 f8 bd 66 4d a2 3e
       0.3208254 -0.19623502 -0.12147759 0.31699675
000110 cb b1 a0 3e dc bc c7 bc 32 b6 09 be b7 a6 64 bc
       0.31385645 -0.024382047 -0.13448408 -0.013955764
000120 6c c3 0a be 23 5b 1a be 5d cd 25 3b 20 aa 17 be
       -0.1355111 -0.15073828 0.0025299408 -0.14810991
000130 24 f3 f4 bd 66 7b 97 3d db 0b 67 3c 1e f3 03 3e
       -0.11960438 0.07396583 0.014101948 0.1288571
000140 20 3c a0 be 8c b6 fd bb 2a 08 d9 3d 17 d6 90 3e
       -0.31295872 -0.0077427085 0.1059726 0.28288338
000150 32 2f c0 be 08 9a 6e be 36 ae be 3d d8 9b 09 3e
       -0.37536007 -0.23300946 0.09310572 0.13438356
000160 49 40 be be 6d 1b 91 3e e3 57 06 3d f0 64 33 3e
       -0.3715842 0.28341237 0.03279866 0.17518973
000170 d4 6d ae be 6e e6 2f be 02 7a 2a 3e 0f a6 ca 3d
       -0.34068167 -0.17177746 0.16648105 0.098949544
000180 58 e7 5f 3e 1e 44 d8 bd 8e 96 14 bd 33 78 d3 3d
       0.21865594 -0.10559867 -0.036276393 0.103256606
000190 e2 a2 8c 3d 72 67 f3 bd 0e 85 b2 3e 2a d2 c0 3e
       0.06867005 -0.11884965 0.34867138 0.37660342
0001a0 d4 a6 ad be e5 7b 4b be da 09 33 3e c1 ed ac 3e
       -0.33916342 -0.19871481 0.17484227 0.33775142
0001b0 df 98 92 be 60 8d 90 3e c3 b1 be bd 6b 9c 48 be
       -0.28632256 0.2823286 -0.09311249 -0.19590919

encoder.encoder_layers.0.encode_self_attention.W_Q.bias f4 [16]
000000 1d 57 8e 3e 55 b1 9a be a1 44 79 3d 44 11 06 be
       0.27800837 -0.3021342 0.060856465 -0.13092524
000010 98 f9 e2 bd 33 4d 84 be 1b 3c 63 3e ce 8f 99 be
       -0.110827625 -0.25840148 0.22190897 -0.29992527
000020 59 f1 4b 3e c9 2a ac 3e 95 dc 0f be b1 9c 9c 3e
       0.19916286 0.33626392 -0.14048989 0.30588296
000030 2d 7a 10 3e 06 4f ba be 78 d0 b1 3d 4a af 2a 3e
       0.14109106 -0.36388415 0.086823404 0.1666843

encoder.encoder_layers.0.encode_self_attention.W_K.weight f4 [16, 7]
000000 cd 39 58 3e ec 06 fc bd 6c e5 8d be 7a da c0 bc
       0.21115799 -0.12306008 -0.27714097 -0.023541678
000010 be 5b ab 3e f0 81 95 bd 74 11 95 be 1c cb a7 3e
       0.3346843 -0.07300174 -0.29114878 0.32772148
000020 6d 72 8b 3e 00 46 21 3e 49 c9 8a be 71 f4 2d bc
       0.27235737 0.15749359 -0.27106693 -0.010617361
000030 f1 7f 55 3e 67 d4 bf 3e e4 5d 18 3e 5b 9f 6e 3e
       0.20849587 0.37466738 0.14879566 0.23302977
000040 9d 89 53 3e 42 c1 73 3e 4b 3c 02 be 75 1b 8f be
       0.20657964 0.23804191 -0.12718312 -0.27950636
000050 f6 5d 90 bc b7 59 b5 be 82 1b 1a 3e 35 01 7e be
       -0.017622929 -0.3542001 0.15049556 -0.24805148
000060 6e 38 90 be 92 57 70 be e9 58 8e 3e bc 73 e3 bd
       -0.28168052 -0.23470905 0.27802208 -0.11106059
000070 b9 8f d4 3d 3b 63 55 3e 66 d9 c6 bd 5f b1 75 be
       0.103789754 0.20838635 -0.09709434 -0.23993443
000080 be 3b c4 bb a4 79 25 be 74 76 a9 3e ea de a8 3e
       -0.005988567 -0.16159683 0.33098185 0.3298257
000090 77 f2 8a 3e 41 65 06 be 7b 7b 42 3e aa d0 10 3e
       0.2713811 -0.13124563 0.18992417 0.14142099
0000a0 27 04 80 bd a6 fc 92 be 43 8e 79 be 86 4e 30 3d
       -0.06250792 -0.2870838 -0.24370675 0.043043636
0000b0 85 e0 5f be 29 46 f1 bc bc 14 a6 be cb 6d af be
       -0.21862991 -0.0294524 -0.32437694 -0.34263453
0000c0 a5 9c 00 3e 44 a3 0b 3e 36 df 84 be e9 24 cd 3d
       0.12559755 0.136365 -0.25951546 0.10016806
0000d0 90 88 9d 3d 84 9f 99 bd 23 12 6b be 65 50 ad 3e
       0.07692063 -0.07501128 -0.22956137 0.338504
0000e0 55 0e b9 3d bb fa 03 be d8 1f 26 3e b7 ff 17 be
       0.09035937 -0.12888615 0.16223085 -0.14843641
0000f0 4f bc e7 3c 33 68 82 3d c0 db 21 3e 3f be 9f 3e
       0.028288035 0.06367531 0.15806484 0.31199834
000100 54 12 49 bc 15 5d ad 3c 6f 3c b3 3d 13 35 77 be
       -0.012272436 0.021162549 0.08751761 -0.2414134
000110 bf f4 84 3e 5e 85 b7 be 8c 81 fd 3d 92 fe b0 be
       0.25967976 -0.3584394 0.12378225 -0.34569222
000120 08 d3 05 be 21 fc c0 3d 69 23 b7 3e 3a ef 4f 3e
       -0.13068783 0.0942309 0.35769203 0.20306101
000130 fa 07 ba bc 06 0b e5 3d 8c 3d d8 bd 85 ca 9a 3e
       -0.022708882 0.11183743 -0.10558614 0.30232635
000140 14 17 bc be ec 13 a2 3e aa c9 9d 3e 57 19 3e be
       -0.36736357 0.31655824 0.3081792 -0.18564354
000150 30 2c 1b 3e 32 41 a8 bd e6 18 82 be 3b 9c 40 3e
       0.15153575 -0.0821556 -0.2540962 0.18809597
000160 61 d2 e6 bd 05 dc 5f 3d e5 1f 81 be 0f 9b 8c be
       -0.11270595 0.054653186 -0.25219646 -0.2746205
000170 42 92 8b be 85 c4 08 be e5 db c7 bd ec ad 32 3e
       -0.27260023 -0.13356216 -0.097587384 0.17449158
000180 74 74 89 3c 31 9e d0 3c 6d 7e 85 3e ae e4 bf be
       0.016779162 0.025466057 0.26073018 -0.37479156
000190 d0 e1 af 3e 80 d3 40 3e fd 1f 15 be 16 5f aa 3e
       0.3435197 0.18830681 -0.14562984 0.3327567
0001a0 27 32 8d 3e a3 79 8a 3e 09 d8 06 be 49 bb 93 3c
       0.27577326 0.27045926 -0.13168348 0.01803364
0001b0 38 4b 10 3d f3 f4 1a be 79 4c a2 3d 4f db 4c 3e
       0.035227984 -0.15132503 0.07924742 0.20005535

encoder.encoder_layers.0.encode_self_attention.W_K.bias f4 [16]
000000 5a 85 40 3e e6 4c 45 3e 00 11 8e 3d b9 b8 b7 be
       0.1880087 0.19267616 0.06936836 -0.3588312
000010 0d c7 83 3c c7 ec 9e 3e 96 1a 02 be 71 03 b8 3e
       0.016086126 0.31040022 -0.12705454 0.35940126
000020 c6 f0 1b be 23 f9 b5 be d1 ad 14 3c da 62 91 bc
       -0.15228567 -0.3554164 0.009074644 -0.017747331
000030 34 73 e4 3d 04 f6 8e be 92 01 32 3e 20 f4 6c bd
       0.11154786 -0.2792207 0.17383412 -0.057850003

encoder.encoder_layers.0.encode_self_attention.W_V.weight f4 [16, 7]
000000 71 25 01 3e 4f 49 33 be f3 44 c9 3d 6b b9 1b be
       0.12611939 -0.17508434 0.09827604 -0.1520745
000010 b0 e8 73 be 9e e3 63 3e a7 53 ea bb f6 aa 7c 3e
       -0.23819232 0.22254798 -0.0071510854 0.24674591
000020 e6 74 00 3e 38 8b 50 3e 33 7f cb bd d2 e8 89 3e
       0.12544593 0.20365608 -0.09936371 0.2693544
000030 ac d6 88 3e 67 41 40 3e 93 d0 8a be f2 5d 04 3e
       0.26726282 0.18774949 -0.27112255 0.12926462
000040 e6 88 a9 3e 6e ca 7f be de c7 a6 3e 12 9a 53 be
       0.33112258 -0.24979565 0.32574362 -0.20664242
000050 6b 98 7a be 73 d6 b3 3e a3 70 3d be 37 d2 ea 3c
       -0.24472205 0.3512455 -0.18499999 0.028664691
000060 40 81 8e 3b 46 fa 81 3e 10 43 9e 3e 07 8c 98 3e
       0.004348904 0.25386256 0.3091054 0.29794332
000070 0f ea ab 3e 0c f2 c8 bc 75 37 0b be 25 b5 db bd
       0.3357701 -0.02452948 -0.13595374 -0.1072791
000080 8d 34 80 be f7 f9 45 be 37 42 a9 be f5 65 d2 bd
       -0.25040093 -0.19333635 -0.3305833 -0.10273353
000090 a1 ee f4 bd a8 8b 17 3d 9e d0 8e be 19 34 87 be
       -0.11959577 0.03699842 -0.27893537 -0.26406935
0000a0 d4 07 ba bd fb 1f 5a 3e a5 25 9a 3e 16 57 4b be
       -0.09083524 0.21301262 0.30106845 -0.1985744
0000b0 ba e1 9a 3e be 17 8c be 38 93 ca 3d ab 55 d2 3d
       0.3025034 -0.27361864 0.09891361 0.10270246
0000c0 3d ae 41 3d b5 f4 76 be 09 86 7e 3e 19 e6 07 3e
       0.047285307 -0.24116786 0.24855818 0.13271369
0000d0 26 d8 2b bd 04 69 16 be d6 b0 1f 3e b4 33 a2 3d
       -0.041954182 -0.14688498 0.15594801 0.07920018
0000e0 42 93 8a bd aa 01 7c 3e 97 77 b7 3d 86 be a6 3e
       -0.067663684 0.2461001 0.08958357 0.32567233
0000f0 cd f0 a0 be 66 ed 46 3e 72 55 8f 3d 4c b4 85 3d
       -0.31433716 0.19426498 0.06998719 0.065285295
000100 7c 7c 05 be 74 d6 8a 3d 92 73 02 be aa 86 9a 3e
       -0.13035768 0.06779185 -0.12739399 0.30180866
000110 fb d6 60 be 6e 46 76 be 00 d3 3e 3e d4 ae db bd
       -0.21957009 -0.24050304 0.18635178 -0.10726705
000120 11 a1 66 3e 61 d0 b1 be 6e a9 5e be 83 49 13 be
       0.2252238 -0.34729293 -0.2174432 -0.14383511
000130 fa bd 80 3e d9 ce 7b be 1c fe 93 3e bf 98 94 be
       0.2514494 -0.24590625 0.28904808 -0.29022786
000140 e3 6e 49 3e 39 bd ae be 24 cb dc bd ee 7c b5 be
       0.19671206 -0.3412874 -0.107809335 -0.35446876
000150 4b 14 20 3e ef c2 d0 3d 07 ef 6f 3e 59 6e 05 3e
       0.15632741 0.10193431 0.23431025 0.13030376
000160 e8 51 80 bd a8 da 10 3d 48 90 ae be 89 9b 1d be
       -0.062656224 0.035364777 -0.34094453 -0.15391363
000170 fe 3c bc 3e ff ca c8 3d 0c 9a 27 be d6 19 c5 3d
       0.36765283 0.098043434 -0.16367358 0.096240684
000180 15 73 03 bd 8e 18 8d 3e f0 3e 23 3e e4 df 2f 3e
       -0.032092173 0.27557796 0.15941978 0.17175251
000190 59 68 ef bd fc b6 42 be de 88 c6 39 97 ec 8a be
       -0.116898246 -0.19015115 0.00037867477 -0.2713363
0001a0 bc 55 ba be 4c 75 2f 3e 64 74 26 be c5 aa 06 3e
       -0.36393535 0.17134589 -0.16255337 0.13151081
0001b0 88 27 96 be d4 9e 8c 3e db dd 03 3e ad dd 95 be
       -0.29327035 0.27464926 0.128776 -0.29270688

encoder.encoder_layers.0.encode_self_attention.W_V.bias f4 [16]
000000 80 98 04 3e c5 d0 a8 3e bb 63 dd 3d 9e d6 5d 3e
       0.12948799 0.3297178 0.10810038 0.21663901
000010 e5 4f 5b bb 57 71 84 bd d0 8c 04 3e ee ec 3a be
       -0.003346437 -0.0646693 0.1294434 -0.18254444
000020 ea 20 e4 bc c1 80 3c be 13 87 9a 3e 79 67 8d 3e
       -0.027847726 -0.1840849 0.30181178 0.27618006
000030 c2 41 ab 3e 34 51 66 be e7 74 ba be b8 f4 3e be
       0.33448607 -0.22491914 -0.36417314 -0.1864804

encoder.encoder_layers.0.encode_self_attention.fc.weight f4 [7, 16]
000000 70 51 68 3e e3 84 9f 3d 2a 8f 4f 3d c5 11 c4 bd
       0.22687316 0.07789018 0.05067364 -0.09573702
000010 62 f8 58 3e df 42 78 be d8 b2 e5 bb 6d 98 3e be
       0.211885 -0.2424426 -0.007009845 -0.18612833
000020 61 8b 5f 3d 04 f3 00 be da a8 18 be 83 85 3e 3d
       0.05457628 -0.12592703 -0.14908162 0.046514045
000030 7e 13 74 3e a8 c0 63 be 80 9a 35 be 9f 01 30 3e
       0.2383556 -0.22241461 -0.17734718 0.17188118
000040 f2 50 4c be b8 2b 8c 3d aa 41 a9 3d e6 4b 4a bc
       -0.19952753 0.06844276 0.082644776 -0.012347197
000050 5f 78 7d bd ea 58 fa bd bc b9 3e 3d a9 fa b8 3d
       -0.061882373 -0.1222399 0.04656385 0.09032185
000060 34 b1 7a 3e 5c 30 38 bd 1b fc 7b 3e ff ff 55 bd
       0.2448166 -0.044967994 0.2460789 -0.05224609
000070 01 14 54 be dc ba 46 bd bc 8c 07 be 56 a5 e1 3d
       -0.20710756 -0.048518047 -0.1323728 0.110178635
000080 6c 28 18 3e ad 40 70 3e b1 00 5f 3d 2e 0c 9a 3d
       0.1485917 0.23462172 0.05444402 0.07521854
000090 cd 5b b0 bd 04 4b 87 bc 8e 2d 54 be 11 ac 0d 3c
       -0.086112596 -0.016515262 -0.20720503 0.008646981
0000a0 d0 28 f3 bd cb 19 32 3d 6a ed 9a 3d 35 46 23 3e
       -0.11873019 0.04348163 0.075648144 0.1594475
0000b0 af 4f 25 3e fc 17 4c 3d 11 45 8f bc 30 e2 53 be
       0.16143678 0.04982756 -0.017488988 -0.20691752
0000c0 ad e3 1c 3e 71 cf 7a 3e 02 1f ba 3c 26 05 1e bc
       0.15321226 0.24493195 0.022719864 -0.009644782
0000d0 50 5f 20 3d d8 51 11 3e e3 c9 4c 3e a0 47 31 3e
       0.039153397 0.14191377 0.19998889 0.17312479
0000e0 7f 61 b9 3c 5f c2 34 3c c2 f1 f2 3d a0 cf a2 3c
       0.022629498 0.01103267 0.11862518 0.019874394
0000f0 de 8d 31 3d 9b 6e 80 bb e2 00 83 bd f1 2e 5a bd
       0.043348186 -0.003919435 -0.06396653 -0.053267423
000100 98 78 9d bc 01 92 64 3e 1f c0 00 be 0b 74 1e 3e
       -0.019222543 0.22321321 -0.12573288 0.15473954
000110 9d 69 15 be cf d8 88 3d bf bc 3d be 05 12 aa bd
       -0.1459107 0.06681978 -0.18529032 -0.08304218
000120 61 65 09 3e 7d 89 33 3e ab fe a8 bc 5a aa 0c be
       0.13417579 0.17532916 -0.020629248 -0.13736859
000130 d1 d6 7c be 50 5e 1f 3d a1 5d 07 be 37 0f 23 3d
       -0.24691321 0.038908303 -0.1321931 0.039809432
000140 ac 3e f8 3d f4 b7 8a bc 02 a9 37 be fd 7d 4b 3c
       0.12121329 -0.016933419 -0.17935565 0.012420175
000150 28 88 8f 3d 7b 51 c7 3d 83 7c 61 be 53 53 55 3d
       0.070083916 0.09732338 -0.22020154 0.052081417
000160 9c 8c 41 3e ef e3 3b be 94 a5 65 be bd d5 7a be
       0.18901294 -0.18348669 -0.22426444 -0.24495597
000170 fe f1 68 3e 2d 84 91 3d 30 d2 63 3e 93 21 56 be
       0.22748563 0.07105289 0.22248149 -0.20911245
000180 d9 d0 3c bd c4 36 80 3d ba 1a 92 3d e6 df a0 3c
       -0.04609761 0.06260446 0.07134004 0.019638013
000190 8f e4 39 3e 2d a4 2b be 8a b3 44 be ee 53 53 3e
       0.18153594 -0.16761847 -0.19209114 0.20637485
0001a0 9d d4 16 be eb 76 e0 3d 61 c4 89 3d a3 97 28 3e
       -0.14729543 0.10960182 0.067269094 0.16464095
0001b0 ce 18 21 3e 04 aa 42 3e 3e 31 e3 3d 25 12 ef bd
       0.15732118 0.19010168 0.110933766 -0.11673383

encoder.encoder_layers.0.encode_self_attention.fc.bias f4 [7]
000000 ae 2c dc ba 80 83 b1 bd 69 8c 4f bd fe 39 7b 3e
       -0.0016797984 -0.0866766 -0.050671015 0.24533841
000010 f7 5c 5a 3d cd 7c 67 bd c8 ab 99 3d
       0.053311314 -0.056515504 0.07503468

encoder.encoder_layers.0.encode_self_attention.layer_norm.weight f4 [7]
000000 46 90 80 3f 5d 99 7f 3f 52 7f 80 3f f8 88 80 3f
       1.0044029 0.9984339 1.0038855 1.00418
000010 a7 33 80 3f fd d9 7e 3f 04 40 7f 3f
       1.0015763 0.99551374 0.99707055

encoder.encoder_layers.0.encode_self_attention.layer_norm.bias f4 [7]
000000 22 db 10 3b a6 40 9a 3b ec b3 8a ba e3 50 b2 3b
       0.002210327 0.0047074137 -0.0010582185 0.0054417714
000010 7c af da bb 55 f1 67 bb 2a 81 df 3a
       -0.0066737514 -0.0035391648 0.0017052044

encoder.encoder_layers.0.feed_forward.fc.0.weight f4 [7, 7]
000000 60 73 9c 3e e2 25 31 3e 1e d2 00 3d eb 40 a9 3c
       0.30556774 0.17299607 0.031450383 0.020660838
000010 39 0a a7 be b6 a5 4b 3e 57 76 7d bd c4 13 76 be
       -0.32624987 0.19887432 -0.061880436 -0.24030977
000020 a5 b8 97 3e e6 0a f1 bd dc 2c b2 be af 76 c3 bd
       0.2963306 -0.11769657 -0.3479985 -0.095441215
000030 32 f2 c7 3d 3f 6e b1 be bf a3 30 be 53 2c 53 3e
       0.09762992 -0.34654424 -0.17249964 0.20622377
000040 fa 22 33 3e 89 5d a3 be 8e f7 fe 3c 5f 8d b4 be
       0.17493811 -0.319073 0.031123903 -0.35264108
000050 ce 04 b0 be 0e 6c 51 be bc a1 13 be 4c 1c b2 be
       -0.34378666 -0.20451376 -0.14417166 -0.34787214
000060 ac b5 89 3e 72 94 b6 bd f3 d6 8d 3b 2f ac 2d 3e
       0.26896417 -0.089150324 0.0043286025 0.16960214
000070 7a e1 be 3d d2 90 92 3e f4 9b 46 3e b3 e9 9b be
       0.0932035 0.28626114 0.19395429 -0.30451736
000080 a0 f5 79 be 2b 21 9a 3e 34 01 20 be d8 63 8e bd
       -0.24410105 0.3010343 -0.15625459 -0.069526374
000090 dd 9e a7 3e 26 2d 05 be e0 d5 1a 3e 49 b8 99 be
       0.3273839 -0.13005504 0.1512065 -0.3002341
0000a0 f0 66 7d be 8b f1 43 3e 81 c7 89 3e 39 46 98 be
       -0.24746299 0.1913511 0.26910022 -0.29741076
0000b0 12 9d 93 be 94 9a cf 3c 3c 5e bd be d3 f4 3a 3e
       -0.28830773 0.025342263 -0.36985958 0.18257456
0000c0 e0 20 0d be
       -0.13782072

encoder.encoder_layers.0.feed_forward.fc.2.weight f4 [7, 7]
000000 6b 7a 73 3e 2b 17 9f be ea e8 be 3e 25 5c a1 bd
       0.23777167 -0.31072363 0.37287074 -0.07878903
000010 b2 de 83 3e 3e 03 a9 be ab 0b 8c be 60 14 d8 3d
       0.2575584 -0.33010286 -0.27352652 0.10550761
000020 d8 25 7c be 9d ef b8 bc 71 a7 5a bc f9 0d 92 be
       -0.24623811 -0.022575194 -0.013345585 -0.28526285
000030 da 95 2c bd 61 05 08 be 46 45 22 3e 6d 4d 09 3e
       -0.042135097 -0.13283302 0.15846738 0.13408442
000040 d1 33 94 3d 72 d7 1d 3e 3c c7 a7 3e 27 cc a8 3e
       0.07236446 0.15414217 0.3276919 0.32968256
000050 db 03 a3 bd 3e 0d 7a be 62 e4 18 bd 04 4a 99 3e
       -0.0795972 -0.24419114 -0.037327178 0.29939282
000060 13 8c 55 be f8 d0 c2 bd 63 28 41 be fd eb 58 be
       -0.20854215 -0.09512514 -0.18863063 -0.21183772
000070 17 aa fd bd 3e ec 89 be b5 83 11 be eb 5a 95 be
       -0.12385958 -0.2693805 -0.14210398 -0.29170927
000080 04 ef 39 3e 53 3e 85 be 82 a7 e1 3c a0 8c 99 3c
       0.18157583 -0.26024112 0.027545694 0.018743813
000090 8b 91 b2 be 17 35 95 bd 56 bb 5e bd 41 5a 6f 3e
       -0.34876665 -0.07285517 -0.054377876 0.23374273
0000a0 86 20 12 bc 51 8b 8a 3e 12 d4 e2 bd d2 10 ed 3c
       -0.008918887 0.27059415 -0.110756055 0.028938685
0000b0 02 bc 20 bd 55 be 9c 3e f7 ed 1f 3c fa b2 1d 3e
       -0.0392418 0.30613962 0.009761325 0.15400305
0000c0 e4 14 54 3e
       0.20711094

encoder.encoder_layers.0.feed_forward.layer_norm.weight f4 [7]
000000 5e 84 80 3f 25 43 7f 3f 50 89 80 3f f5 61 80 3f
       1.0040395 0.9971183 1.0041904 1.0029894
000010 4a 23 80 3f 6d ff 7e 3f f4 18 7f 3f
       1.0010769 0.996085 0.9964745

encoder.encoder_layers.0.feed_forward.layer_norm.bias f4 [7]
000000 89 02 55 3b ed aa 6e 3b f4 e7 a0 ba 89 e0 b9 3b
       0.0032502732 0.0036417798 -0.0012276159 0.0056725186
000010 4e cf d3 bb f4 27 48 bb db d7 0c 3b
       -0.0064639216 -0.0030541392 0.0021490965

encoder.encoder_layers.1.encode_self_attention.W_Q.weight f4 [16, 7]
000000 7d 6d 26 bd 62 0b da bd 37 d8 b8 be 71 52 4e 3c
       -0.04063176 -0.10646702 -0.3610246 0.012592898
000010 6d fc 81 3e 8e 70 ab bd 6d be be be cb 83 02 bd
       0.25387898 -0.083710775 -0.37254658 -0.03186397
000020 01 bf 9a 3e f9 fa 0f 3e f7 3f 89 be f5 35 df 3d
       0.3022385 0.14060582 -0.26806614 0.10898963
000030 6b c5 9e be 20 9b a2 3d 6b 22 ad be 3e bb 9f be
       -0.31009993 0.07939744 -0.3381532 -0.31197542
000040 71 fb b2 bd 8a 16 57 3e ff 29 c9 bc 0b d2 bc 3e
       -0.08739365 0.21004692 -0.024556158 0.36879
000050 60 70 cb bd f9 8f 70 be 9c 25 67 3e 2a 04 47 3e
       -0.09933543 -0.23492421 0.2257294 0.19435182
000060 a1 bb 87 3e 8f 5c a4 3e 0e e0 bb be c8 76 3b 3c
       0.26510337 0.32101867 -0.36694378 0.011441894
000070 0c 56 c6 bd 8e df 0a be 3f a9 b2 3e e4 18 9f 3e
       -0.09684381 -0.13561842 0.3489475 0.31073678
000080 76 19 ac be 61 3c 60 3d 66 9b f9 3c 3e b5 81 be
       -0.33613175 0.05474508 0.030469608 -0.2533359
000090 de 24 42 3e c2 d4 3b be d3 27 8f 3e 25 ad 57 be
       0.18959376 -0.1834288 0.2796007 -0.21062143
0000a0 6e b8 02 3e 97 f0 ab 3d da e9 b7 be 28 a0 7e be
       0.12765667 0.08395498 -0.35920602 -0.24865782
0000b0 fc af 47 bd 0c dd 39 be 75 fc 82 be c6 c5 43 3e
       -0.048751816 -0.18150729 -0.25583234 0.19118413
0000c0 86 9e 17 be 34 ad 05 3e fd 26 54 bd 97 30 62 bd
       -0.14806566 0.13054353 -0.051794995 -0.05522212
0000d0 5b 57 08 3c 9e 3d 39 be a1 44 26 be 32 64 d5 3d
       0.008321608 -0.18089911 -0.16237117 0.10419501
0000e0 44 85 54 bd b3 9e 75 3e ff 06 62 bd a3 50 2c be
       -0.051884905 0.2398632 -0.055182453 -0.16827635
0000f0 53 48 bb be 7e 03 04 be fe a1 04 be eb 62 97 3e
       -0.36578616 -0.12891957 -0.1295242 0.29567656
000100 9c cf a3 3e 85 e8 e2 bd 96 37 3f 3e 69 9b 8e 3e
       0.3199433 -0.11079506 0.18673548 0.27852944
000110 25 b8 96 be fb cb ab 3b ca 0c b3 bd 54 9b 64 be
       -0.29437366 0.005242822 -0.08742674 -0.22324878
000120 bf 5d 52 be 7e e5 7b 3e e4 0a 7d be 9d e3 8c be
       -0.20543574 0.24599263 -0.24711186 -0.27517405
000130 63 d4 9f 3e 78 c4 68 3e 04 57 6d be 5a f6 a9 3e
       0.31216726 0.22731197 -0.23177725 0.33195764
000140 bb bc 18 be 9d 4f 8a be a8 00 a8 3e b3 5a 93 be
       -0.14915745 -0.27013865 0.32813 -0.28780136
000150 d4 78 b6 3e 51 74 9c 3e 75 58 11 3e 0f c5 be be
       0.3563906 0.30557492 0.141939 -0.3725972
000160 58 56 a7 bc 84 f1 e6 bd 76 9c 66 3c 9f fe 06 3e
       -0.020426914 -0.11276534 0.014075389 0.13183068
000170 a9 03 55 be 21 fc ae be 92 8b b4 3e 5c f6 b6 3e
       -0.20802177 -0.34176734 0.35262734 0.35734832
000180 0c 7b ad 3c 1f c0 84 be ce cc 66 bc cb 0d 9b bd
       0.021176837 -0.25927827 -0.014086915 -0.0757099
000190 c3 51 2f be f6 3c a4 3e 75 55 8d 3d 95 e7 b5 3d
       -0.17121033 0.3207776 0.06901065 0.088820614
0001a0 8e 0b 30 be a6 ab 45 be f0 0c 1c be bc 03 29 be
       -0.17191908 -0.1930376 -0.1523931 -0.16505331
0001b0 33 ac ef bd 59 34 11 be 2b b0 a4 be 8f dd 97 3e
       -0.11702766 -0.14180125 -0.32165655 0.29661223

encoder.encoder_layers.1.encode_self_attention.W_Q.bias f4 [16]
000000 34 8f 09 3e c9 fa 2e be cd 91 32 bd 7c 68 8b 3e
       0.13433534 -0.17087854 -0.043596078 0.27228153
000010 e4 f0 b4 be 80 9d 73 3e 7c 3a 22 be e8 99 5b bc
       -0.35340035 0.2379055 -0.15842623 -0.013403393
000020 7d a5 38 be 57 37 60 3e 59 98 b8 3e 4d 30 b9 bd
       -0.18031879 0.2189611 0.36053732 -0.09042416
000030 1c 47 4b be e2 54 6f 3d f3 db 81 3e df c4 61 bd
       -0.19851345 0.05843056 0.2536312 -0.05511939

encoder.encoder_layers.1.encode_self_attention.W_K.weight f4 [16, 7]
000000 7c f8 a9 3e 05 cb 7b be d4 ff fc bc ad 9d a8 3e
       0.3319739 -0.24589165 -0.030883707 0.32932797
000010 6f cb aa 3e ef 30 a2 3e 68 3e ad 3e 7a 14 b6 3e
       0.33358333 0.31677958 0.33836675 0.35562497
000020 2f 5d 37 be 5c ce a4 3d 55 ea b2 be 1a 2c 7c 3e
       -0.1790664 0.080471724 -0.34944406 0.24626198
000030 1f f2 9f be ed 99 8b 3d 58 82 a0 be d5 83 02 be
       -0.3123941 0.068164684 -0.31349444 -0.12745602
000040 2b 27 38 3e 5e 24 9a be f1 c1 a9 be 3a 6f 31 3e
       0.17983691 -0.3010587 -0.33155778 0.17327586
000050 1b 23 08 be 03 5e 3a be 6f ae c6 3d 74 1f 96 3e
       -0.13294642 -0.18199925 0.09701239 0.29320872
000060 28 e2 a0 3e 77 78 ac be ee ad b3 3b c3 06 f1 bb
       0.31422544 -0.33685657 0.0054833805 -0.0073555424
000070 92 ca 3d 3d c8 ac a1 3e 20 fb ad be 88 20 a9 3e
       0.046335764 0.31577134 -0.33980656 0.33032632
000080 6f c8 78 be 10 0b 09 bc 49 c6 01 3d 1f a2 7b be
       -0.2429521 -0.008364454 0.03168324 -0.24573563
000090 86 ed b9 bd 55 9f ce bd b6 8a 1d be 15 00 a7 bb
       -0.09078507 -0.10088984 -0.15384945 -0.0050964453
0000a0 05 a6 b2 bd 08 8c 79 be 3c a0 1c 3d 70 0a 8a 3e
       -0.08723072 -0.24369824 0.03823875 0.26961088
0000b0 15 b7 0e 3e 63 dc a1 3e 71 19 22 be 91 61 aa 3e
       0.13937028 0.31613454 -0.15830018 0.33277562
0000c0 e5 44 16 3e 01 5e f0 bc e9 3f 80 be 8a 73 91 be
       0.14674719 -0.0293417 -0.2504876 -0.28408462
0000d0 59 b0 98 3e d4 3b 9b 3e 2d ef 78 be 0b de 93 3e
       0.29822043 0.30319083 -0.24309988 0.28880343
0000e0 a3 f8 5b be f6 56 e1 bc 15 fb 13 3c 5f b6 18 be
       -0.21481566 -0.027507287 0.009032031 -0.14913319
0000f0 35 21 79 be 07 01 ca bd 40 d4 d8 3d ef 82 8b bd
       -0.24329074 -0.09863477 0.105873585 -0.06812083
000100 40 db 15 3e a3 f4 b6 3e 59 ea c1 3e 7e ea 77 bd
       0.14634418 0.35733518 0.37874106 -0.060526364
000110 5b 92 99 be 70 13 70 3e 19 e6 cc 3b 9d c9 18 be
       -0.29994473 0.23444915 0.0062530157 -0.1492066
000120 73 4f 36 3d af 0a df bd b4 20 c3 3c c7 39 76 3e
       0.044509362 -0.108907096 0.023819305 0.24045478
000130 f1 cc bd be f9 58 16 3e d6 25 fb 3d 00 2a 17 be
       -0.3707042 0.14682378 0.12263076 -0.14762115
000140 29 e7 f6 bd 1d 6c 9c 3e 8b 2b 88 be 44 8e 37 3c
       -0.12055809 0.30551234 -0.2659572 0.011203352
000150 43 37 6f bd 36 82 81 3e 9d c4 2f 3e 26 49 3f bd
       -0.05840231 0.25294656 0.17164846 -0.04670062
000160 3e ca af bc 71 e4 ca bd 8c f5 2d 3e f7 93 b8 3e
       -0.021458741 -0.09906853 0.169882 0.36050388
000170 e5 93 9d 3d d5 9d 6e be 73 8f 69 be 41 26 b3 be
       0.07694224 -0.23302396 -0.22808628 -0.34990123
000180 34 58 7a bc 7e 88 bd be 50 d4 08 be 49 60 a5 3d
       -0.015279818 -0.37018198 -0.13362241 0.080750056
000190 46 ad b5 3e d1 d0 46 3e 99 6b 5b 3e a8 cb 92 be
       0.3548376 0.19415595 0.21427764 -0.28671002
0001a0 42 63 58 3e cc 96 78 3e f7 72 dd 3d de 3c 6b 3e
       0.21131614 0.24276274 0.108129434 0.22972438
0001b0 3a 2a aa be 4f 4f e8 3d 09 dd 8d 3e 77 98 84 be
       -0.3323534 0.11343252 0.277077 -0.2589757

encoder.encoder_layers.1.encode_self_attention.W_K.bias f4 [16]
000000 49 cf 84 be ff c8 57 be 67 42 26 be 19 6c b1 be
       -0.25939396 -0.21072768 -0.16236268 -0.34652784
000010 37 f9 58 3c 20 d9 6d bd 84 44 96 be 13 4e ba 3e
       0.013243011 -0.058068395 -0.29349148 0.3638769
000020 32 ba 6f 3d f0 ec 71 bd eb 40 82 be cb 7c ad 3e
       0.05852718 -0.05906385 -0.25440153 0.33884272
000030 9a c0 7b 3e d3 30 a3 be 6f ce 9c 3e 96 e6 8c bd
       0.2458519 -0.31873187 0.30626246 -0.06879918

encoder.encoder_layers.1.encode_self_attention.W_V.weight f4 [16, 7]
000000 4a 08 60 bd 43 6f f9 3d ed 92 46 3e 63 bd 2c 3e
       -0.054695405 0.121794246 0.19391985 0.1686912
000010 07 ac 92 3e c2 e1 bb 3b 28 2f 33 3d 97 5e 10 3e
       0.2864687 0.0057336995 0.043746144 0.14098583
000020 f1 d8 90 be ec fa 1b 3e 58 23 b3 3e 97 82 63 be
       -0.28290513 0.15232438 0.34987903 -0.22217785
000030 d7 56 81 be ee b7 c2 be fb 79 4b 3d e7 e3 16 be
       -0.25261566 -0.38030952 0.049676877 -0.14735375
000040 98 17 3e bd dd 77 1c 3d 6d 9f 70 be 9d 76 99 3e
       -0.04640922 0.038200248 -0.23498316 0.29973307
000050 9c 26 b8 be b0 3a 92 ba ad f3 69 3e 71 20 4e 3e
       -0.35966957 -0.0011156406 0.22846861 0.20129563
000060 93 13 a4 bd cb 64 e4 3b f0 ad 08 3e de a1 9e be
       -0.08011546 0.0069700233 0.13347602 -0.3098287
000070 a2 fc ec 3d 36 c6 52 3e ea 2b b8 bc f4 d2 ae bd
       0.115716234 0.20583424 -0.022481877 -0.0853633
000080 e7 65 c2 be 91 48 21 3d 85 88 a3 3d 37 35 8e 3e
       -0.3796837 0.039375845 0.079850234 0.27774975
000090 33 3e 5e be 94 62 e0 3c 8d 24 64 3d ff 86 67 3c
       -0.21703415 0.027390756 0.05569892 0.014131307
0000a0 e9 a7 04 3e b1 db 42 be c9 83 e5 3d aa d0 f7 3d
       0.12954678 -0.19029118 0.11206777 0.121003464
0000b0 2c b8 9c be 2f 8a 26 3d 4c 82 bf 3e 84 48 d9 bc
       -0.30609262 0.040659126 0.37404096 -0.026523836
0000c0 48 da de 3c 8b 6d 0a 3e ad 74 32 be c2 07 b8 3e
       0.027203694 0.1351835 -0.17427321 0.3594342
0000d0 41 6d a4 bd 7c 0d 49 3d aa 1e 4f 3e b1 6c 91 3d
       -0.08028651 0.049085125 0.20226541 0.07100809
0000e0 11 9e 7a be b9 47 83 3e a2 bc b1 3e c1 75 83 bd
       -0.2447436 0.25640658 0.34714228 -0.06418944
0000f0 e5 6b b1 be 9e f7 0a 3e c8 9b 21 3e 76 eb 1e 3e
       -0.3465263 0.13571021 0.15782082 0.15519509
000100 e8 f8 f6 bc e2 00 29 be 8f 13 29 bd 14 40 aa 3e
       -0.030147985 -0.16504243 -0.04127842 0.33252013
000110 12 cb ba be 56 1a b1 3d 3f 92 a7 3e 39 95 77 be
       -0.36483055 0.08647601 0.32728764 -0.24178018
000120 99 1e c1 be 04 46 ad 3d c4 83 36 be 92 db b2 be
       -0.37718657 0.0846062 -0.17823702 -0.34933144
000130 8d c7 c3 3e fa 03 82 3a 03 97 b0 3e c7 ac 9b 3e
       0.38238183 0.0009919398 0.34490213 0.30405256
000140 0f 5a 92 3e 1f 41 07 be 6e 74 a6 bd 60 a6 9e be
       0.28584334 -0.13208435 -0.08127676 -0.3098631
000150 b7 ea b8 3d f8 c0 a3 be fa 88 b9 3e 10 c2 9d 3c
       0.09029143 -0.3198316 0.36237317 0.019257575
000160 e4 60 92 3c 9e bb a9 be e4 7e b9 3e 04 c8 1b bd
       0.017868467 -0.33150953 0.36229622 -0.038032547
000170 9e 36 1e 3e d8 d1 14 3e 5f 90 e8 bd 6c 56 82 be
       0.15450522 0.14533174 -0.113556616 -0.2545656
000180 aa 9f 11 3e 16 b1 95 3e 5e 75 43 3d 9d 33 88 3d
       0.14221063 0.29236668 0.047719352 0.066504695
000190 22 d4 76 be 97 1b 5e be 88 76 2c 3c 20 f3 04 3e
       -0.2410436 -0.21690212 0.010526307 0.1298337
0001a0 47 0e a8 3e d8 d4 b7 3e 80 88 b6 3d 41 92 64 be
       0.32823393 0.35904574 0.08912754 -0.22321416
0001b0 b2 42 fe bd 4d b4 b3 3d e1 d7 84 bd 1c d8 b4 3e
       -0.12415065 0.08774624 -0.06486488 0.35321128

encoder.encoder_layers.1.encode_self_attention.W_V.bias f4 [16]
000000 a8 f6 80 3e c9 ea 38 3e fc 03 c4 3d 05 58 c3 bd
       0.25188184 0.18058313 0.095710725 -0.09538273
000010 55 c6 a7 3d 12 cd 22 be 9b 60 81 be 05 0c 3f be
       0.08192126 -0.1589854 -0.25269017 -0.18656929
000020 29 73 1d 3e 87 f2 53 3e 36 f4 cb bd 19 46 02 3e
       0.15375961 0.20697986 -0.09958689 0.12722053
000030 c0 42 87 be f4 78 1c 3e 94 16 fe bc 5b db 94 be
       -0.26418114 0.15280515 -0.031016625 -0.29073605

encoder.encoder_layers.1.encode_self_attention.fc.weight f4 [7, 16]
000000 a8 b0 c9 bd 46 63 62 3e 9b 92 b0 3d 4a 50 4b 3e
       -0.09848148 0.22108182 0.08621713 0.19854847
000010 3f 3c 76 3e 76 e7 12 bd 88 2a a0 bd a6 68 34 3e
       0.2404642 -0.03586527 -0.07820612 0.17618045
000020 f9 c9 a8 bd 16 c3 09 be 06 5e 74 be 68 cf 69 be
       -0.08241648 -0.13453326 -0.23863992 -0.22833025
000030 17 43 5b be b4 16 4f be 78 22 87 bd 14 1c 01 bc
       -0.21412311 -0.20223504 -0.06598371 -0.0078802295
000040 c5 c1 5b 3d 14 c3 c4 3d c4 54 cc 3d 42 19 18 be
       0.05365159 0.09607521 0.09977105 -0.14853385
000050 58 75 2e 3e d2 04 e3 3d a7 25 3d be 61 d3 1c bd
       0.1703695 0.11084904 -0.18471394 -0.038287524
000060 98 14 28 be 39 1c 6a be d1 0e 6b be da 3f 14 3e
       -0.16414106 -0.22862329 -0.22954871 0.14477482
000070 7e 17 49 be 32 a1 40 be 5d 8f 17 3e c5 5f 4a 3b
       -0.19637868 -0.18811491 0.14800783 0.0030879837
000080 c9 97 44 be bc 67 16 bd 39 4f 70 3e ec d6 54 be
       -0.19198526 -0.036720023 0.23467721 -0.20785111
000090 30 68 05 be 54 70 00 3e b5 14 80 3c 86 04 36 3e
       -0.13028026 0.1254285 0.015634874 0.17775163
0000a0 f5 50 70 3e ef 6f 24 bd 83 37 33 be 59 33 4d be
       0.23468383 -0.04014581 -0.17501645 -0.20039119
0000b0 a4 df 5f be a9 fb d2 bd 1b 09 42 be c0 dc b5 bd
       -0.21862656 -0.103019066 -0.18948786 -0.08879995
0000c0 19 f8 fc 3b 1e 41 00 3e 38 01 6c bd 11 04 43 be
       0.0077200052 0.1252484 -0.05761835 -0.1904452
0000d0 11 85 43 be b0 f8 14 3d ab 65 5b bd 08 61 80 3e
       -0.1909373 0.03636998 -0.053563755 0.2507403
0000e0 9d 45 15 3d 85 86 a9 3d ae bb 16 3d 70 51 65 be
       0.03644334 0.08277611 0.03680008 -0.22394347
0000f0 2c b1 5e bd 3d c2 13 3e 43 f0 86 bd 73 cb 46 3e
       -0.054368183 0.14429565 -0.06588795 0.19413547
000100 8b 9f 81 be 49 62 5d be f3 1e 4b 3e b3 be a7 3d
       -0.25317034 -0.21619524 0.19836025 0.0819067
000110 1e 5f b2 bd eb 9b 0a be eb 1d f3 3d b3 23 37 3d
       -0.087095484 -0.1353604 0.11870941 0.04471178
000120 ed be 6a be 88 43 b2 bd cc f8 4d 3e a1 60 01 3e
       -0.22924395 -0.08704287 0.2011444 0.12634517
000130 0b 50 2e bd c7 75 5b be 3a db 12 3e 22 a0 2d be
       -0.042556804 -0.21431647 0.14341441 -0.16955617
000140 98 60 25 3e e9 82 70 be a9 a4 56 be 56 a9 8e 3b
       0.16150129 -0.23487438 -0.2096125 0.0043536825
000150 ec f3 d4 3d 96 3a 26 be 5e f9 bd 3d 09 c0 b4 bd
       0.10398087 -0.16233286 0.09276079 -0.0882569
000160 3c 43 50 3e e0 a3 5e be 93 d1 38 be cb 85 fa bd
       0.20338148 -0.21742201 -0.18048696 -0.1223255
000170 53 3f 32 3e 61 11 96 bd 98 67 ec bd 95 39 d0 3b
       0.17406969 -0.073275335 -0.115431964 0.0063545206
000180 11 e0 dc bd a2 60 c0 3d dc fe 28 3e df a8 46 3d
       -0.10784925 0.09393431 0.16503471 0.04850089
000190 25 43 17 be 3e d4 d2 3d 51 8a 51 be 19 02 05 3c
       -0.14771707 0.10294388 -0.2046292 0.008118176
0001a0 6a 0f 63 3e 66 6b 13 be f7 f8 76 be d7 20 ec 3b
       0.22173849 -0.14396438 -0.2411841 0.0072060633
0001b0 5c 18 c4 3d 6b 79 47 3e b6 8f ca bd 71 c2 96 bc
       0.09574959 0.19479911 -0.09890692 -0.018403264

encoder.encoder_layers.1.encode_self_attention.fc.bias f4 [7]
000000 e9 de c2 3d b1 41 b2 3d de 17 90 bc 44 f1 29 be
       0.09515173 0.08703936 -0.017589506 -0.16595942
000010 ff c0 03 be 57 f4 80 be 73 87 e5 3c
       -0.12866591 -0.25186417 0.028018689

encoder.encoder_layers.1.encode_self_attention.layer_norm.weight f4 [7]
000000 62 8d 80 3f bb ab 7e 3f cc 11 80 3f b7 51 7e 3f
       1.0043147 0.9948079 1.0005431 0.99343437
000010 d4 bc 80 3f e8 b6 7f 3f 51 d8 7e 3f
       1.0057626 0.9988847 0.9954882

encoder.encoder_layers.1.encode_self_attention.layer_norm.bias f4 [7]
000000 5a b6 54 3b a9 d7 af 3b fe 24 04 bb 1d 31 bc 3b
       0.0032457323 0.005366285 -0.002016365 0.0057431594
000010 91 27 ee bb f6 d1 4a bb 5c 0f 24 3b
       -0.0072679003 -0.00309479 0.002503357

encoder.encoder_layers.1.feed_forward.fc.0.weight f4 [7, 7]
000000 b6 d9 98 3e 50 e7 44 be 0e 14 10 bc 6d 6f 8e be
       0.298536 -0.19228864 -0.008793844 -0.27819386
000010 55 ed 76 3e 29 03 b3 3e fd 17 a0 be a6 a1 95 be
       0.24113972 0.34963349 -0.31268302 -0.2922489
000020 5b 7c 80 be 30 01 d8 3c a1 e1 c1 bd bb fd 3b 3a
       -0.25094876 0.026367754 -0.094668634 0.00071712927
000030 a3 19 aa 3e ba a8 61 3e 70 50 a8 bd 4a 52 98 be
       0.33222684 0.2203702 -0.08218467 -0.29750282
000040 41 8c a1 3e 5f fd a8 3d ce fc 9c be d3 b3 b1 3e
       0.31552318 0.08251452 -0.30661625 0.34707507
000050 36 f8 b7 be 03 d0 4a be 94 2a 30 bd 1e 1c 2c 3c
       -0.35931557 -0.19805913 -0.043009356 0.010504751
000060 e4 87 66 bd 56 f5 b0 be c1 06 b1 bd 96 35 1d bd
       -0.05628194 -0.34562176 -0.08643866 -0.03838118
000070 d9 ca 0b 3e 15 07 8e bd ce 6f a1 3e c6 c7 6b 3d
       0.13651599 -0.069349445 0.31530613 0.057563566
000080 df 88 a1 3e 37 9d 8d 3d aa 45 4a be f1 fb 28 bd
       0.31549737 0.06914752 -0.19753137 -0.041255895
000090 fe 61 98 3e ab 83 11 bd b0 0b 5f be d0 d4 06 3e
       0.29762262 -0.03552596 -0.21781802 0.13167119
0000a0 40 40 b8 bd f2 ce a8 be 9d b2 b1 be c9 15 14 3d
       -0.0899663 -0.32970387 -0.34706584 0.03615359
0000b0 c5 e1 74 bd 6e 75 be be 8d cb 96 3e 18 62 05 be
       -0.059785623 -0.37198967 0.29452172 -0.13025701
0000c0 f1 26 ad be
       -0.33818772

encoder.encoder_layers.1.feed_forward.fc.2.weight f4 [7, 7]
000000 57 5b 1c 3e 6b ac dc 3d 23 92 37 be 7f 93 8a be
       0.15269218 0.107750736 -0.1792684 -0.27065656
000010 69 45 9c 3d 30 ee 8e 3d ba 3e bf be 5d 2d 88 b9
       0.076304264 0.069790244 -0.37352544 -0.0002597374
000020 03 1a ac 3e ed 01 aa 3e d0 d6 20 bd 49 46 3a be
       0.33613595 0.33204594 -0.03926736 -0.18190874
000030 15 73 f0 bc be a8 f0 bd b1 c9 ba 3d 78 b8 56 3d
       -0.02935175 -0.11750935 0.09120501 0.052422017
000040 43 5c 6c be 4e c5 ab 3e 5e c5 b4 bc ab 1f dc 3d
       -0.2308207 0.3354897 -0.022066768 0.10748228
000050 62 bd cd bc 09 d2 13 3e af 7a 00 be 19 13 55 be
       -0.025114719 0.14435591 -0.125468 -0.20808066
000060 4b f7 83 3e 7c 05 cb 3d 35 48 7c 3e 8e bc 99 be
       0.25774607 0.099131554 0.2463692 -0.30026668
000070 1a ae 91 bc c2 ba bd 3e 4c e8 50 3c 2d c3 b9 3e
       -0.017783213 0.37056547 0.012750696 0.3628172
000080 d7 1a 97 be bb 7e cd bd 2b fd 6b 3e 42 59 a2 be
       -0.29512665 -0.100339375 0.23045795 -0.31708723
000090 5a 5f 41 3e 7f 20 89 3e da 70 07 be e6 1c ae 3e
       0.1888403 0.26782605 -0.13226643 0.34006423
0000a0 9a 1f 89 be 5a ed 08 3e 7b 73 ae be 54 94 92 bc
       -0.26781923 0.13371792 -0.3407248 -0.017892994
0000b0 ef d2 2c be f0 a0 36 bd 9e cf 14 3e c6 7c 15 be
       -0.1687734 -0.044587076 0.14532325 -0.14598379
0000c0 78 9e a7 be
       -0.3273809

encoder.encoder_layers.1.feed_forward.layer_norm.weight f4 [7]
000000 44 88 80 3f 5b 3c 80 3f 7e 8a 80 3f cb a3 7e 3f
       1.0041585 1.0018419 1.0042264 0.9946868
000010 29 c4 80 3f d2 f7 7f 3f 2b e2 7e 3f
       1.0059863 0.9998752 0.99563855

encoder.encoder_layers.1.feed_forward.layer_norm.bias f4 [7]
000000 b7 8a 27 3b ab 27 8b 3b d0 85 02 bb 24 db b3 3b
       0.0025564858 0.004246672 -0.0019916184 0.00548877
000010 97 98 f5 bb e9 97 7c bb e5 45 21 3b
       -0.007494997 -0.0038542694 0.002460831

encoder.encoder_layers.2.encode_self_attention.W_Q.weight f4 [16, 7]
000000 c5 51 91 3e 58 13 57 3e 59 15 17 3e ca 68 8e 3e
       0.28382698 0.21003473 0.14754237 0.27814323
000010 8b 09 9c 3e 61 1f 02 be 3b e6 39 3e b7 1f ae be
       0.3047603 -0.12707283 0.18154232 -0.34008572
000020 a8 29 81 be 86 07 50 be e0 8a a8 be 38 67 89 3e
       -0.25227094 -0.2031537 -0.32918453 0.26836562
000030 e6 85 66 3e a3 1e bb 3e 0b 6a e1 3d ec 31 d7 3d
       0.22512016 0.3654681 0.11006554 0.10507569
000040 d6 53 f9 3d 3e d2 9c be 85 33 35 3e e4 71 42 3e
       0.121741936 -0.30629152 0.17695434 0.18988758
000050 0e 84 13 3e 76 1d 9d be 0f 11 88 3e 87 ca 4b 3e
       0.14405844 -0.3068654 0.26575515 0.19901477
000060 88 5b 00 be 8c 4b 6c be e0 09 94 3c eb a3 40 3e
       -0.12534916 -0.23075694 0.018071115 0.1881253
000070 26 a8 6c bd 13 3f 10 3d 6e 95 88 be 65 24 21 be
       -0.057777546 0.035216402 -0.26676506 -0.1573654
000080 1d c0 1d be 8e 54 7e be e9 76 b6 3e 98 e4 a9 be
       -0.15405317 -0.24836943 0.35637596 -0.33182216
000090 02 72 55 3e 82 02 8d 3e 25 29 42 be c3 15 52 3d
       0.20844272 0.27540976 -0.18961008 0.051290285
0000a0 93 ae 21 be ea 56 ff bc 0a bb 03 be 80 a2 96 3e
       -0.15789251 -0.031169374 -0.12864318 0.29420853
0000b0 14 27 a4 bc 34 6e ba 3e 89 ef a3 3e 3e 52 28 be
       -0.020038165 0.36412203 0.32018688 -0.16437623
0000c0 6f 49 a0 be 49 77 6e be ff 24 08 3e 05 53 4c be
       -0.31306025 -0.23287691 0.13295363 -0.19953544
0000d0 94 26 90 3e ac 87 2c be a6 d5 0b be d1 2b 9e 3e
       0.28154433 -0.1684863 -0.13655719 0.30892804
0000e0 c8 d0 bc be 42 fa 16 3e b6 03 5b be cc 7e 95 be
       -0.36878037 0.14743903 -0.21388134 -0.291983
0000f0 29 c3 af be f2 b1 13 be f9 0e 34 be 4b 61 5a be
       -0.34328583 -0.1442335 -0.17583837 -0.21326177
000100 c6 4c 96 be fc 69 c3 3e cc 00 ab be c2 90 81 be
       -0.29355448 0.38166797 -0.33399045 -0.25305754
000110 64 76 92 be f7 04 9d 3e b4 99 a7 be 74 21 31 be
       -0.2860595 0.3066785 -0.32734454 -0.17297918
000120 d6 32 22 be 46 ad 86 3e 91 d1 46 3e 4f 8b 97 bd
       -0.15839705 0.26304072 0.1941588 -0.07399618
000130 d3 c8 99 3e b7 a1 ad be e6 10 dd 3c 99 3a 65 be
       0.3003603 -0.3391244 0.026985597 -0.22385634
000140 23 c3 00 be f6 e3 e4 3d aa 39 3b be f0 81 c3 bd
       -0.12574439 0.111762926 -0.18283716 -0.09546268
000150 83 2b b9 3e de b9 83 3e a0 8b 26 3e 6f 30 94 be
       0.3616601 0.25727743 0.162642 -0.28943202
000160 46 61 98 3e e3 fa 61 3e be b1 98 be ad 81 b5 bd
       0.29761714 0.22068362 -0.29823107 -0.08862624
000170 62 11 92 bd d0 04 29 3e fe 7e d8 3d fd 0d b9 be
       -0.07132222 0.16505742 0.10571097 -0.36143485
000180 30 1c f6 3c ea ef 6f be 6c de a0 be 54 6c 0b 3e
       0.030042738 -0.23431364 -0.31419694 0.13615543
000190 51 c8 15 3d 3c 06 10 3e e9 2b 31 be d8 9a 91 be
       0.03656799 0.14064878 -0.17301907 -0.2843845
0001a0 41 ff 9a be af ad 8b bc f1 11 93 3e 45 7c 96 bd
       -0.30272868 -0.017050592 0.28724626 -0.07347921
0001b0 64 a7 c0 3e f6 3c 3e 3e 28 2d 49 3e 14 c4 15 be
       0.3762771 0.18577942 0.19646132 -0.14625579

encoder.encoder_layers.2.encode_self_attention.W_Q.bias f4 [16]
000000 a4 c6 f2 3d 7f 3d 61 3e d6 e4 bb bd 44 dc 20 3e
       0.11854294 0.21996115 -0.09174506 0.15709025
000010 72 40 fe 3d 33 98 eb bd fb ad f7 bd 43 bb a7 3e
       0.12414636 -0.11503639 -0.12093731 0.32760057
000020 72 bb 4e 3e 36 9f fe bc 84 e8 a6 be 25 94 93 3e
       0.20188692 -0.031081777 -0.3259927 0.28823963
000030 e0 27 78 3c 89 f3 91 be 84 d1 af 3e c4 45 50 be
       0.015146226 -0.28506115 0.34339535 -0.20339113

encoder.encoder_layers.2.encode_self_attention.W_K.weight f4 [16, 7]
000000 ec 71 21 be 22 2f 37 be 23 85 74 be 12 f0 8e be
       -0.15766114 -0.17889073 -0.23878913 -0.27917534
000010 24 f4 3b 3e 6d aa b1 3e 7a 9c 5c be b0 61 e2 3d
       0.18354851 0.34700337 -0.21544066 0.11053789
000020 ce 2f e9 bd bf bb 67 3e df 3e e5 bd 23 e8 45 be
       -0.11386071 0.22630213 -0.11193632 -0.19326834
000030 10 8e a1 be 19 43 29 be af 62 6a be a2 8f 7a bd
       -0.31553698 -0.16529502 -0.22889207 -0.061172135
000040 94 79 23 be 9d bc 96 3e 76 6f aa 3d 45 ed 81 be
       -0.15964347 0.29440776 0.08322041 -0.25376335
000050 d5 00 1e 3d 2a 13 d8 3d 92 d3 0d be db 59 2a be
       0.038575012 0.1055053 -0.13850239 -0.1663584
000060 b6 83 a6 be 4a 60 8f 3e 63 38 23 be 50 12 ad be
       -0.32522362 0.2800315 -0.15939479 -0.33803034
000070 65 b3 ad 3e 92 66 4b 3e 5a 64 cb bc 5e 1e ac bd
       0.3392593 0.19863346 -0.024828125 -0.084042296
000080 aa ba f4 bd d4 0d a8 be e9 0e c6 bd a6 ea a3 be
       -0.11949666 -0.3282305 -0.09670813 -0.3201496
000090 33 ea 86 be f8 3c 39 be 96 3e 93 bd e4 f7 14 be
       -0.26350555 -0.18089664 -0.07189672 -0.14547688
0000a0 e3 2c a2 be 1e 32 bc be b8 f6 d4 bd 9f 6d d4 bd
       -0.3167487 -0.36756986 -0.1039862 -0.10372471
0000b0 58 6d 96 be b5 ac 89 be 6a a1 91 be 70 2d f8 3b
       -0.29380298 -0.26889578 -0.28443462 0.007573776
0000c0 9c 74 56 bd b9 7c 6b 3d 8f 5e a6 3e 42 26 67 3e
       -0.0523573 0.05749199 0.32494017 0.22573188
0000d0 c5 69 d4 bd b2 b1 2e 3e ec 76 a6 be a6 ff 21 bd
       -0.103717364 0.17059973 -0.32512605 -0.039550446
0000e0 3b df 51 be 1d 4a 8d 3e 53 c2 34 be 72 00 9f bd
       -0.20495312 0.27595606 -0.17652254 -0.07763757
0000f0 b5 45 a7 be 91 99 77 3e 64 76 9e be a9 56 b7 bd
       -0.3267037 0.24179675 -0.309497 -0.08952076
000100 c3 59 0a be 32 fe 39 3d 09 10 95 bd 15 aa 06 bb
       -0.13510804 0.045408435 -0.07278449 -0.0020548154
000110 f4 70 93 be ab 51 75 bd 0e 05 a8 be 3f e2 9a 3e
       -0.28797114 -0.059892338 -0.32816356 0.30250737
000120 ce e9 b7 be 7d 88 06 3e 4a c2 38 3e 28 8c 55 3d
       -0.35920566 0.13138004 0.18042865 0.052135617
000130 0e 6b ab be 2d 5f e6 3c b5 d4 cf 3d 00 cf 60 3c
       -0.33480114 0.028121555 0.101479925 0.013721228
000140 6a 9e 19 be e9 66 08 3e c5 2a b9 be 16 a4 b4 bd
       -0.15001836 0.13320507 -0.36165443 -0.088203594
000150 df 92 10 3e 73 27 ac 3d 35 a7 bb 3e e8 20 1e be
       0.14118527 0.08405962 0.36651006 -0.1544224
000160 80 7c 37 bd 5c fc 95 be 30 f1 14 be a4 4e 33 be
       -0.044796467 -0.29294097 -0.1454513 -0.17510468
000170 cb 17 b8 be b4 b5 c2 3e 8b 8f 15 3d 85 1b 44 be
       -0.35955653 0.38029253 0.036513846 -0.19151123
000180 4a b8 38 3e e9 e9 45 be 5a 16 21 be af 53 bd 3e
       0.1803905 -0.19327511 -0.15731183 0.36977908
000190 45 16 3a 3d 1e a2 0d 3d 4a 8f aa 3e 13 b0 79 be
       0.045431394 0.034578435 0.33312446 -0.24383573
0001a0 10 8c 2e be 8b d7 4e be 59 f2 3d ba 43 df 51 be
       -0.17045617 -0.2019941 -0.00072458904 -0.20495324
0001b0 8e fa 5d 3e 2c 9f 8b bc 73 5f ac be 5a 50 a6 bd
       0.2167761 -0.017043673 -0.33666572 -0.081207946

encoder.encoder_layers.2.encode_self_attention.W_K.bias f4 [16]
000000 78 0b 5b be 7a a9 b9 be 98 b6 01 bd 64 82 b7 be
       -0.21391094 -0.36262113 -0.031668276 -0.35841668
000010 b4 e4 58 be 74 b3 fa 3d c5 9c ba 3e 4e 04 a0 be
       -0.21180993 0.12241259 0.3644773 -0.31253284
000020 f2 59 6a 3e 7c e6 b2 be 97 26 11 bc 72 df 5c 3e
       0.22885874 -0.3494147 -0.008859298 0.21569613
000030 f9 80 94 3e 4b 44 c0 3e 83 b0 5c be 28 d0 8d be
       0.29004648 0.37552103 -0.21551709 -0.27697873
