Transformer/model_EnDeTransformer/best_epoch_model_newnewStart.pth (torch, 77421 bytes, 118 tensors)

encoder.pos_embedding.positional_encoding f4 [95, 7]
0.0 1.0 0.0 1.0 0.0 1.0 0.0 0.84147096
0.54030234 0.07190645 0.9974114 0.0051794495 0.9999866 0.00037275936 0.9092974 -0.41614684
0.14344062 0.98965895 0.01035876 0.99994636 0.00074551866 0.14112 -0.9899925 0.21423216
0.9767828 0.015537794 0.9998793 0.0011182779 -0.7568025 -0.6536436 0.28391457 0.9588496
0.020716408 0.99978536 0.0014910368 -0.9589243 0.2836622 0.35212708 0.9359522 0.025894469
0.99966466 0.0018637957 -0.2794155 0.96017027 0.41851655 0.90820915 0.031071836 0.99951714
0.0022365544 0.6569866 0.75390226 0.48273927 0.87576413 0.036248367 0.9993428 0.0026093125
0.98935825 -0.14550003 0.54446274 0.83878505 0.041423924 0.99914163 0.0029820704 0.4121185
-0.91113025 0.6033674 0.79746336 0.046598375 0.9989137 0.0033548279 -0.5440211 -0.8390715
0.6591482 0.752013 0.05177157 0.99865896 0.0037275848 -0.9999902 0.004425698 0.71151656
0.7026693 0.05694338 0.9983774 0.0041003413 -0.53657293 0.84385395 0.76020116 0.64968777
0.062113665 0.99806905 0.0044730976 0.42016703 0.9074468 0.80495 0.5933426 0.06728228
0.99773395 0.0048458525 0.9906074 0.13673721 0.84553146 0.5339256 0.07244909 0.9973721
0.0052186074 0.65028787 -0.7596879 0.8817354 0.4717443 0.07761396 0.99698347 0.005591361
-0.2879033 -0.9576595 0.91337436 0.40712067 0.08277674 0.9965681 0.0059641143 -0.96139747
-0.27516335 0.9402846 0.34038928 0.0879373 0.996126 0.006336867 -0.75098723 0.6603167
0.96232677 0.27189565 0.09309551 0.9956572 0.006709618 0.1498772 0.9887046 0.9793867
0.2019943 0.098251216 0.99516165 0.0070823687 0.9129453 0.40808207 0.9913761 0.1310472
0.10340428 0.9946394 0.007455118 0.8366556 -0.54772925 0.99823296 0.059421636 0.10855459
0.9940905 0.007827867 -0.008851309 -0.99996084 0.99992174 -0.012511566 0.11370197 0.9935149
0.008200614 -0.8462204 -0.53283304 0.9964336 -0.08437999 0.118846305 0.99291265 0.00857336
-0.9055784 0.42417902 0.98778677 -0.15581156 0.12398746 0.99228376 0.008946106 -0.13235176
0.99120283 0.97402596 -0.22643647 0.12912527 0.9916283 0.009318849 0.76255846 0.6469193
0.9552223 -0.29588905 0.13425964 0.9909462 0.009691591 0.95637596 -0.29213881 0.93147326
-0.36380976 0.13939038 0.99023753 0.010064333 0.2709058 -0.9626059 0.90290177 -0.4298469
0.1445174 0.98950225 0.010437073 -0.6636339 -0.74805754 0.8696557 -0.49365866 0.14964053
0.98874044 0.010809811 -0.9880316 0.15425146 0.8319073 -0.55491465 0.15475966 0.9879522
0.011182548 -0.40403765 0.91474235 0.78985184 -0.61329764 0.15987463 0.9871373 0.011555283
0.5514267 0.83422333 0.7437072 -0.6685055 0.16498531 0.986296 0.011928016 0.99991184
-0.013276747 0.6937122 -0.72025234 0.17009158 0.9854283 0.012300748 0.5290827 -0.8485703
0.64012563 -0.76827025 0.17519327 0.9845341 0.0126734795 -0.42818266 -0.9036922 0.583225
-0.81231064 0.18029027 0.98361343 0.013046208 -0.99177885 -0.12796369 0.5233049 -0.85214555
00000000: 0000 0000 0000 803f 0000 0000 0000 803f
00000010: 0000 0000 0000 803f 0000 0000 a46a 573f
00000020: 4151 0a3f b043 933d 5a56 7f3f 5fb8 a93b
00000030: 1fff 7f3f ea6e c339 b7c7 683f 3311 d5be
00000040: 19e2 123e 4a5a 7d3f cab7 293c 7cfc 7f3f
00000050: e96e 433a c381 103e 2670 7dbf ad5f 5b3e
00000060: 700e 7a3f 3b92 7e3c 17f8 7f3f 2e93 923a
00000070: cfbd 41bf 3055 27bf 405d 913e 2b77 753f
00000080: 75b5 a93c eff1 7f3f e56e c33a 107c 75bf
00000090: 2c3c 913e 004a b43e 909a 6f3f a320 d43c
000000a0: 06ea 7f3f 9b4a f43a 8c0f 8fbe b8cd 753f
000000b0: cd47 d63e 6580 683f 5d8a fe3c 5be0 7f3f
000000c0: 2893 123b 4630 283f bdff 403f 9a29 f73e
000000d0: 1432 603f 2b79 143d eed4 7f3f 0001 2b3b
000000e0: 9546 7d3f f6fd 14be e961 0b3f 9eba 563f
000000f0: 22ac 293d bfc7 7f3f d76e 433b 3201 d33e
00000100: d53f 69bf 4976 1a3f 8f26 4c3f f0dd 3e3d
00000110: cfb8 7f3f acdc 5b3b f844 0bbf 64cd 56bf
00000120: f0bd 283f ed83 403f 6d0e 543d 1da8 7f3f
00000130: 7f4a 743b 5cff 7fbf 7205 913b f325 363f
00000140: 23e2 333f 763d 693d a995 7f3f 285c 863b
00000150: d85c 09bf d006 583f 8b9c 423f f051 263f
00000160: e66a 7e3d 7481 7f3f 1093 923b 2220 d73e
00000170: 6f4e 683f 3411 4e3f 4de5 173f 4bcb 893d
00000180: 7e6b 7f3f f5c9 9e3b 7298 7d3f d704 0c3e
00000190: c074 583f 59af 083f 3060 943d c753 7f3f
000001a0: da00 ab3b 4479 263f e87a 42bf 69b9 613f
000001b0: 7888 f13e 11f4 9e3d 4f3a 7f3f bc37 b73b
000001c0: 1068 93be 2c29 75bf e7d2 693f 1f72 d03e
000001d0: da86 a93d 161f 7f3f 9e6e c33b 251e 76bf
000001e0: 36e2 8cbe 7eb6 703f 8147 ae3e 7918 b43d
000001f0: 1d02 7f3f 7ea5 cf3b b340 40bf 840a 293f
00000200: 0c5b 763f e835 8b3e dca8 be3d 64e3 7e3f
00000210: 5bdc db3b 6979 193e bf1b 7d3f 16b9 7a3f
00000220: 98d7 4e3e ef37 c93d eac2 7e3f 3713 e83b
00000230: c8b6 693f 22f0 d03e d3ca 7d3f 3d31 063e
00000240: a0c5 d33d b0a0 7e3f 104a f43b 102f 563f
00000250: fc37 0cbf 328c 7f3f 1a64 733d de51 de3d
00000260: b77c 7e3f 7440 003c 1505 11bc 6ffd 7fbf
00000270: dffa 7f3f 50fd 4cbc 94dc e83d fe56 7e3f
00000280: de5b 063c e6a1 58bf bf67 08bf 4616 7f3f
00000290: 6bcf acbd b165 f33d 862f 7e3f 4777 0c3c
000002a0: fcd3 67bf fe2d d93e 98df 7c3f 118d 1fbe
000002b0: 23ed fd3d 4f06 7e3f b092 123c 3887 07be
000002c0: 78bf 7d3f c459 793f f6de 67be 6a39 043e
000002d0: 5adb 7d3f 16ae 183c 0837 433f 819c 253f
000002e0: 7389 743f c57e 97be 5c7b 093e a6ae 7d3f
000002f0: 7bc9 1e3c 0ed5 743f 3893 95be 0875 6e3f
00000300: 4645 babe 5abc 0e3e 3580 7d3f dfe4 243c
00000310: 2ab4 8a3e 576d 76bf 9224 673f e514 dcbe
00000320: 5ffc 133e 0550 7d3f 4200 2b3c e9e3 29bf
00000330: b380 3fbf c2a1 5e3f d4c0 fcbe 5e3b 193e
00000340: 181e 7d3f a21b 313c a4ef 7cbf 18f4 1d3e
00000350: e0f7 543f e30e 0ebf 5179 1e3e 6fea 7c3f
00000360: 0137 373c 06de cebe 8e2c 6a3f bb33 4a3f
00000370: 1301 1dbf 2db6 233e 08b5 7c3f 5f52 3d3c
00000380: 4d2a 0d3f a98f 553f 9863 3e3f 2d23 2bbf
00000390: e9f1 283e e57d 7c3f ba6d 433c 39fa 7f3f
000003a0: b786 59bc 1f97 313f 7562 38bf 7d2c 2e3e
000003b0: 0745 7c3f 1489 493c f771 073f e73b 59bf
000003c0: 46df 233f 5cad 44bf dd65 333e 6d0a 7c3f
000003d0: 6da4 4f3c c23a dbbe 5f58 67bf 3c4e 153f
000003e0: 97f3 4fbf 039e 383e 17ce 7b3f c3bf 553c
000003f0: 38e5 7dbf ea08 03be 4ff7 053f 3626 5abf

encoder.encoder_layers.0.encode_self_attention.W_Q.weight f4 [16, 7]
-0.03769984 0.10683059 -0.18168186 0.06785462 -0.08170402 0.33338633 -0.36469495 -0.2997564
0.10294614 -0.10110843 0.11778881 -0.29951137 -0.1938628 0.12018837 -0.32271144 0.0035813036
0.076172695 0.07345493 0.2933843 -0.043959357 -0.34606826 -0.18886705 0.0406565 0.25406826
-0.04596818 -0.16843402 0.06384163 0.37216842 0.08702993 0.117586076 0.27335072 -0.10269547
-0.35114592 0.3009048 -0.14673354 -0.3410002 -0.33300093 -0.11243782 0.23844166 0.014588252
0.19089296 0.22182631 -0.06503796 0.2504318 0.2605518 0.01573765 0.16755435 -0.25230178
0.24354534 -0.079170264 0.20325825 0.13382955 0.21968699 0.115799814 -0.044139195 0.18008852
0.34366333 0.29536578 -0.3676827 0.17319302 0.31581375 -0.16193974 -0.22987123 0.15795591
-0.09273393 0.13450596 0.08220863 -0.18907638 0.23352711 0.15502419 -0.37182826 -0.29591665
-0.12627074 -0.290104 -0.124835946 0.021619262 -0.1072258 -0.034059327 -0.1238889 -0.22611651
-0.02327421 -0.28072447 -0.04400602 -0.21902575 0.074651316 0.35194945 0.36890113 -0.16662076
-0.28541186 -0.11679783 0.2728845 -0.037104506 -0.22833505 0.013924809 0.11963133 -0.07611364
0.17793652 0.19616921 0.21151751 0.01201869 0.02927992 -0.013070128 0.2641133 0.21727298
-0.17586307 0.009804581 0.092259884 0.085056856 0.21684112 -0.09766991 -0.0712781 -0.034782648
00000000: 266b 1abd ffc9 da3d cf0a 3abe 5df7 8a3d
00000010: 7054 a7bd 9db1 aa3e 4cb9 babe ac79 99be
00000020: 6dd5 d23d f011 cfbd 423b f13d 8e59 99be
00000030: f883 46be 5225 f63d 6f3a a5be 4eb4 6a3b
00000040: 6e00 9c3d 8a6f 963d 7836 963e ba0e 34bd
00000050: dc2f b1be 5d66 41be 6e87 263d 3c15 823e
00000060: 2149 3cbd f879 2cbe 67bf 823d dc8c be3e
00000070: bf3c b23d f8d0 f03d a0f4 8b3e 0152 d2bd
00000080: 66c9 b3be 3210 9a3e 5141 16be 9497 aebe
00000090: 197f aabe cd45 e6bd 0d2a 743e 9003 6f3c
000000a0: 7279 433e 7026 633e 9f32 85bd 9938 803e
000000b0: 0c67 853e 3fec 803c 5e93 2b3e b32d 81be
000000c0: f363 793e 0524 a2bd ee22 503e 9d0a 093e
000000d0: a0f5 603e 7428 ed3d 4dcb 34bd 2069 383e
000000e0: a4f4 af3e 2f3a 973e e840 bcbe 8359 313e
000000f0: 57b2 a13e 88d3 25be 5d63 6bbe 32bf 213e
00000100: 49eb bdbd eebb 093e 005d a83d 3d9d 41be
00000110: bb21 6f3e a9be 1e3e 4660 bebe 6382 97be
00000120: 1e4d 01be 8388 94be fda9 ffbd e11a b13c
00000130: 3399 dbbd cb81 0bbd 77b9 fdbd 168b 67be
00000140: 8ea9 bebc 1ebb 8fbe a83f 34bd 4948 60be
00000150: cae2 983d b832 b43e 9ce0 bc3e a29e 2abe
00000160: 8121 92be b333 efbd 84b7 8b3e e5fa 17bd
00000170: aad0 69be e224 643c 4501 f53d 78e1 9bbd
00000180: fe34 363e 95e0 483e 0c98 583e 0aea 443c
00000190: 71dc ef3c 1724 56bc dc39 873e cf7c 5e3e
000001a0: 7315 34be 65a3 203c c0f2 bc3d 4a32 ae3d
000001b0: 990b 5e3e 2907 c8bd 41fa 91bd 4078 0ebd

encoder.encoder_layers.0.encode_self_attention.W_Q.bias f4 [16]
-0.33775935 -0.2614662 -0.18987285 0.018632308 -0.03190979 -0.1459249 0.0047411923 0.2912493
-0.036745355 0.24699251 0.18647216 -0.23824157 0.042186204 -0.04467681 0.2770057 -0.2853451
00000000: cbee acbe e6de 85be 076e 42be c8a2 983c
00000010: d7b3 02bd 566d 15be 015c 9b3b a11e 953e
00000020: 4c82 16bd 9beb 7c3e 8ff2 3e3e 99f5 73be
00000030: 71cb 2c3d 08ff 36bd b1d3 8d3e c118 92be

encoder.encoder_layers.0.encode_self_attention.W_K.weight f4 [16, 7]
-0.3305675 -0.36454487 0.036069017 -0.05944182 -0.061435312 0.023830732 -0.1552031 0.31156072
-0.31160256 0.3381138 -0.21390378 -0.27752745 0.10634353 -0.04274622 -0.10850857 -0.36720562
-0.21818928 -0.083869845 -0.33345678 -0.27473384 0.3186215 -0.07929619 -0.109043956 0.014050162
0.08550545 0.3647605 -0.2731726 -0.24835612 0.05346369 -0.32221067 -0.18404429 0.25670627
0.25790805 -0.1830447 -0.24229813 0.34190285 0.24277078 -0.13528769 0.12658317 0.3346127
-0.16941376 0.32175687 0.018381162 -0.14803071 0.34464374 -0.17441018 0.3191332 -0.16565621
0.10905395 0.03717537 -0.17476095 -0.28274235 -0.2840345 0.15268189 0.33271036 -0.20734666
-0.067212686 -0.06898699 -0.104970336 0.21159428 0.29754123 0.2642796 -0.36990216 -0.25532776
-0.05195183 0.22423148 0.28959134 -0.23323882 0.19427364 -0.36406165 0.23665361 0.1458779
-0.36909416 0.17619935 0.31528297 0.37100762 -0.35319072 -0.33720696 0.25722137 0.01219117
-0.3479179 0.21669328 -0.11504013 -0.23468195 -0.30324036 0.22479694 -0.17846021 0.043001246
0.15252195 -0.00048492412 0.35632312 -0.33614784 -0.047387134 0.19954352 -0.315003 0.2706
0.120341204 0.056008622 -0.007271184 0.22801414 -0.08371728 -0.111040294 0.31696805 0.084528826
0.039815173 -0.21743312 -0.08581074 -0.013216341 -0.32884055 -0.24261154 -0.34504053 -0.21528395
00000000: 2540 a9be a0a5 babe 1bbd 133d 4479 73bd
00000010: 98a3 7bbd ab38 c33c 90ed 1ebe e384 9f3e
00000020: 5f8a 9fbe 411d ad3e 9809 5bbe 1418 8ebe
00000030: a3ca d93d a916 2fbd be39 debd 6002 bcbe
00000040: 036d 5fbe f4c3 abbd d9ba aabe eaa9 8cbe
00000050: 5b22 a33e 0a66 a2bd 7052 dfbd a732 663c
00000060: 7b1d af3d e3c1 ba3e 47dd 8bbe 1151 7ebe
00000070: befc 5a3d ccf8 a4be 1b76 3cbe 016f 833e
00000080: 860c 843e 1270 3bbe 001d 78be e40d af3e
00000090: e798 783e db88 0abe 059f 013e 5b52 ab3e
000000a0: cd7a 2dbe 51bd a43e 1794 963c 5d95 17be
000000b0: 2575 b03e 9598 32be 6d65 a33e c8a1 29be
000000c0: ad57 df3d 3345 183d 89f4 32be 9bc3 90be
000000d0: f86c 91be a458 1c3e 0359 aa3e af52 54be
000000e0: cea6 89bd 0d49 8dbd b0fa d6bd 2cac 583e
000000f0: 5357 983e a84f 873e d163 bdbe 52ba 82be
00000100: 71cb 54bd f09c 653e 5145 943e 28d6 6ebe
00000110: abef 463e 4a66 babe 5355 723e 0461 153e
00000120: e9f9 bcbe 9a6d 343e c56c a13e b6f4 bd3e
00000130: 6ad5 b4be 64a6 acbe 85b2 833e 79bd 473c
00000140: 4c22 b2be d8e4 5d3e 299a ebbd 7750 70be
00000150: 5242 9bbe 2b31 663e 46be 36be 1322 303d
00000160: b72e 1c3e 6a3d feb9 fc6f b63e 921b acbe
00000170: 0319 42bd 2355 4c3e 1348 a1be 158c 8a3e
00000180: 7375 f63d 4c69 653d 1d43 eebb 8a7c 693e
00000190: f773 abbd 1869 e3bd a349 a23e 731d ad3d
000001a0: 3c15 233d caa6 5ebe 8bbd afbd 5a89 58bc
000001b0: ca5d a8be 296f 78be 27a9 b0be 6573 5cbe

encoder.encoder_layers.0.encode_self_attention.W_K.bias f4 [16]
0.076301694 0.36092398 0.3273832 -0.025369495 -0.07911965 0.15218738 -0.011634274 0.13077483
0.07767671 -0.037980463 -0.26443785 -0.05776322 0.13573292 -0.32444027 0.111064196 -0.13648057
00000000: 1044 9c3d 07cb b83e c59e a73e b0d3 cfbc
00000010: 7c09 a2bd 02d7 1b3e af9d 3ebc d6e9 053e
00000020: f814 9f3d 6791 1bbd 6664 87be 2099 6cbd
00000030: 92fd 0a3e 091d a6be a075 e33d 90c1 0bbe

encoder.encoder_layers.0.encode_self_attention.W_V.weight f4 [16, 7]
0.15638295 -0.019287925 0.30623832 -0.013390688 0.22142199 0.15168548 -0.12732445 -0.066709034
0.11240015 -0.036521472 0.24925826 -0.30859262 -0.16626477 -0.22605829 0.26678577 0.116142906
-0.10324725 -0.011819142 0.1830893 -0.0057941177 0.046417624 -0.20557956 0.092620455 -0.23082066
-0.05386305 0.3313303 -0.25097507 0.18672757 0.23364066 0.27796596 -0.37487718 0.1831858
0.30241355 0.08693156 -0.34362286 0.31917098 -0.054800835 -0.27582228 -0.3187563 0.29134452
0.045720227 0.28938356 -0.28575143 0.3372513 0.16842756 0.21261851 -0.12698019 0.30034235
-0.17209306 0.36294752 0.31964555 0.25246978 -0.06917123 -0.15447997 -0.059043113 0.04420687
0.11175697 -0.35186347 0.008416211 -0.13580693 0.08588455 0.270351 0.12312001 -0.1663479
-0.25292373 -0.3598936 -0.21279733 0.14516664 0.0064876066 0.20513256 -0.0980301 0.024220835
0.090865746 -0.37144405 -0.121508256 0.34072345 -0.24526207 0.065094635 -0.051999472 0.03729315
0.26095274 0.09302317 0.033317607 0.32201272 -0.28481668 -0.05984782 0.14171219 0.08060803
0.33243042 0.29845643 -0.015801486 0.1833785 0.046422027 0.25077128 0.25624585 -0.17192137
0.32229438 0.13615875 0.087203205 0.35740048 -0.33205375 0.35744423 0.008577374 0.19173135
0.065975435 -0.031816695 0.23723339 0.14359367 0.30588323 0.2548784 -0.23970684 -0.29509205
00000000: da22 203e b601 9ebc 45cb 9c3e 9e64 5bbc
00000010: 72bc 623e 7053 1b3e 5761 02be bf9e 88bd
00000020: 0d32 e63d 8a97 15bd 8f3d 7f3e daff 9dbe
00000030: 5041 2abe d37b 67be 2598 883e 55dc ed3d
00000040: 4b73 d3bd 13a5 41bc c37b 3b3e 95dc bdbb
00000050: 6820 3e3d 7383 52be cbaf bd3d 405c 6cbe
00000060: 809f 5cbd 20a4 a93e ce7f 80be 8335 3f3e
00000070: 7f3f 6f3e 8e51 8e3e e7ef bfbe 0f95 3b3e
00000080: f3d5 9a3e 2c09 b23d 56ef afbe 616a a33e
00000090: d776 60bd 9438 8dbe 0734 a3be 1c2b 953e
000000a0: 2245 3b3d 152a 943e 034e 92be 34ac ac3e
000000b0: 4678 2c3e abb8 593e 1807 02be 79c6 993e
000000c0: 2a39 30be 42d4 b93e 95a8 a33e b843 813e
000000d0: a5a9 8dbd ff2f 1ebe 31d7 71bd 4312 353d
000000e0: d7e0 e43d 7327 b4be 26e4 093c f910 0bbe
000000f0: 3de4 af3d 726b 8a3e 5826 fc3d 1b57 2abe
00000100: 387f 81be f943 b8be 8be7 59be 90a6 143e
00000110: fd95 d43b 450e 523e 01c4 c8bd c66a c63c
00000120: d217 ba3d ea2d bebe 52d9 f8bd 4e73 ae3e
00000130: fb25 7bbe 5650 853d 66fd 54bd b4c0 183d
00000140: 999b 853e ef82 be3d 0b78 083d dade a43e
00000150: 7ed3 91be fd22 75bd 001d 113e d315 a53d
00000160: 5234 aa3e 48cf 983e 1e72 81bc 93c7 3b3e
00000170: 0625 3e3d 1865 803e a832 833e 280c 30be
00000180: c503 a53e 336d 0b3e 9897 b23d 32fd b63e
00000190: f302 aabe ee02 b73e 1d88 0c3c 3955 443e
000001a0: 211e 873d 3952 02bd 4fed 723e 380a 133e
000001b0: ba9c 9c3e 6c7f 823e b675 75be 4e16 97be

encoder.encoder_layers.0.encode_self_attention.W_V.bias f4 [16]
0.31622833 0.097258285 0.13535234 0.30598864 0.13505773 0.23636934 0.25435475 0.36196297
-0.21963766 0.18700278 -0.138897 -0.2946826 0.23132682 -0.07393785 -0.35447732 0.28663582
00000000: aee8 a13e 5a2f c73d ce99 0a3e 8baa 9c3e
00000010: 934c 0a3e ce0a 723e c93a 823e 3653 b93e
00000020: b2e8 60be a87d 3f3e 043b 0ebe a3e0 96be
00000030: f0e0 6c3e ba6c 97bd 0d7e b5be eec1 923e

encoder.encoder_layers.0.encode_self_attention.fc.weight f4 [7, 16]
0.08049309 -0.22733992 0.15177493 0.16289501 0.18551217 0.21610008 -0.19325964 -0.07612002
-0.029227605 -0.13294981 -0.0029529633 0.09618471 -0.25217074 0.16235678 0.22098033 0.07449324
0.22514874 0.00016440559 -0.05413263 0.23915178 -0.021903927 0.24074686 0.22698268 0.15409936
0.07230847 0.16691223 0.06483202 0.07106787 -0.09446639 -0.1175427 0.015754892 0.11223043
0.0017522132 -0.1475359 -0.04384664 -0.06646092 0.061773226 0.08908709 -0.034489915 -0.20175692
-0.19814762 -0.10400842 -0.23432922 -0.03739866 0.050404232 -0.08957347 -0.009294333 0.22677281
-0.15179805 -0.10539965 -0.18872021 0.11857271 -0.13159187 0.06773326 -0.036549784 0.057264432
0.037549287 0.08728528 -0.24443886 -0.16259013 -0.06692847 -0.047001693 0.19897948 -0.1119977
-0.18852624 0.040744517 0.0751886 -0.06368257 -0.12217782 0.24208656 -0.057411253 -0.19932877
0.17932495 -0.047523152 0.03413206 -0.11791537 0.07610303 0.11059711 0.21585077 -0.12427473
-0.19380014 -0.20552157 0.032449342 0.22734974 -0.16966395 0.24148898 0.13301645 -0.062259566
0.13483414 -0.17316361 -0.079574876 0.010961816 0.10218496 0.06199388 -0.24433756 -0.14173241
0.065017454 -0.103352256 0.20846249 0.10936411 0.13073371 0.1877997 0.19147691 -0.24974889
-0.049812306 -0.04036424 -0.14944153 0.01965765 -0.13629404 0.16097777 -0.05511679 0.016728193
00000000: 90d9 a43d cccb 68be e36a 1b3e f3cd 263e
00000010: e7f6 3d3e 5749 5d3e dbe5 45be d0e4 9bbd
00000020: bb6e efbc ff23 08be 8186 41bb 7dfc c43d
00000030: 861c 81be db40 263e ab48 623e e98f 983d
00000040: 648d 663e 4a64 2c39 2dba 5dbd 34e4 743e
00000050: dd6f b3bc 5886 763e 266e 683e 39cc 1d3e
00000060: 7716 943d 0aeb 2a3e a6c6 843d 088c 913d
00000070: 9877 c1bd 3aba f0bd 6710 813c 11d9 e53d
00000080: 85aa e53a a713 17be 8998 33bd aa1c 88bd
00000090: ec05 7d3d 4b73 b63d 4c45 0dbd 5e99 4ebe
000000a0: 36e7 4abe 5e02 d5bd 00f4 6fbe 562f 19bd
000000b0: ab74 4e3d 4c72 b7bd 4247 18bc 2237 683e
000000c0: f370 1bbe c6db d7bd df3f 41be 40d6 f23d
000000d0: 05c0 06be bcb7 8a3d 3ab5 15bd 1c8e 6a3d
000000e0: 48cd 193d a0c2 b23d 2e4e 7abe 077e 26be
000000f0: cb11 89bd d984 40bd 47c1 4b3e 0d5f e5bd
00000100: 060d 41be b9e3 263d 7bfc 993d 026c 82bd
00000110: 5d38 fabd 8ae5 773e 1028 6bbd d71c 4cbe
00000120: f6a0 373e a3a7 42bd 0fce 0b3d 9d7d f1bd
00000130: e8db 9b3d bd80 e23d fc07 5d3e c083 febd
00000140: 8b73 46be 3f74 52be 9ae9 043d 5fce 683e
00000150: 63bc 2dbe e348 773e 7735 083e e303 7fbd
00000160: f611 0a3e cd51 31be 27f8 a2bd 3099 333c
00000170: 5946 d13d 4bed 7d3d a033 7abe 4d22 11be
00000180: df27 853d 59aa d3bd 3177 553e 4afa df3d
00000190: 0fdf 053e 914e 403e 8612 443e 2cbe 7fbe
000001a0: fd07 4cbd f954 25bd 3307 19be 1409 a13c
000001b0: aa90 0bbe 5bd7 243e 25c2 61bd 9009 893c

encoder.encoder_layers.0.encode_self_attention.fc.bias f4 [7]
-0.09729091 0.019528178 0.0973522 -0.19467157 -0.12152883 0.051360328 0.15737252
00000000: 7540 c7bd 8ff9 9f3c 9760 c73d fc57 47be
00000010: 1be4 f8bd 355f 523d 4326 213e

encoder.encoder_layers.0.encode_self_attention.layer_norm.weight f4 [7]
0.99485314 0.99624914 0.9979217 0.99643475 0.99388933 1.006186 1.0026077
00000000: b2ae 7e3f 2f0a 7f3f cc77 7f3f 5916 7f3f
00000010: 886f 7e3f b4ca 803f 7355 803f

encoder.encoder_layers.0.encode_self_attention.layer_norm.bias f4 [7]
-0.005579977 0.0070796935 -0.0055971975 -0.0029030635 0.0067405137 0.006339234 -0.006261636
00000000: 3dd8 b6bb c6fc e73b b268 b7bb 5341 3ebb
00000010: 87df dc3b 59b9 cf3b 692e cdbb

encoder.encoder_layers.0.feed_forward.fc.0.weight f4 [7, 7]
-0.103703365 -0.36172315 0.081014074 -0.24591646 0.3218308 0.34533066 0.11567743 -0.031233244
-0.18925056 -0.2248511 0.27452767 0.26346546 -0.19034703 -0.0798331 0.26614597 -0.10978208
-0.03157746 -0.32019085 0.22521237 0.2169367 0.008151713 0.21645363 0.18219088 -0.34810254
-0.30895427 0.31859738 -0.19950391 0.19543113 -0.36737055 -0.17176962 0.11313785 0.3553937
-0.1299684 -0.3136924 -0.04002728 0.31395754 -0.36404026 -0.171376 0.031984493 -0.19965388
-0.35662192 -0.069378816 0.3166101 -0.20258564 0.2115187 -0.27104795 -0.21295096 0.25148728
-0.23936354
00000000: 6e62 d4bd c733 b9be b5ea a53d 86d1 7bbe
00000010: 02c7 a43e 2ecf b03e 4ae8 ec3d dcdc ffbc
00000020: e6ca 41be 5e3f 66be e48e 8c3e f2e4 863e
00000030: 55ea 42be 897f a3bd 4944 883e 6dd5 e0bd
00000040: 5e57 01bd 0ef0 a3be 129e 663e a724 5e3e
00000050: c38e 053c 05a6 5d3e 3f90 3a3e 7f3a b2be
00000060: 412f 9ebe 321f a33e c14a 4cbe 191f 483e
00000070: fe17 bcbe 60e4 2fbe d1b4 e73d 2af6 b53e
00000080: 7016 05be 4a9c a0be a5f3 23bd 0bbf a03e
00000090: 7c63 babe 317d 2fbe 2c02 033d 1172 4cbe
000000a0: 2697 b6be 7b16 8ebd b81a a23e 9c72 4fbe
000000b0: 5c98 583e ccc6 8abe d10f 5abe f1c2 803e
000000c0: b71b 75be

encoder.encoder_layers.0.feed_forward.fc.2.weight f4 [7, 7]
0.0932016 0.35843387 0.19358052 -0.16967055 -0.28811303 -0.18929063 -0.26277617 0.12204966
0.1505208 -0.05151983 -0.16149552 -0.24043307 -0.12286288 -0.33908716 0.2867562 0.273903
0.28079632 -0.35202333 -0.13518812 -0.25997055 0.073499024 0.124416314 0.21338536 -0.34359854
0.14029914 0.17886572 0.24038735 -0.31845665 -0.18563381 0.061765492 -0.22189839 -0.17527995
-0.34602794 -0.053945366 -0.33680588 -0.24344821 0.018764239 0.06700328 -0.2225786 0.23914312
-0.2709655 0.22620201 -0.17008416 -0.15972686 -0.2795395 0.35649353 -0.18147546 0.3189793
0.085716784
00000000: 7be0 be3d a584 b73e f939 463e 1ebe 2dbe
00000010: 8d83 93be 67d5 41be 998a 86be 2cf5 f93d
00000020: 2022 1a3e 7506 53bd 155f 25be 1634 76be
00000030: 899f fbbd d59c adbe b5d1 923e 043d 8c3e
00000040: 89c4 8f3e 673c b4be c16e 0abe dc1a 85be
00000050: a886 963d fbcd fe3d b181 5a3e 26ec afbe
00000060: 94aa 0f3e 9328 373e 1a28 763e c00c a3be
00000070: ca16 3ebe d0fd 7c3d 5539 63be 967c 33be
00000080: 932a b1be d1f5 5cbd d271 acbe 7d4a 79be
00000090: 76b7 993c 0439 893d a5eb 63be efe1 743e
000000a0: fdbb 8abe 80a1 673e 8b2a 2ebe 708f 23be
000000b0: cd1f 8fbe 5286 b63e b4d4 39be 4151 a33e
000000c0: 488c af3d

encoder.encoder_layers.0.feed_forward.layer_norm.weight f4 [7]
0.9957157 0.99639 0.99460536 1.0029422 0.9935476 1.0064763 1.0032532
00000000: 39e7 7e3f 6a13 7f3f 759e 7e3f 6960 803f
00000010: 2359 7e3f 37d4 803f 9a6a 803f

encoder.encoder_layers.0.feed_forward.layer_norm.bias f4 [7]
-0.004699966 0.0068602087 -0.0062824115 -0.00506768 0.0067634867 0.006607307 -0.006096263
00000000: 2c02 9abb 9acb e03b b0dc cdbb c80e a6bb
00000010: 3da0 dd3b 1c82 d83b 29c3 c7bb

encoder.encoder_layers.1.encode_self_attention.W_Q.weight f4 [16, 7]
0.0076308637 -0.19613004 0.3703122 -0.0071133547 -0.070709646 -0.0374112 0.2449123 0.030150395
-0.13124102 0.17116252 0.3012167 0.15284066 -0.10861924 -0.05542842 -0.30378762 -0.14486292
0.082977206 -0.30734316 0.095524386 0.048574038 0.021208804 -0.1191695 0.259165 0.1861325
-0.108797856 0.03042021 0.3273192 0.05591323 0.06698146 -0.31666273 0.10283632 -0.011128803
-0.1912405 -0.086172424 0.057408344 0.34000492 -0.025176339 -0.23962827 -0.3389781 0.065194935
0.21914336 0.20525305 -0.06947905 0.31067404 -0.36849317 -0.014419275 -0.1372188 -0.1688486
-0.101312906 -0.07902589 0.047916777 0.24275173 -0.37725246 -0.08204591 0.12788595 0.23775528
-0.055698287 -0.10670274 0.16690996 0.16847199 -0.3254437 0.08509301 -0.0026511298 0.20399332
-0.23719847 0.22767024 -0.27832833 -0.28190053 0.34297338 0.31766918 0.2934175 -0.251383
-0.32410342 -0.33509704 0.1532936 0.04978711 0.13199332 0.038257588 0.35011312 0.18039557
0.2705983 -0.28233764 0.08976886 0.16081102 -0.1975296 -0.08251744 -0.22144051 0.3498675
-0.34039208 -0.20085602 -0.27216214 0.334644 -0.122780584 -0.33718744 0.38129765 -0.22771284
0.25038236 0.111654125 -0.09628134 -0.090474054 0.0069576856 0.3385918 0.25353932 0.22204594
0.22594455 -0.3412095 0.3394771 0.24898186 0.2811304 -0.07842758 0.15492685 0.2003975
00000000: 530c fa3b 50d6 48be 9099 bd3e 2517 e9bb
00000010: 38d0 90bd 7d3c 19bd 4aca 7a3e f6fd f63c
00000020: 0c64 06be 3a45 2f3e 1339 9a3e 4382 1c3e
00000030: c473 debd e908 63bd 0d8a 9bbe f256 14be
00000040: f4ef a93d 155c 9dbe 4aa2 c33d 92f5 463d
00000050: 16be ad3c 240f f4bd 46b1 843e 8599 3e3e
00000060: 69d1 debd ce33 f93c 6296 a73e 4505 653d
00000070: 932d 893d 9e21 a2be d99b d23d 9555 36bc
00000080: 8dd4 43be 2b7b b0bd 0325 6b3d 2015 ae3e
00000090: 9c3e cebc 1d61 75be 8a8e adbe ec84 853d
000000a0: 1e67 603e db2d 523e 084b 8ebd ab10 9f3e
000000b0: 23ab bcbe d33e 6cbc 1683 0cbe a6e6 2cbe
000000c0: 247d cfbd 53d8 a1bd 6244 443d e993 783e
000000d0: 3c27 c1be b007 a8bd 89f4 023e 1f76 733e
000000e0: e323 64bd f786 dabd 72ea 2a3e ec83 2c3e
000000f0: 8fa0 a6be 3e45 ae3d 94be 2dbb a0e3 503e
00000100: 28e4 72be 6322 693e 0d81 8ebe 4455 90be
00000110: 359a af3e 89a5 a23e d23a 963e 46b5 80be
00000120: e2f0 a5be d791 abbe fff8 1c3e 92ed 4b3d
00000130: 4229 073e fdb3 1c3d 0742 b33e 9eb9 383e
00000140: dc8b 8a3e 8f8e 90be bcd8 b73d a5ab 243e
00000150: 3345 4abe e7fe a8bd 4dc1 62be d521 b33e
00000160: df47 aebe 33ad 4dbe d658 8bbe 7556 ab3e
00000170: 6374 fbbd d5a3 acbe 7239 c33e 8e2d 69be
00000180: 1e32 803e ebaa e43d 272f c5bd 764a b9bd
00000190: 4cfd e33b e85b ad3e e8cf 813e 0360 633e
000001a0: 025e 673e 03b3 aebe f1cf ad3e 1af5 7e3e
000001b0: 53f0 8f3e a49e a0bd 25a5 1e3e 0135 4d3e

encoder.encoder_layers.1.encode_self_attention.W_Q.bias f4 [16]
0.27329016 -0.038987953 -0.3236797 -0.024242954 -0.1991229 -0.24363506 -0.038580146 0.15073971
-0.33415362 0.07407581 -0.06461228 -0.18261643 -0.21062592 -0.0590026 0.34246558 -0.18432154
00000000: b0ec 8b3e d5b1 1fbd 58b9 a5be 2999 c6bc
00000010: e0e6 4bbe 787b 79be 3706 1ebd 835b 1a3e
00000020: 2f16 abbe 0fb5 973d 7153 84bd cdff 3abe
00000030: 52ae 57be b6ac 71bd a657 af3e c9be 3cbe

encoder.encoder_layers.1.encode_self_attention.W_K.weight f4 [16, 7]
-0.27046764 0.074951105 -0.12726164 0.11417087 0.36111188 -0.24879277 -0.34514403 0.062024347
0.30271253 0.16931508 0.057487324 0.30584505 0.33409417 0.34679726 0.097727336 -0.09048742
-0.35048762 -0.14950041 -0.36214042 0.22503307 0.29302672 -0.37741643 0.27023745 -0.34955066
0.29778793 0.25954413 -0.0036868341 -0.33971354 -0.19845398 0.14620553 0.32792115 -0.12109079
-0.33195785 -0.07961327 0.11245499 0.058748074 0.2420936 -0.16797473 -0.3063404 0.3323611
-0.011635056 0.32619306 0.17752355 0.2619457 -0.019303208 0.10041943 0.27954558 -0.15704717
0.24881478 -0.062997065 0.0356838 -0.041083865 0.22628014 0.15305133 -0.13929926 -0.37611565
0.21053296 0.27210337 -0.33778018 -0.32626155 -0.21631706 -0.115119115 -0.25812787 -0.12215361
-0.11593649 0.35540038 -0.3052592 -0.34118605 0.16648944 0.31161118 0.34339786 0.047413994
-0.24503043 -0.11456937 0.16924426 -0.20932122 -0.2010519 0.32868558 0.010265881 -0.26474127
-0.3493796 -0.26101193 -0.019255776 -0.2493413 -0.072374985 -0.17650945 0.05357239 -0.25389084
-0.09343042 0.30624977 0.15742406 -0.11674848 0.1162064 0.35224095 -0.042018365 -0.10503691
-0.34209818 0.31901208 0.049282156 0.3800772 -0.24376716 0.01670479 -0.35980693 -0.3554692
0.2849042 0.09469311 -0.22582828 -0.27167997 -0.29094988 -0.32154843 0.17760052 -0.31693706
00000000: bc7a 8abe f77f 993d e050 02be 6bd2 e93d
00000010: a8e3 b83e 88c3 7ebe b8b6 b0be 3e0d 7e3d
00000020: 23fd 9a3e ef60 2d3e d477 6b3d b997 9c3e
00000030: 640e ab3e 698f b13e 4525 c83d 7851 b9bd
00000040: 1d73 b3be a316 19be 786a b9be 126f 663e
00000050: 9907 963e ba3c c1be 905c 8a3e 4ef8 b2be
00000060: a977 983e f8e2 843e d09e 71bb efee adbe
00000070: 8537 4bbe e7b6 153e 48e5 a73e 73fe f7bd
00000080: 61f6 a9be 480c a3bd cd4e e63d d2a1 703d
00000090: 62e7 773e 9101 2cbe a6d8 9cbe 3c2b aa3e
000000a0: f6a0 3ebc c702 a73e bcc8 353e bf1d 863e
000000b0: c321 9ebc b4a8 cd3d 9920 8f3e f9d0 20be
000000c0: 4dc9 7e3e 9b04 81bd 2d29 123d 8e47 28bd
000000d0: fbb5 673e 7db9 1c3e 77a4 0ebe 3b92 c0be
000000e0: f495 573e 2251 8b3e 86f1 acbe c10b a7be
000000f0: 3882 5dbe 92c3 ebbd 5629 84be ac2b fabd
00000100: 1c70 edbd 0af7 b53e ef4a 9cbe f0af aebe
00000110: 357c 2a3e 808b 9f3e d8d1 af3e 2d35 423d
00000120: 42e9 7abe 59a3 eabd 5e4e 2d3e 4d58 56be
00000130: 8de0 4dbe 7a49 a83e 3a32 283c 2b8c 87be
00000140: e2e1 b2be 5ba3 85be 4abe 9dbc 5353 7fbe
00000150: 5639 94bd e5be 34be b96e 5b3d fbfd 81be
00000160: 7358 bfbd c5cc 9c3e c633 213e d419 efbd
00000170: 9ffd ed3d ed58 b43e 731b 2cbd 971d d7bd
00000180: 7e27 afbe 8d55 a33e 16dc 493d 7b99 c23e
00000190: 199e 79be 7cd8 883c 9d38 b8be 0f00 b6be
000001a0: f7de 913e 76ee c13d 873f 67be a319 8bbe
000001b0: 62f7 94be ffa1 a4be e9dc 353e 9345 a2be

encoder.encoder_layers.1.encode_self_attention.W_K.bias f4 [16]
-0.021090101 0.05530241 0.31117454 -0.091896236 0.01845923 -0.07951632 -0.17572615 0.37565187
0.12923399 0.18074086 -0.33017337 0.20943066 0.06865276 0.2751113 0.024677781 -0.26473346
00000000: 26c5 acbc c884 623d 4552 9f3e 1834 bcbd
00000010: d037 973c 74d9 a2bd 8ef1 33be 7155 c03e
00000020: ea55 043e 2214 393e 7c0c a9be fe74 563e
00000030: d199 8c3d 63db 8c3e 0f29 ca3c 258b 87be

encoder.encoder_layers.1.encode_self_attention.W_V.weight f4 [16, 7]
0.37007725 -0.3014222 -0.35295242 -0.15380123 0.24425386 -0.3501769 0.19321378 0.22361617
-0.03828858 0.07215275 0.08919903 -0.3261902 0.3818241 -0.27917445 0.11082544 0.32257685
0.29827723 0.13659997 0.21331534 -0.18323353 -0.11768056 0.30959997 0.33445385 0.33627295
0.3027905 -0.33056867 -0.37480882 0.19150656 -0.0023028255 -0.08639846 -0.23324054 0.31069583
0.34661904 0.33178687 -0.042713642 -0.25476012 -0.23948751 0.027098535 -0.2865444 -0.108014114
0.07428191 -0.31889954 -0.076716326 -0.37315878 -0.2712555 0.26728332 0.089049615 0.3250853
0.2652491 0.062476125 0.14362757 -0.3603611 -0.28790805 0.32070664 0.2851371 -0.0902687
-0.14239384 -0.19149645 -0.25823936 -0.026960159 -0.38161725 -0.04604348 0.06300251 0.3058715
0.3135408 -0.012814415 0.07018424 0.24717578 -0.17590117 -0.117370166 0.37123948 0.15471467
-0.20308731 -0.045221444 -0.051218424 0.19129977 -0.26074418 0.34209925 -0.07120453 -0.08551107
0.3438435 0.35064974 -0.1844918 0.37313586 0.27107203 -0.09074674 0.07295728 -0.22376469
-0.01175116 0.213298 0.21977518 -0.014593355 -0.20028225 0.046690635 0.16296768 -0.27190015
-0.32839033 0.14942858 0.08060745 -0.3068394 0.23690182 0.3679545 0.08444634 0.21472104
-0.2860903 -0.31696102 -0.13053074 0.33141983 -0.019477388 0.1897053 0.115574785 -0.33760542
00000000: c47a bd3e 0354 9abe 2eb6 b4be 127e 1dbe
00000010: af1d 7a3e 634a b3be d5d9 453e a3fb 643e
00000020: 7cd4 1cbd d2c4 933d fbad b63d 6702 a7be
00000030: 737e c33e f4ef 8ebe 73f8 e23d cb28 a53e
00000040: cbb7 983e dde0 0b3e 566f 5a3e 92a1 3bbe
00000050: 8102 f1bd e383 9e3e 893d ab3e f82b ac3e
00000060: 5b07 9b3e 4c40 a9be f1e6 bfbe 4c1a 443e
00000070: 00eb 16bb adf1 b0bd 9cd6 6ebe 8613 9f3e
00000080: 0d78 b13e f8df a93e 80f4 2ebd eb6f 82be
00000090: 373c 75be bffd dd3c f3b5 92be 8136 ddbd
000000a0: 1d21 983d cd46 a3be 731d 9dbd ab0e bfbe
000000b0: 00e2 8abe 5cd9 883e a55f b63d 9571 a63e
000000c0: bbce 873e f7e6 7f3d 1b13 133e 4081 b8be
000000d0: af68 93be a933 a43e 7dfd 913e ccde b8bd
000000e0: b1cf 11be a517 44be f337 84be 8ddb dcbc
000000f0: 5663 c3be 1798 3cbd 7607 813d 309b 9c3e
00000100: 6b88 a03e 8df3 51bc c1bc 8f3d a61b 7d3e
00000110: 701f 34be c55f f0bd 1a13 be3e 866d 1e3e
00000120: 1ff6 4fbe 1f3a 39bd 69ca 51bd 16e4 433e
00000130: 4380 85be a227 af3e aed3 91bd 6e20 afbd
00000140: 410c b03e 5d88 b33e 6beb 3cbe aa0b bf3e
00000150: f4c9 8a3e 6dd9 b9bd a06a 953d 9222 65be
00000160: f087 40bc ca6a 5a3e bf0c 613e f818 6fbc
00000170: ca16 4dbe ae3e 3f3d 00e1 263e 7f36 8bbe
00000180: c722 a8be ce03 193e 8515 a53d 0e1a 9dbe
00000190: 6496 723e 8864 bc3e 34f2 ac3d d5df 5b3e
000001a0: 6e7a 92be b748 a2be daa9 05be dcaf a93e
000001b0: 0b8f 9fbc 1b42 423e 79b2 ec3d 9eda acbe

encoder.encoder_layers.1.encode_self_attention.W_V.bias f4 [16]
-0.025971016 0.036415223 -0.24837947 0.2562418 0.17092283 0.30130732 0.19933905 0.0029591986
-0.197953 -0.34842688 -0.34971258 0.24985924 0.31191927 -0.22588646 -0.22616775 0.082387954
00000000: 2bc1 d4bc 2128 153d 3057 7ebe 2032 833e
00000010: 6506 2f3e f444 9a3e 891f 4c3e 1def 413b
00000020: 31b4 4abe 0265 b2be 870d b3be 1adb 7f3e
00000030: e2b3 9f3e c84e 67be 8598 67be 04bb a83d

encoder.encoder_layers.1.encode_self_attention.fc.weight f4 [7, 16]
0.101600975 -0.22722037 -0.049084492 0.10984938 -0.17418158 -0.08856389 0.09139886 -0.024714006
0.22560918 -0.14297535 0.052967094 0.09653667 -0.23642597 0.15261945 -0.14641766 -0.20912816
0.14326806 0.219493 0.15585834 -0.028374495 -0.19163273 0.13786468 -0.10295508 0.12221135
0.1405943 0.032336026 -0.146191 -0.25285125 0.00339017 -0.15179102 -0.09153919 0.22348219
-0.20740086 -0.17228062 -0.10351696 0.027288716 -0.047174983 0.18995792 0.14745176 -0.15365551
0.16870983 0.23871097 -0.114569925 -0.23468646 -0.0662945 0.010744589 0.016642734 0.067654826
-0.1727545 0.062409732 0.23079257 -0.14626138 -0.2521349 0.0058969473 -0.107666045 -0.13892363
0.0053776857 0.16278619 -0.15060675 0.15449229 -0.12886748 -0.22198942 -0.13367024 -0.023173884
0.20491482 0.1359938 -0.106843896 -0.034761023 0.13283974 -0.00521047 0.07427205 -0.20232157
0.19416997 -0.20593582 0.1137581 0.16457956 0.24862555 0.07707852 -0.19888441 -0.20006494
0.17967175 0.1889031 0.15643252 0.046895444 0.042499047 -0.24090143 -0.04377394 0.13159227
0.18744202 0.030302895 0.050949216 0.045493104 -0.1628978 0.0012686496 -0.047664903 -0.15762623
0.2044764 0.105929695 0.17377049 0.23512836 -0.023379914 0.0022802127 -0.15579401 -0.052674994
-0.037262525 0.10270139 -0.047918208 0.22226416 -0.17552619 0.18308501 0.07137351 0.019802023
00000000: 2c14 d03d 75ac 68be d20c 49bd b6f8 e03d
00000010: a85c 32be fc60 b5bd 532f bb3d 0775 cabc
00000020: 1806 673e 2168 12be 06f4 583d 05b5 c53d
00000030: a619 72be 4648 1c3e 83ee 15be b125 56be
00000040: ddb4 123e c6c2 603e 5499 1f3e a171 e8bc
00000050: 5f3b 44be 662c 0d3e 1dda d2bd f249 fa3d
00000060: f4f7 0f3e c872 043d 18b3 15be b875 81be
00000070: 9d2d 5e3b 1b6f 1bbe e678 bbbd 84d8 643e
00000080: e460 54be 556a 30be b300 d4bd 968c df3c
00000090: 8e3a 41bd 5484 423e 98fd 163e df57 1dbe
000000a0: 45c2 2c3e a670 743e a3a3 eabd a651 70be
000000b0: 69c5 87bd 130a 303c 5856 883c 9d8e 8a3d
000000c0: 8ee6 30be 59a1 7f3d e354 6c3e 8bc5 15be
000000d0: d317 81be 2e3b c13b 0480 dcbd ff41 0ebe
000000e0: 4c37 b03b 6cb1 263e a838 1abe 3a33 1e3e
000000f0: d6f5 03be 3251 63be dae0 08be 28d7 bdbc
00000100: 31d5 513e f541 0b3e f9d0 dabd 9361 0ebd
00000110: 2407 083e 97bc aabb f21b 983d 632d 4fbe
00000120: 7ed4 463e d7e0 52be 02fa e83d 8b87 283e
00000130: b297 7e3e 58db 9d3d 5ba8 4bbe d3dd 4cbe
00000140: dffb 373e d06f 413e d92f 203e 7015 403d
00000150: 7b13 2e3d ddae 76be 4e4c 33bd 20c0 063e
00000160: cdf0 3f3e c73d f83c 20b0 503d fa56 3a3d
00000170: aece 26be d148 a63a 463c 43bd c568 21be
00000180: 4362 513e abf1 d83d e4f0 313e 7dc5 703e
00000190: 3c87 bfbc 9f6f 153b 7788 1fbe bcc1 57bd
000001a0: 97a0 18bd 1b55 d23d e245 44bd 3799 633e
000001b0: 23bd 33be a37a 3b3e 462c 923d da37 a23c

encoder.encoder_layers.1.encode_self_attention.fc.bias f4 [7]
-0.066550344 -0.009650158 0.15138644 0.17708766 -0.22578776 0.15629464 -0.24065518
00000000: 8c4b 88bd b21b 1ebc 0c05 1b3e 7856 353e
00000010: e834 67be b40b 203e 506e 76be

encoder.encoder_layers.1.encode_self_attention.layer_norm.weight f4 [7]
0.99723303 1.0058275 0.9932077 0.9930694 0.99398667 1.000321 1.0060129
00000000: aa4a 7f3f f5be 803f dc42 7e3f cc39 7e3f
00000010: e975 7e3f 850a 803f 08c5 803f

encoder.encoder_layers.1.encode_self_attention.layer_norm.bias f4 [7]
-0.0024320288 0.0065926113 -0.0056111496 -0.0003197758 0.0066884565 0.0006144436 -0.0060587637
00000000: ac62 1fbb d506 d83b bcdd b7bb 95a7 a7b9
00000010: d72a db3b 9d12 213a 9888 c6bb

encoder.encoder_layers.1.feed_forward.fc.0.weight f4 [7, 7]
-0.12000671 0.10295156 0.24074613 -0.03409992 -0.06199173 -0.0063660154 -0.36598048 -0.22141856
0.32939392 -0.010131364 -0.33303317 -0.1568655 -0.3705859 -0.044242777 0.27124006 0.3388766
0.007855621 -0.23542458 -0.21482326 -0.11319626 -0.033039402 -0.03517356 0.11028964 0.0014239564
0.036947902 -0.16706702 0.12339737 0.12052658 0.1535876 -0.0049958644 -0.35051292 -0.24392998
-0.17274323 -0.12199235 -0.23356368 -0.034433693 0.16819622 -0.06562888 -0.31517863 0.2875622
-0.31257218 -0.07823333 0.20758688 0.25088933 -0.10286002 0.30001953 0.06980223 0.21254402
0.24953529
00000000: 14c6 f5bd 44d8 d23d 2786 763e 5cac 0bbd
00000010: 0aeb 7dbd 029a d0bb cb61 bbbe 8cbb 62be
00000020: 52a6 a83e 05fe 25bc 5383 aabe 5aa1 20be
00000030: 6fbd bdbe ea37 35bd fadf 8a3e 3c81 ad3e
00000040: ddb4 003c 2413 71be a1fa 5bbe 71d3 e7bd
00000050: 5354 07bd 2712 10bd 89df e13d 0ca4 ba3a
00000060: af56 173d 9e13 2bbe c3b7 fc3d a4d6 f63d
00000070: 1146 1d3e 59b4 a3bb 6e76 b3be c8c8 79be
00000080: 9ae3 30be 20d7 f9bd 512b 6fbe 580a 0dbd
00000090: a13b 2c3e 6f68 86bd 185f a1be 5a3b 933e
000000a0: 7609 a0be cc38 a0bd a891 543e 9174 803e
000000b0: 46a8 d2bd 299c 993e 79f4 8e3d 24a5 593e
000000c0: 2e86 7f3e

encoder.encoder_layers.1.feed_forward.fc.2.weight f4 [7, 7]
0.06799163 0.13962829 0.026235158 -0.23715322 -0.03860473 -0.2525985 0.20378667 0.26496089
-0.15399367 -0.23757678 0.1636436 -0.20933856 0.15862246 -0.13889438 0.26640537 0.2573076
0.24435064 -0.123982154 -0.34773976 -0.00047370096 -0.36256722 0.20334674 0.16024506 0.28771338
0.03499524 -0.2864532 0.24113463 0.32856923 -0.12939358 0.18745442 0.053028617 0.2945658
-0.30315182 0.33185765 -0.37684205 -0.11897266 -0.22050698 0.35016885 -0.20213975 0.072651826
-0.17468704 -0.34912735 -0.027391633 0.020774812 -0.35766563 0.03575741 -0.034181252 0.19021751
-0.22918381
00000000: 323f 8b3d b8fa 0e3e 1deb d63c 4bd8 72be
00000010: fe1f 1ebd 9754 81be 74ad 503e f4a8 873e
00000020: 84b0 1dbe 5447 73be 3092 273e d95c 56be
00000030: ed6d 223e 543a 0ebe 4966 883e d2bd 833e
00000040: 0e37 7a3e 5bea fdbd f20a b2be 115b f8b9
00000050: 69a2 b9be 213a 503e 4817 243e 2b4f 933e
00000060: 2b57 0f3d fea9 92be ffeb 763e 3a3a a83e
00000070: c07f 04be 0df4 3f3e 8934 593d 54d1 963e
00000080: b736 9bbe 3fe9 a93e 71f1 c0be f0a7 f3bd
00000090: 95cc 61be 5549 b33e b9fd 4ebe 7bca 943d
000000a0: 29e1 32be d2c0 b2be 6b64 e0bc f02f aa3c
000000b0: f31f b7be 5d76 123d a401 0cbd 61c8 423e
000000c0: 29af 6abe

encoder.encoder_layers.1.feed_forward.layer_norm.weight f4 [7]
0.99845475 1.0065002 0.992923 0.9929378 0.99403626 1.0015159 1.0060742
00000000: bb9a 7f3f 00d5 803f 3430 7e3f 2c31 7e3f
00000010: 2979 7e3f ac31 803f 0ac7 803f

encoder.encoder_layers.1.feed_forward.layer_norm.bias f4 [7]
-0.003808194 0.0066163046 -0.005756275 0.0017840263 0.006645983 0.0017093205 -0.0061111995
00000000: e592 79bb 96cd d83b 229f bcbb fdd5 e93a
00000010: 8cc6 d93b 470b e03a 7540 c8bb

encoder.encoder_layers.2.encode_self_attention.W_Q.weight f4 [16, 7]
0.005587113 -0.027141629 -0.12211771 0.17758785 -0.072049655 0.23564406 -0.14253578 -0.15437709
0.3528995 -0.18949261 -0.023277408 0.3043415 -0.20807214 0.3621538 0.20350374 0.2342102
-0.040856633 -0.2718547 -0.15727307 0.26366323 0.23296314 0.11397274 -0.28486055 0.057539765
-0.012045018 -0.25663748 -0.26117688 0.22893755 -0.035031263 0.07819049 -0.36329535 0.039503552
0.15950194 -0.1449659 -0.31608444 0.18392876 -0.15185766 0.24236129 0.016410727 0.07808861
-0.34205353 0.09434231 0.24217193 -0.033538476 -0.12137788 0.30909672 -0.049987223 0.027055055
-0.08249256 0.0008119583 0.3388469 0.055637516 -0.10836822 -0.16401105 0.06642667 -0.26531395
-0.30116376 -0.28734973 0.15923922 0.029714996 0.37193537 -0.3691965 -0.20312075 0.009630884
-0.16801302 -0.29233548 0.2233809 -0.20333622 -0.109804146 0.23490705 0.079315566 -0.22359766
0.10385553 -0.056439355 -0.3044357 0.060555425 -0.16623716 0.106028914 0.3769253 -0.25997424
-0.0399092 -0.2105705 0.25195867 0.36887732 0.18604586 0.2735696 -0.018785952 0.051506694
0.2696274 -0.34400395 -0.07241177 -0.13304554 0.26414406 -0.3122697 0.24094146 0.12874009
-0.2763151 0.20656578 -0.3406074 -0.026847878 0.18762094 -0.34135628 0.34060425 0.34736854
-0.26071882 0.06614247 -0.005128263 0.07361072 -0.15937999 -0.14405102 0.263873 -0.3165639
00000000: 1a14 b73b 1f58 debc da18 fabd 97d9 353e
00000010: c58e 93bd ad4c 713e e6f4 11be 0715 1ebe
00000020: 3eaf b43e 5a0a 42be 43b0 bebc a6d2 9b3e
00000030: dd10 55be 396c b93e 4963 503e ccd4 6f3e
00000040: 4959 27bd 8a30 8bbe 310c 21be defe 863e
00000050: e48d 6e3e 8a6a e93d 3ed9 91be d1ae 6b3d
00000060: 7858 45bc fd65 83be fab8 85be 9b6e 6a3e
00000070: f17c 0fbd 5622 a03d d901 babe 7ace 213d
00000080: 7a54 233e f171 14be d2d5 a1be d257 3c3e
00000090: 9380 1bbe 8f2d 783e ca6f 863c ecec 9f3d
000000a0: a421 afbe 8b36 c13d ebfb 773e a45f 09bd
000000b0: f794 f8bd ed41 9e3e 67bf 4cbd 90a2 dd3c
000000c0: dcf1 a8bd 99d9 543a 577d ad3e 2ae4 633d
000000d0: 28f0 ddbd 83f2 27be b50a 883d 3bd7 87be
000000e0: 2332 9abe 811f 93be 9b0f 233e dd6c f33c
000000f0: 506e be3e 5307 bdbe e3fe 4fbe dbca 1d3c
00000100: 9b0b 2cbe ffac 95be f6bd 643e 5f37 50be
00000110: ffe0 e0bd 798b 703e 3370 a23d c9f6 64be
00000120: 35b2 d43d f42c 67bd ffde 9bbe f708 783d
00000130: 133a 2abe b025 d93d 5afc c03e 581b 85be
00000140: d477 23bd cb9f 57be ba00 813e 7ddd bc3e
00000150: ce82 3e3e 5111 8c3e ffe4 99bc aff8 523d
00000160: 9a0c 8a3e 4921 b0be 9f4c 94bd 173d 08be
00000170: e43d 873e d0e1 9fbe 5cb9 763e 71d4 033e
00000180: 2c79 8dbe fb85 533e 1864 aebe 15f0 dbbc
00000190: b41f 403e 40c6 aebe ae63 ae3e 4ada b13e
000001a0: f07c 85be b475 873d fd0a a8bb 38c1 963d
000001b0: 8234 23be 1c82 13be 5d1a 873e aa14 a2be

encoder.encoder_layers.2.encode_self_attention.W_Q.bias f4 [16]
0.18716209 -0.33663687 0.00027398652 -0.03031062 -0.021819992 0.2732222 0.10297366 0.029421382
-0.15028076 -0.23601651 -0.35160652 0.28560376 -0.22253004 0.28497222 -0.17843233 0.04268452
00000000: 6ba7 3f3e ab5b acbe d9a5 8f39 fa4d f8bc
00000010: d7bf b2bc c8e3 8b3e dbe3 d23d 1c05 f13c
00000020: 33e3 19be 50ae 71be c505 b4be a83a 923e
00000030: eade 63be e1e7 913e f7b6 36be f7d5 2e3d

encoder.encoder_layers.2.encode_self_attention.W_K.weight f4 [16, 7]
0.05655845 -0.12629502 0.12034664 -0.10559023 0.09541672 0.28270558 0.32380214 0.34371895
-0.2197109 -0.11028816 0.31573611 0.34162176 0.25897673 -0.09669277 -0.09865549 0.07990759
0.16454576 -0.1784749 0.08230145 0.31253424 0.02163107 -0.2743912 0.14352411 0.20707457
-0.025352728 -0.26733202 -0.05738025 0.03700068 0.12175062 -0.28761163 0.2756396 0.15740168
0.30603305 -0.18366869 -0.24647377 0.37517703 0.14678518 -0.3381316 0.21340631 -0.28671008
0.34903455 0.27779558 0.22696038 0.12530868 -0.1366582 -0.15116766 0.27368018 0.24022613
-0.20083308 0.044734538 -0.073327735 0.17420435 0.3326194 -0.13115832 -0.109901235 0.0334347
-0.16068389 -0.0028352214 0.30427694 -0.201706 -0.24524012 -0.29446557 -0.19767724 -0.19566122
-0.21144567 -0.2914199 -0.2665762 0.098796785 -0.053907704 0.13379261 0.105038516 0.3047026
-0.04287355 0.24084237 0.04293502 -0.11171279 0.34680694 -0.016536048 -0.15129705 -0.1067306
-0.33704516 0.13437918 0.2334183 0.024893593 -0.103073135 -0.122437 -0.065463446 -0.22031204
-0.13191509 0.22732975 0.37494418 0.38237852 0.21897177 0.07743497 0.04902997 -0.20592186
0.06497684 -0.25003648 -0.09507012 -0.056396853 -0.18841529 0.27166504 -0.30581406 0.22986473
-0.38100433 0.10070755 0.11580508 -0.07552713 0.08915298 0.019276451 -0.1153511 -0.12074675
00000000: d5a9 673d 7b53 01be 4d78 f63d b13f d8bd
00000010: d769 c33d c9be 903e 65c9 a53e eefb af3e
00000020: e5fb 60be c2de e1bd 2aa8 a13e 0ce9 ae3e
00000030: 9998 843e dc06 c6bd e40b cabd 97a6 a33d
00000040: af7e 283e 20c2 36be aa8d a83d 7d04 a03e
00000050: a433 b13c 017d 8cbe fcf7 123e 5b0b 543e
00000060: 86b0 cfbc bedf 88be 8e07 6bbd 068e 173d
00000070: 6458 f93d d541 93be a220 8d3e e82d 213e
00000080: 5db0 9c3e a513 3cbe 9f63 7cbe 3417 c03e
00000090: db4e 163e 961f adbe 2f87 5a3e aacb 92be
000000a0: a8b4 b23e 393b 8e3e 4d68 683e eb50 003e
000000b0: 21f0 0bbe b2cb 1abe cf1f 8c3e d7fd 753e
000000c0: 30a7 4dbe 903b 373d da2c 96bd a062 323e
000000d0: 174d aa3e 5e4e 06be e613 e1bd d3f2 083d
000000e0: 518a 24be 1fcf 39bb 30ca 9b3e 058c 4ebe
000000f0: 3a20 7bbe 31c4 96be e76b 4abe 6a5b 48be
00000100: 3785 58be fd34 95be ad7c 88be f855 ca3d
00000110: 53ce 5cbd ee00 093e 6f1e d73d fb01 9c3e
00000120: 2d9c 2fbd 629f 763e a2dc 2f3d adc9 e4bd
00000130: ae90 b13e 9b76 87bc 9ded 1abe 9395 dabd
00000140: 2f91 acbe b29a 093e 3505 6f3e a6ed cb3c
00000150: 0218 d3bd 40c0 fabd b311 86bd 7b99 61be
00000160: c014 07be 21c9 683e aff8 bf3e 1ec7 c33e
00000170: 233a 603e 3a96 9e3d a6d3 483d 2edd 52be
00000180: 9412 853d c804 80be 20b4 c2bd 6300 67bd
00000190: f0ef 40be ae17 8b3e a993 9cbe a961 6b3e
000001a0: 0013 c3be c33f ce3d 372b ed3d f8ad 9abd
000001b0: d695 b63d a6e9 9d3c 333d ecbd 124a f7bd

encoder.encoder_layers.2.encode_self_attention.W_K.bias f4 [16]
-0.25303423 -0.10838905 0.3182998 0.13627157 -0.15000637 0.35779175 -0.20482175 -0.35000047
0.220184 0.14442244 0.27476224 0.26034608 0.035604004 -0.348852 0.2974957 -0.031496808
00000000: b48d 81be 14fb ddbd 31f8 a23e c68a 0b3e
00000010: 459b 19be 7b30 b73e cbbc 51be 4333 b3be
00000020: ea77 613e 7ae3 133e a3ad 8c3e 154c 853e
00000030: 81d5 113d bb9c b2be 5b51 983e cc02 01bd

encoder.encoder_layers.2.encode_self_attention.W_V.weight f4 [16, 7]
0.016955268 -0.21927041 -0.32796246 -0.06697417 0.08374885 0.24804917 -0.31723094 -0.052270085
0.24335311 -0.10807982 -0.19498587 0.014537292 -0.32185653 0.09701227 0.004608333 0.110076174
0.33532587 0.1905153 -0.31301904 -0.21363331 -0.35110703 -0.037778046 0.1393664 0.17844707
-0.3101971 0.17916425 0.10532169 0.37085924 -0.22567518 0.05431377 0.26478478 0.20999347
-0.049021874 -0.24659863 -0.1667873 0.16362393 0.25378406 -0.17726067 -0.00013144901 0.19564834
0.12136354 0.13620456 -0.21950768 0.15553516 0.17743 -0.14648157 0.23889649 -0.21627557
0.3372168 0.20372361 0.09407847 0.31083775 -0.2351477 0.006223471 0.17954239 -0.20670645
-0.037984435 -0.28063208 -0.17816657 0.082851164 0.18080996 -0.070250005 -0.1536082 -0.18005992
-0.20104802 -0.20618059 0.33239162 -0.28102702 0.019245585 0.13661641 0.24513565 0.13064456
-0.23937313 -0.1125881 0.369909 -0.25914344 0.060978305 0.022782445 0.08601064 -0.18096526
-0.08346893 -0.16003747 0.24262586 0.02743096 0.16853595 -0.011222441 -0.059935387 0.38144732
-0.042332564 -0.30471003 0.078980654 0.20519984 -0.22857589 -0.24918193 0.22731361 0.073965676
-0.1817051 0.35445014 -0.2286475 -0.009032546 -0.31309018 -0.13878469 -0.36125675 -0.06432619
0.2760674 0.0101731755 -0.16984117 0.101827726 0.059956487 -0.049083672 0.35478756 -0.2718804
00000000: c6e5 8a3c 6c88 60be b2ea a7be c129 89bd
00000010: 8484 ab3d 9a00 7e3e 186c a2be 2819 56bd
00000020: 8f31 793e f458 ddbd 60aa 47be d22d 6e3c
00000030: 61ca a4be 5eae c63d 8001 973b 9e6f e13d
00000040: d5af ab3e 7116 433e 0844 a0be b1c2 5abe
00000050: 4dc4 b3be 27bd 1abd 11b6 0e3e d4ba 363e
00000060: 27d2 9ebe d576 373e e6b2 d73d 43e1 bd3e
00000070: 6517 67be 1e78 5e3d df91 873e 8708 573e
00000080: 29cb 48bd 5a84 7cbe 4aca 2abe 088d 273e
00000090: fcef 813e d283 35be 93d5 09b9 0a58 483e
000000a0: 738d f83d 3579 0b3e 9fc6 60be 9c44 1f3e
000000b0: 36b0 353e 44ff 15be 48a1 743e 5877 5dbe
000000c0: aea7 ac3e ec9c 503e 36ac c03d 2026 9f3e
000000d0: 8fca 70be 42ee cb3b f6d9 373e dbaa 53be
000000e0: 9195 1bbd 02af 8fbe 4c71 36be dfad a93d
000000f0: 3f26 393e 3cdf 8fbd 784b 1dbe a161 38be
00000100: 88df 4dbe 0121 53be 3c2f aa3e c6e2 8fbe
00000110: eba8 9d3c 2ce5 0b3e d704 7b3e b0c7 053e
00000120: 3b1e 75be 9794 e6bd b664 bd3e 73ae 84be
00000130: 63c4 793d 40a2 ba3c 5926 b03d f54e 39be
00000140: c2f1 aabd dde0 23be ea72 783e e5b6 e03c
00000150: b094 2c3e 54de 37bc cf7e 75bd 104d c33e
00000160: e964 2dbd f402 9cbe 9cc0 a13d e81f 523e
00000170: cc0f 6abe 8c29 7fbe e6c4 683e 517b 973d
00000180: e710 3abe 7d7a b53e 9222 6abe 3efd 13bc
00000190: 5b4d a0be 931d 0ebe a5f6 b8be 73bd 83bd
000001a0: b558 8d3e 64ad 263c d8ea 2dbe 0e8b d03d
000001b0: ef94 753d f60b 49bd b7a6 b53e e833 8bbe

encoder.encoder_layers.2.encode_self_attention.W_V.bias f4 [16]
0.30850267 0.2622709 -0.38355467 -0.35463384 0.35731307 0.19159742 0.13444534 0.29911348
-0.32565382 -0.3765432 -0.0791002 0.19727324 -0.18042396 -0.15632463 0.33134323 -0.22711487
00000000: 10f4 9d3e 5f48 863e 4761 c4be 9192 b5be
00000010: bdf1 b63e 1d32 443e 0aac 093e 6725 993e
00000020: 19bc a6be 45ca c0be 49ff a1bd ff01 4a3e
00000030: 0fc1 38be 9013 20be d2a5 a93e cd90 68be

encoder.encoder_layers.2.encode_self_attention.fc.weight f4 [7, 16]
-0.018101728 -0.08422854 0.09707465 0.24603386 0.09070439 -0.05845686 0.020488998 -0.20066349
0.19950308 -0.18379161 0.056469675 0.06436477 0.18900268 0.009232181 0.1295233 -0.06424102
-0.15993892 -0.040610764 -0.19142903 0.0281997 0.1341962 -0.09667748 0.17590009 -0.11486429
0.00043830526 -0.008603014 -0.04037884 -0.079781316 -0.03337228 0.018547537 -0.13518597 0.1871078
-0.2415127 -0.18913785 -0.20970988 -0.11999553 -0.07197795 -0.00536242 -0.14001215 -0.029179139
0.0047842693 0.16350111 -0.0938972 -0.17459701 0.15144277 -0.1587748 0.09831231 -0.0052242335
0.12593843 -0.19820738 0.04456614 -0.12691581 -0.19733572 -0.20603155 0.018661683 0.11347077
0.14113964 -0.20310847 -0.07511948 0.06183722 0.2304308 -0.24816063 0.17720945 -0.074323155
-0.024250532 -0.071465336 -0.05306989 0.010248872 -0.081133336 -0.08377037 -0.10490019 -0.13461524
0.1340199 0.085840285 0.23270984 -0.040051922 0.1829825 -0.1427614 -0.08091569 0.18868424
-0.011208204 0.16302088 -0.099073045 -0.19341516 -0.038161 0.17326325 -0.10168965 -0.18213412
-0.0017639478 0.01581978 0.0011067352 0.17289613 0.09346856 0.05318583 0.23406418 -0.1794282
0.042251408 0.09124764 0.103619374 0.17065854 0.010979534 0.19786714 -0.23053075 0.0022698347
-0.18875717 0.14274123 -0.13853596 0.032528546 0.25557587 0.22921596 0.065470055 -0.25292295
00000000: 134a 94bc 0380 acbd 13cf c63d 4df0 7b3e
00000010: 39c3 b93d 7670 6fbd 8bd8 a73c bb7a 4dbe
00000020: 894a 4c3e de33 3cbe bf4c 673d add1 833d
00000030: eb89 413e 9342 173c c2a1 043e cc90 83bd
00000040: 07c7 23be 7957 26bd f905 44be 0f03 e73c
00000050: bb6a 093e d8fe c5bd 271f 343e f83d ebbd
00000060: 56cc e539 a8f3 0cbc 4864 25bd 6364 a3bd
00000070: 5fb1 08bd 01f1 973c 316e 0abe 3099 3f3e
00000080: 1b4f 77be 5aad 41be 30be 56be 37c0 f5bd
00000090: 2d69 93bd 3db7 afbb 585f 0fbe 1709 efbc
000000a0: 5cc5 9c3b d66c 273e 2d4d c0bd 8fc9 32be
000000b0: d013 1b3e dc95 22be f757 c93d 0c30 abbb
000000c0: 01f6 003e e0f6 4abe fc8a 363d 38f6 01be
000000d0: 6012 4abe eff9 52be 63e0 983c 5d63 e83d
000000e0: e986 103e abfb 4fbe 3ed8 99bd 0649 7d3d
000000f0: 0df6 6b3e d21d 7ebe 6576 353e bd36 98bd
00000100: 0da9 c6bc 6b5c 92bd d05f 59bd e3ea 273c
00000110: 3c29 a6bd cd8f abbd e9d5 d6bd 94d8 09be
00000120: 833c 093e 08cd af3d 7d4b 6e3e 7c0d 24bd
00000130: c45f 3b3e 0b30 12be 20b7 a5bd 7136 413e
00000140: 9da2 37bc f2ee 263e cfe6 cabd a00e 46be
00000150: b54e 1cbd ec6b 313e aa42 d0bd 5e81 3abe
00000160: 4434 e7ba 7c98 813c df0f 913a af0b 313e
00000170: 726c bf3d 63d9 593d 85ae 6f3e 07bc 37be
00000180: d00f 2d3d 0be0 ba3d 6536 d43d 1dc1 2e3e
00000190: 81e3 333c af9d 4a3e 4110 6cbe 82c1 143b
000001a0: 8f49 41be c22a 123e 5fdc 0dbe a73c 053d
000001b0: d7da 823e 97b7 6a3e 2a15 863d 1e7f 81be

encoder.encoder_layers.2.encode_self_attention.fc.bias f4 [7]
0.012148479 -0.21793796 0.15571244 0.25465238 0.08521947 -0.0173297 -0.16409086
00000000: 6a0a 473c 212b 5fbe 1573 1f3e cc61 823e
00000010: 8c87 ae3d 04f7 8dbc 6f07 28be

encoder.encoder_layers.2.encode_self_attention.layer_norm.weight f4 [7]
0.99984205 1.0068744 0.9926611 0.9958162 0.9939265 0.99897724 1.005981
00000000: a6f5 7f3f 43e1 803f 0a1f 7e3f cfed 7e3f
00000010: f871 7e3f f9bc 7f3f fcc3 803f

encoder.encoder_layers.2.encode_self_attention.layer_norm.bias f4 [7]
-0.0029228 0.006482097 -0.007057017 0.0043785414 0.006803172 -0.0012792747 -0.005893447
00000000: 728c 3fbb c567 d43b 8d3e e7bb de79 8f3b
00000010: 25ed de3b 56ad a7ba d11d c1bb

encoder.encoder_layers.2.feed_forward.fc.0.weight f4 [7, 7]
-0.015556796 -0.20154661 -0.05717462 0.23761217 0.14701948 -0.2822577 0.14119698 -0.11101703
-0.20356013 0.18476729 0.30194172 0.23793581 -0.0031472256 -0.34169823 0.15645115 -0.2615436
0.16315438 0.09851071 0.26484334 0.34945446 0.045227993 0.28999093 0.2813227 -0.19137278
-0.010237183 0.08727485 -0.18007597 0.19735904 -0.20390236 0.1982563 -0.35848835 -0.09433801
-0.15147886 0.18012579 0.1536197 -0.31864068 -0.3574928 -0.23288934 -0.36235827 -0.33701023
0.351598 -0.13581425 0.30539125 0.1544826 -0.28654876 0.14304242 0.18832792 0.09190607
-0.17149995
00000000: efe1 7ebc 3c62 4ebe ef2f 6abd 9b50 733e
00000010: 468c 163e 1584 90be f195 103e e65c e3bd
00000020: 1172 50be a333 3d3e 1b98 9a3e 72a5 733e
00000030: af41 4ebb 12f3 aebe bb34 203e 0be9 85be
00000040: f111 273e fcbf c93d 8c99 873e b2eb b23e
00000050: fd40 393d b179 943e 8709 903e 3af7 43be
00000060: dcb9 27bc 28bd b23d d665 38be 7d18 4a3e
00000070: c8cb 50be b303 4b3e c98b b7be 4934 c1bd
00000080: 461d 1bbe e572 383e 7c4e 1d3e df24 a3be
00000090: 4c09 b7be 8b7a 6ebe 0687 b9be 9b8c acbe
000000a0: a704 b43e e412 0bbe 3e5c 9c3e b030 1e3e
000000b0: 85b6 92be b679 123e 09d9 403e 4039 bc3d
000000c0: af9d 2fbe
