Transformer/model/best_epoch_model_newnewnewStart_conv.pth (torch, 78573 bytes, 118 tensors)

encoder.pos_embedding.positional_encoding f4 [96, 7]
0.0 1.0 0.0 1.0 0.0 1.0 0.0 0.84147096
0.54030234 0.07190645 0.9974114 0.0051794495 0.9999866 0.00037275936 0.9092974 -0.41614684
0.14344062 0.98965895 0.01035876 0.99994636 0.00074551866 0.14112 -0.9899925 0.21423216
0.9767828 0.015537794 0.9998793 0.0011182779 -0.7568025 -0.6536436 0.28391457 0.9588496
0.020716408 0.99978536 0.0014910368 -0.9589243 0.2836622 0.35212708 0.9359522 0.025894469
0.99966466 0.0018637957 -0.2794155 0.96017027 0.41851655 0.90820915 0.031071836 0.99951714
0.0022365544 0.6569866 0.75390226 0.48273927 0.87576413 0.036248367 0.9993428 0.0026093125
0.98935825 -0.14550003 0.54446274 0.83878505 0.041423924 0.99914163 0.0029820704 0.4121185
-0.91113025 0.6033674 0.79746336 0.046598375 0.9989137 0.0033548279 -0.5440211 -0.8390715
0.6591482 0.752013 0.05177157 0.99865896 0.0037275848 -0.9999902 0.004425698 0.71151656
0.7026693 0.05694338 0.9983774 0.0041003413 -0.53657293 0.84385395 0.76020116 0.64968777
0.062113665 0.99806905 0.0044730976 0.42016703 0.9074468 0.80495 0.5933426 0.06728228
0.99773395 0.0048458525 0.9906074 0.13673721 0.84553146 0.5339256 0.07244909 0.9973721
0.0052186074 0.65028787 -0.7596879 0.8817354 0.4717443 0.07761396 0.99698347 0.005591361
-0.2879033 -0.9576595 0.91337436 0.40712067 0.08277674 0.9965681 0.0059641143 -0.96139747
-0.27516335 0.9402846 0.34038928 0.0879373 0.996126 0.006336867 -0.75098723 0.6603167
0.96232677 0.27189565 0.09309551 0.9956572 0.006709618 0.1498772 0.9887046 0.9793867
0.2019943 0.098251216 0.99516165 0.0070823687 0.9129453 0.40808207 0.9913761 0.1310472
0.10340428 0.9946394 0.007455118 0.8366556 -0.54772925 0.99823296 0.059421636 0.10855459
0.9940905 0.007827867 -0.008851309 -0.99996084 0.99992174 -0.012511566 0.11370197 0.9935149
0.008200614 -0.8462204 -0.53283304 0.9964336 -0.08437999 0.118846305 0.99291265 0.00857336
-0.9055784 0.42417902 0.98778677 -0.15581156 0.12398746 0.99228376 0.008946106 -0.13235176
0.99120283 0.97402596 -0.22643647 0.12912527 0.9916283 0.009318849 0.76255846 0.6469193
0.9552223 -0.29588905 0.13425964 0.9909462 0.009691591 0.95637596 -0.29213881 0.93147326
-0.36380976 0.13939038 0.99023753 0.010064333 0.2709058 -0.9626059 0.90290177 -0.4298469
0.1445174 0.98950225 0.010437073 -0.6636339 -0.74805754 0.8696557 -0.49365866 0.14964053
0.98874044 0.010809811 -0.9880316 0.15425146 0.8319073 -0.55491465 0.15475966 0.9879522
0.011182548 -0.40403765 0.91474235 0.78985184 -0.61329764 0.15987463 0.9871373 0.011555283
0.5514267 0.83422333 0.7437072 -0.6685055 0.16498531 0.986296 0.011928016 0.99991184
-0.013276747 0.6937122 -0.72025234 0.17009158 0.9854283 0.012300748 0.5290827 -0.8485703
0.64012563 -0.76827025 0.17519327 0.9845341 0.0126734795 -0.42818266 -0.9036922 0.583225
-0.81231064 0.18029027 0.98361343 0.013046208 -0.99177885 -0.12796369 0.5233049 -0.85214555
00000000: 0000 0000 0000 803f 0000 0000 0000 803f
00000010: 0000 0000 0000 803f 0000 0000 a46a 573f
00000020: 4151 0a3f b043 933d 5a56 7f3f 5fb8 a93b
00000030: 1fff 7f3f ea6e c339 b7c7 683f 3311 d5be
00000040: 19e2 123e 4a5a 7d3f cab7 293c 7cfc 7f3f
00000050: e96e 433a c381 103e 2670 7dbf ad5f 5b3e
00000060: 700e 7a3f 3b92 7e3c 17f8 7f3f 2e93 923a
00000070: cfbd 41bf 3055 27bf 405d 913e 2b77 753f
00000080: 75b5 a93c eff1 7f3f e56e c33a 107c 75bf
00000090: 2c3c 913e 004a b43e 909a 6f3f a320 d43c
000000a0: 06ea 7f3f 9b4a f43a 8c0f 8fbe b8cd 753f
000000b0: cd47 d63e 6580 683f 5d8a fe3c 5be0 7f3f
000000c0: 2893 123b 4630 283f bdff 403f 9a29 f73e
000000d0: 1432 603f 2b79 143d eed4 7f3f 0001 2b3b
000000e0: 9546 7d3f f6fd 14be e961 0b3f 9eba 563f
000000f0: 22ac 293d bfc7 7f3f d76e 433b 3201 d33e
00000100: d53f 69bf 4976 1a3f 8f26 4c3f f0dd 3e3d
00000110: cfb8 7f3f acdc 5b3b f844 0bbf 64cd 56bf
00000120: f0bd 283f ed83 403f 6d0e 543d 1da8 7f3f
00000130: 7f4a 743b 5cff 7fbf 7205 913b f325 363f
00000140: 23e2 333f 763d 693d a995 7f3f 285c 863b
00000150: d85c 09bf d006 583f 8b9c 423f f051 263f
00000160: e66a 7e3d 7481 7f3f 1093 923b 2220 d73e
00000170: 6f4e 683f 3411 4e3f 4de5 173f 4bcb 893d
00000180: 7e6b 7f3f f5c9 9e3b 7298 7d3f d704 0c3e
00000190: c074 583f 59af 083f 3060 943d c753 7f3f
000001a0: da00 ab3b 4479 263f e87a 42bf 69b9 613f
000001b0: 7888 f13e 11f4 9e3d 4f3a 7f3f bc37 b73b
000001c0: 1068 93be 2c29 75bf e7d2 693f 1f72 d03e
000001d0: da86 a93d 161f 7f3f 9e6e c33b 251e 76bf
000001e0: 36e2 8cbe 7eb6 703f 8147 ae3e 7918 b43d
000001f0: 1d02 7f3f 7ea5 cf3b b340 40bf 840a 293f
00000200: 0c5b 763f e835 8b3e dca8 be3d 64e3 7e3f
00000210: 5bdc db3b 6979 193e bf1b 7d3f 16b9 7a3f
00000220: 98d7 4e3e ef37 c93d eac2 7e3f 3713 e83b
00000230: c8b6 693f 22f0 d03e d3ca 7d3f 3d31 063e
00000240: a0c5 d33d b0a0 7e3f 104a f43b 102f 563f
00000250: fc37 0cbf 328c 7f3f 1a64 733d de51 de3d
00000260: b77c 7e3f 7440 003c 1505 11bc 6ffd 7fbf
00000270: dffa 7f3f 50fd 4cbc 94dc e83d fe56 7e3f
00000280: de5b 063c e6a1 58bf bf67 08bf 4616 7f3f
00000290: 6bcf acbd b165 f33d 862f 7e3f 4777 0c3c
000002a0: fcd3 67bf fe2d d93e 98df 7c3f 118d 1fbe
000002b0: 23ed fd3d 4f06 7e3f b092 123c 3887 07be
000002c0: 78bf 7d3f c459 793f f6de 67be 6a39 043e
000002d0: 5adb 7d3f 16ae 183c 0837 433f 819c 253f
000002e0: 7389 743f c57e 97be 5c7b 093e a6ae 7d3f
000002f0: 7bc9 1e3c 0ed5 743f 3893 95be 0875 6e3f
00000300: 4645 babe 5abc 0e3e 3580 7d3f dfe4 243c
00000310: 2ab4 8a3e 576d 76bf 9224 673f e514 dcbe
00000320: 5ffc 133e 0550 7d3f 4200 2b3c e9e3 29bf
00000330: b380 3fbf c2a1 5e3f d4c0 fcbe 5e3b 193e
00000340: 181e 7d3f a21b 313c a4ef 7cbf 18f4 1d3e
00000350: e0f7 543f e30e 0ebf 5179 1e3e 6fea 7c3f
00000360: 0137 373c 06de cebe 8e2c 6a3f bb33 4a3f
00000370: 1301 1dbf 2db6 233e 08b5 7c3f 5f52 3d3c
00000380: 4d2a 0d3f a98f 553f 9863 3e3f 2d23 2bbf
00000390: e9f1 283e e57d 7c3f ba6d 433c 39fa 7f3f
000003a0: b786 59bc 1f97 313f 7562 38bf 7d2c 2e3e
000003b0: 0745 7c3f 1489 493c f771 073f e73b 59bf
000003c0: 46df 233f 5cad 44bf dd65 333e 6d0a 7c3f
000003d0: 6da4 4f3c c23a dbbe 5f58 67bf 3c4e 153f
000003e0: 97f3 4fbf 039e 383e 17ce 7b3f c3bf 553c
000003f0: 38e5 7dbf ea08 03be 4ff7 053f 3626 5abf

encoder.encoder_layers.0.encode_self_attention.W_Q.weight f4 [16, 7]
-0.3235198 0.1540963 -0.33379367 -0.05080419 -0.26205868 0.12125327 0.08769149 -0.19611345
0.11950041 -0.33441186 -0.14837496 -0.012437935 0.3612535 0.071341954 0.012290942 0.045753606
-0.1211796 -0.07237901 0.3541556 0.0026666785 -0.06041748 -0.04683078 -0.14466128 -0.02584719
-0.09338243 -0.132661 0.13756661 -0.1877597 0.19107911 0.059279595 -0.11328758 -0.10798103
-0.27047527 0.22205555 0.07758266 0.2718335 -0.31913486 -0.2051461 0.23678516 0.16492982
-0.016102767 0.32610157 0.086532384 -0.065396525 0.24342382 -0.13440095 0.13287666 -0.12296863
-0.30305985 -0.04774026 0.36927956 0.28384218 0.12543893 0.1110259 0.26611945 0.33789054
0.36224326 -0.16552304 0.23790853 0.08628597 0.14000197 -0.034850307 -0.21305306 0.2022001
0.12273675 0.042144433 -0.21119398 -0.34140062 0.03461055 -0.06030563 -0.004697146 -0.18924332
-0.22649123 0.24431682 -0.109265715 0.30315384 0.11249851 0.18643576 0.3351808 0.30376667
-0.2874179 0.034388267 -0.3684568 0.2946311 -0.34107596 0.07027239 -0.21240824 -0.11546995
-0.22064431 0.17432252 0.15986533 -0.06020092 -0.25018758 0.24282967 -0.17315075 -0.3092032
-0.23930407 0.32466367 -0.0878259 0.238627 0.255371 0.14920816 -0.16639775 -0.23807648
-0.20084243 -0.36967617 0.21601655 0.195451 -0.17634591 0.13043772 -0.041183893 0.2642751
00000000: 63a4 a5be 6ccb 1d3e 01e7 aabe 0e18 50bd
00000010: 8e2c 86be a253 f83d 9997 b33d f7d1 48be
00000020: a2bc f43d 0838 abbe 9bef 17be 7bc8 4bbc
00000030: 38f6 b83e bb1b 923d f25f 493c 2268 3b3d
00000040: 032d f8bd 723b 94bd e253 b53e 71c3 2e3b
00000050: 5278 77bd a2d1 3fbd 1622 14be 7cbd d3bc
00000060: 4a3f bfbd 49d8 07be 43de 0c3e 1444 40be
00000070: 3eaa 433e 29cf 723d 5203 e8bd 2925 ddbd
00000080: bc7b 8abe 8862 633e a8e3 9e3d c32d 8b3e
00000090: a565 a3be d211 52be cf77 723e 5de3 283e
000000a0: f3e9 83bc c9f6 a63e e437 b13d 9dee 85bd
000000b0: 1844 793e 67a0 09be d210 083e fad6 fbbd
000000c0: a92a 9bbe 4a8b 43bd 3612 bd3e c353 913e
000000d0: 1073 003e 8c61 e33d cf40 883e fdff ac3e
000000e0: f377 b93e df7e 29be 4b9e 733e b3b6 b03d
000000f0: ad5c 0f3e 32bf 0ebd 952a 5abe 8b0d 4f3e
00000100: 685d fb3d a49f 2c3d 3c43 58be 10cc aebe
00000110: cbc3 0d3d 0903 77bd 84ea 99bb 00c9 41be
00000120: 51ed 67be 302e 7a3e b4c6 dfbd fb36 9b3e
00000130: 9e65 e63d 04e9 3e3e d19c ab3e 4e87 9b3e
00000140: 7028 93be b6da 0c3d 5fa6 bcbe e3d9 963e
00000150: 82a1 aebe f9ea 8f3d 8c81 59be 827b ecbd
00000160: 95f0 61be 9a81 323e bdb3 233e 3d95 76bd
00000170: 9618 80be 57a8 783e 6e4e 31be e24f 9ebe
00000180: 200c 75be 513a a63e 11de b3bd a35a 743e
00000190: fdbf 823e 06ca 183e 2c64 2abe 52ca 73be
000001a0: a3a9 4dbe 3246 bdbe 7133 5d3e 4f24 483e
000001b0: 0694 34be 7791 053e 71b0 28bd 114f 873e

encoder.encoder_layers.0.encode_self_attention.W_Q.bias f4 [16]
-0.09338065 0.32816747 -0.092025 -0.055216826 0.2553936 -0.006385535 0.21728037 0.033794858
-0.24876395 0.28277868 -0.31772003 0.046706688 -0.040498953 0.32496184 -0.07898468 0.2808408
00000000: 5b3e bfbd 9105 a83e 9a77 bcbd 0a2b 62bd
00000010: f3c2 823e c03d d1bb bf7e 5e3e 7a6c 0a3d
00000020: fabb 7ebe 5ec8 903e 33ac a2be 834f 3f3d
00000030: 3be2 25bd 6661 a63e b8c2 a1bd 5eca 8f3e

encoder.encoder_layers.0.encode_self_attention.W_K.weight f4 [16, 7]
-0.16579662 0.17076023 -0.028717224 0.17934197 0.06343082 -0.2743458 -0.0734381 -0.0025982494
0.27671692 -0.15752696 -0.11667236 -0.37441418 -0.06440343 0.27628037 0.25602624 0.15795928
0.09575426 0.22990634 0.14984518 -0.13870318 -0.3436965 0.005243195 -0.24879698 -0.23238607
-0.16543317 0.20696916 -0.18083337 -0.08337739 0.20572829 0.010002312 -0.010856483 0.1973438
-0.19366856 -0.1273418 -0.32073063 0.18053955 -0.2928154 0.22736658 0.25893864 -0.14584157
0.24558063 -0.18119766 -0.31945935 -0.35398966 0.17309962 -0.13920796 -0.32393512 -0.026721543
0.25756416 0.22857046 0.33762828 0.10139765 0.30016172 0.16032466 0.17837086 -0.04495326
0.05771315 0.016878609 0.10398733 -0.13948672 -0.32072195 -0.18248412 -0.23683003 -0.1469684
-0.35540852 0.27772024 0.04307913 0.27481407 -0.27731645 0.0947015 0.05303741 0.27809986
0.33523574 0.27417684 0.1070412 0.060354985 -0.35080612 -0.042021994 -0.30242765 0.2504114
0.14752299 0.06925281 0.19206513 -0.02606464 -0.31093052 0.05337044 -0.0050722123 -0.04202785
-0.20025948 -0.23958592 -0.33694503 0.043979883 0.1414253 0.2877379 0.34210318 0.26161993
-0.22043373 0.16831516 0.15305395 -0.1298971 -0.04621746 -0.0007672058 0.0032895093 0.33586693
0.12082267 0.039465208 -0.21937403 -0.31631416 -0.27503616 0.13759036 0.12177521 0.09357849
00000000: 97c6 29be c5db 2e3e 6240 ebbc 6ca5 373e
00000010: 05e8 813d 0d77 8cbe b766 96bd 6447 2abb
00000020: d7ad 8d3e bf4e 21be ebf1 eebd 37b3 bfbe
00000030: f2e5 83bd 9f74 8d3e df15 833e 14c0 213e
00000040: cf1a c43d 916c 6b3e 0471 193e 3508 0ebe
00000050: fdf8 afbe 1ccf ab3b a3c4 7ebe 9df6 6dbe
00000060: 5067 29be b9ef 533e 622c 39be c4c1 aabd
00000070: 70aa 523e bde0 233c 64df 31bc 7e14 4a3e
00000080: 0d51 46be e465 02be ce36 a4be 5cdf 383e
00000090: e6eb 95be c9d2 683e 9b93 843e 7e57 15be
000000a0: 7d79 7b3e e18b 39be 2d90 a3be 223e b5be
000000b0: 0741 313e 888c 0ebe d3da a5be 23e7 dabc
000000c0: 73df 833e 600e 6a3e 9ddd ac3e 92a9 cf3d
000000d0: ccae 993e 262c 243e daa6 363e e920 38bd
000000e0: a064 6c3d 0245 8a3c 4ff7 d43d 9bd5 0ebe
000000f0: ab35 a4be 1edd 3abe 9283 72be e27e 16be
00000100: 1bf8 b5be 5931 8e3e be73 303d 6eb4 8c3e
00000110: 6cfc 8dbe dcf2 c13d c13d 593d 1b63 8e3e
00000120: 05a4 ab3e e860 8c3e 6b38 db3d ca36 773d
00000130: dc9c b3be 411f 2cbd ccd7 9abe ec35 803e
00000140: 4410 173e 6bd4 8d3d b9ac 443e 8385 d5bc
00000150: 4932 9fbe f69a 5a3d cd34 a6bb 6525 2cbd
00000160: d210 4dbe 0356 75be 0f84 acbe 4024 343d
00000170: cbd1 103e 6252 933e 2628 af3e 0cf3 853e
00000180: 61b9 61be cf5a 2c3e 2dba 1c3e bf03 05be
00000190: 854e 3dbd 4f1e 49ba cf94 573b c0f6 ab3e
000001a0: e071 f73d 45a6 213d 96a3 60be eef3 a1be
000001b0: 8ad1 8cbe 7de4 0c3e 4865 f93d 14a6 bf3d

encoder.encoder_layers.0.encode_self_attention.W_K.bias f4 [16]
-0.3676419 0.3750297 -0.0778065 0.12474576 0.09370946 0.3255013 -0.053209618 0.30198905
-0.32144958 -0.3131099 -0.013999419 -0.19881509 0.31535593 -0.057005793 0.08143054 0.27788785
00000000: 8f3b bcbe e503 c03e 0459 9fbd b47a ff3d
00000010: bfea bf3d 1ba8 a63e 54f2 59bd 4f9e 9a3e
00000020: 0a95 a4be f14f a0be d25d 65bc 2f96 4bbe
00000030: 5576 a13e e87e 69bd 0ec5 a63d 5147 8e3e

encoder.encoder_layers.0.encode_self_attention.W_V.weight f4 [16, 7]
-0.20255886 -0.0075974264 -0.026148152 -0.0151524 -0.30053884 -0.20503859 0.1783432 -0.12996149
-0.21288414 0.27290612 0.08072358 0.04736329 0.12040483 -0.16245653 0.11938529 0.26747206
-0.27149376 0.06816579 -0.11179169 0.13344777 -0.28093055 0.13757557 -0.3682298 0.3824369
-0.33703065 -0.3721671 -0.12368453 -0.19087356 -0.13348334 -0.23274903 -0.21211907 0.1913355
-0.33490962 -0.30637938 -0.16499917 0.19872321 -0.07144681 0.15864457 0.1548032 0.04285465
-0.35048047 -0.24920802 0.119853735 0.3358715 0.29447508 -0.3343386 -0.23653844 -0.14656444
0.071866155 -0.0986128 0.22024322 0.14470059 -0.36082846 -0.24172397 0.3102624 0.15811604
0.17306194 -0.16578369 0.10273473 0.27924177 -0.17939633 0.27973536 -0.18206485 0.2173181
-0.13019192 0.040859934 0.21770345 -0.14489791 0.042121314 0.31470218 0.007367694 0.1468009
-0.037018705 0.24212964 -0.052473918 -0.28691688 0.37147066 0.14860725 0.308544 0.15702857
-0.14082147 0.27029356 -0.10820014 0.09086401 -0.014695425 0.23014207 0.26829335 0.08500255
0.05273751 0.23201773 -0.107381694 -0.33223495 -0.26530477 0.2736687 0.37153465 -0.30510318
-0.30864823 0.25866646 -0.29612887 0.30623123 0.32531452 0.17066252 -0.12118777 0.21083646
0.085420415 0.34864265 0.24615563 0.1290648 0.3490636 0.24850143 -0.3369494 -0.17605688
00000000: 976b 4fbe d5f3 f8bb a634 d6bc c641 78bc
00000010: 3ae0 99be a3f5 51be 9a9f 363e a014 05be
00000020: 4dfe 59be 5aba 8b3e 6852 a53d 0200 423d
00000030: cf96 f63d 015b 26be 4680 f43d 19f2 883e
00000040: 3b01 8bbe 819a 8b3d 0bf3 e4bd 88a6 083e
00000050: 21d6 8fbe 9ce0 0c3e 9e88 bcbe c5ce c33e
00000060: 488f acbe b08c bebe 514e fdbd 5c74 43be
00000070: dbaf 08be c355 6ebe be35 59be 74ed 433e
00000080: 4679 abbe c2dd 9cbe 8bf5 28be 197e 4b3e
00000090: b552 92bd b973 223e bb84 1e3e 5c88 2f3d
000000a0: 2d72 b3be 6330 7fbe e075 f53d 59f7 ab3e
000000b0: 70c5 963e 6e2e abbe 2237 72be fd14 16be
000000c0: 902e 933d 82f5 c9bd 7087 613e 642c 143e
000000d0: 82be b8be 7d86 77be b7da 9e3e 2ce9 213e
000000e0: 2637 313e 33c3 29be 9666 d23d c7f8 8e3e
000000f0: acb3 37be 7939 8f3e 356f 3abe a388 5e3e
00000100: 0851 05be bf5c 273d a7ed 5e3e 1e60 14be
00000110: 6687 2c3d a520 a13e b26c f13b fa52 163e
00000120: eda0 17bd d5f0 773e e4ee 56bd c5e6 92be
00000130: 6731 be3e 802c 183e 7bf9 9d3e 19cc 203e
00000140: 8133 10be eb63 8a3e 0998 ddbd e916 ba3d
00000150: 14c5 70bc 5daa 6b3e bf5d 893e d115 ae3d
00000160: 4a03 583d 0e96 6d3e efea dbbd b31a aabe
00000170: 07d6 87be 4e1e 8c3e ca39 be3e 7c36 9cbe
00000180: 2407 9ebe ee6f 843e 349e 97be 57ca 9c3e
00000190: a08f a63e 28c2 2e3e 4b31 f8bd 83e5 573e
000001a0: e6f0 ae3d 4a81 b23e 3910 7c3e 9029 043e
000001b0: 77b8 b23e 2977 7e3e a284 acbe 4148 34be

encoder.encoder_layers.0.encode_self_attention.W_V.bias f4 [16]
0.20814683 -0.1971877 0.25440112 0.05785175 -0.011497401 0.24928375 0.20677617 0.17960092
0.015904058 0.13290513 0.26390904 0.108766355 0.2566977 -0.038103823 -0.36575976 -0.0015864142
00000000: 7124 553e 93eb 49be dd40 823e f5f5 6c3d
00000010: 985f 3cbc 3d44 7f3e 22bd 533e 4ee9 373e
00000020: 3a49 823c 4818 083e 161f 873e e5c0 de3d
00000030: e26d 833e c112 1cbd dd44 bbbe 3aef cfba

encoder.encoder_layers.0.encode_self_attention.fc.weight f4 [7, 16]
0.09000055 -0.058988 -0.17577931 0.11243303 0.15471819 -0.050448786 -0.07831221 -0.086696856
0.087565705 0.20055827 -0.2286099 -0.010706091 0.104339086 -0.12533072 -0.17703679 0.13065045
0.028400347 0.2000374 0.0049133706 -0.18273507 -0.018956115 -0.13624285 0.10336785 -0.19603744
-0.15690126 -0.08762372 0.12532115 0.14968091 0.25431558 -0.07439545 0.025137141 0.10428605
0.20209345 0.20784968 0.020295328 0.13474743 0.07170115 0.05992135 -0.13663141 -0.11489537
-0.24150144 -0.24491979 -0.14256404 0.13142547 0.23932496 -0.08114617 -0.18453294 0.18024316
-0.11868656 0.15843828 -0.19075719 0.024810234 0.10653419 0.13548271 0.05140266 0.053489607
0.04414828 0.0033282503 -0.043517623 0.22557026 0.19646534 0.1657267 -0.17404076 -0.086300924
-0.21739243 0.016996099 -0.09955258 -0.21613754 -0.16323137 0.13337141 -0.020412493 0.117514156
-0.17334227 0.11319894 0.17219637 -0.0807862 -0.25021225 -0.18566579 -0.06553364 -0.1356499
0.099012285 -0.13939239 -0.10536543 0.089050815 -0.19721642 0.11875776 0.05666057 -0.049230814
-0.1464188 -0.06292051 -0.18724246 -0.18857059 0.16095029 -0.16145776 -0.0037175661 0.096040696
0.038091436 -0.229703 -0.19515459 0.087865576 -0.20830582 -0.00619542 -0.17087224 -0.18573384
-0.2306502 -0.051755626 0.12489496 -0.078342915 -0.055178795 -0.14506626 -0.2159667 0.054746807
00000000: 3552 b83d 679d 71bd 7eff 33be 4a43 e63d
00000010: 726e 1e3e 63a3 4ebd 2762 a0bd 1f8e b1bd
00000020: a655 b33d 265f 4d3e b718 6abe 9a68 2fbc
00000030: bbaf d53d b256 00be 2249 35be 3bc9 053e
00000040: d8a7 e83c 9bd6 4c3e 5700 a13b e71e 3bbe
00000050: db49 9bbc 3f83 0bbe 86b2 d33d 0abe 48be
00000060: b9aa 20be 1174 b3bd 3054 003e f445 193e
00000070: a735 823e a45c 98bd 68ec cd3c ed93 d53d
00000080: 96f1 4e3e 8cd6 543e 6342 a63c 3bfb 093e
00000090: 0dd8 923d 1770 753d 1be9 0bbe 444e ebbd
000000a0: 274c 77be 41cc 7abe 4ffc 11be 6694 063e
000000b0: 9a11 753e f72f a6bd 34f6 3cbe aa91 383e
000000c0: f011 f3bd a53d 223e da55 43be d53e cb3c
000000d0: 992e da3d fbbb 0a3e 988b 523d eb17 5b3d
000000e0: d4d4 343d c61e 5a3b 893f 32bd e4fb 663e
000000f0: 362e 493e 43b4 293e be37 32be 8abe b0bd
00000100: 1f9c 5ebe 673b 8b3c 39e2 cbbd 2953 5dbe
00000110: 2026 27be 8492 083e 1a38 a7bc 43ab f03d
00000120: a380 31be d9d4 e73d 3f54 303e 3c73 a5bd
00000130: d21b 80be 2c1f 3ebe 8036 86bd cfe7 0abe
00000140: f4c6 ca3d e1bc 0ebe d5c9 d7bd 4660 b63d
00000150: 1af3 49be 4537 f33d ea14 683d 40a6 49bd
00000160: cfee 15be 78dc 80bd 7dbc 3fbe a618 41be
00000170: 27d0 243e 2f55 25be 69a2 73bb fcb0 c43d
00000180: c405 1c3d 4337 6bbe 9bd6 47be def2 b33d
00000190: 1f4e 55be f302 cbbb 22f9 2ebe 0331 3ebe
000001a0: 912f 6cbe b5fd 53bd eec8 ff3d 4072 a0bd
000001b0: 2903 62bd 408c 14be 6026 5dbe 303e 603d

encoder.encoder_layers.0.encode_self_attention.fc.bias f4 [7]
0.22102004 -0.047838945 0.23777092 -0.1327696 0.051095262 -0.05927062 -0.15049389
00000000: 1453 623e c5f2 43bd 387a 733e c1f4 07be
00000010: 4449 513d c0c5 72bd 121b 1abe

encoder.encoder_layers.0.encode_self_attention.layer_norm.weight f4 [7]
0.99512935 0.99471444 0.99523175 1.0019652 1.0009837 1.0063798 0.99745464
00000000: ccc0 7e3f 9ba5 7e3f 82c7 7e3f 6540 803f
00000010: 3c20 803f 0ed1 803f 3059 7f3f

encoder.encoder_layers.0.encode_self_attention.layer_norm.bias f4 [7]
0.0028608525 0.006240823 0.0041891374 -0.006032097 -0.0071399305 0.0063245296 0.001863028
00000000: 247d 3b3b d17f cc3b 0845 893b e6a8 c5bb
00000010: 14f6 e9bb 003e cf3b d930 f43a

encoder.encoder_layers.0.feed_forward.conv.0.weight f4 [7, 7, 1]
0.24842845 -0.36086038 -0.3332425 0.2148522 -0.036008563 -0.00422162 -0.35729042 -0.17991187
-0.37654248 0.3775575 -0.13225925 -0.30180988 0.13573456 -0.37644818 -0.29979783 0.22392157
0.030072847 0.276802 -0.36345333 0.2732931 0.29244503 0.07673241 0.29402375 0.365394
-0.21534571 0.21971762 0.035353772 -0.24053967 0.101019494 0.15849504 -0.30412745 -0.17566124
-0.13875556 0.26594457 -0.2311073 0.33879343 -0.16211064 -0.21605007 0.12719141 -0.16091573
0.0622391 0.06156296 0.008379927 -0.2927312 -0.3297152 -0.025396138 0.18486969 0.15764697
-0.2913863
00000000: 0764 7e3e b1c2 b8be c39e aabe 3702 5c3e
00000010: b77d 13bd 8455 8abb c5ee b6be d13a 38be
00000020: 2dca c0be 374f c13e f86e 07be d386 9abe
00000030: 00fe 0a3e d1bd c0be 1a7f 99be b24b 653e
00000040: 555b f63c feb8 8d3e 8e16 babe 13ed 8b3e
00000050: 5bbb 953e e225 9d3d 488a 963e ec14 bb3e
00000060: 9683 5cbe a8fd 603e 1ecf 103d 0850 76be
00000070: 4fe3 ce3d 864c 223e 98b6 9bbe 8ae0 33be
00000080: f015 0ebe e329 883e 64a7 6cbe 5576 ad3e
00000090: 5500 26be 3b3c 5dbe 773e 023e 18c7 24be
000000a0: 6dee 7e3d 7129 7c3d f64b 093c dde0 95be
000000b0: 6ed0 a8be 900b d0bc 7b4e 3d3e 356e 213e
000000c0: 9630 95be

encoder.encoder_layers.0.feed_forward.conv.2.weight f4 [7, 7, 1]
-0.114019156 -0.17840536 -0.2795619 0.23718363 -0.20083047 -0.12851784 0.3016398 0.30534518
-0.2774398 -0.16842955 0.10296126 0.1853344 -0.3445025 0.24229087 -0.026548563 -0.023972057
0.08318474 0.08267278 -0.018306576 0.098988876 0.3019365 0.18461706 -0.24534616 -0.2074243
-0.059466194 0.15301242 0.031380005 0.07050932 -0.23753683 -0.22278929 0.011555039 -0.17234887
0.23508659 0.15270022 -0.23912768 0.10135365 0.24427758 0.026369264 0.29504433 0.119106665
-0.3306866 0.02708067 -0.13784942 -0.33959094 -0.103066504 -0.33656925 -0.0004450767 -0.118071385
0.2151983
00000000: e082 e9bd e5af 36be bd22 8fbe 44e0 723e
00000010: 81a6 4dbe 2e9a 03be 8870 9a3e 3456 9c3e
00000020: 970c 8ebe cc78 2cbe 5add d23d 4dc8 3d3e
00000030: a262 b0be 191b 783e 5f7c d9bc 0c61 c4bc
00000040: c35c aa3d 5950 a93d acf7 95bc aeba ca3d
00000050: 6c97 9a3e 410c 3d3e 063c 7bbe 0967 54be
00000060: d392 73bd 4aaf 1c3e 5288 003d 3167 903d
00000070: db3c 73be e022 64be 5951 3d3c 397c 30be
00000080: 8aba 703e 725d 1c3e e3dd 74be 8192 cf3d
00000090: e723 7a3e 5b04 d83c 0d10 973e 32ee f33d
000000a0: c14f a9be 48d8 dd3c 6628 0dbe ddde adbe
000000b0: 8814 d3bd ce52 acbe 2f59 e9b9 69cf f1bd
000000c0: f15c 5c3e

encoder.encoder_layers.0.feed_forward.layer_norm.weight f4 [7]
0.9958258 0.9938437 0.9955949 1.0027953 1.0050517 1.0060966 0.9943308
00000000: 71ee 7e3f 8a6c 7e3f 4fdf 7e3f 995b 803f
00000010: 89a5 803f c6c7 803f 778c 7e3f

encoder.encoder_layers.0.feed_forward.layer_norm.bias f4 [7]
0.0036586311 0.0065030134 0.002938586 -0.006093688 -0.007226691 0.0061812345 0.0051936344
00000000: a5c5 6f3b 3b17 d53b 4b95 403b 8fad c7bb
00000010: e1cd ecbb f48b ca3b 5d2f aa3b

encoder.encoder_layers.1.encode_self_attention.W_Q.weight f4 [16, 7]
0.26969773 -0.086151406 0.2608609 -0.035269976 0.21845219 -0.30435613 0.27089903 0.36921757
0.1547701 -0.024205955 0.036035895 -0.109930955 -0.27441 -0.2412752 0.028079228 -0.29832542
0.3761322 0.22963235 -0.24755657 0.119214855 -0.31111997 -0.12917961 0.022958519 -0.27887982
0.15629275 0.06598457 -0.3177057 0.23964362 -0.121460505 -0.1740407 0.34027025 -0.0069935457
-0.039378036 0.31100243 -0.16042504 -0.016447831 -0.19954427 0.14408295 0.37965906 -0.05750765
-0.053939488 0.3351481 -0.24382332 -0.24725547 0.13982859 0.16927265 -0.25127354 -0.3464322
0.3358835 -0.07092231 0.36346126 -0.12896891 0.18986776 0.23628254 0.15799288 -0.30515832
-0.22478664 -0.3649073 -0.35867694 0.3503671 -0.18821318 0.3379343 0.32713166 -0.21345249
0.20779009 0.35644895 -0.014041673 0.14090103 0.36137497 -0.07035517 0.15376197 -0.2802501
-0.08740802 -0.25416943 -0.2099863 0.02284569 0.15018867 -0.3305445 -0.1692484 -0.19212602
-0.045049515 0.013836682 -0.11376946 0.36342263 -0.16855028 -0.0558898 -0.068630226 -0.04308578
-0.36767456 -0.22107533 -0.15677497 0.037057783 -0.084998064 0.1339137 0.12689109 0.044946972
0.33219996 0.2021537 -0.036979772 0.06702963 0.20258573 -0.02901776 -0.13749786 0.24456805
-0.37476513 -0.2943793 0.21703954 -0.23126371 0.0043601356 0.2578437 0.17039931 -0.2760428
00000000: d215 8a3e 2670 b0bd 8f8f 853e 4077 10bd
00000010: eeb1 5f3e 91d4 9bbe 47b3 8a3e 160a bd3e
00000020: 0e7c 1e3e 914b c6bc 609a 133d 7b23 e1bd
00000030: 787f 8cbe d910 77be 6906 e63c 1cbe 98be
00000040: 6694 c03e be24 6b3e 787f 7dbe eb26 f43d
00000050: 1e4b 9fbe a947 04be 8113 bc3c 56c9 8ebe
00000060: 350b 203e eb22 873d 52aa a2be 2365 753e
00000070: 49c0 f8bd ba37 32be e737 ae3e 1d2a e5bb
00000080: dd4a 21bd b63b 9f3e 7646 24be 9abd 86bc
00000090: 5555 4cbe 7b8a 133e ac62 c23e 248d 6bbd
000000a0: a7ef 5cbd 8898 ab3e d2ac 79be 8a30 7dbe
000000b0: 3a2f 0f3e cf55 2d3e eda6 80be 905f b1be
000000c0: ecf8 ab3e b73f 91bd 9817 ba3e 6d10 04be
000000d0: b26c 423e 0df4 713e e3c8 213e b63d 9cbe
000000e0: 782e 66be 21d5 babe 81a4 b7be 5163 b33e
000000f0: f5ba 40be b905 ad3e cd7d a73e 4a93 5abe
00000100: edc6 543e 7a80 b63e 0c0f 66bc 5c48 103e
00000110: 2406 b93e 5f16 90bd c773 1d3e f17c 8fbe
00000120: fa02 b3bd 7f22 82be a606 57be e226 bb3c
00000130: 0fcb 193e 213d a9be 744f 2dbe afbc 44be
00000140: d785 38bd 40b3 623c f6ff e8bd 8812 ba3e
00000150: 7298 2cbe b4ec 64bd 018e 8cbd b77a 30bd
00000160: d73f bcbe 9261 62be 9e89 20be e7c9 173d
00000170: 7713 aebd ac20 093e bdef 013e 511a 383d
00000180: 1d16 aa3e 6101 4f3e 1a78 17bd d546 893d
00000190: a272 4f3e a7b6 edbc 3dcc 0cbe 0c70 7a3e
000001a0: 37e1 bfbe e2b8 96be 9d3f 5e3e 65d0 6cbe
000001b0: 78df 8e3b 1704 843e 287d 2e3e 7b55 8dbe

encoder.encoder_layers.1.encode_self_attention.W_Q.bias f4 [16]
0.24844013 0.10889191 0.22779049 0.36249825 -0.0034480153 -0.039833415 -0.108586855 -0.19626501
-0.009540102 -0.017753614 0.3752454 0.37534437 -0.2250174 0.29100516 -0.18165633 -0.15038814
00000000: 1767 7e3e b902 df3d e941 693e 5f99 b93e
00000010: 19f8 61bb 5d28 23bd c962 debd b2f9 48be
00000020: 174e 1cbc 0770 91bc 2a20 c03e 232d c03e
00000030: f66a 66be a1fe 943e 1e04 3abe 59ff 19be

encoder.encoder_layers.1.encode_self_attention.W_K.weight f4 [16, 7]
-0.11518832 0.012319593 0.25209364 -0.29660118 -0.23320918 -0.194748 -0.03706531 0.07439282
-0.21422198 0.032713763 0.35054088 0.25171912 -0.31402236 -0.28684813 0.1836708 0.1011909
0.30485606 0.095134296 -0.00676363 -0.25947088 0.16927764 -0.010035119 0.19076315 -0.14963463
-0.27465504 -0.22927475 0.031995997 -0.10939986 -0.33546013 0.2890215 -0.15201458 0.16716543
-0.20831573 -0.12878832 0.18249193 0.24339361 -0.16290028 0.04532334 -0.36196053 0.24823432
-0.032838266 -0.37237227 0.20869651 0.33149397 0.27829167 0.33306813 -0.11275776 0.3286534
-0.33715796 0.085952066 -0.10686383 0.16160409 -0.24017921 -0.18627137 -0.27129722 0.25574103
-0.011343679 0.15360503 0.32610077 0.014799211 0.028627336 -0.08279424 0.17309915 -0.20162891
0.3379897 0.35480666 0.199222 -0.18447702 -0.26325643 -0.0813819 0.23761214 0.059578642
0.12804984 0.11791762 0.08517486 0.19116133 0.29267105 -0.25920472 -0.06361851 -0.08380433
0.34641957 0.118295915 0.36606455 0.19929 0.032238424 0.08291595 0.0704924 -0.057692602
-0.1978753 0.37118033 -0.36295992 -0.083731405 -0.045314606 -0.30615982 0.34738612 0.068766296
-0.23720157 -0.0713769 0.32876027 0.14176887 -0.061175603 -0.193759 -0.18548246 0.1733844
0.30829203 0.33568117 -0.0063253064 0.0772279 0.16832975 0.22396597 0.33043665 0.20385796
00000000: dbe7 ebbd 1ed8 493c 6b12 813e 1cdc 97be
00000010: 63ce 6ebe 056c 47be cbd1 17bd 435b 983d
00000020: 025d 5bbe defe 053d 187a b33e 54e1 803e
00000030: 8ac7 a0be c2dd 92be 3314 3c3e 2d3d cf3d
00000040: 1816 9c3e c5d5 c23d 71a1 ddbb 5ed9 84be
00000050: 1e57 2d3e 576a 24bc 6a57 433e d239 19be
00000060: 969f 8cbe 00c7 6abe 3c0e 033d 090d e0bd
00000070: 6ec1 abbe a0fa 933e b6a9 1bbe 6a2d 2b3e
00000080: b850 55be 16e1 03be 2adf 3a3e 2d3c 793e
00000090: 55cf 26be f7a4 393d e452 b9be 2331 7e3e
000000a0: 6b81 06bd 94a7 bebe 8ab4 553e 94b9 a93e
000000b0: 3f7c 8e3e e887 aa3e 8aed e6bd 4245 a83e
000000c0: f89f acbe a307 b03d 6cdb dabd 8b7b 253e
000000d0: 8af1 75be ecbd 3ebe 78e7 8abe 7df0 823e
000000e0: d7da 39bc a34a 1d3e aef6 a63e 6478 723c
000000f0: e083 ea3c 0790 a9bd e740 313e cf77 4ebe
00000100: fc0c ad3e 38a9 b53e da00 4c3e 8be7 3cbe
00000110: 8cc9 86be 8eab a6bd 9950 733e bc08 743d
00000120: 7f1f 033e cb7e f13d 2870 ae3d ccbf 433e
00000130: fbd8 953e 7bb6 84be 6c4a 82bd 9ba1 abbd
00000140: e85d b13e 2145 f23d d06c bb3e ae12 4c3e
00000150: 700c 043d d6cf a93d 525e 903d 144f 6cbd
00000160: d39f 4abe 590b be3e e2d5 b9be 5f7b abbd
00000170: cf9b 39bd fbc0 9cbe 98dc b13e 58d5 8c3d
00000180: f8e4 72be 0d2e 92bd 4453 a83e dc2b 113e
00000190: 4593 7abd c268 46be 1def 3dbe ae8b 313e
000001a0: 74d8 9d3e 67de ab3e 8444 cfbb a929 9e3d
000001b0: a25e 2c3e 5657 653e fe2e a93e 24c0 503e

encoder.encoder_layers.1.encode_self_attention.W_K.bias f4 [16]
-0.14919773 0.019554412 -0.32337952 0.15261939 -0.1271688 0.029155495 0.35553297 0.29803142
0.15601835 -0.07135527 -0.13975246 0.23533538 0.07440323 0.32129672 0.05210697 -0.2566573
00000000: 4ac7 18be 9330 a03c 0092 a5be 4248 1c3e
00000010: 8a38 02be 81d7 ee3c 6b08 b63e 9397 983e
00000020: 46c3 1f3e b622 92bd 451b 0fbe c2fb 703e
00000030: b860 983d 0181 a43e 1e6e 553d 9668 83be

encoder.encoder_layers.1.encode_self_attention.W_V.weight f4 [16, 7]
0.030592624 0.29328734 0.103447855 0.22626404 -0.17093706 0.36902037 0.21035442 0.14696091
0.08098405 0.24770729 0.36588246 0.2718629 -0.25395867 -0.106762655 0.081236504 -0.12977524
0.049600802 -0.1308157 0.30972996 0.051120117 0.1820521 -0.26447535 0.00893498 -0.31947225
-0.2961604 0.24764182 0.024327094 -0.34432867 0.1002424 -0.28467008 -0.3324178 -0.13965504
0.3394975 0.029191991 -0.097047575 0.26846802 0.060340457 0.18503499 0.35651264 0.15818566
-0.011901375 -0.0015783507 -0.26394913 0.30126157 0.20685524 -0.084098324 -0.33190867 0.121718355
-0.019327959 -0.22555666 0.26355368 0.21616676 -0.2963441 0.12797652 -0.064922474 -0.25444266
0.3186175 -0.26800218 0.23084626 -0.08164409 0.25371793 0.13324882 0.3069135 0.1420197
0.006134738 0.3154621 0.17030773 -0.23099841 0.183198 0.16758962 -0.25036234 -0.21718621
0.14904363 -0.031771567 0.15411608 0.2651196 -0.3464448 -0.12590633 0.34186476 0.15429235
0.15924732 0.30957663 -0.121552065 0.10904695 -0.3139783 0.100260675 -0.21596241 0.25903988
-0.31146273 -0.32392558 0.10337073 0.084498525 0.3595388 0.08289482 0.20778549 0.08545713
-0.26402187 0.14951064 0.23149055 0.052831322 0.18070176 0.35485402 -0.360366 -0.1945265
-0.37654334 0.13925304 -0.13837084 -0.35444832 0.23088825 -0.3038897 0.36878407 -0.008832954
00000000: 629d fa3c c229 963e 78dc d33d c3b1 673e
00000010: 200a 2fbe 3df0 bc3e 2667 573e ec7c 163e
00000020: f7da a53d fba6 7d3e f254 bb3e 9d31 8b3e
00000030: df06 82be 61a6 dabd 535f a63d cde3 04be
00000040: 362a 4b3d 8df4 05be ed94 9e3e 5463 513d
00000050: de6b 3a3e 5069 87be 0664 123c de91 a3be
00000060: 56a2 97be d195 7d3e 9d49 c73c d94b b0be
00000070: e34b cd3d 47c0 91be aa32 aabe bb01 0fbe
00000080: 9ed2 ad3e 0b24 ef3c e1c0 c6bd a474 893e
00000090: 8e27 773d d079 3d3e d388 b63e 6cfb 213e
000000a0: fcfd 42bc a9e0 ceba 5724 87be f53e 9a3e
000000b0: dcd1 533e be3b acbd efef a9be 7947 f93d
000000c0: ab55 9ebc 53f8 66be 82f0 863e d25a 5d3e
000000d0: 6aba 97be 470c 033e 13f6 84bd 4f46 82be
000000e0: d521 a33e 9537 89be f662 6c3e 0435 a7bd
000000f0: 51e7 813e 6172 083e c423 9d3e 9d6d 113e
00000100: ea05 c93b 4084 a13e 2665 2e3e d98a 6cbe
00000110: 4298 3b3e 9d9c 2b3e 7e2f 80be 1066 5ebe
00000120: e59e 183e e722 02bd 9bd0 1d3e c2bd 873e
00000130: 3661 b1be 97ed 00be e608 af3e d0fe 1d3e
00000140: bb11 233e d480 9e3e 4af0 f8bd 0254 df3d
00000150: c4c1 a0be 7855 cd3d 4025 5dbe e0a0 843e
00000160: 0b78 9fbe 93d9 a5be 09b4 d33d 900d ad3d
00000170: 7815 b83e c2c4 a93d b8c5 543e 2604 af3d
00000180: e02d 87be 5119 193e dc0b 6d3e a865 583d
00000190: e209 393e 6daf b53e e481 b8be f431 47be
000001a0: 4aca c0be 5998 0e3e 16b1 0dbe 407a b5be
000001b0: f86d 6c3e 6e97 9bbe 44d1 bc3e 18b8 10bc

encoder.encoder_layers.1.encode_self_attention.W_V.bias f4 [16]
0.32424992 0.051329 0.20465264 -0.12243192 -0.149329 -0.34393302 0.19155997 -0.20284913
-0.25827473 -0.31016544 -0.17959242 -0.1655349 0.1506406 -0.19954894 0.21537699 0.06658348
00000000: 1604 a63e 5c3e 523d 7690 513e 96bd fabd
00000010: b4e9 18be fd17 b0be 4c28 443e afb7 4fbe
00000020: 963c 84be 01ce 9ebe 13e7 37be fb81 29be
00000030: 8841 1a3e 8f56 4cbe c98b 5c3e eb5c 883d

encoder.encoder_layers.1.encode_self_attention.fc.weight f4 [7, 16]
0.061627783 -0.06758587 0.09679379 -0.16442737 0.0805939 -0.20938498 -0.16206555 -0.10188149
-0.21244432 -0.20073089 -0.2321838 0.22971758 0.02808353 0.12051362 -0.016769165 -0.15565696
0.24509262 0.12912239 -0.18335226 0.019195672 -0.08127432 -0.0758188 -0.19699246 -0.16010158
0.19876014 0.2221121 0.17837772 -0.198773 -0.06293559 0.2356336 0.013443776 0.22264744
0.23315383 -0.1296587 -0.03986341 0.031004516 0.03856599 0.015181712 0.20230599 0.17729461
-0.087000065 -0.0938009 0.034344677 -0.10329746 -0.028602213 -0.05430568 0.052884277 0.13737015
-0.21599643 0.19887055 0.11737506 0.071061924 0.072030656 -0.14837626 -0.25440773 0.024924107
0.22051963 -0.02960903 0.2248326 -0.148741 0.041702326 -0.05104309 0.24154362 0.13081583
-0.04598982 -0.0077376124 0.090309754 -0.10537652 0.03243446 0.25488392 -0.12734278 -0.10494742
-0.16694634 0.02370745 -0.013751687 0.10316946 -0.03476974 0.045423344 -0.04317024 0.16775508
0.1458079 -0.15078677 -0.018425453 -0.05931432 0.04635255 -0.230417 0.20653906 0.22632003
-0.21294707 -0.24878776 0.19839813 -0.21874882 -0.02685003 -0.22745228 0.20265797 0.04000039
-0.12749627 0.11445903 -0.010044327 0.08822667 0.019681282 -0.0001749291 0.17826016 -0.16015156
0.03456237 -0.029555727 0.23453815 0.19711725 0.08422097 0.21740805 0.18444335 -0.12045932
00000000: 6a6d 7c3d 766a 8abd d33b c63d a65f 28be
00000010: 6a0e a53d 0469 56be 83f4 25be 3ea7 d0bd
00000020: 018b 59be 668c 4dbe 97c1 6dbe 163b 6b3e
00000030: 6e0f e63c d8cf f63d 7d5f 89bc 8a64 1fbe
00000040: 8ff9 7a3e a938 043e b2c0 3bbe 3e40 9d3c
00000050: 2773 a6bd e346 9bbd 64b8 49be abf1 23be
00000060: c787 4b3e 5b71 633e a6a8 363e 268b 4bbe
00000070: 60e4 80bd ef49 713e 4943 5c3c b1fd 633e
00000080: e1bf 6e3e 40c5 04be d147 23bd 2ffd fd3c
00000090: 5ff7 1d3d b7bc 783c 4d29 4f3e b88c 353e
000000a0: 172d b2bd b01a c0bd 01ad 0c3d 9e8d d3bd
000000b0: 304f eabc a26f 5ebd 2f9d 583d c3aa 0c3e
000000c0: 2b2e 5dbe b9a4 4b3e 5662 f03d ea88 913d
000000d0: cf84 933d f2ef 17be bb41 82be a42d cc3c
000000e0: e6cf 613e a38e f2bc 843a 663e 904f 18be
000000f0: 0fd0 2a3d 8f12 51bd 3657 773e 96f4 053e
00000100: d25f 3cbd cc8b fdbb 52f4 b83d a5cf d7bd
00000110: ffd9 043d 2580 823e 2566 02be acee d6bd
00000120: fbf3 2abe 2036 c23c c14e 61bc 834a d33d
00000130: b76a 0ebd d40d 3a3d 47d3 30bd fdc7 2b3e
00000140: ab4e 153e d967 1abe faf0 96bc 93f3 72bd
00000150: 2cdc 3d3d 6ff2 6bbe fa7e 533e 70c0 673e
00000160: cc0e 5abe 38c2 7ebe e128 4b3e b1ff 5fbe
00000170: 98f4 dbbc 40e9 68be 9285 4f3e 73d7 233d
00000180: 628e 02be 7f69 ea3d f690 24bc 2fb0 b43d
00000190: a43a a13c 2c6d 37b9 d589 363e c5fe 23be
000001a0: 4691 0d3d da1e f2bc c52a 703e 1bd9 493e
000001b0: 0b7c ac3d 37a0 5e3e b8de 3c3e 60b3 f6bd

encoder.encoder_layers.1.encode_self_attention.fc.bias f4 [7]
-0.124826826 -0.19042893 -0.13758434 0.1597683 -0.10119494 -0.053418558 -0.21120201
00000000: 35a5 ffbd cdff 42be e9e2 0cbe 4d9a 233e
00000010: 4b3f cfbd 6bcd 5abd 5745 58be

encoder.encoder_layers.1.encode_self_attention.layer_norm.weight f4 [7]
0.99302644 0.9945053 0.9984465 0.99564433 1.0068536 1.0065078 0.99463207
00000000: fb36 7e3f e697 7e3f 319a 7f3f 8ce2 7e3f
00000010: 94e0 803f 3fd5 803f 35a0 7e3f

encoder.encoder_layers.1.encode_self_attention.layer_norm.bias f4 [7]
0.007057306 0.006433684 0.0026011737 -0.005645523 -0.0073533375 0.006547199 0.004996043
00000000: f940 e73b a7d1 d23b 7478 2a3b 14fe b8bb
00000010: 44f4 f0bb e389 d63b d9b5 a33b

encoder.encoder_layers.1.feed_forward.conv.0.weight f4 [7, 7, 1]
0.21494237 -0.2258574 0.37954208 0.025460422 0.13273014 0.01992665 -0.06387699 -0.03757704
0.031832714 0.2996777 0.15202817 -0.105062656 0.053530186 0.37310204 -0.2826997 -0.007901862
0.021010617 -0.34915113 0.09744696 0.31195223 0.03510694 0.29404604 -0.3443856 -0.047190983
-0.0031961892 -0.13016883 -0.26121557 -0.37199464 0.19389541 0.35833004 0.029716004 0.24423313
-0.003077665 -0.21522032 0.25410667 -0.14290172 -0.1032488 -0.26996288 0.28836608 -0.3374155
-0.29568574 0.10020408 -0.018902669 0.20594412 -0.025609119 0.030819632 0.20080735 0.030026963
0.25939128
00000000: da19 5c3e 2a47 67be 5753 c23e 6092 d03c
00000010: 69ea 073e 373d a33c f0d1 82bd 62ea 19bd
00000020: 0563 023d 5b6f 993e 46ad 1b3e 172b d7bd
00000030: 7842 5b3d 3b07 bf3e 04be 90be d076 01bc
00000040: 751e ac3c f0c3 b2be 4692 c73d 34b8 9f3e
00000050: 4bcc 0f3d 348d 963e 4f53 b0be 554b 41bd
00000060: 2877 51bb fa4a 05be 0cbe 85be 1576 bebe
00000070: 858c 463e 0977 b73e fa6e f33c 4018 7a3e
00000080: a7b2 49bb b762 5cbe 451a 823e d454 12be
00000090: 1b74 d3bd 9338 8abe b8a4 933e b9c1 acbe
000000a0: 1f64 97be cc37 cd3d c5d9 9abc 04e3 523e
000000b0: 37ca d1bc 7479 fc3c 71a0 4d3e 1bfb f53c
000000c0: efce 843e

encoder.encoder_layers.1.feed_forward.conv.2.weight f4 [7, 7, 1]
0.26191103 0.034902576 0.35072267 -0.25171047 0.00031521887 0.08895688 0.21906431 0.32978293
0.14147218 0.3473553 -0.32265285 -0.14279945 -0.14586616 0.06099432 0.27249786 0.07345556
-0.17589399 -0.2813776 0.23493475 -0.010373872 -0.15741089 -0.16374598 0.21207489 -0.015444531
0.09207981 0.16829434 0.32465038 0.11536893 -0.15418479 0.2865206 -0.36007082 -0.27879086
-0.2539447 0.21753408 -0.20044038 0.013108931 -0.11171912 0.28039083 -0.12069647 -0.08215594
-0.3238717 0.34603795 -0.2697083 0.33619857 0.19322479 0.04710473 -0.11258051 -0.3828485
-0.09113086
00000000: 3419 863e 01f6 0e3d ec91 b33e 32e0 80be
00000010: f643 a539 062f b63d 6552 603e 4fd9 a83e
00000020: 15de 103e 8ed8 b13e c132 a5be 053a 12be
00000030: f05d 15be 2ed5 793d d784 8b3e de6f 963d
00000040: 8e1d 34be ba10 90be bc92 703e 2cf7 29bc
00000050: 5230 21be 07ad 27be 292a 593e 0f0b 7dbc
00000060: 5794 bc3d 5a55 2c3e 9338 a63e 8c46 ec3d
00000070: 9ee2 1dbe d4b2 923e 345b b8be adbd 8ebe
00000080: 0a05 82be 41c1 5e3e 3e40 4dbe d7c6 563c
00000090: fecc e4bd 638f 8f3e b62f f7bd 6041 a8bd
000000a0: 83d2 a5be e32b b13e 3517 8abe 3822 ac3e
000000b0: b8dc 453e e4f0 403d 9c90 e6bd b804 c4be
000000c0: d1a2 babd

encoder.encoder_layers.1.feed_forward.layer_norm.weight f4 [7]
0.9931993 0.99536395 0.9943932 1.0021437 1.0073035 1.0013555 0.99422675
00000000: 4f42 7e3f 2cd0 7e3f 8e90 7e3f 3f46 803f
00000010: 52ef 803f 6b2c 803f a585 7e3f

encoder.encoder_layers.1.feed_forward.layer_norm.bias f4 [7]
0.007088281 0.0064555737 -0.0023745731 -0.004662799 -0.007298773 0.002974193 0.005292844
00000000: d044 e83b 4789 d33b ba9e 1bbb 65ca 98bb
00000010: 8c2a efbb aeea 423b 986f ad3b

encoder.encoder_layers.2.encode_self_attention.W_Q.weight f4 [16, 7]
-0.2811209 -0.1337209 0.17364727 -0.380832 0.36960694 0.26065928 0.17809133 -0.076221205
-0.028966524 -0.1958614 0.16202286 -0.0724063 -0.14728308 -0.13406886 0.08225598 -0.0984165
0.08357412 0.09066661 -0.10072285 0.3660105 -0.018956978 -0.1055241 -0.1115333 0.094332255
-0.19344956 -0.23183869 0.2573749 0.10462601 -0.21736555 0.340265 -0.036735035 -0.12064117
-0.07595425 -0.25466362 0.112319656 -0.27046672 0.298355 0.19952062 -0.10716103 0.13005643
0.1957345 0.30090004 -0.1403711 0.3320063 -0.30803147 -0.10331901 -0.17964189 -0.2973176
0.02776419 -0.036155127 0.16077664 -0.02050621 -0.10730648 -0.2398882 0.119455025 -0.19455028
0.060909312 0.25598127 -0.36631325 0.25928614 -0.18104136 -0.11612659 -0.14627838 -0.32952473
-0.018033858 -0.34819967 -0.27655867 -0.05201181 0.028637039 0.32604983 -0.34728423 -0.30141547
-0.20308551 -0.37717515 -0.084245495 0.023975866 0.20117155 -0.33596918 0.050039645 0.18459986
0.077551514 0.37044 0.084024265 -0.28531295 0.31015828 0.14122829 0.280286 0.28606904
-0.25893608 -0.19360347 -0.010148835 -0.12698747 -0.19844101 0.26569724 0.0901488 0.25270435
0.31722504 -0.14020412 0.13630766 -0.19916299 -0.015875261 0.265633 -0.06576319 0.047883812
0.23068528 0.025666457 0.08289791 -0.34196472 0.36317027 -0.34415027 -0.05955831 -0.07530683
00000000: 14ef 8fbe 22ee 08be 97d0 313e 69fc c2be
00000010: 1f3d bd3e 2275 853e 935d 363e dd19 9cbd
00000020: 344b edbc e48f 48be 52e9 253e c149 94bd
00000030: 60d1 16be 5949 09be d375 a83d 978e c9bd
00000040: e928 ab3d 6aaf b93d c847 cebd ba65 bb3e
00000050: aa4b 9bbc 051d d8bd 926b e4bd 4531 c13d
00000060: a417 46be 1f67 6dbe a5c6 833e 2946 d63d
00000070: 1395 5ebe 3737 ae3e 7a77 16bd b812 f7bd
00000080: e78d 9bbd 4563 82be d907 e63d 9d7a 8abe
00000090: fdc1 983e 224f 4c3e 3e77 dbbd 832d 053e
000000a0: a06e 483e 920f 9a3e 71bd 0fbe bbfc a93e
000000b0: 4db6 9dbe eb98 d3bd 0bf4 37be 033a 98be
000000c0: ba71 e33c 6617 14bd a2a2 243e a4fc a7bc
000000d0: 80c3 dbbd 41a5 75be d6a4 f43d 3038 47be
000000e0: 0b7c 793d fa0f 833e 698d bbbe 27c1 843e
000000f0: e862 39be c7d3 edbd 00ca 15be 77b7 a8be
00000100: bebb 93bc 3a47 b2be 1999 8dbe 560a 55bd
00000110: 3998 ea3c 01f0 a63e 3dcf b1be 2153 9abe
00000120: a6f5 4fbe 1a1d c1be e788 acbd 0969 c43c
00000130: eaff 4d3e 2704 acbe 5ff6 4c3d bf07 3d3e
00000140: 54d3 9e3d 50aa bd3e ea14 ac3d 8a14 92be
00000150: 11cd 9e3e 269e 103e a681 8f3e a477 923e
00000160: 4593 84be fd3f 46be 4d47 26bc 0109 02be
00000170: 1f34 4bbe 7809 883e ef9f b83d 7762 813e
00000180: 526b a23e ab91 0fbe 3c94 0b3e 62f1 4bbe
00000190: d60c 82bc 0c01 883e daae 86bd d121 443d
000001a0: c338 6c3e 7642 d23c 61c6 a93d 0016 afbe
000001b0: 74f1 b93e 7734 b0be 6af3 73bd 783a 9abd

encoder.encoder_layers.2.encode_self_attention.W_Q.bias f4 [16]
-0.18248884 -0.31403682 0.12628992 -0.14837925 -0.11505899 0.33889064 0.018048363 0.077860616
0.2619191 0.38061827 0.3786581 -0.14674883 0.18143107 -0.13841824 0.10682618 0.040015582
00000000: 5bde 3abe 6fc9 a0be 2552 013e bbf0 17be
00000010: 0ca4 ebbd 1383 ad3e 29da 933c 6375 9f3d
00000020: 431a 863e 66e0 c23e 79df c13e 5345 16be
00000030: 11c9 393e 83bd 0dbe afc7 da3d 61e7 233d

encoder.encoder_layers.2.encode_self_attention.W_K.weight f4 [16, 7]
-0.27716646 -0.13046688 -0.20482592 0.25926298 0.21370523 0.1617421 -0.23571153 -0.24637237
0.111358576 0.2889004 -0.23212999 0.19355996 -0.16038638 -0.07620212 -9.6776545e-05 0.24975142
0.3416135 -0.015701303 -0.34598142 -0.32165048 0.047727752 -0.26550344 0.31370503 0.09424101
-0.29826695 -0.25565815 0.2837955 -0.124519885 0.13918567 -0.2617334 0.02648003 -0.06457451
0.0875449 -0.032340508 -0.03162604 0.10290453 0.32714403 0.046306197 0.3420576 0.006798407
0.012782232 0.11038339 -0.15837952 -0.24698631 0.20740105 0.26951185 0.08675082 -0.14626896
-0.0833495 -0.19909926 -0.2692783 0.044920374 0.020414503 0.033121917 -0.30522874 -0.29193887
-0.30573925 -0.19057278 0.13832088 -0.11757512 0.11320336 -0.2862627 -0.24989986 0.18926527
0.2508738 0.1915525 0.005083123 0.32493803 0.23748054 0.17143494 0.29004988 0.08106685
0.22359052 0.25008464 -0.16795878 -0.29300976 0.28753108 0.3771433 0.036858294 0.24781682
0.38173568 0.30958506 -0.18623628 0.36041576 0.15781529 -0.30712235 -0.12577826 -0.0032739728
-0.22746968 -0.014049771 0.09697987 -0.2132537 -0.37043792 0.020000787 0.06560264 0.16733505
0.21759501 0.11991582 0.3447327 0.013318987 0.28077003 -0.059332564 -0.13347211 -0.074272044
0.30002877 -0.121048264 0.13354866 0.23190126 -0.10478612 -0.014841217 0.29015762 0.014080133
00000000: c3e8 8dbe 1c99 05be e3bd 51be 1ebe 843e
00000010: 8bd5 5a3e b99f 253e 5d5e 71be 0a49 7cbe
00000020: f70f e43d c1ea 933e 7cb3 6dbe 9534 463e
00000030: 543c 24be db0f 9cbd 83f4 cab8 d6be 7f3e
00000040: f7e7 ae3e 05a0 80bc 7a24 b1be 5faf a4be
00000050: 2d7e 433d 11f0 87be f29d a03e 6e01 c13d
00000060: 72b6 98be a0e5 82be a54d 913e 4804 ffbd
00000070: b086 0e3e ec01 86be a6ec d83c a43f 84bd
00000080: be4a b33d 7b77 04bd 4e8a 01bd 9cbf d23d
00000090: 6c7f a73e 91ab 3d3d 2c22 af3e 2cc5 de3b
000000a0: 916c 513c b010 e23d 3e2e 22be fbe9 7cbe
000000b0: f160 543e 75fd 893e 6aaa b13d 88c7 15be
000000c0: 25b3 aabd ade0 4bbe d8de 89be 6dfe 373d
000000d0: 513c a73c d9aa 073d f146 9cbe 0379 95be
000000e0: db89 9cbe 8325 43be fda3 0d3e 39cb f0bd
000000f0: 2ad7 e73d 0691 92be c0e5 7fbe c1ce 413e
00000100: 8872 803e 5726 443e 5490 a63b 475e a63e
00000110: 192e 733e a48c 2f3e 6b81 943e 6006 a63d
00000120: eaf4 643e 180b 803e 63fd 2bbe 6005 96be
00000130: 4637 933e ed18 c13e b9f8 163d b1c3 7d3e
00000140: dc72 c33e ef81 9e3e b9b4 3ebe 6a88 b83e
00000150: 559a 213e 243f 9dbe 04cc 00be 2690 56bb
00000160: d0ed 68be 0331 66bc 629d c63d 2e5f 5abe
00000170: 0aaa bdbe b1d8 a33c ad5a 863d e159 2b3e
00000180: 3ad1 5e3e 6d96 f53d ce80 b03e e137 5a3c
00000190: 17c1 8f3e b406 73bd eaac 08be f11b 98bd
000001a0: 5f9d 993e 27e8 f7bd fbc0 083e 8677 6d3e
000001b0: 1b9a d6bd 9328 73bc 8a8f 943e 5cb0 663c

encoder.encoder_layers.2.encode_self_attention.W_K.bias f4 [16]
0.12037736 -0.17628652 -0.19432819 -0.2163961 0.08510405 0.29836383 0.28886673 0.28715673
-0.12492428 -0.07232174 -0.010927415 0.15247731 -0.3324577 0.15667579 0.09857091 -0.14047202
00000000: 6888 f63d 7484 34be f8fd 46be f096 5dbe
00000010: 084b ae3d 25c3 983e 57e6 933e 3506 933e
00000020: 4dd8 ffbd 6c1d 94bd e708 33bc 0323 1c3e
00000030: e537 aabe 9e6f 203e 8cdf c93d e6d7 0fbe

encoder.encoder_layers.2.encode_self_attention.W_V.weight f4 [16, 7]
-0.050057147 0.03827239 -0.15453106 -0.08698373 0.25061902 0.2921819 0.20025201 -0.13852555
-0.15104131 -0.2300122 0.25277176 -0.30281833 0.2714844 -0.22443214 0.27139658 0.06688842
-0.30846253 0.2755942 0.37421146 -0.052375007 0.29936355 0.2201437 0.23712344 -0.05484612
0.066927455 -0.2751683 0.044313613 -0.10422443 0.32366794 -0.3440687 0.03145358 -0.06446983
0.2981807 0.23828092 0.28908584 0.24136963 -0.08053727 -0.037829336 -0.026005007 -0.24446504
-0.22391024 0.2613089 -0.026611691 -0.013498537 0.15009828 -0.09316699 -0.21205445 -0.105802245
-0.10172554 0.23345433 0.1724049 0.16868782 -0.28959057 -0.20797321 0.09845979 0.3333367
0.24363033 -0.12757878 0.36657554 0.14462602 0.030121539 -0.13597444 -0.33634827 0.09246711
-0.23162009 -0.25070578 0.119002625 -0.112040326 -0.3161833 -0.13968726 -0.022391781 -0.23828647
0.3474931 0.34349293 -0.33772686 -0.25007528 -0.247571 0.21572213 0.07727034 0.14271973
0.33951637 0.22267435 -0.22220713 -0.31927907 -0.08220533 -0.14223191 -0.077807054 -0.30648077
0.33731306 0.11091821 -0.011308255 -0.053908575 -0.34608868 0.22895436 -0.114567704 0.08527792
-0.10787212 0.16233894 0.13263577 0.27388677 -0.24630985 0.04544925 0.15354078 0.04042735
-0.33873987 -0.2245158 0.25625232 -0.29503486 -0.31752458 -0.15029639 -0.14486125 -0.031412344
00000000: b908 4dbd 82c3 1c3d 643d 1ebe 8724 b2bd
00000010: 2351 803e de98 953e dd0e 4d3e a4d9 0dbe
00000020: 93aa 1abe 5188 6bbe 4d6b 813e 010b 9bbe
00000030: 0100 8b3e 8ad1 65be 7ef4 8a3e ccfc 883d
00000040: cdee 9dbe af1a 8d3e a598 bf3e 2d87 56bd
00000050: 2e46 993e 5a6d 613e 7dd0 723e 53a6 60bd
00000060: 4311 893d dce2 8cbe 3182 353d 9e73 d5bd
00000070: ceb7 a53e c629 b0be 78d5 003d c208 84bd
00000080: 24ab 983e eaff 733e 0f03 943e 9a29 773e
00000090: b9f0 a4bd eff2 1abd 7408 d5bc 0b55 7abe
000000a0: ba48 65be 48ca 853e c300 dabc f828 5dbc
000000b0: 5db3 193e 56ce bebd cd24 59be d9ae d8bd
000000c0: 7b55 d0bd a70e 6f3e e98a 303e 80bc 2c3e
000000d0: 3745 94be eef6 54be 49a5 c93d 1cab aa3e
000000e0: 3b7a 793e 03a4 02be caaf bb3e d818 143e
000000f0: 72c1 f63c e23c 0bbe d735 acbe 655f bd3d
00000100: d12d 6dbe 825c 80be a6b7 f33d 6675 e5bd
00000110: c7e2 a1be 2d0a 0fbe f86e b7bc 5e01 74be
00000120: 9eea b13e 4ede af3e 89ea acbe de09 80be
00000130: 4183 7dbe 43e6 5c3e e93f 9e3d 1f25 123e
00000140: 17d5 ad3e bf04 643e 448a 63be 8c78 a3be
00000150: 455b a8bd 3ea5 11be 4e59 9fbd 0ceb 9cbe
00000160: 4cb4 ac3e 1629 e33d 4246 39bc 3dcf 5cbd
00000170: 8932 b1be 0373 6a3e 79a2 eabd 31a6 ae3d
00000180: 0fec dcbd 2e3c 263e acd1 073e e33a 8c3e
00000190: a638 7cbe fe28 3a3d cb39 1d3e 2697 253d
000001a0: 506f adbe 78e7 65be 8133 833e cf0e 97be
000001b0: 9592 a2be 4ce7 19be 8256 14be 3baa 00bd

encoder.encoder_layers.2.encode_self_attention.W_V.bias f4 [16]
-0.33506095 0.102514096 0.23449443 -0.15594795 0.10866645 0.07399621 0.25099063 0.33426863
0.06425524 0.15813375 0.0053709773 -0.16114002 0.115050346 -0.059309848 -0.06738369 -0.103469275
00000000: 1c8d abbe e9f2 d13d 4f1f 703e d2b0 1fbe
00000010: 848c de3d 538b 973d d881 803e 4225 ab3e
00000020: 4098 833d d0ed 213e 06ff af3b e401 25be
00000030: 849f eb3d e2ee 72bd 7600 8abd b3e7 d3bd

encoder.encoder_layers.2.encode_self_attention.fc.weight f4 [7, 16]
-0.119554155 0.1494133 -0.20525505 -0.13392258 -0.2131712 -0.088464804 0.16955204 -0.13498266
-0.16090311 -0.10133323 -0.014555228 -0.11556767 -0.05248848 -0.19034335 0.13636531 -0.09883237
-0.05431876 0.09167541 0.02578103 -0.025127174 -0.0029805999 0.06841931 0.14753585 0.0029007937
-0.023421098 0.017070387 -0.04016033 -0.13389972 -0.10987998 0.17426771 -0.20769078 -0.13134317
0.06185665 -0.08845417 0.21767293 -0.23037319 -0.15231779 0.1189336 0.13590872 -0.23061554
0.119601294 0.22878984 0.1689315 0.011337957 0.06886514 0.19462103 -0.2342462 0.07651471
-0.13517688 -0.21307169 0.12998655 0.17016445 0.22236478 0.18662234 0.0129029015 0.029843438
0.17229511 -0.17592925 -0.16140436 0.008743788 0.035013583 0.1393551 -0.22482437 0.24339522
0.017207831 -0.063153714 -0.068068445 0.010358836 -0.15475512 -0.10314446 0.057154667 -0.013074201
0.17834531 -0.08824116 -0.06193891 -0.16489972 -0.22567673 0.016255604 -0.022261994 -0.119074136
-0.18142708 -0.21801671 -0.20131825 -0.22335137 0.24094012 -0.0136572 0.15982592 0.11463467
-0.20389548 0.1753063 -0.12219021 0.071818195 -0.03942248 0.20970765 -0.22664498 0.2077874
0.1690918 0.23560263 0.2010059 0.10397285 0.09381205 0.062998116 0.23507303 0.24944659
0.07202392 0.10942041 0.22803935 0.2435253 0.1551145 -0.23201057 -0.2404103 -0.08636155
00000000: cfd8 f4bd cdff 183e 612e 52be 0023 09be
00000010: 8d49 5abe 092d b5bd 0d9f 2d3e e538 0abe
00000020: c9c3 24be cc87 cfbd 0d79 6ebc beae ecbd
00000030: 29fe 56bd 5ee9 42be 59a3 0b3e a068 cabd
00000040: 597d 5ebd 51c0 bb3d bd32 d33c 81d7 cdbc
00000050: 2b56 43bb 6c1f 8c3d a313 173e 3e1b 3e3b
00000060: 9add bfbc 32d7 8b3c 287f 24bd 021d 09be
00000070: c108 e1bd 3c73 323e e4ac 54be d37e 06be
00000080: 665d 7d3d 7627 b5bd a7e5 5e3e f3e6 6bbe
00000090: 32f9 1bbe 7693 f33d a82b 0b3e 7b26 6cbe
000000a0: 86f1 f43d e247 6a3e 61fc 2c3e d7c2 393c
000000b0: 2b09 8d3d bc4a 473e 3cde 6fbe bfb3 9c3d
000000c0: cf6b 0abe 772f 5abe 321b 053e 973f 2e3e
000000d0: 98b3 633e ed19 3f3e b166 533c 3a7a f43c
000000e0: 216e 303e cc26 34be 2f47 25be 1b42 0f3c
000000f0: 676a 0f3d 1ab3 0e3e 5c38 66be 993c 793e
00000100: 70f7 8c3c bc56 81bd 7867 8bbd 1bb8 293c
00000110: 2078 1ebe 673d d3bd 031b 6a3d 2c35 56bc
00000120: 27a0 363e c8b7 b4bd a8b3 7dbd 79db 28be
00000130: cd17 67be 792a 853c c95e b6bc 24dd f3bd
00000140: 05c8 39be c63f 5fbe 5f26 4ebe 39b6 64be
00000150: 02b9 763e 73c2 5fbc 68a9 233e 95c5 ea3d
00000160: fac9 50be 7f83 333e dc3e fabd 6b15 933d
00000170: 7779 21bd 9abd 563e 9f15 68be 38c6 543e
00000180: 6726 2d3e d141 713e 7ed4 4d3e b8ef d43d
00000190: 8820 c03d 2805 813d fcb6 703e ed6e 7f3e
000001a0: 4781 933d cf17 e03d 2683 693e b25e 793e
000001b0: 56d6 1e3e 2e94 6dbe 1e2e 76be 53de b0bd

encoder.encoder_layers.2.encode_self_attention.fc.bias f4 [7]
0.1785139 -0.05558616 -0.03251658 0.1994966 -0.11798229 0.10317579 -0.11948827
00000000: 59cc 363e 50ae 63bd 1b30 05bd d648 4c3e
00000010: b3a0 f1bd d44d d33d 44b6 f4bd

encoder.encoder_layers.2.encode_self_attention.layer_norm.weight f4 [7]
1.0073042 0.9948935 0.992858 1.0037926 1.0075969 1.0019544 0.9937223
00000000: 58ef 803f 57b1 7e3f f12b 7e3f 477c 803f
00000010: eff8 803f 0b40 803f 9664 7e3f

encoder.encoder_layers.2.encode_self_attention.layer_norm.bias f4 [7]
0.0072974823 0.0066990852 0.0031329358 -0.0044821 -0.0072020646 0.0027953463 0.006005961
00000000: b81f ef3b 0084 db3b f151 4d3b 94de 92bb
00000010: 4cff ebbb 2132 373b a7cd c43b

encoder.encoder_layers.2.feed_forward.conv.0.weight f4 [7, 7, 1]
0.040975265 -0.042733274 0.37123376 -0.2319626 0.26047546 -0.3470844 0.15444905 0.06861574
-0.18614973 -0.13605064 -0.29049543 0.35185736 -0.017059391 -0.097408056 0.14534482 0.16097018
-0.07404257 0.056149688 -0.15766264 0.23390679 0.21909712 0.26993597 -0.23308027 0.09596272
0.097292975 0.17798544 -0.35110816 -0.30091116 -0.32806376 -0.20481795 -0.291198 -0.28066942
0.32118744 -0.14168128 -0.21922664 0.25966877 -0.27967206 -0.27788556 0.24177592 0.17841013
0.38526812 -0.072178476 -0.132483 -0.18200529 0.29567623 -0.13403594 0.14151338 -0.17539202
-0.10043864
00000000: aed5 273d 1609 2fbd 5a12 be3e 9b87 6dbe
00000010: 0a5d 853e 0cb5 b1be e427 1e3e 6986 8c3d
00000020: 099e 3ebe dc50 0bbe d1bb 94be a626 b43e
00000030: 23c0 8bbc e07d c7bd 46d5 143e 5ed5 243e
00000040: a2a3 97bd 37fd 653d 5172 21be 4385 6f3e
00000050: ff5a 603e 0c35 8a3e 98ac 6ebe 1a88 c43d
00000060: 8a41 c73d d141 363e 73c4 b3be 0711 9abe
00000070: f9f7 a7be ccbb 51be e717 95be e7b3 8fbe
00000080: ae72 a43e e614 11be f37c 60be 4ef3 843e
00000090: 2d31 8fbe 0447 8ebe 1b94 773e 25b1 363e
000000a0: dd41 c53e 4fd2 93bd a0a9 07be 985f 3abe
000000b0: e062 973e b840 09be e2e8 103e f799 33be
000000c0: c6b2 cdbd
