Transformer/model/best_epoch_model_newStart.pth (torch, 77125 bytes, 118 tensors)

encoder.pos_embedding.positional_encoding f4 [96, 7]
0	0x00000000	0.0
1	0x3f800000	1.0
2	0x00000000	0.0
3	0x3f800000	1.0
4	0x00000000	0.0
5	0x3f800000	1.0
6	0x00000000	0.0
7	0x3f576aa4	0.84147096
8	0x3f0a5141	0.54030234
9	0x3d9343b0	0.07190645
10	0x3f7f565a	0.9974114
11	0x3ba9b85f	0.0051794495
12	0x3f7fff1f	0.9999866
13	0x39c36eea	0.00037275936
14	0x3f68c7b7	0.9092974
15	0xbed51133	-0.41614684
16	0x3e12e219	0.14344062
17	0x3f7d5a4a	0.98965895
18	0x3c29b7ca	0.01035876
19	0x3f7ffc7c	0.99994636
20	0x3a436ee9	0.00074551866
21	0x3e1081c3	0.14112
22	0xbf7d7026	-0.9899925
23	0x3e5b5fad	0.21423216
24	0x3f7a0e70	0.9767828
25	0x3c7e923b	0.015537794
26	0x3f7ff817	0.9998793
27	0x3a92932e	0.0011182779
28	0xbf41bdcf	-0.7568025
29	0xbf275530	-0.6536436
30	0x3e915d40	0.28391457
31	0x3f75772b	0.9588496
32	0x3ca9b575	0.020716408
33	0x3f7ff1ef	0.99978536
34	0x3ac36ee5	0.0014910368
35	0xbf757c10	-0.9589243
36	0x3e913c2c	0.2836622
37	0x3eb44a00	0.35212708
38	0x3f6f9a90	0.9359522
39	0x3cd420a3	0.025894469
40	0x3f7fea06	0.99966466
41	0x3af44a9b	0.0018637957
42	0xbe8f0f8c	-0.2794155
43	0x3f75cdb8	0.96017027
44	0x3ed647cd	0.41851655
45	0x3f688065	0.90820915
46	0x3cfe8a5d	0.031071836
47	0x3f7fe05b	0.99951714
48	0x3b129328	0.0022365544
49	0x3f283046	0.6569866
50	0x3f40ffbd	0.75390226
51	0x3ef7299a	0.48273927
52	0x3f603214	0.87576413
53	0x3d14792b	0.036248367
54	0x3f7fd4ee	0.9993428
55	0x3b2b0100	0.0026093125
56	0x3f7d4695	0.98935825
57	0xbe14fdf6	-0.14550003
58	0x3f0b61e9	0.54446274
59	0x3f56ba9e	0.83878505
60	0x3d29ac22	0.041423924
61	0x3f7fc7bf	0.99914163
62	0x3b436ed7	0.0029820704
63	0x3ed30132	0.4121185
64	0xbf693fd5	-0.91113025
65	0x3f1a7649	0.6033674
66	0x3f4c268f	0.79746336
67	0x3d3eddf0	0.046598375
68	0x3f7fb8cf	0.9989137
69	0x3b5bdcac	0.0033548279
70	0xbf0b44f8	-0.5440211
71	0xbf56cd64	-0.8390715
72	0x3f28bdf0	0.6591482
73	0x3f4083ed	0.752013
74	0x3d540e6d	0.05177157
75	0x3f7fa81d	0.99865896
76	0x3b744a7f	0.0037275848
77	0xbf7fff5c	-0.9999902
78	0x3b910572	0.004425698
79	0x3f3625f3	0.71151656
80	0x3f33e223	0.7026693
81	0x3d693d76	0.05694338
82	0x3f7f95a9	0.9983774
83	0x3b865c28	0.0041003413
84	0xbf095cd8	-0.53657293
85	0x3f5806d0	0.84385395
86	0x3f429c8b	0.76020116
87	0x3f2651f0	0.64968777
88	0x3d7e6ae6	0.062113665
89	0x3f7f8174	0.99806905
90	0x3b929310	0.0044730976
91	0x3ed72022	0.42016703
92	0x3f684e6f	0.9074468
93	0x3f4e1134	0.80495
94	0x3f17e54d	0.5933426
95	0x3d89cb4b	0.06728228
96	0x3f7f6b7e	0.99773395
97	0x3b9ec9f5	0.0048458525
98	0x3f7d9872	0.9906074
99	0x3e0c04d7	0.13673721
100	0x3f5874c0	0.84553146
101	0x3f08af59	0.5339256
102	0x3d946030	0.07244909
103	0x3f7f53c7	0.9973721
104	0x3bab00da	0.0052186074
105	0x3f267944	0.65028787
106	0xbf427ae8	-0.7596879
107	0x3f61b969	0.8817354
108	0x3ef18878	0.4717443
109	0x3d9ef411	0.07761396
110	0x3f7f3a4f	0.99698347
111	0x3bb737bc	0.005591361
112	0xbe936810	-0.2879033
113	0xbf75292c	-0.9576595
114	0x3f69d2e7	0.91337436
115	0x3ed0721f	0.40712067
116	0x3da986da	0.08277674
117	0x3f7f1f16	0.9965681
118	0x3bc36e9e	0.0059641143
119	0xbf761e25	-0.96139747
120	0xbe8ce236	-0.27516335
121	0x3f70b67e	0.9402846
122	0x3eae4781	0.34038928
123	0x3db41879	0.0879373
124	0x3f7f021d	0.996126
125	0x3bcfa57e	0.006336867
126	0xbf4040b3	-0.75098723
127	0x3f290a84	0.6603167
128	0x3f765b0c	0.96232677
129	0x3e8b35e8	0.27189565
130	0x3dbea8dc	0.09309551
131	0x3f7ee364	0.9956572
132	0x3bdbdc5b	0.006709618
133	0x3e197969	0.1498772
134	0x3f7d1bbf	0.9887046
135	0x3f7ab916	0.9793867
136	0x3e4ed798	0.2019943
137	0x3dc937ef	0.098251216
138	0x3f7ec2ea	0.99516165
139	0x3be81337	0.0070823687
140	0x3f69b6c8	0.9129453
141	0x3ed0f022	0.40808207
142	0x3f7dcad3	0.9913761
143	0x3e06313d	0.1310472
144	0x3dd3c5a0	0.10340428
145	0x3f7ea0b0	0.9946394
146	0x3bf44a10	0.007455118
147	0x3f562f10	0.8366556
148	0xbf0c37fc	-0.54772925
149	0x3f7f8c32	0.99823296
150	0x3d73641a	0.059421636
151	0x3dde51de	0.10855459
152	0x3f7e7cb7	0.9940905
153	0x3c004074	0.007827867
154	0xbc110515	-0.008851309
155	0xbf7ffd6f	-0.99996084
156	0x3f7ffadf	0.99992174
157	0xbc4cfd50	-0.012511566
158	0x3de8dc94	0.11370197
159	0x3f7e56fe	0.9935149
160	0x3c065bde	0.008200614
161	0xbf58a1e6	-0.8462204
162	0xbf0867bf	-0.53283304
163	0x3f7f1646	0.9964336
164	0xbdaccf6b	-0.08437999
165	0x3df365b1	0.118846305
166	0x3f7e2f86	0.99291265
167	0x3c0c7747	0.00857336
168	0xbf67d3fc	-0.9055784
169	0x3ed92dfe	0.42417902
170	0x3f7cdf98	0.98778677
171	0xbe1f8d11	-0.15581156
172	0x3dfded23	0.12398746
173	0x3f7e064f	0.99228376
174	0x3c1292b0	0.008946106
175	0xbe078738	-0.13235176
176	0x3f7dbf78	0.99120283
177	0x3f7959c4	0.97402596
178	0xbe67def6	-0.22643647
179	0x3e04396a	0.12912527
180	0x3f7ddb5a	0.9916283
181	0x3c18ae16	0.009318849
182	0x3f433708	0.76255846
183	0x3f259c81	0.6469193
184	0x3f748973	0.9552223
185	0xbe977ec5	-0.29588905
186	0x3e097b5c	0.13425964
187	0x3f7daea6	0.9909462
188	0x3c1ec97b	0.009691591
189	0x3f74d50e	0.95637596
190	0xbe959338	-0.29213881
191	0x3f6e7508	0.93147326
192	0xbeba4546	-0.36380976
193	0x3e0ebc5a	0.13939038
194	0x3f7d8035	0.99023753
195	0x3c24e4df	0.010064333
196	0x3e8ab42a	0.2709058
197	0xbf766d57	-0.9626059
198	0x3f672492	0.90290177
199	0xbedc14e5	-0.4298469
200	0x3e13fc5f	0.1445174
201	0x3f7d5005	0.98950225
202	0x3c2b0042	0.010437073
203	0xbf29e3e9	-0.6636339
204	0xbf3f80b3	-0.74805754
205	0x3f5ea1c2	0.8696557
206	0xbefcc0d4	-0.49365866
207	0x3e193b5e	0.14964053
208	0x3f7d1e18	0.98874044
209	0x3c311ba2	0.010809811
210	0xbf7cefa4	-0.9880316
211	0x3e1df418	0.15425146
212	0x3f54f7e0	0.8319073
213	0xbf0e0ee3	-0.55491465
214	0x3e1e7951	0.15475966
215	0x3f7cea6f	0.9879522
216	0x3c373701	0.011182548
217	0xbecede06	-0.40403765
218	0x3f6a2c8e	0.91474235
219	0x3f4a33bb	0.78985184
220	0xbf1d0113	-0.61329764
221	0x3e23b62d	0.15987463
222	0x3f7cb508	0.9871373
223	0x3c3d525f	0.011555283
224	0x3f0d2a4d	0.5514267
225	0x3f558fa9	0.83422333
226	0x3f3e6398	0.7437072
227	0xbf2b232d	-0.6685055
228	0x3e28f1e9	0.16498531
229	0x3f7c7de5	0.986296
230	0x3c436dba	0.011928016
231	0x3f7ffa39	0.99991184
232	0xbc5986b7	-0.013276747
233	0x3f31971f	0.6937122
234	0xbf386275	-0.72025234
235	0x3e2e2c7d	0.17009158
236	0x3f7c4507	0.9854283
237	0x3c498914	0.012300748
238	0x3f0771f7	0.5290827
239	0xbf593be7	-0.8485703
240	0x3f23df46	0.64012563
241	0xbf44ad5c	-0.76827025
242	0x3e3365dd	0.17519327
243	0x3f7c0a6d	0.9845341
244	0x3c4fa46d	0.0126734795
245	0xbedb3ac2	-0.42818266
246	0xbf67585f	-0.9036922
247	0x3f154e3c	0.583225
248	0xbf4ff397	-0.81231064
249	0x3e389e03	0.18029027
250	0x3f7bce17	0.98361343
251	0x3c55bfc3	0.013046208
252	0xbf7de538	-0.99177885
253	0xbe0308ea	-0.12796369
254	0x3f05f74f	0.5233049
255	0xbf5a2636	-0.85214555

encoder.encoder_layers.0.encode_self_attention.W_Q.weight f4 [16, 7]
0	0xbe4d3737	-0.20040594
1	0x3e9d5598	0.30729365
2	0x3dfdcef3	0.12392988
3	0x3ddec3a8	0.10877162
4	0xbe597e40	-0.21239567
5	0x3ebaa790	0.36455965
6	0xbe1ea339	-0.15491952
7	0x3d812427	0.06305724
8	0x3df4f56e	0.119608745
9	0x3e75b4e0	0.2399478
10	0x3ebbbe65	0.36668697
11	0xbe0259e6	-0.12729606
12	0xbd7468f5	-0.059670407
13	0x3e4e7194	0.20160514
14	0xbec20a69	-0.37898567
15	0x3ea606a2	0.32426935
16	0xbe38bfce	-0.18041918
17	0x3bc107ed	0.0058908374
18	0x3e061504	0.13093954
19	0x3ccde799	0.025134848
20	0xbceba89b	-0.02876692
21	0x3e5b5a8c	0.2142126
22	0xbe143a7a	-0.14475432
23	0x3e5f7830	0.21823192
24	0x3e80229b	0.25026402
25	0x3e37e7eb	0.17959563
26	0xbcf94fa8	-0.03043349
27	0xbe9a31e3	-0.30116186
28	0x3ea11b15	0.31465974
29	0xbe9851e5	-0.2974998
30	0x3e2339bc	0.15939993
31	0x3ac377ed	0.001491306
32	0x3eab3fc9	0.33447102
33	0xbe2dd5e7	-0.16976129
34	0x3e862776	0.2620198
35	0x3e2d2da7	0.16911946
36	0x3e9930af	0.29919955
37	0x3eba6d73	0.36411628
38	0x3dd1c4cc	0.10242614
39	0xbe72a1af	-0.2369449
40	0x3eb0229a	0.344014
41	0x3de1c56d	0.11023984
42	0xbebc32c4	-0.3675748
43	0xbe6bd61a	-0.23030892
44	0xbe22816f	-0.15869687
45	0xbd953865	-0.07286147
46	0xb9e1c619	-0.00043062938
47	0x3ea88f8d	0.3292202
48	0xbea8ba7b	-0.32954773
49	0xbd3b7f2d	-0.04577558
50	0x3c152f96	0.009105584
51	0x3d84968a	0.064740255
52	0x3e64bef3	0.22338466
53	0x3e58d7d1	0.21176077
54	0xbeb5a1b6	-0.35474938
55	0x3e8ad625	0.27116504
56	0xbe78aa61	-0.24283744
57	0x3c9e43e0	0.019319475
58	0x3c4049a4	0.011736307
59	0xbdfb91e9	-0.122836895
60	0xbb8bed06	-0.0042701988
61	0xbe4344da	-0.19069234
62	0xbe01cba5	-0.1267534
63	0x3eaf81df	0.3427877
64	0xbe86c225	-0.26319996
65	0xbea34bb0	-0.31893682
66	0x3dc667ba	0.09687753
67	0xbdf25350	-0.11832297
68	0x3e5ba6fc	0.21450418
69	0xbeb75c8b	-0.35812792
70	0x3ec217a5	0.37908664
71	0xbddb666e	-0.10712896
72	0xbeb4842f	-0.35257098
73	0xbe4bd2c6	-0.19904622
74	0x3e88113f	0.26575658
75	0x3ec10954	0.3770243
76	0x3cda1d90	0.026625425
77	0xbe314653	-0.17311983
78	0xbe88c0f7	-0.2670972
79	0x3d978065	0.07397536
80	0xbe3af797	-0.1825851
81	0xbeab9fef	-0.33520457
82	0xbdefa8ef	-0.117021434
83	0xbe07ba0f	-0.1325457
84	0x3e8177a2	0.25286585
85	0xbe790455	-0.24318059
86	0xbebe2c6c	-0.37143266
87	0x3d6e40c0	0.05816722
88	0xbd579367	-0.05263081
89	0x3e587c24	0.21141106
90	0x3e138ecb	0.1440994
91	0xbe87c90c	-0.26520574
92	0xbea80c2f	-0.32821795
93	0x3e0faa8b	0.140299
94	0xbe2a037b	-0.1660289
95	0x3db4f0fb	0.08835026
96	0xbe8847e0	-0.26617336
97	0xbe7f2350	-0.24915814
98	0x3e2855d3	0.1643899
99	0xbe3ab992	-0.18234852
100	0x3e5255eb	0.20540588
101	0x3eb39dfd	0.35081473
102	0xbeae7401	-0.3407288
103	0x3daef4f1	0.085428126
104	0xbd7148cb	-0.05890731
105	0xbe99cf3b	-0.30040917
106	0xbe9e8da7	-0.30967447
107	0xbe34d7ef	-0.17660497
108	0xbeaae75a	-0.33379632
109	0x3e401b4a	0.1876041
110	0xbe6eeb2f	-0.23331903
111	0x3e3cf5e2	0.18453172

encoder.encoder_layers.0.encode_self_attention.W_Q.bias f4 [16]
0	0x3dc33bef	0.09532916
1	0xbc9fd031	-0.019508453
2	0xbeb5e810	-0.35528612
3	0x3cf2fcc2	0.02966154
4	0xbe7d9c6a	-0.24766698
5	0x3e73958c	0.23787516
6	0x3e8ff225	0.2811443
7	0x3eb5b481	0.35489276
8	0xbd00d2e7	-0.031451132
9	0xbc9d5309	-0.019204633
10	0x3eb45125	0.35218158
11	0xbeb2c80f	-0.34918258
12	0xbeb177d5	-0.34661737
13	0x3eb79b04	0.35860455
14	0x3e31532d	0.17316885
15	0x3ea48af5	0.32137266

encoder.encoder_layers.0.encode_self_attention.W_K.weight f4 [16, 7]
0	0x3e427dee	0.18993351
1	0x3dc1b588	0.094584525
2	0xbd0d6fcd	-0.03453045
3	0xbc8b55a7	-0.017008616
4	0x3d89e07a	0.06732269
5	0x3e972d58	0.29526782
6	0xbe5f9d14	-0.21837264
7	0x3e528c74	0.20561391
8	0xbe8f655a	-0.28007013
9	0x3e27fd9e	0.16405341
10	0xbe2100f7	-0.15723024
11	0xbe8c494a	-0.27399665
12	0x3e84efb5	0.25964132
13	0x3e55ef42	0.20892051
14	0xbe883e66	-0.26610106
15	0xbcad0333	-0.02111969
16	0x3e96a60e	0.29423565
17	0xbd8999cd	-0.06718788
18	0xbe22a0fb	-0.15881722
19	0xbe8825da	-0.26591378
20	0x3e9463df	0.28982446
21	0x3cdc2619	0.026873635
22	0xbc83834f	-0.016053824
23	0xbea8eefc	-0.3299483
24	0x3eba5cfe	0.36399072
25	0xbe8138ae	-0.25238556
26	0xbe4e4e6c	-0.20147103
27	0x3e74812b	0.23877399
28	0xbc4167f9	-0.011804574
29	0x3d021824	0.031761304
30	0xbeacc109	-0.33741024
31	0xbdbe4fa1	-0.09292532
32	0x3e725c94	0.23668128
33	0xbde73aa4	-0.11290482
34	0xbea596d7	-0.32341644
35	0x3e46db5b	0.19419615
36	0x3e82412f	0.25440356
37	0xbe0f2f97	-0.13982998
38	0x3e241fd8	0.16027772
39	0x3d6ddfd9	0.058074806
40	0x3e9dfb21	0.3085566
41	0xbe920870	-0.28522062
42	0xbe82e318	-0.25563884
43	0xbe8c99b8	-0.27461028
44	0x3eba7e9c	0.3642472
45	0x3e500b1f	0.20316742
46	0x3e306811	0.17227198
47	0x3e9b71f9	0.30360392
48	0x3ebd14c2	0.369299
49	0xbe33ae20	-0.17546892
50	0xbeaeb234	-0.34120333
51	0x3e4d309a	0.20038071
52	0x3d26bf69	0.040709887
53	0x3e1e517b	0.1546077
54	0xbe89a8d3	-0.26886615
55	0xbe191539	-0.14949502
56	0x3e1128dc	0.14175743
57	0xbd96713e	-0.07345818
58	0xbe5ff578	-0.21870983
59	0x3eb4a8a0	0.352849
60	0xbdc7b0c6	-0.09750514
61	0x3e918abc	0.28426158
62	0xbb4ef90f	-0.0031581556
63	0xbd8334f0	-0.064065814
64	0x3e85bf5b	0.26122555
65	0xbeba4c08	-0.36386132
66	0x3e4c760c	0.19966906
67	0x3d5c5cd4	0.053799465
68	0xbe15b74d	-0.14620705
69	0x3e0e730f	0.13911079
70	0x3ea608a4	0.32428467
71	0xbe883e16	-0.26609868
72	0xbc822862	-0.015888397
73	0xbea49eff	-0.32152554
74	0x3d3f0265	0.046633143
75	0xbe3575a5	-0.17720659
76	0x3e857505	0.2606584
77	0xbe170ac0	-0.14750195
78	0x3e4f4ec8	0.20244896
79	0xbde2f7e4	-0.11082438
80	0xbe5bf36d	-0.21479578
81	0x3c783c7b	0.015151138
82	0xbe23179e	-0.15926978
83	0x3e3fbad0	0.18723607
84	0xbe43273b	-0.19057934
85	0x3e4a5c30	0.19761729
86	0x3d8243ee	0.06360613
87	0xbe2a43d9	-0.16627444
88	0x3e7dfbe6	0.24803123
89	0x3e9a7a2c	0.30171335
90	0xbc4849da	-0.012224639
91	0xbdedf468	-0.116188824
92	0xbcb1f099	-0.021721171
93	0xbdcda9b0	-0.10042131
94	0xbdf2c320	-0.118536234
95	0x3dbe8482	0.093026176
96	0xbd0a2c54	-0.03373368
97	0x3e006ae8	0.12540781
98	0xbea2fb39	-0.31832293
99	0x3cd57383	0.026056057
100	0xbb5171ee	-0.0031958777
101	0xbd075ba8	-0.033046395
102	0x3ebee4ab	0.37283835
103	0xbe64b194	-0.22333366
104	0x3e6073ba	0.21919146
105	0x3dedf455	0.11618868
106	0xbde88cca	-0.113549784
107	0x3e81e3b8	0.25369048
108	0x3e4343db	0.19068854
109	0x3e9c1e13	0.30491695
110	0x3e8dda59	0.2770565
111	0xbe7dd5ac	-0.2478854

encoder.encoder_layers.0.encode_self_attention.W_K.bias f4 [16]
0	0xbe90e9f5	-0.28303495
1	0x3eb83f0d	0.35985604
2	0x3eba8e33	0.36436614
3	0x3d4d0f70	0.05006355
4	0x3c82b99f	0.015957652
5	0xbe10d859	-0.1414503
6	0xbe9d21ee	-0.3068995
7	0x3e13e2ae	0.1444194
8	0x3d2e4d98	0.042554468
9	0x3e49a4ae	0.19691727
10	0x3e55071e	0.20803496
11	0x3eb47ab5	0.35249868
12	0xbe5fc9ae	-0.21854278
13	0xbe4c8107	-0.19971095
14	0xbeb5376c	-0.35393846
15	0xbdff0b54	-0.124533325

encoder.encoder_layers.0.encode_self_attention.W_V.weight f4 [16, 7]
0	0xbb6a884b	-0.0035786803
1	0xbdf7ac37	-0.12093394
2	0x3e9c2772	0.30498844
3	0xbc1f3078	-0.009716146
4	0xbdadfb90	-0.08495247
5	0xbdb1256c	-0.08649716
6	0xbe1e0632	-0.15432051
7	0xbeafe09e	-0.34351057
8	0xbe379ca0	-0.17930841
9	0xbe20ef68	-0.15716326
10	0x3df6dfae	0.12054382
11	0x3d94004e	0.072266206
12	0x3d2fb5e4	0.042898074
13	0x3db6269f	0.08894085
14	0xbe8fd54c	-0.2809242
15	0x3df03789	0.117293425
16	0x3e8b3ad7	0.2719333
17	0xbdb7f517	-0.08982294
18	0xbe80ec58	-0.25180316
19	0xbea3adf7	-0.31968662
20	0xbd8ce1fa	-0.06879039
21	0xbe84f5b9	-0.25968722
22	0x3e9d2765	0.30694118
23	0x3eb57325	0.3543941
24	0xbda35c52	-0.07976593
25	0x3eb7a4cb	0.35867915
26	0x3eba220a	0.36354095
27	0xbe6a7f14	-0.22900039
28	0xbc56c02b	-0.01310734
29	0x3e83ca26	0.25740165
30	0xbd5b643f	-0.0535624
31	0x3e7df16b	0.24799125
32	0x3d92b148	0.0716272
33	0xbe96b589	-0.29435375
34	0xbea086b7	-0.3135278
35	0x3e50f720	0.2040677
36	0x3eb712a6	0.35756415
37	0xbe6acdeb	-0.22930114
38	0xbe813e7e	-0.2524299
39	0x3e11dea0	0.14245081
40	0xbe599a21	-0.21250202
41	0x3df8f6d7	0.12156456
42	0xbc986034	-0.01860056
43	0xbdd4bc11	-0.10387433
44	0xbdf20941	-0.11818171
45	0xbe663bd5	-0.22483762
46	0xbe9eaadf	-0.3098974
47	0xbd7ac147	-0.06121948
48	0x3ca5b718	0.020228907
49	0xbdf2b851	-0.11851562
50	0x3e831ab6	0.25606316
51	0x3e156564	0.14589459
52	0x3da956ac	0.082684845
53	0xbd3a1a3b	-0.04543517
54	0xbc1a9721	-0.009435446
55	0xbdc120ee	-0.09430109
56	0xbe0de69e	-0.13857505
57	0xbe1f5e5a	-0.15563336
58	0xbe26b172	-0.16278628
59	0x3de8ed6c	0.1137341
60	0xbbac8c48	-0.0052657463
61	0x3ea6fc58	0.32614398
62	0x3e90e979	0.28303126
63	0x3e89833f	0.26857945
64	0xbc019e82	-0.007911326
65	0x3d9ae8b8	0.07563919
66	0xbe9a2577	-0.30106708
67	0x3d6a9f8d	0.057281066
68	0xbea0e12e	-0.31421798
69	0xbe84e82d	-0.25958386
70	0xbe035b54	-0.12827808
71	0x3e2244b2	0.15846518
72	0x3c8796bc	0.016551368
73	0xbb44ec22	-0.0030047973
74	0xbd96113a	-0.073275045
75	0xbe7d1793	-0.24716024
76	0xbe92d7c3	-0.28680238
77	0xbcc558a4	-0.024090119
78	0x3e40db5a	0.18833676
79	0x3b0cfc18	0.0021512564
80	0xbdf28e5c	-0.11843559
81	0xbe98a625	-0.29814258
82	0xbd81e0af	-0.06341683
83	0x3da2aa05	0.07942585
84	0xbdc0e9bf	-0.094195835
85	0xbea11c89	-0.31467083
86	0x3e42d3e4	0.19026142
87	0xbe7dc82f	-0.24783395
88	0x3eb9be8a	0.36278182
89	0x3e9197aa	0.28436023
90	0xbe1bc673	-0.15212421
91	0x3e2f57af	0.17123292
92	0x3e3ffc90	0.18748689
93	0x3e947ad4	0.2899996
94	0x3ebabddf	0.36472985
95	0xbdee2419	-0.11627979
96	0xbe94c926	-0.29059714
97	0xbe03a616	-0.12856326
98	0x3e40d65f	0.18831776
99	0x3de4c0c2	0.11169578
100	0xbe2cff9d	-0.16894384
101	0x3ea407c5	0.32037178
102	0x3e8b04cc	0.27152097
103	0xbdf09649	-0.117474146
104	0xbebda9ff	-0.3704376
105	0x3e9663ac	0.2937292
106	0x3e350c9f	0.17680596
107	0xbc31e0ef	-0.010856851
108	0xbe7ec6fc	-0.24880594
109	0x3e8b731d	0.27236262
110	0xbe94f081	-0.2908974
111	0xbdce0a1e	-0.100605235

encoder.encoder_layers.0.encode_self_attention.W_V.bias f4 [16]
0	0x3d8e8442	0.0695882
1	0xbe4bc457	-0.19899116
2	0x3d6b4af6	0.057444535
3	0x3e1aa7ec	0.1510312
4	0xbd7914cb	-0.060810845
5	0xbe41f6de	-0.18941829
6	0xbdf326b8	-0.118726194
7	0xbe02d718	-0.12777364
8	0xbe874c1a	-0.26425248
9	0x3cd89688	0.026438966
10	0xbdac086e	-0.08400045
11	0xbe7eb541	-0.2487383
12	0x3cbf81c7	0.023377312
13	0x3e57ffd8	0.2109369
14	0x3ea4d14f	0.3219094
15	0xbdd3fd0d	-0.10351

encoder.encoder_layers.0.encode_self_attention.fc.weight f4 [7, 16]
0	0x3df3f641	0.119122036
1	0xbe1fe785	-0.15615661
2	0xbe48bec5	-0.19604023
3	0x3e5dcc71	0.2166002
4	0xbe3dc7b3	-0.1853321
5	0xbe73c196	-0.23804316
6	0xbdc51f76	-0.09625141
7	0x3e16f36d	0.14741297
8	0x3d1786c2	0.03699375
9	0x3d83ee29	0.0644191
10	0x3def4dce	0.11684762
11	0x3e7aaec6	0.24480733
12	0x3e11bae6	0.14231452
13	0xbd01a1b1	-0.03164834
14	0x3dc54f31	0.09634245
15	0xbe2494f9	-0.16072454
16	0xbb89ffcd	-0.004211402
17	0xbe08583c	-0.13314909
18	0xbc8190fb	-0.015816202
19	0xbe61a7ea	-0.2203671
20	0xbdd4d791	-0.103926785
21	0xbe315556	-0.1731771
22	0x3e466d73	0.19377689
23	0xbe27cb27	-0.1638609
24	0x3e2277be	0.1586599
25	0xbde3bfb3	-0.11120548
26	0xbd6bc6eb	-0.05756275
27	0xbbcbdf28	-0.0062216707
28	0xbe4c86cc	-0.19973296
29	0x3d535646	0.05159595
30	0xbdaa35b9	-0.08311028
31	0xbe1a0be2	-0.15043595
32	0xbc0cfe33	-0.008605528
33	0x3e4740e2	0.19458345
34	0xbd0becfe	-0.03416156
35	0x3da9a8a6	0.0828412
36	0xbe6766d4	-0.2259782
37	0xbd880bb4	-0.06642857
38	0x3d062619	0.032751177
39	0xbe13365f	-0.1437621
40	0x3daf4d49	0.08559663
41	0x3c12eaa5	0.008967076
42	0xbe353fac	-0.1770007
43	0xbe28eb12	-0.16495922
44	0xbe6a83bf	-0.2290182
45	0xbe755de7	-0.23961602
46	0x3e018043	0.12646584
47	0xbe01bf8e	-0.12670729
48	0xbe683a86	-0.22678575
49	0xbe0fbec6	-0.14037618
50	0xbe2793dc	-0.16364998
51	0xbe024641	-0.12722112
52	0xbe7907aa	-0.2431933
53	0xbd91bb93	-0.07115855
54	0x3e21af8d	0.15789624
55	0xbe2c9b5e	-0.16856143
56	0xbe2077d4	-0.15670711
57	0x3e581f04	0.21105582
58	0xbe6f2517	-0.23353992
59	0xbbabd374	-0.005243713
60	0xbe06148a	-0.13093773
61	0xbe081d2d	-0.1329238
62	0x3e140cbb	0.14457981
63	0x3d118032	0.035522647
64	0xbe574f96	-0.21026453
65	0x3d6aea4e	0.057352357
66	0x3e46e66a	0.19423833
67	0xbd207be2	-0.039180644
68	0xbe285957	-0.1644033
69	0x3dc31e1e	0.09527229
70	0xbe7c1f84	-0.24621397
71	0x3e3955ec	0.18099183
72	0x3dfa303f	0.122162335
73	0x3d9c1730	0.0762161
74	0x3e61ecde	0.22063014
75	0xbe693225	-0.22773035
76	0xbd22d277	-0.039751496
77	0xbce0dc94	-0.02744893
78	0x3daf574d	0.08561573
79	0x3e4ea564	0.20180279
80	0xbe0d232b	-0.13782947
81	0x3e0281e2	0.12744859
82	0x3e0d72e7	0.13813363
83	0x3e2f0610	0.17092156
84	0x3e234500	0.1594429
85	0x3e1357a2	0.14388898
86	0x3e6fcbc1	0.2341757
87	0x3e11f935	0.14255221
88	0x3e1b5486	0.15168962
89	0x3d0ea6f1	0.034827176
90	0x3ddfe809	0.10932929
91	0xbe50e933	-0.20401458
92	0xbe666c7c	-0.22502321
93	0x3e5087d2	0.20364311
94	0xbdec6b41	-0.115438946
95	0x3e72ba29	0.23703827
96	0x3d97e8c3	0.07417443
97	0x3e1a8af9	0.15092076
98	0xbde5c4a4	-0.11219147
99	0x3e1c0f2f	0.15240167
100	0x393a294d	0.00017753728
101	0xbe60ca64	-0.21952206
102	0x3e7fd81d	0.24984784
103	0xbdb84377	-0.08997243
104	0x3e80ecb0	0.25180578
105	0x3e24df63	0.1610084
106	0x3d93d8b0	0.07219064
107	0xbdb620ed	-0.08892999
108	0x3e39677e	0.18105885
109	0x3e3bf3ef	0.18354772
110	0xbe5e6108	-0.21716702
111	0xbd4e000e	-0.05029302

encoder.encoder_layers.0.encode_self_attention.fc.bias f4 [7]
0	0xbd80ef92	-0.062956944
1	0x3d7ca5fa	0.061681725
2	0x3dedcbbe	0.11611126
3	0x3bdbe844	0.006711038
4	0xbd6266a3	-0.055273663
5	0x3e40a61d	0.18813367
6	0xbe3e75af	-0.1859958

encoder.encoder_layers.0.encode_self_attention.layer_norm.weight f4 [7]
0	0x3f7e5747	0.99351925
1	0x3f7ea069	0.99463516
2	0x3f7f4bb5	0.99724895
3	0x3f7eb3a9	0.9949289
4	0x3f80ccf6	1.0062549
5	0x3f80c1b1	1.005911
6	0x3f8090a8	1.0044146

encoder.encoder_layers.0.encode_self_attention.layer_norm.bias f4 [7]
0	0xbb6dbcf7	-0.0036275962
1	0x3b7b757c	0.0038369587
2	0xbb3310fc	-0.0027323356
3	0x3ad804fc	0.0016480978
4	0xbad8d1c2	-0.0016542005
5	0x3bbb8d7a	0.0057236524
6	0xbb786de9	-0.0037907308

encoder.encoder_layers.0.feed_forward.fc.0.weight f4 [7, 7]
0	0xbe35230f	-0.17689155
1	0x3e182f51	0.148618
2	0x3ebe7706	0.37200183
3	0xbe5bbedf	-0.2145953
4	0xbcb70acf	-0.022344021
5	0xbe07fa04	-0.13278967
6	0x3e9d7c73	0.3075901
7	0xbde824c2	-0.11335136
8	0x3e5fb55f	0.21846531
9	0xbe5be022	-0.21472219
10	0xbd1fa50a	-0.038975753
11	0x3e9a5145	0.3014013
12	0xbd8b8128	-0.06811744
13	0xbccddc71	-0.025129529
14	0xbe8348ee	-0.25641578
15	0xbe4fccae	-0.20292923
16	0x3e2c5ca8	0.1683222
17	0x3e178334	0.14796144
18	0xbdaadb11	-0.08342565
19	0xbe90012d	-0.28125897
20	0x3dfacae7	0.12245732
21	0x3df26d24	0.11837223
22	0x3e8536a4	0.2601825
23	0x3dc7666f	0.097363345
24	0xbe9af96e	-0.30268425
25	0xbe1dd17b	-0.15411942
26	0x3e8bb851	0.2728906
27	0x3b81f992	0.0039665187
28	0xbe89b130	-0.26892996
29	0xbeb5aa4d	-0.35481492
30	0x3e0e8c87	0.13920794
31	0x3ebe114f	0.3712258
32	0x3e28b368	0.16474688
33	0xbde55c30	-0.11199224
34	0xbea71f2f	-0.3264098
35	0x3e34d624	0.17659813
36	0xbd824681	-0.06361104
37	0xbe505043	-0.20343117
38	0x3db64697	0.08900183
39	0x3e49c6e1	0.19704773
40	0x3e76ca9b	0.24100725
41	0xbc9bfcd4	-0.019041456
42	0xbe72142b	-0.23640506
43	0xbcc8fd97	-0.024534984
44	0xbdb7f457	-0.08982151
45	0xbeb535be	-0.35392565
46	0x3d225bd2	0.039638348
47	0xbe5eadb4	-0.2174595
48	0xbe8e7241	-0.27821544

encoder.encoder_layers.0.feed_forward.fc.2.weight f4 [7, 7]
0	0x3ea2afcd	0.3177475
1	0xbea027b2	-0.31280285
2	0x3e7773dc	0.2416529
3	0x3dcfd76a	0.10148509
4	0xbe215d63	-0.1575828
5	0x3eb217d8	0.34783816
6	0xbea39740	-0.31951332
7	0x3e786187	0.24255954
8	0x3e68a3ec	0.22718781
9	0x3d73b765	0.05950107
10	0x3eaad715	0.3336722
11	0x3e764dd4	0.24053127
12	0xbda6ccbd	-0.081445195
13	0xbeb1f7d9	-0.34759405
14	0xbe5982da	-0.21241322
15	0xbe12ec5f	-0.14347981
16	0xbd103ba0	-0.035213113
17	0x3e41de34	0.1893242
18	0xbe23e925	-0.16006906
19	0xbeaf5420	-0.3424387
20	0x3d9c3ac2	0.07628395
21	0xbdff4e20	-0.12466073
22	0x3e10d54f	0.14143871
23	0xbe845ed8	-0.2585361
24	0x3dd682d3	0.104741715
25	0x3eb7388e	0.35785335
26	0x3e5d7833	0.21627884
27	0x3d0fd532	0.03511543
28	0x3dd44439	0.10364575
29	0xbe5a4f94	-0.21319419
30	0xbc5c4eb7	-0.013446501
31	0xbda95533	-0.082682036
32	0xbe8dee53	-0.2772089
33	0x3ea125cb	0.31474146
34	0xbb05a86d	-0.002039458
35	0xbe139f31	-0.14416195
36	0x3e884271	0.2661319
37	0xbe90a30d	-0.28249398
38	0x3ea753df	0.32681176
39	0x3e69eab3	0.22843437
40	0xbd1fdf12	-0.039031096
41	0x3e9ff9ca	0.3124526
42	0x3ebf558a	0.3736995
43	0xbdbc749c	-0.09201929
44	0xbe55a558	-0.20863855
45	0xbd34c710	-0.044135153
46	0x3e203ee9	0.15648998
47	0xbe87b00e	-0.26501507
48	0xbe20bdf5	-0.15697463

encoder.encoder_layers.0.feed_forward.layer_norm.weight f4 [7]
0	0x3f7e5e6c	0.99362826
1	0x3f7ea4be	0.99470127
2	0x3f7edf95	0.9955991
3	0x3f7e4247	0.9931988
4	0x3f80d7cd	1.0065857
5	0x3f80b5e2	1.0055506
6	0x3f809b6c	1.0047431

encoder.encoder_layers.0.feed_forward.layer_norm.bias f4 [7]
0	0xbb67b2d5	-0.0035354395
1	0x3b7b68f5	0.003836212
2	0xbb7a4abb	-0.0038191515
3	0xb98c1e10	-0.0002672528
4	0xbb561714	-0.0032667564
5	0x3ba35cca	0.0049854266
6	0xbb82daf5	-0.003993387

encoder.encoder_layers.1.encode_self_attention.W_Q.weight f4 [16, 7]
0	0x3e0dea47	0.13858901
1	0xbe251321	-0.16120578
2	0xbe6dfd90	-0.23241258
3	0x3e9e2797	0.3088958
4	0x3e73ab5b	0.23795836
5	0x3e86e255	0.26344553
6	0xbde462a8	-0.1115163
7	0xbe9a3ea8	-0.30125928
8	0xbe92e543	-0.28690538
9	0xbeb6eedd	-0.35729113
10	0x3e7e2f33	0.24822693
11	0xbd4eb2a9	-0.050463352
12	0xbe6bc737	-0.23025213
13	0x3e8f21ef	0.27955577
14	0xbe08e1b5	-0.1336735
15	0xbe78ad30	-0.24284816
16	0xbe5aaeef	-0.21355794
17	0x3e3ff12a	0.1874434
18	0x3d2c9d26	0.042142056
19	0xbe3883e3	-0.18019061
20	0xbeb672d8	-0.35634494
21	0xbd58743d	-0.05284523
22	0xbea38378	-0.3193624
23	0x3ea2521d	0.31703272
24	0x3e4a6bd8	0.19767702
25	0xbe90d9ac	-0.2829107
26	0xbe8efc46	-0.27926844
27	0xbd6b6fd3	-0.05747969
28	0x3e26991b	0.16269343
29	0x3e78b267	0.24286805
30	0x3e4769ba	0.19473925
31	0x3e3ffe92	0.18749455
32	0xbe2c2646	-0.16811475
33	0xbda814cc	-0.08207092
34	0x3d5b1f51	0.053496663
35	0xbe85a07d	-0.26099005
36	0x3e712cc6	0.23552236
37	0x3dcbceeb	0.09951576
38	0x3d22cba8	0.039745003
39	0xbea7511c	-0.3267907
40	0xbe6146c0	-0.21999645
41	0xbd8b82a1	-0.06812025
42	0xbe34a75b	-0.17641966
43	0x3e77bf96	0.24194178
44	0xbe853824	-0.26019394
45	0xbe8e5c53	-0.27804813
46	0xbe596b12	-0.2123225
47	0xbeb8038d	-0.3594021
48	0xbe0b04e8	-0.1357609
49	0xbdb1576e	-0.08659254
50	0xbe515a5e	-0.20444629
51	0x3d79600c	0.060882613
52	0x3e97ba1f	0.29634187
53	0xbe8fe1fb	-0.28102097
54	0xbdf97250	-0.121800065
55	0x3d280723	0.04102243
56	0x3e3252b4	0.17414361
57	0x3e69f090	0.22845674
58	0xbe248db9	-0.16069688
59	0xbd8103fe	-0.062995896
60	0xbe854816	-0.2603156
61	0x3e3a7b74	0.18211156
62	0xbe9cf538	-0.30655837
63	0xbe81652d	-0.25272503
64	0x3eabe0c9	0.33569935
65	0x3e7a6345	0.24451931
66	0x3e9fe909	0.3123248
67	0xbc185623	-0.00929788
68	0xbe8dd4b6	-0.27701348
69	0xbdd4f758	-0.103987396
70	0x3e51d479	0.20491208
71	0xbe853281	-0.26015094
72	0xbdb96bae	-0.090537414
73	0xbd12edfb	-0.035871487
74	0x3da3748c	0.07981214
75	0xbe74e45e	-0.2391524
76	0xbec296be	-0.38005632
77	0xbc836bfa	-0.016042698
78	0xbeae2ea3	-0.34019956
79	0xbd11b8d5	-0.03557666
80	0xbeb34073	-0.35010108
81	0x3dd7f691	0.10545076
82	0xbe9029e0	-0.28156948
83	0xbe90d2ac	-0.2828573
84	0x3bb04537	0.005379345
85	0xbe53f34c	-0.20698279
86	0x3c8587e9	0.016300159
87	0xbd863b86	-0.06554322
88	0xbe864aec	-0.26229036
89	0x3e948958	0.29011035
90	0x3e8a4c0a	0.27011138
91	0xb8a0c848	-7.6667e-05
92	0x3e96fa60	0.29487896
93	0xbe0557a9	-0.13021721
94	0x3eae1778	0.3400228
95	0xbe9e137f	-0.3087425
96	0xbd723e38	-0.059141368
97	0xbe86de5f	-0.2634153
98	0xbe25de44	-0.16198069
99	0xbea8a3e7	-0.32937548
100	0x3dc87eaa	0.09789784
101	0xbe8c250c	-0.27372015
102	0xbe4c4eb4	-0.19951898
103	0x3e441cf3	0.19151668
104	0x3eb89db3	0.36057815
105	0x3e4c101a	0.19928017
106	0xbcf45a59	-0.029828237
107	0xbda12ab7	-0.07869475
108	0x3dfaf9dd	0.12254689
109	0xbe365a7f	-0.17807959
110	0x3e04b754	0.12960559
111	0x3d635751	0.055503193

encoder.encoder_layers.1.encode_self_attention.W_Q.bias f4 [16]
0	0x3e687266	0.2269989
1	0x3e9fa065	0.3117706
2	0xbe1e2510	-0.15443826
3	0xbe2de7ea	-0.16983
4	0x3eb7fc6b	0.35934767
5	0xbe9feb0b	-0.3123401
6	0xbdf39f48	-0.11895615
7	0xbe91ae72	-0.28453404
8	0x3e0a13d5	0.13484128
9	0xbe1e35c2	-0.15450194
10	0x3e573909	0.21017851
11	0x3e0c3011	0.13690211
12	0x3de6aa3d	0.11262939
13	0x3e33c454	0.17555362
14	0xbe541caa	-0.2071406
15	0xbe528b96	-0.2056106

encoder.encoder_layers.1.encode_self_attention.W_K.weight f4 [16, 7]
0	0x3e80fad9	0.25191382
1	0x3e5548d3	0.20828561
2	0xbdf48594	-0.119395405
3	0x3cc83fb5	0.02444444
4	0xbe9cf2eb	-0.30654082
5	0x3a75ad1a	0.00093718024
6	0xbc1eae4c	-0.00968511
7	0xbe8d6821	-0.27618507
8	0x3e92020d	0.2851719
9	0x3ebde02d	0.37085095
10	0x3ddd543a	0.108070806
11	0xbe42e73e	-0.19033524
12	0x3e2405e8	0.16017878
13	0x3e39aa70	0.18131423
14	0x3e6ddec4	0.2322951
15	0x3d70d8c6	0.05880048
16	0x3e7d815f	0.24756382
17	0x3e0e56b7	0.13900267
18	0x3e61c956	0.2204946
19	0x3df9173c	0.12162635
20	0x3e2a348e	0.1662161
21	0xbe455622	-0.19271138
22	0x3e0b9e74	0.13634664
23	0x3e88557e	0.26627725
24	0xbe90f0d1	-0.28308728
25	0x3e677495	0.22603066
26	0xbd7ba646	-0.061437868
27	0x3d18debd	0.037321795
28	0xbc755734	-0.014974404
29	0x3d775a70	0.060388982
30	0xbd794a89	-0.060862098
31	0xbe97d101	-0.29651645
32	0x3af369f5	0.0018571006
33	0xbe9cb7d5	-0.30609003
34	0x3e7fd9b9	0.24985398
35	0x3ec288f4	0.37995112
36	0xbeb78068	-0.35840154
37	0x3e957219	0.29188612
38	0xbe8ac4e9	-0.27103356
39	0x3e41f00d	0.18939228
40	0x3e70fa44	0.23532969
41	0x3df69cd6	0.12041633
42	0x3d7eaf13	0.062178683
43	0xbd2febdc	-0.042949542
44	0xbd895e36	-0.067074224
45	0x3ddc1c6b	0.10747608
46	0x3e818655	0.252978
47	0xbdaec088	-0.08532816
48	0xbea330e8	-0.3187325
49	0xbe935eab	-0.28783163
50	0xbe74ee43	-0.23919015
51	0x3e5caf7d	0.21551318
52	0x3e9c4993	0.30524883
53	0xbd260e31	-0.040540878
54	0xbcb83126	-0.022484373
55	0x3ea38e40	0.31944466
56	0x3eb33fd9	0.3500965
57	0xbe4792b4	-0.19489557
58	0x3ce47293	0.027886664
59	0xbe966c19	-0.29379347
60	0xbd8226b8	-0.06355041
61	0xbeb88a05	-0.360428
62	0xbdc71099	-0.097199626
63	0xbe6b2641	-0.22963811
64	0xbea30d71	-0.31846192
65	0x3e7f03a0	0.24903727
66	0x3de17f19	0.1101057
67	0x3da46c89	0.08028514
68	0xbd05e97e	-0.03269338
69	0xbce5d308	-0.02805473
70	0x3dd573d9	0.10422487
71	0x3e6fe0cb	0.23425595
72	0x3eb2f5c0	0.34953117
73	0xbd9b5acc	-0.075856775
74	0xbe50b079	-0.20379819
75	0x3c3bbc08	0.011458404
76	0x3eb6319d	0.35584727
77	0xbe22b30e	-0.15888616
78	0x3c614f63	0.013751837
79	0x3e07aac7	0.1324874
80	0xbeba4b17	-0.36385414
81	0x3e643b5d	0.2228827
82	0xbe90e111	-0.28296712
83	0x3e4dc786	0.20095643
84	0xbe548e90	-0.20757508
85	0x3e451e62	0.19249871
86	0x3ea581d3	0.3232561
87	0x3e779904	0.24179465
88	0x3e46a479	0.19398679
89	0x3e8c2951	0.27375272
90	0xbdeb6b43	-0.11495068
91	0x3ebb772a	0.36614352
92	0xbeaa65d0	-0.33280802
93	0xbd90d79e	-0.07072376
94	0xbd1a8ccb	-0.037731927
95	0xbeb206b0	-0.34770727
96	0xbe5de6b8	-0.21670043
97	0x3e7bbe4e	0.24584314
98	0x3e1f06ec	0.15529984
99	0x3e76caff	0.24100874
100	0xbe083d54	-0.13304645
101	0x3e137d95	0.14403374
102	0xbe47d4e2	-0.19514802
103	0xbe54104f	-0.20709346
104	0x3e5c2d6d	0.21501704
105	0xbe0c50fb	-0.13702767
106	0x3dea59c0	0.114429
107	0x3e413738	0.1886872
108	0xbe3a0f54	-0.1816991
109	0xbdf46764	-0.11933783
110	0xbea95317	-0.33071205
111	0x3d788bf0	0.06068033

encoder.encoder_layers.1.encode_self_attention.W_K.bias f4 [16]
0	0xbeac9a90	-0.33711672
1	0xbebc4a59	-0.36775473
2	0xbe9e82ed	-0.30959263
3	0x3e04cca2	0.12968686
4	0x3e08b18a	0.13348976
5	0x3e56e8f6	0.20987305
6	0xbe730257	-0.23731361
7	0x3e0ca112	0.13733318
8	0xbe5da0b2	-0.21643332
9	0xbcaf6857	-0.021412058
10	0x3e50f5ca	0.20406261
11	0x3e3e0b9a	0.18559113
12	0xbbbc2414	-0.0057416055
13	0x3d4b24f4	0.049595788
14	0xbe0e7e79	-0.13915433
15	0x3e3f49e2	0.18680528

encoder.encoder_layers.1.encode_self_attention.W_V.weight f4 [16, 7]
0	0x3e764bf8	0.24052417
1	0x3eba0b88	0.36336923
2	0x3e898197	0.26856682
3	0xbe09ef42	-0.13470176
4	0xbdc0c662	-0.094128385
5	0x3e5e0fb1	0.21685673
6	0xbe4114e2	-0.18855622
7	0xbe95fa9e	-0.29292768
8	0xbe8694f1	-0.26285508
9	0xbebfebd5	-0.37484613
10	0x3eb1b9b9	0.34712008
11	0x3de1b930	0.1102165
12	0xbe9f1e46	-0.31077784
13	0x3d711252	0.058855362
14	0x3e91d7bd	0.28484908
15	0xbe07effd	-0.13275142
16	0xbe076731	-0.13222958
17	0x3eb711b5	0.35755697
18	0xbe50f13e	-0.20404527
19	0xbe8516ab	-0.25993857
20	0x3c301815	0.010747929
21	0x3ea8c4e3	0.32962713
22	0xbeaac0ee	-0.3335032
23	0x3e4bfa33	0.19919662
24	0x3e60c692	0.21950749
25	0xbec08da6	-0.3760807
26	0x3dbf046e	0.09327017
27	0x3e9880da	0.29785806
28	0x3dc9599b	0.09831544
29	0x3e1f203c	0.1553964
30	0xbe9ce2ed	-0.3064188
31	0x3daf1b95	0.08550183
32	0xbe80546d	-0.25064412
33	0xbe92a859	-0.28644064
34	0x3ec0cbc0	0.3765545
35	0x3d904bbb	0.070456944
36	0xbeaf5136	-0.34241647
37	0x3e533c83	0.20628552
38	0xbdb4ed41	-0.08834315
39	0x3e26dfd3	0.1629632
40	0x3d0ef0c3	0.034897577
41	0x3e23785d	0.15963884
42	0xbeb513ec	-0.35366762
43	0x3db54571	0.088511355
44	0xbe9436aa	-0.28947955
45	0x3e82cf75	0.25548902
46	0x3e9508b2	0.29108196
47	0x3ebeb69e	0.372487
48	0xbe1d5d4f	-0.15367626
49	0x3b8f4f5f	0.0043734754
50	0x3d723b2f	0.059138473
51	0xbd9a4ed4	-0.075345665
52	0x3e5743e0	0.21021986
53	0x3eacf4e5	0.3378059
54	0x3e945ac4	0.289755
55	0x3ec316e0	0.3810339
56	0xbe1df61f	-0.15425919
57	0x3e259050	0.16168332
58	0xbeb37064	-0.35046685
59	0x3ddd4152	0.108034745
60	0x3de61e5f	0.112362616
61	0xbe1d89b0	-0.15384555
62	0x3d768043	0.060180914
63	0x3da8f2be	0.082494244
64	0x3e9ac9fd	0.3023223
65	0xbdeae7a7	-0.114699654
66	0x3e0cf90d	0.1376688
67	0xbeb9f452	-0.36319214
68	0xbe126573	-0.14296512
69	0xbeb477a5	-0.35247532
70	0xbea54dc3	-0.3228589
71	0xbebab787	-0.36468145
72	0xbe3cac78	-0.18425167
73	0xbd6138f0	-0.05498594
74	0xbe2b4509	-0.16725554
75	0x3e7d91cd	0.2476265
76	0xbe90ac6f	-0.28256556
77	0x3e55abd0	0.20866323
78	0xbe7100a7	-0.23535405
79	0x3d6728b0	0.056435287
80	0x3e8057ec	0.2506708
81	0x3dd6c1fe	0.1048622
82	0x3db0ced0	0.08633196
83	0x3c96f9a5	0.018429587
84	0xbe111731	-0.14169003
85	0x3e4e6eeb	0.201595
86	0xbe267ea2	-0.16259244
87	0xbdaf4633	-0.08558311
88	0x3ea68902	0.32526404
89	0x3eaa5201	0.3326569
90	0x3ea0f8ef	0.3143992
91	0x3eb1c524	0.3472072
92	0x3d1c40d7	0.038147774
93	0x3eb674c3	0.35635957
94	0xbe01394c	-0.12619513
95	0x3db82ca1	0.08992887
96	0x3e935797	0.28777763
97	0xbe3dd07a	-0.18536559
98	0x3e70c91a	0.23514214
99	0x3dfcfdb2	0.12353076
100	0xbea6194c	-0.32441175
101	0xbe823735	-0.25432745
102	0xbe94d07d	-0.29065314
103	0x3e1d3cda	0.15355244
104	0xbe8d796f	-0.2763171
105	0xbdb6dea0	-0.08929181
106	0xbc369327	-0.011143482
107	0x3cac28d0	0.021015555
108	0xbe3f29aa	-0.18668237
109	0x3e89113d	0.26770964
110	0xbe80572e	-0.25066513
111	0x3e030ece	0.12798616

encoder.encoder_layers.1.encode_self_attention.W_V.bias f4 [16]
0	0xbe994491	-0.29935125
1	0xbd371ffa	-0.04470823
2	0x3cbf974b	0.023387572
3	0xbe847438	-0.25869918
4	0x3e39d4d6	0.18147597
5	0xbe978f7d	-0.2960166
6	0xbdc5c302	-0.096563354
7	0xbea280e8	-0.31738973
8	0x3e22d44d	0.15901299
9	0x3ea1a3e0	0.3157034
10	0x3ebd43d6	0.36965817
11	0x3dfc4819	0.12318439
12	0x3c62f0e2	0.013851376
13	0x3daa4224	0.083133966
14	0x3e647383	0.22309689
15	0xbe2e76d6	-0.1703752

encoder.encoder_layers.1.encode_self_attention.fc.weight f4 [7, 16]
0	0xbe3f05a0	-0.1865449
1	0xbb166407	-0.0022947805
2	0xbc253ec7	-0.010085768
3	0xbe37d1d3	-0.17951135
4	0x3e7ddf1f	0.24792145
5	0x3d5d3ccd	0.054013062
6	0x3d4c96f4	0.049948648
7	0x3e213021	0.15741016
8	0xbd8b55af	-0.06803452
9	0xbe67ad65	-0.22624739
10	0x3dddc7bb	0.10829111
11	0x3d096f91	0.033553664
12	0xbd5bb5e7	-0.053640272
13	0xbd14fcb7	-0.03637382
14	0xbca79088	-0.02045466
15	0x3da76fc9	0.08175618
16	0x3c92cac8	0.01791896
17	0x3e118058	0.14209116
18	0x3e089e27	0.1334158
19	0xbde3e74f	-0.11128103
20	0x3d6eca66	0.05829849
21	0xbb13f1e9	-0.002257461
22	0xbdba706f	-0.09103476
23	0x3dd293e1	0.10282112
24	0x3e6cd3c6	0.2312766
25	0x3e7be8ee	0.24600574
26	0x3e7fa90c	0.2496683
27	0xbdd9aa89	-0.1062823
28	0xbe5e9296	-0.21735606
29	0x3d80ce42	0.062893406
30	0x3e047d50	0.12938428
31	0x3d3a9949	0.04555634
32	0xbe12d66b	-0.14339606
33	0x3e2e9b0f	0.17051338
34	0x3e0ab434	0.13545305
35	0xbd1aaddc	-0.03776346
36	0x3e7b6406	0.24549875
37	0x3e1f99f5	0.15586074
38	0x3e0b718a	0.1361753
39	0x3c5e7f04	0.013580088
40	0xbd1d5077	-0.038406815
41	0xbdccc548	-0.09998566
42	0xbdefc82e	-0.11708103
43	0x3e7a4593	0.24440603
44	0xbe2f6b47	-0.17130767
45	0xbe2a036a	-0.16602865
46	0x3dc9e501	0.09858132
47	0xbe10e3a0	-0.14149332
48	0x3bb27ba8	0.00544687
49	0xbdd6e3af	-0.10492646
50	0x3d52bc54	0.051449135
51	0x3df8af75	0.12142841
52	0xbcea5900	-0.028606892
53	0x3d328229	0.04358116
54	0xbe66683b	-0.22500698
55	0xbe1494f3	-0.14509945
56	0x3cf85f63	0.030318921
57	0x3d76fa8d	0.060297538
58	0xbe027c85	-0.12742813
59	0x3e0482d6	0.12940535
60	0x3d2bdee3	0.04196061
61	0xbd33c357	-0.043887462
62	0x3d02f488	0.031971484
63	0x3e3f8a2a	0.18705049
64	0xbe77df07	-0.24206172
65	0xbe21814f	-0.15771984
66	0xbd81d090	-0.06338608
67	0x3e3d5812	0.18490627
68	0x3e70ba51	0.23508574
69	0xbdd9a32a	-0.10626824
70	0x3db82bae	0.08992706
71	0x3df15369	0.11783487
72	0xbdcd86b2	-0.10035457
73	0x3d1189ae	0.035531692
74	0x3da8ca88	0.08241755
75	0xbdaf76a0	-0.08567548
76	0x3e4eabb2	0.20182684
77	0xbe75e49f	-0.24012993
78	0xbe116154	-0.14197284
79	0x3ddc45cb	0.107554995
80	0x3e3d8f85	0.1851178
81	0x3e6f8b59	0.23393
82	0xbe6331f1	-0.2218702
83	0x3cbafb8c	0.022825025
84	0x3e3782cb	0.17920987
85	0xbe164471	-0.14674546
86	0x3e0c45af	0.13698457
87	0xbe33b0d6	-0.17547926
88	0x3d0b264a	0.033972062
89	0xbc9bb5a2	-0.019007508
90	0x3e17474b	0.1477329
91	0xbe32ec6c	-0.17473
92	0xbe1baa7f	-0.15201758
93	0x3d27c7b2	0.04096193
94	0xbd16f04d	-0.036850262
95	0x3ddba990	0.10725701
96	0xbe74572c	-0.23861378
97	0x3e3693ea	0.17829862
98	0x3e5f846a	0.21827856
99	0xbe309a92	-0.17246464
100	0xbd2b299d	-0.041787732
101	0xbd7a5ea6	-0.06112542
102	0x3df98a26	0.12184553
103	0x3e23be7a	0.1599063
104	0xbd438e33	-0.047743034
105	0xbe1b91af	-0.15192293
106	0x3e7acd7c	0.24492449
107	0xbbe7726f	-0.007063202
108	0xbe506853	-0.20352297
109	0x3e40d667	0.18831788
110	0xbcdd4a9d	-0.027013117
111	0x3d85221d	0.06500647

encoder.encoder_layers.1.encode_self_attention.fc.bias f4 [7]
0	0x3e12672f	0.14297174
1	0x3dbbc0d8	0.091676414
2	0x3d9b980f	0.07597362
3	0x3e750068	0.23925936
4	0x3e0c02c1	0.13672926
5	0xbdd9e0f1	-0.10638607
6	0x3d9221bf	0.07135343

encoder.encoder_layers.1.encode_self_attention.layer_norm.weight f4 [7]
0	0x3f7e3ada	0.9930855
1	0x3f7fd0a4	0.99927735
2	0x3f7ef3e0	0.99590874
3	0x3f7eb31d	0.99492055
4	0x3f806d40	1.003334
5	0x3f80bfa1	1.005848
6	0x3f8041ff	1.002014

encoder.encoder_layers.1.encode_self_attention.layer_norm.bias f4 [7]
0	0xbb70f6ed	-0.0036768273
1	0x3b5e28a6	0.003389874
2	0xbb6b91a0	-0.0035944954
3	0x39b38cd5	0.0003424647
4	0xba8dea00	-0.0010827184
5	0x3bb84475	0.005623395
6	0xba4095f7	-0.0007346565

encoder.encoder_layers.1.feed_forward.fc.0.weight f4 [7, 7]
0	0xbebe0c47	-0.37118742
1	0xbdea3c1d	-0.11437247
2	0x3eac77f5	0.3368527
3	0x3da0e08b	0.07855328
4	0xbe1be95d	-0.1522574
5	0x3d890246	0.06689887
6	0xbebd8f62	-0.37023455
7	0x3e27bf2c	0.1638152
8	0xbd92dc42	-0.07170917
9	0xbd3d44d4	-0.046208218
10	0x3e754b4d	0.23954506
11	0xbe786e3f	-0.24260806
12	0x3eb90427	0.3613598
13	0xbdac645e	-0.08417581
14	0x3e80ee21	0.25181678
15	0xbe81ada9	-0.25327805
16	0xbe114825	-0.14187677
17	0xbe41f210	-0.18939996
18	0xbd0f94a2	-0.035053857
19	0x3d86355c	0.06553146
20	0x3e8cb1f9	0.27479532
21	0x3e80a0dd	0.2512273
22	0xbe669672	-0.22518328
23	0x3e954430	0.29153585
24	0x3ebcce61	0.36876205
25	0xbe79b0e8	-0.2438389
26	0x3e89897d	0.26862708
27	0xbeaccf7b	-0.33752045
28	0x3b2dc69b	0.0026516083
29	0x3e846aed	0.25862828
30	0x3eacd249	0.33754185
31	0x3e7f359a	0.24922791
32	0xbe3ef021	-0.1864629
33	0x3e4545e1	0.19264938
34	0xbead2af6	-0.3382184
35	0x3e9cec37	0.30648968
36	0xbdd39fb6	-0.10333197
37	0x3e19dc9b	0.1502556
38	0xbe92f04c	-0.28698957
39	0x3daa85a8	0.08326274
40	0xbd8e1f4a	-0.06939562
41	0xbebb3d39	-0.36570147
42	0xbe913d4e	-0.28367084
43	0x3e7b2827	0.24527036
44	0xbe21f5e9	-0.15816464
45	0xbdba479c	-0.0909569
46	0xbe9f820e	-0.3115391
47	0x3e6d3d79	0.23167981
48	0xbea0733a	-0.3133791

encoder.encoder_layers.1.feed_forward.fc.2.weight f4 [7, 7]
0	0x3e4eb117	0.20184742
1	0x3e870912	0.26374108
2	0x3da659b8	0.08122581
3	0x3eae052b	0.33988318
4	0xbd15d181	-0.03657675
5	0x3e6b8009	0.2299806
6	0x3e2d8377	0.16944681
7	0x3e8826bc	0.26592052
8	0xbe26473a	-0.16238108
9	0x3d91bb60	0.07115817
10	0xbe0d62b5	-0.13807185
11	0x3e700677	0.23439966
12	0xbe18c396	-0.1491836
13	0x3e5b3c7e	0.21409795
14	0x3e59dc28	0.21275389
15	0x3db18442	0.08667804
16	0xbe4d2351	-0.20033003
17	0xbe7138e9	-0.23556866
18	0x3ea4e6d0	0.32207346
19	0x3e9a46ce	0.30132145
20	0xbe8f377b	-0.27972016
21	0xbe647105	-0.22308739
22	0xbdc5dad2	-0.09660877
23	0x3ebc4977	0.367748
24	0x3eb75d35	0.358133
25	0xbcb1a577	-0.021685345
26	0x3e99b6e0	0.30022335
27	0x3d50841d	0.050907243
28	0xbeb2eb21	-0.34945014
29	0x3eaa17d3	0.332213
30	0xbd2b17ca	-0.041770734
31	0xbe4225d7	-0.18959747
32	0x3e919fb3	0.28442153
33	0xbe899037	-0.2686784
34	0xbd8a460e	-0.06751643
35	0x3d249d3c	0.040189013
36	0x3ec44e16	0.38340825
37	0x3c5d007b	0.013488884
38	0xbda13ab4	-0.07872525
39	0xbe062e45	-0.13103588
40	0xbe646bfa	-0.22306815
41	0x3e321d47	0.17393981
42	0x3da789d2	0.08180584
43	0x3e0f6803	0.14004521
44	0xbc6f3161	-0.014599175
45	0x3ea61948	0.32441163
46	0xbdd86651	-0.1056639
47	0x3e05ca2c	0.13065404
48	0x3d4147f7	0.04718777

encoder.encoder_layers.1.feed_forward.layer_norm.weight f4 [7]
0	0x3f7e8113	0.994157
1	0x3f7fdb21	0.9994374
2	0x3f7e9068	0.99439096
3	0x3f7f5e94	0.9975369
4	0x3f80787e	1.0036771
5	0x3f80ae92	1.0053275
6	0x3f8065c2	1.0031054

encoder.encoder_layers.1.feed_forward.layer_norm.bias f4 [7]
0	0xbb69d0d2	-0.0035677445
1	0x3b6564f3	0.0035002797
2	0xbb8be535	-0.004269267
3	0x3a1239bf	0.0005578063
4	0xbae073ec	-0.0017124391
5	0x3bad2c1d	0.0052847997
6	0xbae0b418	-0.0017143516

encoder.encoder_layers.2.encode_self_attention.W_Q.weight f4 [16, 7]
0	0xbe3470fa	-0.17621222
1	0xbd907da5	-0.07055215
2	0x3d3d8cb0	0.04627675
3	0x3e816380	0.25271225
4	0x3e35e5f1	0.17763497
5	0xbe989885	-0.29803863
6	0x3dcfbca4	0.10143402
7	0x3eb57123	0.3543788
8	0x3e2f0d1b	0.17094843
9	0xbd9dd989	-0.07707507
10	0xbe87ff2c	-0.26561868
11	0xbe545e07	-0.20738994
12	0x3ccb5376	0.02482007
13	0x3ea74d29	0.32676056
14	0xbda27292	-0.07932009
15	0x3c897e75	0.016783932
16	0x3ebb2a19	0.36555555
17	0xbe3aac5f	-0.18229817
18	0x3eb401b2	0.35157543
19	0xbd9bedd4	-0.076137215
20	0xbeabe0bd	-0.335699
21	0xbe6043cf	-0.21900867
22	0x3e5aa8a1	0.2135339
23	0xbe9e7efe	-0.30956262
24	0x3ea33f09	0.3188403
25	0x3eacc8bd	0.337469
26	0xbe7023a8	-0.23451102
27	0xbe00c158	-0.12573755
28	0x3e0cce17	0.13750492
29	0xbe327ed1	-0.17431189
30	0x3ce43d46	0.027861249
31	0xbe55786f	-0.20846723
32	0x3e6772ab	0.22602336
33	0x3e245390	0.16047502
34	0x3eb30c8c	0.3497051
35	0xbe84d146	-0.25940913
36	0xbe9eec39	-0.310396
37	0x3bb3437e	0.005470692
38	0xbea83826	-0.32855338
39	0xbddf800e	-0.10913096
40	0x3e863ab8	0.26216674
41	0xbdc0a25e	-0.09405969
42	0xbdaad07d	-0.08340547
43	0x3e8876d2	0.26653153
44	0x3ea03969	0.312938
45	0xbe8d1fea	-0.2756341
46	0x3e83f23c	0.25770748
47	0x3e83212b	0.25611243
48	0x3e532037	0.20617758
49	0x3e7af982	0.24509242
50	0xbdebbd0f	-0.115106694
51	0xbea4011e	-0.32032102
52	0xbb9afffb	-0.0047302223
53	0x3d8a02f6	0.06738846
54	0xbb5bdd5c	-0.0033548689
55	0xbe9d9545	-0.30777946
56	0x3c04c887	0.00810445
57	0x3b8c3752	0.0042790556
58	0xbebe07f3	-0.3711544
59	0x3e61c7b7	0.22048841
60	0x3e8c970f	0.27459
61	0xbe6b23e5	-0.22962911
62	0xbe3234a7	-0.17402898
63	0x3ebfe33c	0.37478054
64	0xbe0ca44a	-0.13734546
65	0x3ebb873c	0.36626613
66	0xbe865165	-0.26233974
67	0x3d3bd88f	0.045860823
68	0xbe500516	-0.2031444
69	0xbeaaf129	-0.33387116
70	0xbe9cf133	-0.3065277
71	0x3eabc990	0.33552217
72	0xbe087dce	-0.1332924
73	0x3e58e07d	0.21179385
74	0xbe34b4d1	-0.17647101
75	0x3e9f5ffe	0.31127924
76	0xbd4981f4	-0.0491962
77	0x3cec4936	0.028843503
78	0x3e832bee	0.25619453
79	0xbe070db1	-0.13188817
80	0xbe31bb29	-0.17356552
81	0xbe38d80c	-0.18051165
82	0xbd36be97	-0.044615354
83	0x3eaef82e	0.3417372
84	0xbe825b72	-0.25460392
85	0x3e95cb4c	0.29256666
86	0x3e56393a	0.20920268
87	0xbe9df98e	-0.30854458
88	0x3de0b4a4	0.109719545
89	0xbe5ca7aa	-0.21548334
90	0xbdf3aa1e	-0.11897682
91	0xbe84cc49	-0.25937107
92	0x3e08e032	0.13366774
93	0x3d8f1388	0.06986147
94	0xbeadd52c	-0.339517
95	0x3e44753d	0.19185348
96	0xbd5a0a73	-0.05323262
97	0xbe980dc9	-0.29698017
98	0x3e0f66a2	0.14003995
99	0xbdfcf889	-0.12352092
100	0xbeab8161	-0.33497146
101	0x3e37ba5c	0.17942184
102	0x3d6dd81f	0.058067437
103	0xbe8b88b6	-0.2725274
104	0x3e1ba4ee	0.15199634
105	0x3e03d7bd	0.12875266
106	0xbeb9fd17	-0.36325905
107	0xbde39b82	-0.11113645
108	0xbec1fb84	-0.37887204
109	0xbcd1694c	-0.025562905
110	0xbd25ba49	-0.04046086
111	0x3eb15885	0.34637848

encoder.encoder_layers.2.encode_self_attention.W_Q.bias f4 [16]
0	0x3e904b0d	0.2818226
1	0xbbf11d6a	-0.0073582428
2	0xbd3ddbc5	-0.046352167
3	0xbe8ce2d2	-0.275168
4	0xbe849955	-0.25898233
5	0xbdb89999	-0.090136714
6	0x3e740fac	0.23834103
7	0x3dbeac86	0.0931025
8	0x3e98eb2f	0.2986693
9	0x3e003b2e	0.12522575
10	0x3e02f2d4	0.12787944
11	0x3e3f51b0	0.18683505
12	0xbd30a8a0	-0.043129563
13	0x3e054c99	0.13017501
14	0x3dcfea65	0.10152129
15	0xbe871c16	-0.26388615

encoder.encoder_layers.2.encode_self_attention.W_K.weight f4 [16, 7]
0	0x3d9e2018	0.07720965
1	0x3ced0bf1	0.028936358
2	0xbe5e7e3c	-0.21727842
3	0x3e794155	0.24341328
4	0x3ea8bf6c	0.32958543
5	0xbd1b42ed	-0.037905622
6	0xbcc3c765	-0.02389879
7	0x3e79ae9c	0.24383014
8	0xbe88c4d7	-0.26712677
9	0xbe926580	-0.28593063
10	0x3e9b8ef0	0.3038249
11	0xbdd78f4f	-0.10525381
12	0xbe0ebf3f	-0.13940142
13	0x3d44a83d	0.048012007
14	0xbeb6015e	-0.35547918
15	0x3da8ee89	0.08248622
16	0x3e9de184	0.30836117
17	0xbb9166db	-0.00443731
18	0x3e072dd5	0.13201077
19	0xbd26f0cc	-0.040756986
20	0x3ea19cc7	0.31564924
21	0x3e53c9c8	0.20682442
22	0xbe9eb160	-0.309947
23	0x3e8008a8	0.25006604
24	0xbe4ffbcb	-0.20310895
25	0x3eaa921d	0.333146
26	0xbe3cc04f	-0.18432735
27	0xbe182eef	-0.14861654
28	0xbe8c2feb	-0.27380309
29	0xbe2a05c6	-0.16603765
30	0x3db998e5	0.090623654
31	0x3e520bce	0.20512316
32	0xbe9cc081	-0.3061562
33	0xbe1a1717	-0.1504787
34	0xbe10a4c9	-0.1412536
35	0x3e20368e	0.15645811
36	0xbe0679a0	-0.13132334
37	0x3e128ea9	0.14312233
38	0xbe706e6e	-0.23479626
39	0xbe2cd807	-0.16879283
40	0x3eba71d6	0.36414975
41	0x3eb2e211	0.349381
42	0x3cd0c65f	0.025485216
43	0xbd1f5cf0	-0.03890699
44	0xbea46592	-0.32108742
45	0x3e944ff0	0.28967237
46	0x3e6db3be	0.23213097
47	0xbe6371b8	-0.22211349
48	0xbe2b3369	-0.1671883
49	0xbea1be78	-0.3159063
50	0xbcdbb3e3	-0.026819175
51	0x3e843a2e	0.25825638
52	0x3c1628a9	0.009164968
53	0xbd94738d	-0.07248602
54	0x3e9eccaa	0.3101552
55	0x3e9562ee	0.2917704
56	0xbce33794	-0.027736463
57	0x3e607ee4	0.21923405
58	0xbd674358	-0.05646071
59	0x3ebaa87c	0.36456668
60	0x3d7747e0	0.06037128
61	0x3dc7d304	0.09757045
62	0x3e645a64	0.22300106
63	0x3e8f16ff	0.27947232
64	0xbdf8dcaa	-0.12151463
65	0x3eb7225e	0.35768408
66	0x3c1b93cf	0.0094956895
67	0x3eb9c55d	0.3628339
68	0x3cdc19ff	0.026867865
69	0xbd96ea8d	-0.07368956
70	0xbd58b8f7	-0.05291077
71	0x3d8c24ee	0.06842981
72	0xbe84129e	-0.25795454
73	0x3ec1b4c8	0.37833238
74	0xbd8f9008	-0.07009894
75	0x3eb25bee	0.34835762
76	0x3d48a476	0.048984967
77	0x3cf455fe	0.02982616
78	0xbe4f51b6	-0.20246014
79	0x3e06eae3	0.1317554
80	0x3e7bdead	0.24596663
81	0x3dbd8169	0.09253199
82	0x3e00b618	0.12569463
83	0x3e8ad994	0.27119124
84	0xbeaf406d	-0.3422884
85	0x3d28d838	0.041221827
86	0xbeabbb8c	-0.33541524
87	0xbe09bb62	-0.13450387
88	0x3ebc234b	0.36745676
89	0xbd94cd47	-0.07265716
90	0xbd864551	-0.0655619
91	0xbe53550d	-0.20637913
92	0x3a0a5155	0.00052764016
93	0xbe1e9056	-0.15484747
94	0x3e60bed6	0.21947798
95	0x3eac6422	0.33670145
96	0xbe98b7d6	-0.29827756
97	0xbc258e25	-0.010104691
98	0xbe2c95ec	-0.16854066
99	0xbe1d136a	-0.15339437
100	0x3ebfed89	0.37485912
101	0xbe770a45	-0.24125011
102	0xbe4d0cf0	-0.20024467
103	0x3e9946cc	0.29936826
104	0xbd88a6bc	-0.06672427
105	0x3e3360b0	0.17517352
106	0xbe97974d	-0.2960762
107	0xbe0d2ebe	-0.13787362
108	0x3d61e0e1	0.0551461
109	0x3e160300	0.14649582
110	0xbe9a6841	-0.30157664
111	0xbe96116a	-0.2931016

encoder.encoder_layers.2.encode_self_attention.W_K.bias f4 [16]
0	0xbea5805a	-0.32324487
1	0xbe6befe7	-0.23040734
2	0x3de9f874	0.11424342
3	0x3ddc6e89	0.107632704
4	0xbe73dd71	-0.23814942
5	0xbe758d62	-0.23979715
6	0xbd1224b8	-0.03567955
7	0x3e9e5655	0.3092524
8	0x3e857c91	0.260716
9	0x3d8bc997	0.068255596
10	0x3e04a846	0.12954816
11	0xbd7b4850	-0.06134826
12	0xbea52779	-0.32256678
13	0x3e9a3fcb	0.30126795
14	0x3e8d98d7	0.2765567
15	0xbe80dc5c	-0.2516812

encoder.encoder_layers.2.encode_self_attention.W_V.weight f4 [16, 7]
0	0x3e65d6d5	0.22445233
1	0x3eb70d2b	0.35752234
2	0x3ce65d1a	0.028120566
3	0xbeb9f407	-0.3631899
4	0x3ea21a10	0.3166051
5	0x3eb61852	0.3556543
6	0x3ccd980e	0.02509692
7	0xbeb344af	-0.3501334
8	0x3e084a0e	0.133095
9	0xbe68947b	-0.22712891
10	0x3e1a6af7	0.15079866
11	0xbe30244d	-0.17201348
12	0xbe8fdcde	-0.28098196
13	0xbdb6eabd	-0.089314915
14	0xbeacbac6	-0.33736247
15	0xbe786586	-0.24257478
16	0x3e3f0826	0.18655452
17	0x3e987d8a	0.2978328
18	0xbd9ff5ab	-0.07810529
19	0x3d805d89	0.062678404
20	0x3ea912b5	0.33022085
21	0x3e8f9b92	0.28048378
22	0x3e1ee630	0.15517497
23	0x3d438791	0.047736708
24	0xbc5fc442	-0.013657631
25	0xbea6a628	-0.32548642
26	0x3dea505d	0.11441109
27	0xbe15c453	-0.14625673
28	0x3d8ebb99	0.06969375
29	0x3e3f57b8	0.18685806
30	0x3e32331d	0.1740231
31	0xbd9367bd	-0.07197521
32	0xbeba5124	-0.3639003
33	0xbe653062	-0.22381738
34	0x3dd701b0	0.10498369
35	0xbd247690	-0.040152133
36	0xbdc8f348	-0.09812027
37	0xbe8038a9	-0.25043228
38	0xbe1f3d95	-0.15550835
39	0xbeaf1655	-0.34196725
40	0x3cdda887	0.0270579
41	0x3e00dd24	0.12584358
42	0xbad93427	-0.0016571329
43	0xbcb6fb5a	-0.02233665
44	0x3eae2fd8	0.34020877
45	0x3d94ac4e	0.07259427
46	0x3e72c50e	0.23707983
47	0x3e919c7f	0.2843971
48	0xbe0bcc84	-0.13652235
49	0x3e27c7f8	0.16384876
50	0x3e84e854	0.25958502
51	0xbe1c45c9	-0.15260996
52	0x3ea4b7d7	0.3217151
53	0xbea2e41e	-0.31814665
54	0xbea49a56	-0.32149
55	0x3eae6238	0.3405931
56	0xbd87560b	-0.06608208
57	0x3c21607d	0.009849665
58	0x3e5a3912	0.21310833
59	0xbe7eaa23	-0.2486959
60	0xbeab0b5e	-0.3340711
61	0xbe658053	-0.22412233
62	0xbe61f26e	-0.22065136
63	0x3e12a193	0.14319448
64	0x3e9257ea	0.28582698
65	0xbca929c5	-0.0206498
66	0xbd01a8ab	-0.031654995
67	0x3e80ad7c	0.25132358
68	0xbe7269a0	-0.23673105
69	0x3e9f58ac	0.3112234
70	0xbdf14b8d	-0.11781988
71	0xbe563bfc	-0.2092132
72	0xbe12647b	-0.14296143
73	0xbdb56616	-0.08857362
74	0xbe3af2a2	-0.1825662
75	0xbc301015	-0.010746022
76	0xbe9679ae	-0.2938971
77	0xbd4f2cde	-0.050579898
78	0xbe882d25	-0.26596943
79	0x3d01ca6b	0.03168718
80	0xbd660d6f	-0.056165155
81	0x3ebb04fb	0.36527237
82	0x3e8f6837	0.28009197
83	0xbe99868a	-0.29985458
84	0xbd8c2e6b	-0.06844791
85	0x3e346826	0.17617854
86	0x3e8f0ba6	0.27938575
87	0x3e1ea5a6	0.15492877
88	0x3e81bb30	0.25338125
89	0x3ebbc9eb	0.3667749
90	0xbea47fb5	-0.32128683
91	0x3ea074fb	0.3133925
92	0xbe646f33	-0.22308044
93	0x3dc5d420	0.096596
94	0x3e175ecb	0.14782254
95	0xbea3d68b	-0.3199962
96	0x3e757b9e	0.23972937
97	0xbe26f107	-0.16302882
98	0xbd8e6b05	-0.06954006
99	0xbe899c71	-0.26877168
100	0xbeb2396a	-0.34809428
101	0xbe5d38cf	-0.21603702
102	0x3d79688a	0.06089071
103	0x3de09cf6	0.10967438
104	0x3cf9711d	0.030449444
105	0xbeac0ac4	-0.33601964
106	0x3e4becc0	0.19914532
107	0xbdade6ba	-0.08491273
108	0xbe9b1ccc	-0.30295408
109	0x3e7bf4f6	0.24605164
110	0xbe003ecd	-0.12523957
111	0x3e3e644a	0.18592945

encoder.encoder_layers.2.encode_self_attention.W_V.bias f4 [16]
0	0xbe75bf73	-0.23998813
1	0xbe639ca2	-0.2222772
2	0x3e155b82	0.14585689
3	0xbca04100	-0.019562244
4	0x3e1a883c	0.15091032
5	0x3d5cb7f4	0.05388637
6	0x3e9b6b28	0.3035519
7	0xbeb8a96a	-0.36066753
8	0xbdfbf6c0	-0.12302923
9	0x3e20dd34	0.15709382
10	0xbdf57eeb	-0.11987098
11	0x3e850972	0.2598377
12	0x3dcdff18	0.10058421
13	0x3e4125b6	0.18862042
14	0x3c3d5637	0.0115562
15	0xbe093bb3	-0.1340168
