LSTM/model_endecoder/best_epoch_model.pth (torch, 50320 bytes, 6 tensors)

lstm.weight_ih_l0 f4 [200, 7]
000000 51 6c dd bc 37 29 40 3e 0b 66 e5 3d 67 ed 34 3e
       -0.027029188 0.18765722 0.11201104 0.17668687
000010 69 a7 0a 3d 7c ed db 3d 2c 5d 34 3e 18 f2 c3 3c
       0.03385106 0.10738656 0.17613667 0.02391915
000020 fb 19 c7 3d 27 67 a6 bd 3f 11 92 3d c4 db 51 be
       0.09721752 -0.081251435 0.07132196 -0.2049399
000030 ba 13 e0 ba 16 7e 04 3e 38 f3 91 3d e4 ac 03 bd
       -0.0017095723 0.12938723 0.071264684 -0.032147303
000040 b9 11 91 bc 8e 28 ef bc bd 3b 54 3d 25 65 e6 bd
       -0.017708646 -0.029194143 0.051814783 -0.112497605
000050 9c ce 14 3d 1b 3a ff 3d 6b d3 4b bd a8 b5 78 bd
       0.03632985 0.124622546 -0.04976217 -0.060720116
000060 1c 43 4d 3d ab 00 c3 3c c9 c9 52 3e ec 1d 9c 3d
       0.05011283 0.02380403 0.20584787 0.07622895
000070 7c cd a4 3d c7 e7 3b bd 8a 23 e5 3d e6 19 01 bd
       0.080470055 -0.045875337 0.11188419 -0.03151884
000080 be 96 84 3d ad 87 c9 3d 34 00 d2 3d 5b d8 df 3d
       0.06474064 0.09840331 0.10253945 0.109299384
000090 56 b1 11 bd 5b 8d 2a 3d 5b 08 d8 3d 36 fe e2 3d
       -0.03556951 0.041638713 0.10548469 0.11083643
0000a0 96 3c b5 bd 88 d9 cd bd 04 a9 4f 3e 85 9c de 3d
       -0.088494465 -0.100512564 0.20279318 0.108696975
0000b0 29 2b 26 3e b3 fa 25 3d f2 18 32 be 5e 72 9d 3d
       0.16227402 0.04052229 -0.17392328 0.076878294
0000c0 cb c1 ff 3d 43 e1 0b 3e a9 61 b7 3d 78 e5 06 be
       0.12488135 0.1366015 0.08954174 -0.13173473
0000d0 91 e5 81 3d 59 3b b4 bd b3 b7 c4 bd 4d 6b b7 bd
       0.063426144 -0.08800382 -0.0960535 -0.08956013
0000e0 e4 52 47 3e f5 4a e8 3d 02 e5 28 3d a9 11 d0 3d
       0.19465214 0.11342422 0.041234024 0.101596184
0000f0 a0 60 46 3d 99 7c ab bc 33 80 6c 3b 71 63 5a bd
       0.048431993 -0.020933436 0.0036087155 -0.05331749
000100 7c b9 8d bd c3 33 e8 3d 70 ea c5 bd 2c 30 f9 3d
       -0.06920144 0.11337998 -0.09663856 0.12167391
000110 cc 62 cd bd ad 1b 25 3e b2 12 ce 3c d8 95 a2 3d
       -0.1002861 0.16123839 0.025155399 0.07938737
000120 7f 36 56 3d 4f d8 2a 3c ca fc 57 3b 94 79 0f 3e
       0.052298065 0.010427549 0.003295707 0.14011222
000130 91 df db 3d 61 39 9e 3d b9 64 9f bd e3 1b 0f 3e
       0.10736001 0.07725788 -0.07782883 0.13975482
000140 0c 78 7d 3d d7 10 a2 bd 0f cd 29 3d 0f 81 8b 3d
       0.061882064 -0.07913368 0.041455325 0.06811725
000150 b9 2a 9a bd ba e0 ca 3c 66 20 20 3e 06 fe 79 3c
       -0.0752768 0.024765361 0.15637359 0.015258318
000160 a2 16 0b be ab 3e 06 3d 65 04 8e 3d 01 76 32 3e
       -0.13582852 0.03277461 0.06934432 0.17427827
000170 a7 39 7c bd fd 18 17 3d fa 0b d2 bd 63 30 4f be
       -0.06157842 0.036889065 -0.102561906 -0.20233302
000180 07 9e d6 3c 2a 0c 34 3e b3 d6 95 bd 4f 82 ec bc
       0.0261984 0.17582765 -0.07316341 -0.02887073
000190 ef 13 76 bd 2d ed d5 ba 0f c6 54 3d 38 bc 09 3e
       -0.060077604 -0.0016321294 0.051946696 0.13450706
0001a0 63 91 34 bd ab ec c4 3d 51 77 96 bb 91 08 2c 3d
       -0.044083964 0.09615453 -0.0045918603 0.042000357
0001b0 e9 31 0a 3e e9 32 86 bd bd 86 cb 3d 4c a9 ed 3d
       0.13495602 -0.06552679 0.09937809 0.116045564
0001c0 70 a7 8e bc 8f 63 24 3d db c3 fd 3d 15 c4 1f 3e
       -0.017413825 0.04013401 0.12390872 0.15602143
0001d0 fb a7 9a bd 4f 0b 1a bd 7b 3e 34 3e 9f ce 03 3e
       -0.07551571 -0.03760844 0.1760196 0.12871788
0001e0 ce 22 0d 3e 6d 78 c9 3d 01 0d 1d 3e 74 a6 0f 3d
       0.13782808 0.098374225 0.15336992 0.03507085
0001f0 13 ce 6c bd a7 60 69 bd de 90 89 3c 42 fb 7c 3b
       -0.057813715 -0.05697694 0.01679271 0.003860191
000200 56 b0 a1 3c a9 1a c2 3d 1b 01 89 bd c3 a2 33 3d
       0.019737404 0.09477741 -0.06689664 0.043856394
000210 90 ba 18 3e 53 8b cd 3d 33 2e 58 3d 21 21 9e bd
       0.14914918 0.100363396 0.052778434 -0.077211626
000220 a2 59 68 3c 89 08 57 bd b6 55 c8 3d 23 67 00 be
       0.014181526 -0.052498374 0.09781973 -0.12539344
000230 08 b7 4e 3e 5c 31 eb 3c 66 22 0d 3d 2e f6 5b bd
       0.20187008 0.02871006 0.034456633 -0.053701572
000240 78 c9 35 bb 84 c4 b3 3d f1 5f d7 3d 75 67 1b 3e
       -0.0027738493 0.08777717 0.10516346 0.15176184
000250 56 d0 e9 3d af 3f bc 3d 94 f3 ad 3b 88 7c cd bc
       0.1141669 0.09191834 0.005308578 -0.025083795
000260 23 74 84 bd 16 0d a2 3d 7a 6a 05 3e 3c 57 a2 bd
       -0.06467464 0.07912652 0.13028899 -0.07926795
000270 f7 d8 13 bc a8 4e 00 3e 75 80 42 bd c0 2d 0d bc
       -0.009023896 0.12530005 -0.047485787 -0.008616865
000280 5e f7 10 3d 6b bd 38 3d b0 79 9a bd aa 95 43 3e
       0.035392158 0.045102518 -0.07542741 0.19100061
000290 2e 9b 0b 3e eb 27 10 be 31 49 80 3d 6b 9e 69 bd
       0.13633415 -0.14077727 0.0626396 -0.057035845
0002a0 9e 7e 2a 3e d8 bd dc 3d 5f a1 8e bd ff db 94 3d
       0.16649863 0.10778397 -0.06964373 0.072685234
0002b0 05 da 30 bd 88 01 dd 3d 78 1e fe 3c ca 86 64 bd
       -0.04317667 0.10791308 0.031020388 -0.055792607
0002c0 47 e3 ba bd a8 1c ed bd e2 28 01 be 3e f6 fe 3d
       -0.09125381 -0.11577731 -0.12613252 0.12449311
0002d0 c9 8a 99 3d e2 6d 32 3d 05 ea 76 bc e6 08 0e 3e
       0.07497174 0.043561824 -0.015070443 0.13870582
0002e0 90 c6 ee bc 60 3f 04 bd c3 a5 39 3d aa f9 ca bc
       -0.029147416 -0.032287 0.0453241 -0.024777252
0002f0 60 3e 4e 3e 4c a7 6d 3d ea ff 36 3d 70 58 55 3e
       0.20140982 0.058020875 0.044677652 0.20834517
000300 45 62 14 3d f0 be 8d 3c 48 81 19 3e 17 89 8f 3d
       0.03622653 0.01730296 0.14990723 0.0700857
000310 ac 5a 44 3e d3 6f 18 3d e8 b4 ab 3d a9 3f 9b bd
       0.19175214 0.03721602 0.083841145 -0.075805016
000320 1a 7f d6 bd 1c c1 38 3e d1 ed e0 bc 09 fc 9f bd
       -0.104734614 0.18042415 -0.02745715 -0.07811744
000330 54 b6 c5 3c 83 03 03 3c 75 34 70 bd 1c ae 18 bd
       0.024134792 0.007996443 -0.058643777 -0.03727542
000340 17 c8 85 bd 97 27 d5 3d 24 f7 96 bd 06 5a 9d 3d
       -0.06532305 0.10407942 -0.07371357 0.07683186
000350 75 b2 0c 3e e2 7c 8a bd 47 cf 35 bd 0a 01 23 3e
       0.13739951 -0.06762101 -0.04438713 0.15918365
000360 12 7f 8c 3c 17 68 e0 bd d2 88 80 3d 87 db 86 3d
       0.017150436 -0.109573536 0.062760964 0.0658484
000370 29 07 20 3b e3 c0 a6 3d 07 00 8a 3c a3 b7 f0 bd
       0.002441833 0.08142259 0.016845716 -0.11753776
000380 ee 15 b0 3d 94 00 d7 bc a8 ca e8 3c 14 62 d3 3d
       0.08597933 -0.026245393 0.028416947 0.10321441
000390 0e c2 b7 bc 54 8e 23 3d eb 7b b8 3d 24 8f d9 3c
       -0.0224314 0.039930657 0.090080105 0.026557513
0003a0 39 d0 26 3d d6 95 03 be e4 86 ef 3d 3c 8f 36 bd
       0.04072592 -0.12850127 0.1169565 -0.044570193
0003b0 d5 44 a4 bd a2 01 3c bd e6 36 6b 3d 8a d0 20 3e
       -0.08020941 -0.045899995 0.057425402 0.15704551
0003c0 ae b9 0d bd a4 a9 18 3e ea 1a 0e 3d ed 05 30 3e
       -0.034600906 0.14908463 0.034693636 0.1718976
0003d0 db dd 65 bc 44 13 83 bc be c0 e0 bb 57 ea 41 bc
       -0.014029945 -0.016000398 -0.006858914 -0.011835656
0003e0 dd 38 25 bd 74 7f 92 bd f0 b4 82 bd 5a 04 9e bd
       -0.040337432 -0.07153216 -0.06382167 -0.07715674
0003f0 f9 08 2e 3e f7 2b 56 bd 9a 5e e9 3d a8 2e f5 3d
       0.1699561 -0.052288022 0.11394997 0.119717896

lstm.weight_hh_l0 f4 [200, 50]
000000 60 c1 55 3d f4 66 15 3e 89 e0 82 bd a0 fd 44 bc
       0.05218637 0.14590055 -0.06390483 -0.01202336
000010 bd e1 4d be ca 64 e8 3d 23 9e 2b be 85 73 4a 3d
       -0.20105644 0.11347349 -0.16759543 0.049426574
000020 55 d8 87 3d 12 88 1c bd b7 a9 22 3e d0 b6 bd 3b
       0.06633059 -0.038215704 0.15885054 0.005789615
000030 7e 9c 09 be b1 e7 67 3d ca fc 18 bd 21 16 ec 3d
       -0.13438603 0.056617443 -0.037350453 0.11527658
000040 c0 ec 2a be 9b 04 29 3e b2 32 b1 bd 42 18 c2 bd
       -0.16691875 0.16505663 -0.086522475 -0.09477283
000050 5f ac 8d 3c 5d de 6d bd fe b9 46 be 3c 6f 41 be
       0.017294107 -0.05807339 -0.19406888 -0.18890089
000060 6d 3c a3 ba 60 0e 89 bd 7e 5e 52 be e3 7d 4e bd
       -0.0012453921 -0.06692195 -0.20543858 -0.050413024
000070 20 52 f4 bd 64 66 02 3e 73 f3 eb bc d4 0b 60 3d
       -0.119297266 0.12734371 -0.02880261 0.05469878
000080 c5 63 c8 3d ba 70 a0 bd f7 5e 4f be b0 f0 4f 3d
       0.097846545 -0.07834001 -0.2025107 0.050766647
000090 5a 49 49 bd 09 57 9d bd 7b 59 97 bd a4 04 a2 bd
       -0.04914222 -0.07682616 -0.07390114 -0.079110414
0000a0 9d 95 91 39 0f f3 23 be 1c 81 4c 3d ea c1 8d bd
       0.00027768026 -0.16010688 0.049927816 -0.06921752
0000b0 96 7e 4c 3c 5d 0d 17 3e 1f 8e d6 3b 2d a8 65 bd
       0.012481352 0.14751191 0.006547704 -0.056068588
0000c0 b6 92 88 bc f0 2f a6 3d 9b 23 3d be 34 4c 7c bd
       -0.01667152 0.08114612 -0.18470614 -0.06159611
0000d0 3e 6d 91 bd 67 02 45 3e 2d 6b e6 bc 35 3a 6b 3d
       -0.071009144 0.19239198 -0.028127277 0.057428557
0000e0 79 0d fe 3c e6 b8 70 bd e1 c4 84 3d 4e 28 cd 3c
       0.031012284 -0.058770083 0.06482864 0.025043633
0000f0 56 21 cb 3d af e8 dc bc cf de 9e 3d 2f bf df 3a
       0.09918468 -0.026966421 0.07757341 0.0017070527
000100 56 f8 10 be 4d d2 43 3d 7f a6 2d bd ee 6d 03 3e
       -0.14157233 0.04780798 -0.04239511 0.12834904
000110 5f fa 8a 3c c6 2a 42 3b 81 02 58 bd bf 70 02 3e
       0.01696509 0.0029627546 -0.052736763 0.12738322
000120 5d a2 30 be c4 0a ee 3b be b5 23 bd 8a a3 05 be
       -0.17249437 0.007264467 -0.039968245 -0.13050666
000130 40 09 0b be 00 68 41 be b4 05 16 be dc e7 e0 3d
       -0.13577747 -0.18887329 -0.14650613 0.10981724
000140 1c c5 ea bc c1 b3 3c bd 13 19 b1 3d 90 60 73 bd
       -0.028658442 -0.046069864 0.08647361 -0.05941826
000150 9a d6 0c be f1 2f 67 3c 58 f8 97 3d d8 3e 72 bd
       -0.13753739 0.014110551 0.07420415 -0.059141964
000160 ed 1f 63 3c 38 14 0d be 40 6b 95 3c 83 93 7a bd
       0.013862592 -0.13777244 0.018239617 -0.061175834
000170 2c 63 45 be 8d c0 7e 3d 89 d4 60 bd f6 91 99 bd
       -0.19276112 0.06219535 -0.05489019 -0.07498543
000180 e6 bb 20 3e 11 a8 8c 3d 22 45 46 3d 15 3a 73 3d
       0.15696678 0.068679936 0.048405774 0.059381563
000190 ed e3 24 3e d9 fb af 3d d7 f5 c6 bd de af 59 bb
       0.16102572 0.08592958 -0.09714859 -0.0033216397
0001a0 f2 5b 88 bd e4 7f e7 3d e9 6a c7 3c 32 25 ef bd
       -0.06658162 0.1130369 0.02434297 -0.11677016
0001b0 a1 e6 9b bc 8b be 0e be 37 12 8c 3d 0a 47 15 bd
       -0.01903087 -0.13939874 0.06839412 -0.0364447
0001c0 d3 be 20 3c c4 6c a4 3d cc 07 0c be b2 87 e2 bd
       0.009811121 0.08028558 -0.1367485 -0.11061038
0001d0 b7 e0 17 be 03 8f 2b bd a5 38 8e bd 0e ee 10 3d
       -0.14831816 -0.041884433 -0.06944398 0.035383277
0001e0 e9 0f 98 bd b3 61 ce 3d 21 f2 08 bd f7 cf fa bc
       -0.074249096 0.100772284 -0.033434037 -0.030616743
0001f0 f7 5e 3d bc c4 b4 5f 3d 24 1c 96 bd 85 2e aa 3d
       -0.011558286 0.05461575 -0.07329586 0.08309654
000200 72 f8 ab 3d 5d de 09 be 0e 37 8e bd 5d 43 8a bd
       0.083969966 -0.13463731 -0.069440946 -0.0675113
000210 b9 23 33 3d de 49 d2 bd b9 fa 27 bd f0 98 da 3c
       0.04373524 -0.10267995 -0.041010592 0.026684254
000220 2f ec 39 3d 33 80 e2 bb 5e 5f ec bd a2 b1 93 3d
       0.045391258 -0.006912255 -0.11541627 0.07211615
000230 e4 9a 14 3d 6c 7e 99 bd 78 8b b6 3d 82 02 6b bc
       0.036280528 -0.07494816 0.0891332 -0.01434386
000240 e2 2a f8 3c a9 75 70 bc 66 c2 cd 3d ab 4b 6a bd
       0.030293886 -0.01467649 0.10046844 -0.05720107
000250 23 c2 0f bd dc 91 53 bd 7d d1 39 be 02 22 04 3e
       -0.035097253 -0.051652774 -0.1814632 0.12903598
000260 30 5f 88 bd a6 75 a9 3d 9b bb 09 be d2 a0 ec 3d
       -0.066587806 0.08274393 -0.13450472 0.115541115
000270 90 8f 4f be 27 28 1c 3e b4 c4 3d be 5c 3e 3e bc
       -0.20269608 0.15249692 -0.18532068 -0.011611547
000280 a5 0b bc 3d 25 3d 1e 3e 1e 10 48 be 82 db 5b be
       0.091819085 0.15453012 -0.19537398 -0.21470454
000290 30 b3 14 be ba ce 58 3d 7c a2 c8 3d f9 e3 56 bd
       -0.1452148 0.052931525 0.097966164 -0.052463505
0002a0 53 08 dd 3c 19 78 27 bd 8b e0 51 3d af 71 3d 3e
       0.026981508 -0.04088602 0.05123953 0.18500398
0002b0 02 28 2e be 6a ab 30 be 05 e7 1d 3e c7 e3 1f be
       -0.1700745 -0.1725289 0.15420158 -0.15614234
0002c0 e2 b6 0f be 8e 96 1f bd 33 de 14 be 52 57 2a 3d
       -0.14034608 -0.03896194 -0.14537887 0.04158718
0002d0 a8 da 23 3d 5f 02 07 3d de 46 4f 3e 87 49 38 be
       0.04000345 0.032961246 0.20241877 -0.17996798
0002e0 66 5a 2c 3d 6f ce ab 3d d8 b6 93 3d e3 fa 3f be
       0.0420784 0.083889835 0.07212609 -0.1874805
0002f0 10 85 22 3d 75 85 ec 3b 4c e7 2d 3a 33 ff e8 bd
       0.03967768 0.0072180578 0.0006633892 -0.113768004
000300 09 05 5e bc e4 c9 d8 bd 7e fd 2b 3e ec 48 b5 3d
       -0.013551005 -0.105853826 0.16795918 0.08851799
000310 44 81 f1 3d 96 05 56 3b 19 c0 d5 3d ed e4 f8 3d
       0.117922336 0.0032657138 0.1043703 0.12153039
000320 d9 5c 0e be fd 54 0f bd 6c b6 1e 3d 58 04 b4 3c
       -0.13902606 -0.03499316 0.03874819 0.021974728
000330 df 6b c6 bd 46 90 26 bd d7 3e a9 3b 9e cf d3 bc
       -0.096885435 -0.040664934 0.005164962 -0.025855836
000340 bb ba df bc 9c 84 2b be 90 27 15 bd b9 97 de 3d
       -0.02731072 -0.16749805 -0.036414683 0.108687826
000350 73 06 44 be 9b 91 28 3d d1 91 11 be fe 77 54 3e
       -0.19143085 0.041154485 -0.14215781 0.20748898
000360 52 64 39 bd bd fd 48 bd 55 0b 8e 3d 64 08 5c 3b
       -0.04526169 -0.04907011 0.06935755 0.0033574337
000370 75 3a 4e 3d 85 52 c5 3d cc bf 20 be 9b 2c cb 3c
       0.050348718 0.0963488 -0.15698165 0.024801543
000380 77 3c 52 bd 54 2e 13 3d e6 70 3f 3b 5a 35 3b be
       -0.051327195 0.035932854 0.002921158 -0.18282071
000390 0e 75 83 bc 0b 6b 3d 3e ab 63 0d 3d 87 ad 3f 3c
       -0.016047027 0.18497865 0.03451888 0.011699087
0003a0 b0 51 58 3c bc 51 0e bd e2 17 32 be 63 6e b6 bc
       0.01320307 -0.034745917 -0.17391923 -0.022269433
0003b0 4f 54 66 3d a1 01 04 bd e5 a8 18 bd 58 0a 1c be
       0.056232747 -0.032228116 -0.037270445 -0.15238321
0003c0 26 af ba bd e0 9c d8 3c b1 c1 15 be 68 a1 a7 bd
       -0.09115438 0.026441991 -0.14624669 -0.08185083
0003d0 6d d6 ff 3d 2b 3d 0a 3e 05 18 4c 3d d4 0f de 3d
       0.1249207 0.13499896 0.049827594 0.10842863
0003e0 ee e8 fa 3d 3a 47 7d bd 3b 59 34 3f 44 74 1f 3d
       0.12251459 -0.061835505 0.70448655 0.03892924
0003f0 8e d1 b8 3d 45 be 43 be 35 49 be bd 0a 32 06 be
       0.090243444 -0.19115551 -0.09291307 -0.13105026

lstm.bias_ih_l0 f4 [200]
000000 bc 5a 47 bd 11 f2 88 bb 17 1e 01 be e4 65 b8 3d
       -0.048670515 -0.004179247 -0.12609135 0.09003809
000010 6a fb a1 3d 0c 33 9c 3d e3 5e 54 3e ff be 5e 3d
       0.079092816 0.07626924 0.20739321 0.054381367
000020 e8 5c 0d bd 89 7a e3 bc b4 89 26 bd a2 e7 24 3e
       -0.03451243 -0.02776839 -0.040658668 0.16103986
000030 cf 72 49 3e 82 9b ae bb 92 09 4b bd a1 e6 09 3e
       0.19672702 -0.0053285966 -0.049569674 0.13466884
000040 a5 26 cc bc 7a 02 d5 3d ca 99 d8 3d b1 0d f7 3c
       -0.02492077 0.10400863 0.10576208 0.030157896
000050 fb 54 3e bc af 0d 2d 3d 4c e5 a2 bb 0e 18 c6 3d
       -0.011616941 0.042249378 -0.004971182 0.09672557
000060 eb ce 21 bd 7f 2f 0c 3e 42 8a 84 bd 54 15 a9 bc
       -0.039503973 0.13689993 -0.06471683 -0.020640053
000070 01 c7 6a 3d ab 13 8b bd 47 7f ff 3c ab 3e 08 3d
       0.05731869 -0.06790861 0.03118862 0.03326289
000080 5f 8a f4 3d 41 f7 b4 3d c3 33 3d 3e 59 ab 21 3c
       0.11940455 0.088362224 0.18476777 0.009867513
000090 4c b9 88 bd 6f dd 35 3e 8c ab fd bc 97 7a 2d 3d
       -0.066759676 0.17760251 -0.030965589 0.04235324
0000a0 ad e0 83 3c 65 96 1b 3e f7 c8 57 bb 90 23 b5 3d
       0.016098345 0.1519409 -0.003292618 0.08844674
0000b0 e4 73 44 3e 9a e5 92 bd 05 bb 21 bd c8 0a d4 3d
       0.19184834 -0.07172699 -0.039484996 0.10353619
0000c0 05 8e f2 3d f5 94 d6 3d 4f f8 b9 3d 5e fd 22 3e
       0.11843494 0.1047763 0.09080564 0.15916964
0000d0 04 43 fd bd 21 6b 30 3e a1 0c 47 3c 61 df 00 be
       -0.12366298 0.17228366 0.012149007 -0.12585212
0000e0 ce 2e 97 bd 66 08 a6 3d 9f 53 88 bd d1 f7 b4 bd
       -0.07381974 0.081070706 -0.066565745 -0.0883633
0000f0 78 56 94 3d 6d 70 1d 3e e0 60 c8 3b f5 96 38 3e
       0.07243055 0.15374918 0.006115064 0.18026336
000100 53 07 a1 bd d2 7b d8 3d a2 78 17 bd 0b 76 e2 3d
       -0.07862725 0.10570492 -0.03698028 0.11057671
000110 3c 0a f4 3d 5a a7 97 bd 71 5b 28 3e f1 ad 03 bd
       0.119160146 -0.07404967 0.16441132 -0.032148305
000120 6b d6 a9 bd 70 ce 85 3d 39 0f 4a bc 3b 46 03 3e
       -0.0829285 0.065335155 -0.012332731 0.1281976
000130 d7 5a 97 3d e8 ca 12 3c 08 68 4e 3e 26 14 d1 3d
       0.07390373 0.008959509 0.20156872 0.10208921
000140 d7 09 35 3d 25 d9 7e 3d 96 c1 16 3e 81 65 82 3d
       0.044198837 0.062218804 0.14722285 0.063670166
000150 47 3f b9 3d 61 00 2e 3e 5f f7 13 3e e8 13 18 3e
       0.09045272 0.16992332 0.14449833 0.14851344
000160 28 40 af bb 35 c7 82 3c 5d a3 54 bd 08 4e 15 3e
       -0.005348224 0.01596413 -0.051913608 0.14580548
000170 cf bb 95 3d 47 e0 36 3e 28 13 03 bc e1 e3 80 bd
       0.07311212 0.17858993 -0.008000173 -0.062934645
000180 93 8b 8d 3d f3 f3 c0 3d 67 75 af bd 64 51 0c 3e
       0.06911387 0.094215296 -0.085673146 0.13702923
000190 be f7 64 bc 69 bc 95 3d d3 08 c5 3d b1 9d 5c 3d
       -0.013975082 0.07311327 0.09620824 0.053861324
0001a0 84 1d 42 be d7 ca a6 3d a0 5b a6 bd 3d 06 ff 3d
       -0.18956572 0.081441574 -0.08122945 0.12452362
0001b0 d8 f3 39 be 56 a8 0d be 85 eb 6f 3d 61 3d 41 3e
       -0.18159425 -0.13833746 0.05857422 0.1887107
0001c0 b6 f4 93 3a 6b 35 06 be 16 90 6f bd b0 c6 cb 3d
       0.001128814 -0.13106315 -0.05848702 0.09950006
0001d0 b1 a3 82 3d ac c8 52 3e 52 f6 0a be b3 90 1b be
       0.06378878 0.20584363 -0.13570526 -0.15191917
0001e0 30 4a 4a 3e 3c 5f dc 3d 96 e7 7c bd 06 dd 36 be
       0.19754863 0.10760352 -0.061744295 -0.17857751
0001f0 50 17 12 3e 0c e6 84 bd 08 55 1f be c3 2c 3b bd
       0.14266706 -0.064891905 -0.1555978 -0.045696985
000200 dc 37 1a be f0 fa a0 3c a9 f0 9d 3c f3 cd 1b be
       -0.15060371 0.019650906 0.019279795 -0.15215282
000210 b2 b5 01 bc 26 2a e0 bd 4e 32 4f be 00 43 3d be
       -0.007916855 -0.10945539 -0.20234033 -0.1848259
000220 16 b5 34 3e 12 4a 0d be 87 45 17 3e 43 f0 dd bd
       0.17647204 -0.13797787 0.14772616 -0.10836842
000230 7a 70 bc 3d 18 fb f4 bc 04 08 b7 3a 0d d5 67 bd
       0.09201141 -0.029904887 0.0013964181 -0.056599665
000240 22 bc 25 3e e5 9f 49 3e 23 f2 30 3e 9c da 13 3e
       0.16185048 0.19689901 0.17279868 0.14438862
000250 1e 2f 3d bb 95 16 02 bd bb 86 c6 3c 87 5a 38 3e
       -0.0028867195 -0.031759817 0.024234166 0.18003283
000260 2e 3a f8 3d 15 fb c9 3d cd cf 1e 3e a4 cf fc 3c
       0.12120472 0.09862343 0.15508957 0.03086073
000270 4a 94 9e 3c df 4d 38 3d 6b a9 4f 3d 1e 61 5c 3d
       0.01935782 0.04499614 0.05069868 0.053803556
000280 7d a7 88 bd b2 ee ea 3d 46 66 3a bd 4b d2 99 3d
       -0.06672571 0.11471309 -0.04550769 0.07510813
000290 5b 7f e5 bd 83 79 2f 3e 9b af 91 bd 15 0c d6 3d
       -0.11205932 0.17136197 -0.07113572 0.10451523
0002a0 67 e6 8d 3d cd aa bd bd 06 2f a9 3d 98 9f 46 3b
       0.069287114 -0.09261093 0.08260922 0.0030307528
0002b0 96 c4 1f bd d3 65 08 3e 42 89 25 3e 69 dc f6 bd
       -0.03900584 0.13320093 0.16165641 -0.12053759
0002c0 9d f5 84 bd 90 26 ca 3c ef 1f b7 3d f6 3a e9 3d
       -0.064921595 0.024676591 0.08941638 0.11388199
0002d0 25 aa d3 3d 0f 85 f1 bd 01 a3 33 3e bb 23 08 3e
       0.10335187 -0.11792957 0.1754265 0.1329488
0002e0 28 52 42 3e 41 6c 31 3d 8d 5c c6 3d 3c ab 5a bc
       0.18976653 0.04331613 0.096856214 -0.0133464895
0002f0 80 05 c9 3b 8e f5 c5 3d 4a 24 b2 3d f7 24 2a bd
       0.006134689 0.096659765 0.08698328 -0.04153916
000300 15 f8 15 3e cb 2c 94 3d af 65 86 39 c7 49 5c 3d
       0.14645417 0.07235106 0.00025634232 0.053781297
000310 29 ff 46 3e ec a4 d8 3d 94 60 7b 3d 51 62 85 3c
       0.19433273 0.10578331 0.0613714 0.016282232

lstm.bias_hh_l0 f4 [200]
000000 08 50 c7 3d db d5 b0 bd ec f4 9d 3d 48 79 bc 3d
       0.097320616 -0.0863454 0.07712731 0.0920282
000010 80 4f 97 3d 2a 7a d5 3c 21 bc ff 3d e7 6d 40 bd
       0.0738821 0.026059229 0.124870546 -0.04697981
000020 c9 13 44 3e 11 cd 7e bc 17 8f 6b 3d de 1e 36 3e
       0.19148172 -0.015551821 0.057509508 0.17785212
000030 fd 8a f7 3d 12 3b c4 3c d3 c8 80 bd eb e7 a6 bb
       0.12087057 0.023953948 -0.06288304 -0.0050935647
000040 a8 49 2a bd 8f e8 df ba e0 ea fe bb 82 9d b5 3d
       -0.04157415 -0.0017082858 -0.007779464 0.08867933
000050 8d 02 8e 3d 2a 31 d5 bc 96 64 6e 3c ae 41 c5 bb
       0.0693408 -0.02602442 0.014550349 -0.0060197925
000060 c3 ac e1 3d 2e 65 8a 3d 6d 90 37 3e 71 2b 62 bd
       0.1101928 0.0675758 0.17926188 -0.05521721
000070 3b 13 77 3c 24 dd c4 bc 05 87 14 3e 6e 7d 97 bd
       0.0150802685 -0.02403123 0.14504631 -0.07396971
000080 2e 7c a1 3d 16 dd 8c bd b4 7f 87 bd b3 c0 42 3e
       0.078850135 -0.06878106 -0.06616154 0.19018821
000090 c8 bc 04 3e 5a 45 04 3c c9 ce a0 3d b4 a5 d2 3a
       0.1296264 0.008073175 0.07851941 0.0016071112
0000a0 67 5f 26 bd a4 8b c1 3d a6 27 72 3b 27 4b a8 3c
       -0.040618327 0.094504625 0.0036949902 0.020543648
0000b0 64 4d 95 3d 8c 3f 09 3d 97 80 fd bc 94 ab e9 bd
       0.07290152 0.03350787 -0.030945105 -0.11409679
0000c0 75 c6 9b 3d 1d 00 bb 3d d2 62 a4 3c 22 6f 46 bd
       0.07606212 0.09130881 0.020066652 -0.04844583
0000d0 f7 e6 b5 bd 4d 2c 46 3e 8e 4b b8 3d da ca cd 3d
       -0.08881944 0.19352837 0.08998786 0.100484565
0000e0 dc 84 5d 3c 14 31 11 3e 8b e4 3d bc 14 90 2a 3c
       0.013520446 0.14178878 -0.011590133 0.010410327
0000f0 f7 61 94 bd 94 b6 3c 3e 46 ed ec 3d 42 42 ff 3d
       -0.07245248 0.18429023 0.11568694 0.124638095
000100 63 6a d7 bd e9 52 84 bd 12 75 25 3e 9f 70 e4 3d
       -0.105183385 -0.06461126 0.1615794 0.11154293
000110 cb 44 52 bd c0 3c ec 3d 04 b7 94 3d 05 91 ab bd
       -0.051335137 0.11535025 0.0726147 -0.0837727
000120 2b 26 40 bd 63 0f 07 3b 66 01 28 3e 76 15 b6 3d
       -0.0469114 0.0020608536 0.16406783 0.08890812
000130 20 48 1f 3e 79 47 36 3e 73 39 b1 3d b1 16 8a bd
       0.15554857 0.17800702 0.08653536 -0.06742609
000140 c2 7e 77 bd 0b f4 b7 bd 26 7f 6e b9 8a fd fc 3c
       -0.06042362 -0.089820944 -0.00022744815 0.030882616
000150 5b 70 33 bd 48 dc 5f bd 09 3b 90 3d 58 dd 3f 3e
       -0.043808322 -0.054653436 0.0704251 0.1873678
000160 52 0a 35 3c 15 d2 61 bc e4 6f ae bc ab e0 3f 3e
       0.011049824 -0.013782998 -0.021293588 0.18738048
000170 f3 1f a8 bc 77 55 50 3e fd ce 98 3d 86 76 c9 bc
       -0.020523047 0.20345102 0.07461355 -0.02459265
000180 80 71 9f bd 12 e5 03 3c a1 d0 ec 3d e2 6b d0 3d
       -0.0778532 0.00805022 0.1156323 0.10176827
000190 f0 89 c3 bd 07 bc fc 3d 31 f8 41 bd 03 49 29 3e
       -0.09547794 0.12340551 -0.047355834 0.16531758
0001a0 23 19 09 be c3 db 73 3d f3 03 f4 bd 13 85 ca bd
       -0.13388495 0.059535753 -0.11914816 -0.09888663
0001b0 de eb 55 be 45 6f 3f bd 5a d5 d9 3d 68 aa b4 3d
       -0.20890757 -0.046736974 0.10636397 0.08821565
0001c0 03 d5 13 be 1f 46 c7 bc fd 56 0b bd f4 1a 9c 3d
       -0.14436726 -0.024325429 -0.034018505 0.076223284
0001d0 19 8d 19 be 8c 1c e2 bc 0a b3 b6 bd ea 81 09 be
       -0.1499523 -0.027601503 -0.08920868 -0.13428465
0001e0 c2 bd 13 3e b2 db 14 3e 6d 2e ed 3c 29 7b 37 bc
       0.14427856 0.14536932 0.028952802 -0.011198797
0001f0 18 91 d6 bb 7a 2c 06 bd 06 c7 4a 3b 58 d0 89 bd
       -0.0065480582 -0.03275726 0.003094138 -0.067291915
000200 d1 f1 f5 bd 39 3b 13 3e 5f 49 22 3e 29 19 03 bd
       -0.120090134 0.1437806 0.15848301 -0.032006416
000210 f7 27 9c 3d d7 68 0e be bd e6 24 bd dd 0e 73 3b
       0.0762481 -0.1390718 -0.04025911 0.0037087717
000220 68 c6 26 3e 2b 83 45 bd 02 5f ec 3d 4a 6e 81 bd
       0.16286623 -0.048220795 0.11541559 -0.06319864
000230 94 35 c6 bd 1d 63 d8 bd 87 fe 0a be 83 2f 05 be
       -0.09678188 -0.10565779 -0.13573657 -0.13006406
000240 cd e9 81 bd 9b 22 c8 bc 76 e4 01 3e 87 39 cc 3d
       -0.06343422 -0.024430564 0.12684807 0.0997191
000250 f1 8a 3c 3e 57 79 02 3e 6f bb ca 3d f3 9c 27 3e
       0.18412377 0.127416 0.09899031 0.16368465
000260 49 e8 30 bd b2 8e 40 3e 54 f6 2e 3e 85 8e a2 bd
       -0.043190274 0.18804434 0.17086154 -0.0793734
000270 5e f0 48 3e 4c b5 69 bd 4b 87 37 bd 46 6c 85 bc
       0.19622943 -0.057057664 -0.04480676 -0.01628698
000280 c4 0b 8a bd a6 d7 3a 3d 64 2c 6f 3d 6f 38 3a 3e
       -0.06740525 0.045615815 0.058391944 0.1818559
000290 6f 72 42 ba f5 4b 6d 3d b0 12 b2 bb 72 ba 24 bd
       -0.00074175646 0.057933766 -0.0054343566 -0.04021687
0002a0 bc 12 87 3d 17 ec a1 bd 5d d5 3f 3e 27 ba 9f bd
       0.0659537 -0.07906359 0.18733735 -0.077991776
0002b0 24 75 93 bd fe 58 35 3e 2a f0 83 bd c0 59 b2 bc
       -0.07200077 0.17709729 -0.06442292 -0.021771312
0002c0 1c 1f 48 3c c3 df 1b 3e 8c b0 a8 bc 1c b5 1d 3e
       0.012214448 0.15222077 -0.020591997 0.15401119
0002d0 da c8 8d 3d c7 94 87 bd 73 28 fa 3d 61 ce 04 be
       0.06923075 -0.06620174 0.12214746 -0.12969352
0002e0 0f 50 a2 bb 5e 6c f2 3d 7b a3 37 3c 7c 8f bc 3d
       -0.0049533914 0.11837076 0.01120841 0.09207055
0002f0 c9 ae 1e 3e 04 ec 91 3d 9e 4c df 3d b2 22 2c 3e
       0.15496363 0.071250945 0.109032854 0.1681011
000300 04 64 02 3e b0 c4 1a 3e b1 b8 25 3e 71 5c 05 3e
       0.12733465 0.15114093 0.16183735 0.13023545
000310 1f 22 15 3e 84 aa 02 be 9b 19 3a 3e 50 bf 8c 3b
       0.14563797 -0.12760359 0.1817383 0.004295267

fc.weight f4 [7, 50]
000000 7d 19 18 bd 50 f6 ed bd 3e 21 ba 3d 98 4a 62 3d
       -0.037133683 -0.11619246 0.09088372 0.05524692
000010 f9 13 16 3e d0 39 0e 3d 36 94 0d bc d6 25 80 bd
       0.14656056 0.034723103 -0.008641293 -0.06257217
000020 66 b5 88 bd 26 73 79 bd 6e bf 2c bc fb 7a 3f 3d
       -0.06675224 -0.06090083 -0.010543687 0.046748143
000030 96 b0 39 bd 26 64 00 be 0f 15 fd 3d 46 2d ca bc
       -0.04533442 -0.12538204 0.12357532 -0.024679791
000040 c6 02 b1 3c 5e 21 1e 3c 99 d0 5e 3d 1a 6e 63 bc
       0.021607768 0.00965151 0.054398153 -0.013881231
000050 8c 00 99 3d 93 09 c1 bc 3c fa 49 3d db e2 cd 3c
       0.074708074 -0.023564136 0.049310908 0.025132587
000060 34 1c 70 bd cf c7 87 bd 8d 03 db bc b3 d4 7a 3d
       -0.058620647 -0.06629907 -0.026735092 0.061238002
000070 0d be 34 bd 99 25 bc 3d 4a 26 a8 bd f8 56 16 bd
       -0.04412656 0.09186859 -0.08210428 -0.036704034
000080 c0 62 88 3d f8 e0 aa 3e 2d 4f 81 bd 04 13 d4 bc
       0.0665946 0.33374763 -0.0631393 -0.025887974
000090 cc 7e 4d bd 9f fc 68 3d 63 af 70 3c 93 30 64 3c
       -0.05016975 0.056881543 0.014690253 0.013927597
0000a0 d1 2d 97 bd 43 cf 8d bb 2c 39 85 bd 1e 8c 2b bd
       -0.07381786 -0.004327686 -0.06505045 -0.041881673
0000b0 40 52 8c 3c 4c f4 c4 3d de 55 fc 3b dd 3c 45 3e
       0.017129064 0.096169084 0.007700666 0.19261499
0000c0 36 a8 55 bd b9 5c 03 3e 13 0a 2e bd 93 4c 52 bd
       -0.05216237 0.1282834 -0.042490076 -0.051342558
0000d0 c1 f1 a2 bd 24 bd 3f be de f8 a0 bd 68 7d 62 bc
       -0.07956267 -0.18724495 -0.07859968 -0.0138238445
0000e0 3f a7 13 3d 85 fd 01 3d 92 06 0a bc 11 da 2d be
       0.03604817 0.031735916 -0.008424418 -0.16977717
0000f0 58 5c b1 3d 9c 58 84 3d 69 59 e2 bd 04 91 28 3d
       0.08660191 0.064622134 -0.1105221 0.041153923
000100 c2 60 ab 3c 8f 56 b5 3d b7 c0 3e bc 8e 00 07 3a
       0.020920161 0.088544 -0.0116426265 0.0005149924
000110 1c 29 62 bc a3 08 00 bd e5 21 d2 bd 69 78 a0 bd
       -0.013803747 -0.031258237 -0.10260371 -0.078354664
000120 f9 de dd bd fc 53 17 bd e6 0b 01 bd 19 96 02 3d
       -0.10833544 -0.036945328 -0.031505488 0.031881426
000130 d7 e1 b1 3b 72 7e c9 bd 2b 47 f5 3d 65 a3 44 3d
       0.0054285335 -0.09838571 0.11976465 0.048007388
000140 39 8a e3 3c 15 02 42 bc 4a a3 df 3b 95 5c f0 bc
       0.02777587 -0.011841317 0.0068248855 -0.029341022
000150 07 6b 08 3e b8 c9 09 3d 54 7d ad 3d f0 af 45 bd
       0.13322078 0.03363964 0.0847117 -0.04826349
000160 9b 7a 04 3d bc 40 d6 bd f1 06 bb 3c 50 fb d7 bc
       0.03234349 -0.10461566 0.022830458 -0.026364952
000170 a4 2f 7d ba 1a a4 98 3d 4d f5 43 3d 62 3f 42 bd
       -0.0009658283 0.07453175 0.04784136 -0.047423728
000180 3f bf 2c 3d e6 ca 80 3d 16 bf 04 3d 6d 5d a4 bd
       0.042174574 0.062887 0.032408796 -0.08025632
000190 a4 a0 9c 3c b3 4c 22 3d 8b 3a 96 3d 17 b5 8d 3d
       0.019119568 0.039623927 0.07335385 0.06919306
0001a0 a3 31 dd bd 32 10 12 bc c9 92 e0 3c bc 69 23 bd
       -0.10800483 -0.008914994 0.027413743 -0.039895758
0001b0 4b 57 be 3c 07 2a b6 bd 49 bd 2b 3d 41 3a 39 3d
       0.023234984 -0.08894735 0.041928563 0.04522157
0001c0 ac 87 50 bd d1 20 9d 3d a9 31 ac 3e db f4 d4 bb
       -0.050910637 0.07672275 0.33631638 -0.0064989156
0001d0 62 70 6b bd 9b d4 96 bd 71 45 0d 3d f3 4d c3 bb
       -0.057480223 -0.0736477 0.034490053 -0.00596022
0001e0 e7 92 ae 3d ec 82 99 bd 3b 15 e6 3d 1e ce 7d bd
       0.08524113 -0.074956745 0.11234518 -0.061964147
0001f0 8b 60 4e 3c 83 0c 06 3e 28 97 dd bc 89 2c 25 3d
       0.01259626 0.1309071 -0.027049616 0.040325675
000200 9f 90 1d bd f9 df f4 bd 33 1e cb bc 2a 39 10 bc
       -0.038468 -0.11956782 -0.024794674 -0.0088026915
000210 0e d5 59 bc fe 09 e0 3e 4b f0 cf bd a1 2e 1c bd
       -0.013295425 0.43757623 -0.10153254 -0.038130406
000220 50 c3 6d 3d 1d f0 a6 bd 4b 24 09 bb fd fb d8 3c
       0.058047593 -0.08151267 -0.0020926173 0.026487345
000230 86 1c af ba d6 12 b5 3d 6f de c6 3c 8f f6 d3 bd
       -0.0013359941 0.08841483 0.024275986 -0.10349762
000240 f1 b7 a2 3d 58 50 9f bd 53 08 dc 3d 46 47 0a 3e
       0.0794524 -0.07778996 0.10743775 0.13503751
000250 7a 04 bc 3c 46 08 a7 bc 5a 7d 4d bb fe 10 5d bc
       0.022951353 -0.020389687 -0.0031355233 -0.013492821
000260 ef 18 f8 ba 51 9c ff bd 6c c0 d9 bc 27 bd 98 3d
       -0.0018928329 -0.12480987 -0.026581012 0.07457953
000270 2b 05 28 3c 4d f5 5b bd 62 a0 cb 3d ba f3 01 be
       0.010255138 -0.053700734 0.099427 -0.1269063
000280 9b 0b 03 bd f0 f7 68 bd 1a 68 b7 3c 85 5c 5f bd
       -0.03199349 -0.056877077 0.022388507 -0.054531593
000290 6b c4 a5 bd b7 62 9d 3d 6c fe bd bb ac 88 6a 3d
       -0.080941044 0.07684844 -0.0057981517 0.057259247
0002a0 e4 43 d0 3c 56 f1 aa bd 05 a5 cb 3d 58 1a 03 bd
       0.025422998 -0.083468124 0.09943584 -0.032007545
0002b0 4b 9a 5f bd 81 eb 09 3d b1 e8 01 3d c4 1b 58 bd
       -0.054590505 0.03367186 0.031716052 -0.052760854
0002c0 61 6b 67 3b 83 8f d4 bd ba 34 b2 bc 60 f1 92 bd
       0.0035311806 -0.10378935 -0.021753658 -0.07174945
0002d0 67 b0 92 3c b9 c8 39 bd 05 d0 6c bd 2c 7d 9d bc
       0.01790638 -0.04535744 -0.05781557 -0.019224726
0002e0 67 a2 d3 3d e3 88 c6 bc 86 c0 11 be c7 b2 34 3c
       0.1033371 -0.024235195 -0.14233598 0.011028952
0002f0 94 d3 a5 bc 98 3c 0f 3d 40 f8 5e bd 80 db 66 bd
       -0.02024249 0.034969896 -0.05443597 -0.056361675
000300 ef 88 80 3d b1 f4 f2 3c 16 6e a3 bd ad e3 08 39
       0.06276118 0.029657694 -0.079799816 0.00013054787
000310 b0 3b 37 3d b2 99 f9 bd a4 74 59 bd 03 82 7d 3d
       0.044734657 -0.12187518 -0.053089753 0.061891567
000320 f8 1c 3f 3a 6b e5 93 bc 0e e9 28 bc 57 75 e6 3c
       0.00072903885 -0.018053731 -0.010309471 0.028132124
000330 39 c0 5e bd 51 b7 1a 3c 87 1e 9c bd b1 a5 4b ba
       -0.054382537 0.00944312 -0.0762301 -0.00077685254
000340 10 5f c9 3d 6a 6d 5e 3e 5e 81 5b 3c db d1 87 bd
       0.09832585 0.21721426 0.013397543 -0.06631824
000350 46 d0 18 bd 1f 1a 20 3d b5 d7 7a 3d 4a ec a5 bd
       -0.037308 0.03908741 0.06124087 -0.08101709
000360 d1 6f e1 bc e0 cb 7e 3d ed d6 c4 3d 6a 04 5f bd
       -0.027519139 0.06220615 0.09611306 -0.05444757
000370 a0 53 ba 3c 7f bc fd 3d a2 3b ea bd b1 55 1b 3c
       0.022744954 0.123894684 -0.11437155 0.00948088
000380 2e bb 8e bd 13 cb 15 bd 55 ea c1 bb 97 b3 a2 3c
       -0.069692954 -0.03657062 -0.005917827 0.019861026
000390 1c 08 06 3e 07 f6 99 bd e4 e3 6c bc a0 2b 06 bd
       0.13089031 -0.07517629 -0.01445863 -0.032756448
0003a0 d8 d4 a1 bd ad 9a c0 bd 35 3c cc bd d0 98 55 3c
       -0.07901925 -0.09404502 -0.09972421 0.013036922
0003b0 c5 8a 83 bb 35 7e 61 3d 02 79 81 bb c1 2a 42 3d
       -0.0040143454 0.055052 -0.003951193 0.047404055
0003c0 75 d3 c3 3c ce 1d d0 3d f7 e2 7d 3d 9a e5 85 3d
       0.023904542 0.10161935 0.06198403 0.06537934
0003d0 fb 56 b3 bd 5d 2e 21 3c f7 6f b2 3d 10 16 49 bd
       -0.087568246 0.009837714 0.08712762 -0.049093306
0003e0 37 ae f6 bb 74 58 47 3d 6b ff 56 ba 54 4a f8 bd
       -0.0075280922 0.04866834 -0.00082015124 -0.12123552
0003f0 d8 7b 42 3d 3c ac 04 be 1f 1f 34 3d b6 ac ae bc
       0.047481388 -0.12956327 0.043974992 -0.02132259

fc.bias f4 [7]
000000 9f 0c ca bd 73 1f 86 bb ba 5b 9c bd 7c 39 fd bb
       -0.098656885 -0.0040931045 -0.07634683 -0.0077278
000010 54 1f 66 3d 79 4a c6 3d 4b a2 b7 3d
       0.05618222 0.09682173 0.08966502
