LSTM/model_recursion/best_epoch_model_96_layer4.pth (torch, 126082 bytes, 18 tensors)

lstm.weight_ih_l0 f4 [128, 7]
0	0x3e2aeda8	0.16692221
1	0x3e094f12	0.13409069
2	0x3dc8fae4	0.098134786
3	0x3dfd33b9	0.12363381
4	0x3daa976c	0.08329663
5	0x3e747c91	0.23875643
6	0x3df2a7dc	0.11848423
7	0xbe20e4e6	-0.15712318
8	0xbe91d605	-0.28483596
9	0x3da35953	0.079760216
10	0xbe3940f1	-0.1809118
11	0x3eb5deea	0.35521632
12	0xbbd4efcd	-0.006498313
13	0xbda73bcc	-0.08165702
14	0x3de5f895	0.11229054
15	0xbe1fabc3	-0.15592866
16	0x3d9ed518	0.07755488
17	0xbe3d9266	-0.18512878
18	0xbbe9d931	-0.007136487
19	0x3de29827	0.11064177
20	0xbe6beb53	-0.23038988
21	0x3eb02f13	0.34410915
22	0x3e176a5d	0.14786668
23	0x3e86756a	0.26261455
24	0xbcfa8cb2	-0.030584667
25	0xbdcff3ea	-0.10153945
26	0x3c9598cc	0.018261336
27	0x3b2c6899	0.0026307462
28	0xbde48145	-0.11157469
29	0x3df0a5b6	0.11750357
30	0x3da77ad2	0.08177723
31	0xbd03fb95	-0.03222235
32	0x3da6bdd2	0.08141674
33	0xbe2943e8	-0.1652981
34	0x3d396eac	0.04527156
35	0xbddcf0ac	-0.10788092
36	0x3cd2a563	0.025713628
37	0x3db42236	0.08795588
38	0xbd833e74	-0.06408396
39	0x3e1cf5a0	0.15328074
40	0x3e8f179e	0.27947706
41	0x3c545c7a	0.012961501
42	0x3c328916	0.010896942
43	0xbd30191a	-0.04299269
44	0xbd971377	-0.073767595
45	0x3db10d6d	0.08645139
46	0x3db194eb	0.08670982
47	0xbdcdf06f	-0.10055625
48	0x3e2343cd	0.15943833
49	0x3b126cfc	0.0022342792
50	0x3e548567	0.20754014
51	0x3c8e285e	0.017353233
52	0x3e35ebd4	0.17765743
53	0xbbd94a02	-0.006631137
54	0x3e413972	0.1886957
55	0xbe1c7d41	-0.15282156
56	0x3ca847c7	0.020542039
57	0x3e0e105e	0.13873431
58	0xbd6d1494	-0.057880953
59	0x3dcaa6d6	0.09895103
60	0x3cc09bf1	0.023511859
61	0xbd0598e8	-0.032616526
62	0x3c837c6d	0.016050542
63	0x3e636abe	0.22208688
64	0xbe3c502a	-0.18389955
65	0x3e8027d5	0.2503039
66	0xbe569e41	-0.20958807
67	0x3e0786cd	0.13235016
68	0xbdb9a035	-0.0906376
69	0x3e1501b1	0.14551426
70	0x3dbfe044	0.09368947
71	0x3c2e6c2b	0.010645906
72	0x3dfc3c24	0.123161584
73	0x3d955dc3	0.07293274
74	0xbe7625c4	-0.24037844
75	0x3b17aafc	0.0023142686
76	0x3d9cf4c7	0.07663875
77	0x3d20d309	0.03926376
78	0x3d74e85c	0.059791908
79	0xbde84170	-0.11340606
80	0xbe11d559	-0.14241542
81	0x3e99d6b0	0.30046606
82	0xbe3340e4	-0.17505223
83	0x3e3df1bc	0.18549246
84	0xbdaa1b47	-0.08305984
85	0x3ccbf850	0.024898678
86	0x3e88125c	0.26576507
87	0xbe002d88	-0.12517369
88	0xbd9c7172	-0.076388255
89	0xbd96d3ec	-0.0736464
90	0x3c5f10ef	0.013614877
91	0xbe1bf41b	-0.15229838
92	0x3d85c3ac	0.06531462
93	0xbc4fb3f9	-0.012677186
94	0x3e1bb5ca	0.15206066
95	0xbda33a66	-0.07970123
96	0xbdb7517e	-0.0895109
97	0x3eb09af6	0.34493226
98	0xbe3afb90	-0.18260026
99	0x3ddfb2e5	0.10922793
100	0xbd8a6f47	-0.06759506
101	0x3e25813d	0.16162582
102	0xbdae80cc	-0.0852066
103	0xbc97ee05	-0.018546114
104	0xbc3661fa	-0.011131758
105	0xbd506174	-0.05087419
106	0xbdcb74ec	-0.099344105
107	0x3cd6ecf3	0.026236033
108	0x3dc7a964	0.097491056
109	0xbdfca48a	-0.12336071
110	0x3e2311b9	0.1592473
111	0xbcfa28d0	-0.030537039
112	0x3e539c9a	0.20665208
113	0xbb71b770	-0.003688302
114	0x3e628776	0.22121987
115	0xbda85b04	-0.08220485
116	0x3eb70758	0.3574779
117	0x3ddea0c8	0.1087051
118	0xbde3de24	-0.11126354
119	0xbe2867ea	-0.1644589
120	0xbcc28f61	-0.023750009
121	0xbd60d1b0	-0.054887474
122	0x3e03d227	0.12873136
123	0x3e307abe	0.17234322
124	0x3dc8d282	0.09805776
125	0xbe8895a5	-0.2667667
126	0x3d911041	0.07083178
127	0xbd3af903	-0.045647632
128	0x3e76d736	0.24105534
129	0xbe733ebd	-0.23754402
130	0x3e837c6b	0.2568086
131	0xbc2ccde9	-0.01054714
132	0xbea06be4	-0.31332314
133	0xbdc9fe8e	-0.098630056
134	0xbbdbaf94	-0.00670428
135	0x3db6836c	0.089117855
136	0xbd070eaf	-0.032972988
137	0x3e26a546	0.16273984
138	0x3e195390	0.14973283
139	0x3dcc2ca7	0.09969454
140	0xbdb574d5	-0.088601746
141	0xbe25bd0c	-0.16185397
142	0x3df5ca26	0.120014474
143	0xbeb1f569	-0.34757546
144	0x3cd340b4	0.025787689
145	0xbc9d473d	-0.019199008
146	0x3d1d05c8	0.03833559
147	0xbd556217	-0.0520955
148	0xbd2cb95e	-0.042168967
149	0x3e539379	0.20661725
150	0xbe1fe193	-0.15613393
151	0x3e5e53c8	0.21711648
152	0xbd7b2ed3	-0.061323952
153	0xbe479986	-0.19492158
154	0xbe84674a	-0.25860053
155	0xbdcd4c96	-0.10024373
156	0x3c43077c	0.01190364
157	0x3cb620ed	0.022232497
158	0xbe339422	-0.17536977
159	0xbe7674bf	-0.24067973
160	0x3e38f659	0.18062724
161	0xbb39da43	-0.0028358854
162	0x3dfc1e6a	0.123104885
163	0xbe04a84b	-0.12954824
164	0xbd166f14	-0.036727026
165	0x3d8e30d8	0.0694291
166	0x3e6b620d	0.22986622
167	0x3e1b5f8f	0.15173171
168	0x3c0ee870	0.00872241
169	0x3e0cbcf5	0.13743956
170	0x3df10bdd	0.11769841
171	0x3c7ed1cf	0.015552952
172	0x3ca32a0b	0.019917509
173	0x3e4ec8a5	0.20193727
174	0x3e1cdf7d	0.15319629
175	0x3d192673	0.037390184
176	0x3e777c1d	0.24168439
177	0xbde8437f	-0.11340999
178	0x3de9181c	0.113815516
179	0xbe3ffa7b	-0.18747894
180	0x3dcaee4d	0.099087335
181	0x3d57883b	0.052620154
182	0xbee4fbcf	-0.44723365
183	0x3c91ecc7	0.0178131
184	0xbeae18ab	-0.34003195
185	0xbdae0196	-0.08496396
186	0xbe2fc494	-0.17164832
187	0xbd7aca1f	-0.061227914
188	0xbcf14d94	-0.029455937
189	0xbdb2cc8c	-0.087304205
190	0x3de6e3e1	0.11273933
191	0xbd3a4eae	-0.04548519
192	0x3c8dcd7d	0.017309899
193	0x3e0db1a3	0.13837294
194	0xbc045c78	-0.008078687
195	0xbcc8e735	-0.02452431
196	0xbe28259f	-0.16420601
197	0x3d8a501f	0.06753563
198	0x3ce028b6	0.027363162
199	0xbd8aa2a0	-0.067692995
200	0x3e11e69b	0.14248125
201	0xbe57ccb3	-0.2107418
202	0x3cb2f0e0	0.021843374
203	0x3d76f4d0	0.060292065
204	0xbda82bd8	-0.082114875
205	0x3c67cc44	0.014147822
206	0xbddb0984	-0.10695174
207	0xbd90c569	-0.07068903
208	0x39f37bd7	0.0004644084
209	0x3de4c23a	0.11169858
210	0x3e13868f	0.14406799
211	0xbe06f83d	-0.13180633
212	0x3bf28bf8	0.0074019395
213	0xbe8de72a	-0.27715427
214	0x3debd214	0.115146786
215	0xbdbc2f49	-0.091887064
216	0xbdf8d7ce	-0.121505365
217	0xbdf9fce9	-0.12206442
218	0xbd5be06c	-0.053680822
219	0xbe23be95	-0.1599067
220	0xbcfabeef	-0.030608622
221	0x3d435e9a	0.04769764
222	0xbe859f4a	-0.2609809
223	0xbd95215f	-0.07281756
224	0xbda3067f	-0.079602234
225	0x3e889124	0.26673234
226	0x3d87859f	0.06617283
227	0x3e973bf2	0.29537922
228	0x3e526ea4	0.20550019
229	0x3e9d463a	0.3071764
230	0x3e0d8cb0	0.138232
231	0x3e018f7a	0.12652388
232	0xbdd8f8bb	-0.105943166
233	0x3c01db0c	0.00792576
234	0xbeb39271	-0.35072663
235	0x3e7d7558	0.24751794
236	0xbd3cb661	-0.046072368
237	0xbe32b898	-0.1745323
238	0x3ed9c9df	0.42536828
239	0xbc667b01	-0.014067412
240	0x3e8122e6	0.25221938
241	0x3daa6082	0.08319189
242	0xbe26ef2b	-0.16302173
243	0x3c5344e0	0.012894839
244	0xbe8ea027	-0.27856562
245	0x3e4481cd	0.1919014
246	0xbd5e72a8	-0.054308563
247	0x3e3778e8	0.17917216
248	0x3ccca85e	0.024982627
249	0x3e8b36f6	0.2719037
250	0x3e271c11	0.163193
251	0xbdb04165	-0.08606223
252	0xbc41c70d	-0.011827243
253	0x3e010964	0.12601238
254	0xbe01fff5	-0.12695296
255	0xbaca8fcd	-0.0015454233

lstm.weight_hh_l0 f4 [128, 32]
0	0xbbba5638	-0.0056865476
1	0x3dc8da9b	0.09807321
2	0x3ed2b407	0.41152975
3	0xbe5b424c	-0.21412009
4	0x3d85f6a7	0.06541186
5	0xbe5bc197	-0.21460567
6	0x3e8facbb	0.2806147
7	0xbe8754dc	-0.2643193
8	0xbe851b64	-0.2599746
9	0xbdf6d528	-0.12052375
10	0x3e0326bf	0.12807749
11	0xbcdfb93a	-0.027310003
12	0xbd17db59	-0.03707442
13	0x3dc6c45c	0.09705421
14	0x3d1ea216	0.038728796
15	0x3c54020d	0.012939942
16	0xbe705192	-0.23468617
17	0x3d4d3afa	0.050105073
18	0x3e842168	0.25806737
19	0xbe289aaf	-0.16465257
20	0xbe22ec9f	-0.15910576
21	0xbdebc6cd	-0.115125276
22	0x3c1e2cc1	0.009654225
23	0xbd86fe3a	-0.065914586
24	0x3df2a62a	0.118480995
25	0x3daf4901	0.08558846
26	0xbe3ae203	-0.18250279
27	0xbdb2823c	-0.087162465
28	0xbd1d3f44	-0.038390413
29	0x3db48c09	0.08815772
30	0x3ea424ba	0.3205927
31	0xbea9503d	-0.3306903
32	0xbe0d548f	-0.13801788
33	0x3e8c513d	0.2740573
34	0x3d51c6e9	0.051215086
35	0x3e7cd1f5	0.24689467
36	0xbdf7c749	-0.120985575
37	0xbe2697cb	-0.16268842
38	0xbe4f7e81	-0.20263101
39	0x3e0e1d36	0.1387833
40	0xbb789902	-0.0037932997
41	0xbdf5e703	-0.120069526
42	0xbdfb59ff	-0.12273025
43	0x3e7232e0	0.2365222
44	0x3c87c0b5	0.016571382
45	0xbdc3fd15	-0.09569756
46	0xbc2d1ca2	-0.010565909
47	0x3cc9d0be	0.024635669
48	0xbe788909	-0.24271025
49	0xbc502994	-0.0127052255
50	0xbd0a0072	-0.03369183
51	0x3d9becc0	0.07613516
52	0x3d09fdc8	0.03368929
53	0x3c13e139	0.009025865
54	0xbcc85a93	-0.024457252
55	0xbe26d5e6	-0.16292533
56	0x3e6f0678	0.23342311
57	0x3e4ce10c	0.20007724
58	0xbe92afe9	-0.28649834
59	0xbdfcccca	-0.12343748
60	0x3d2959a3	0.04134525
61	0x3d9e24af	0.077218406
62	0xbde7b7aa	-0.11314328
63	0xbd9cf128	-0.076631844
64	0xbe83004a	-0.25586158
65	0x3e3fe68c	0.1874029
66	0x3d7e4bc8	0.06208399
67	0x3cab2c44	0.020895131
68	0x3e921902	0.28534704
69	0xbea44f55	-0.32091776
70	0x3e451822	0.19247487
71	0xbe1f6561	-0.15566017
72	0xbd6c3bbb	-0.05767415
73	0xbd99c608	-0.075084746
74	0x3d912b01	0.070882805
75	0x3d720540	0.059087038
76	0xbe8df6b4	-0.27727282
77	0x3dcdbed1	0.10046161
78	0xbe18ca4e	-0.14920923
79	0xbdf090fa	-0.11746402
80	0xbec96e87	-0.39342138
81	0x3d3c8a2a	0.0460302
82	0x3ebed3b8	0.37270904
83	0x3d0b4c00	0.034008026
84	0xbe3c0fca	-0.18365398
85	0xbd844a54	-0.064594895
86	0x3e10a132	0.14123991
87	0x3db62bff	0.0889511
88	0x3dd67223	0.104709886
89	0xbdd8b2db	-0.10580989
90	0xbeda0cb8	-0.4258783
91	0xbe056d01	-0.13029863
92	0xbe3f0ff6	-0.18658432
93	0x3eb44471	0.35208467
94	0x3e5d6c0d	0.2162325
95	0xbe14f09e	-0.14544913
96	0xbd2d1331	-0.04225463
97	0xbd3e8a80	-0.046518803
98	0x3e7ad5a4	0.2449556
99	0x3e0a9398	0.13532865
100	0xbcd1edb3	-0.02562604
101	0xbcf34ed0	-0.029700667
102	0x3e1b98fe	0.1519508
103	0xbe6695d3	-0.22518091
104	0xbdc06e71	-0.09396065
105	0xbe187253	-0.14887361
106	0x3aadb294	0.0013252073
107	0x3e5efb79	0.21775617
108	0x3cb33e49	0.021880286
109	0x3d9f5049	0.07778985
110	0x3d135b47	0.03597572
111	0xbd1863cf	-0.03720456
112	0xbd99f511	-0.07517446
113	0x3e808b0c	0.25106084
114	0x3e1caed1	0.15301062
115	0x3dd55a6e	0.10417639
116	0xbad3b8f6	-0.0016153145
117	0x3c8bb669	0.017054753
118	0x3d996b94	0.07491222
119	0xbe02fe59	-0.12792338
120	0x3b929dd1	0.0044743796
121	0x3d558eb4	0.052138045
122	0xbe52818a	-0.20557228
123	0xbda9ff63	-0.08300664
124	0x3d4bae6c	0.04972689
125	0xbd4f1999	-0.05056152
126	0x3dc4c336	0.09607546
127	0xbcb189ca	-0.021672148
128	0xbdef3888	-0.11680704
129	0xbda712f0	-0.08157909
130	0x3e3b4ce3	0.18291049
131	0xbdd2d637	-0.102947645
132	0x3d90d774	0.070723444
133	0x3ddb2e0a	0.10702141
134	0x3dea85e9	0.114513226
135	0xbdd17152	-0.10226692
136	0x3de8c5fe	0.11365889
137	0x3daf8833	0.085709
138	0x3cabea88	0.020985857
139	0x3e385245	0.18000133
140	0xbd5c22a4	-0.053743973
141	0xbd8ed844	-0.06974843
142	0x3df5eca8	0.12008029
143	0xbda796f4	-0.08183089
144	0xbd4cdce8	-0.05001536
145	0x3e57cb28	0.21073592
146	0xbdaa0bac	-0.083030075
147	0x3e04863b	0.1294183
148	0x3e0c2668	0.13686526
149	0x3ce19b9f	0.027540026
150	0xbe14bc1a	-0.1452488
151	0xbe6f6fc7	-0.23382483
152	0x3d76f811	0.06029517
153	0xbdba8e99	-0.091092296
154	0xbe6157a0	-0.22006083
155	0xbd43c590	-0.047795832
156	0x3c894641	0.016757132
157	0x3ca247c3	0.01980961
158	0xbe3a8f34	-0.1821869
159	0xbdfddb4a	-0.12395342
160	0x3d107ce9	0.035275374
161	0xbe42085d	-0.18948503
162	0xbe884a6e	-0.26619285
163	0x3cbf282f	0.02333459
164	0x3c68403c	0.014175471
165	0xbc3390c3	-0.010959807
166	0xbdcb7b02	-0.09935571
167	0xbe03b43d	-0.12861724
168	0x3e34cc38	0.17656028
169	0xbe0827bb	-0.13296406
170	0xbc9461fe	-0.018113133
171	0x3d8742c2	0.0660453
172	0xbe07c527	-0.13258801
173	0xbe6e2747	-0.2325717
174	0x3dae31b0	0.08505571
175	0xbd17bfcb	-0.037048142
176	0xbd220387	-0.039554145
177	0xbd61e15c	-0.05514656
178	0x3c9649b7	0.018345697
179	0x3e4fcfa1	0.20294048
180	0xbd6fbaa9	-0.058527622
181	0xbd32cb8f	-0.04365116
182	0xbdc7aba8	-0.09749538
183	0xbe6d398e	-0.23166487
184	0x3d69c35c	0.057071075
185	0x3e7abd4a	0.2448627
186	0xbdcc6178	-0.09979528
187	0x3d3544b5	0.044254977
188	0xbd7dec75	-0.06199308
189	0xbe2af5b6	-0.16695294
190	0xbd634372	-0.055484243
191	0x3e363120	0.17792177
192	0x3d754667	0.059881594
193	0xbb864a37	-0.0040982026
194	0x3de23e0a	0.11046989
195	0xbdeec2a2	-0.11658217
196	0xbdf791b0	-0.120883346
197	0xbdb79ff5	-0.08966056
198	0xbe81a274	-0.25319254
199	0x3e05ab65	0.13053663
200	0x3c3724bb	0.011178191
201	0x3db4bee6	0.088254735
202	0x3e80b254	0.25136054
203	0x3e808632	0.25102383
204	0xbd935d37	-0.07195514
205	0x3df833f9	0.12119288
206	0x3e9085d2	0.28227097
207	0xbea0b707	-0.3138964
208	0xbd38bd93	-0.045102667
209	0xbb8e552c	-0.0043436494
210	0x3e1d8406	0.15382394
211	0x3e115986	0.14194307
212	0xbe22d829	-0.15902771
213	0xbe7e9b74	-0.24863988
214	0xbdde4570	-0.10853088
215	0xbdc02bdf	-0.09383368
216	0x3d8dccc0	0.069238186
217	0xbd5dc974	-0.0541472
218	0xbdf10350	-0.1176821
219	0x3cd2dabf	0.025739072
220	0xbe4355e3	-0.19075732
221	0x3e021162	0.12701944
222	0x3e0a2831	0.13491894
223	0xbe1091e4	-0.14118153
224	0xbe937fba	-0.28808385
225	0xbd912b4c	-0.07088336
226	0x3e59ef59	0.2128271
227	0xbdf81ed5	-0.12115256
228	0x3c2d837c	0.01059043
229	0x3be9e628	0.0071380325
230	0x3a818f35	0.0009884598
231	0x3d568de8	0.052381426
232	0xbe0bfbd3	-0.13670282
233	0x3e1bac64	0.1520248
234	0x3e1aad9b	0.15105288
235	0x3e7a7b75	0.24461158
236	0x3d057a6b	0.03258745
237	0x3d54f8e7	0.051995184
238	0x3d1de2e1	0.038546447
239	0xbe6a0e8b	-0.2285711
240	0xbb8d077c	-0.0043038707
241	0x3e13555b	0.1438803
242	0x3d1b0263	0.037844073
243	0xbe4b0645	-0.1982661
244	0x3ce2b00a	0.027671833
245	0xbe2a9700	-0.16659164
246	0x3e2d8871	0.1694658
247	0xbe1d9f7f	-0.15392874
248	0x3e9dfc62	0.30856615
249	0xbe51618f	-0.20447372
250	0xbe1dd3c3	-0.15412812
251	0x3e04fbc7	0.1298667
252	0xbe90a561	-0.28251174
253	0x3d93482e	0.071915016
254	0xbd6bb523	-0.057545792
255	0xbe0a0c81	-0.13481332

lstm.bias_ih_l0 f4 [128]
0	0x3e01f4e6	0.12691078
1	0x3d8b7ea1	0.06811262
2	0x3e299a0e	0.16562673
3	0xbb185469	-0.0023243672
4	0x3d198766	0.03748264
5	0x3e11ba3a	0.14231196
6	0x3e777c23	0.24168448
7	0x3e869496	0.26285237
8	0x3eb75f97	0.35815117
9	0x3e670962	0.22562173
10	0x3e9cb181	0.30604175
11	0x3e181162	0.14850381
12	0x39c46f4f	0.00037466965
13	0x3dd6d2dd	0.10489438
14	0x3ea908cb	0.3301452
15	0x3e2fdc1e	0.17173812
16	0xbdbc6793	-0.09199443
17	0x3eb10849	0.34576634
18	0x3e0a9612	0.1353381
19	0x3deebcd6	0.11657111
20	0x3e053e5a	0.13012066
21	0xbd537101	-0.05162144
22	0xbc9ebb1e	-0.019376334
23	0x3e8fa51c	0.28055656
24	0x3e87c540	0.26517677
25	0xbd2d25c3	-0.04227234
26	0x3c5e1857	0.013555608
27	0x3e469f5c	0.19396728
28	0x3e498aed	0.19681902
29	0x3e288523	0.16457038
30	0x3e4afeb8	0.1982373
31	0xbdd0ffae	-0.10205017
32	0xbe10d2f5	-0.14142974
33	0xbe074b02	-0.13212207
34	0x3d9eb8d8	0.077501
35	0xbe2654b5	-0.1624325
36	0x3e098385	0.13429077
37	0x3e224fff	0.15850829
38	0x3e19c30b	0.15015809
39	0x3e26fd33	0.16307525
40	0x3e893555	0.26798502
41	0xbd992e7d	-0.0747957
42	0xbe23aeed	-0.15984698
43	0x3dfdebea	0.12398513
44	0xbd95398f	-0.07286369
45	0x3d4b814a	0.049683847
46	0xbd98d2a9	-0.07462055
47	0x3ce953de	0.028482374
48	0xbcb0d2f7	-0.02158497
49	0xbd6a5f08	-0.057219535
50	0xbe35660c	-0.17714709
51	0xbd20da21	-0.039270524
52	0xbe038c2d	-0.12846442
53	0x3e08ba7f	0.13352393
54	0x3d6073ef	0.054798063
55	0x3e307c13	0.1723483
56	0xbdbb098c	-0.0913268
57	0x3d603278	0.05473563
58	0xbe40a2a9	-0.1881205
59	0x3e1d5715	0.1536525
60	0x3e286079	0.16443051
61	0x3e0e05be	0.13869378
62	0xbcb4d8ea	-0.022076089
63	0x3da25118	0.07925624
64	0x3da73017	0.08163469
65	0x3e111b08	0.14170468
66	0x3d63cc9d	0.055615056
67	0xbd9d98ba	-0.07695146
68	0xbdebb2d7	-0.1150872
69	0xbca66208	-0.020310417
70	0xbd808cd5	-0.062768616
71	0x3d904637	0.070446424
72	0x3de85730	0.11344755
73	0xbdeaab1c	-0.11458418
74	0x3d55d308	0.05220321
75	0x3e1b17f2	0.15145853
76	0xbcd16863	-0.02556247
77	0xbdf02085	-0.117249526
78	0x3e110268	0.14161074
79	0xbe548764	-0.20754772
80	0xbe0c2e4c	-0.13689536
81	0xbe1fb97a	-0.15598097
82	0x3b787681	0.003791243
83	0xbe3b1f1d	-0.18273588
84	0xbd5b9981	-0.05361319
85	0xbdb7a2a9	-0.08966572
86	0x3d52e4bb	0.051487666
87	0xbcdf1c6c	-0.027235232
88	0x3defff50	0.11718619
89	0x3d28e8fd	0.04123782
90	0xbe6510b4	-0.22369653
91	0xbcd8f2ce	-0.026482966
92	0xbd0694a3	-0.032856595
93	0x3d5ac336	0.053408824
94	0xbd9b4c99	-0.07582969
95	0xbe15f3e9	-0.14643826
96	0x3e7df670	0.2480104
97	0x3c32f760	0.010923237
98	0x3ebdb9e0	0.37055874
99	0x3e865b95	0.26241747
100	0x3bfbe876	0.0076876236
101	0xbd843345	-0.064550914
102	0x3e48fd4a	0.19627872
103	0x3cb8bbd7	0.022550507
104	0x3db76ed5	0.089566864
105	0x3da10847	0.07862907
106	0x3e579d0b	0.21056001
107	0xbd61408b	-0.054993194
108	0x3e6dedc9	0.23235239
109	0x3da96c7f	0.08272647
110	0x3e9488ca	0.29010612
111	0x3e0d3041	0.13787939
112	0x3e5291cf	0.20563434
113	0x3f02aeed	0.51048166
114	0x3e90c65f	0.28276345
115	0x3dc558e5	0.09636096
116	0x3de7e683	0.113232635
117	0x3e2908b0	0.1650722
118	0xbe11a1e0	-0.14221907
119	0x3e5cadc3	0.2155066
120	0x3e229499	0.15876998
121	0x3e3929e3	0.18082385
122	0x3ea8ded6	0.3298251
123	0x3e870804	0.26373303
124	0x3df384dd	0.11890576
125	0x3d58efd3	0.05296309
126	0x3ddac785	0.106825866
127	0x3e56b13d	0.20966049

lstm.bias_hh_l0 f4 [128]
0	0x3e8f092c	0.27936685
1	0x3e89354d	0.26798478
2	0x3e9d9226	0.30775565
3	0x3d4e9d13	0.050442766
4	0x3e82257d	0.25419226
5	0x3d8c8460	0.06861186
6	0x3d7aede8	0.06126204
7	0x3e9c7b96	0.3056304
8	0x3e60c2db	0.21949331
9	0x3e276fa7	0.16351186
10	0x3ef695c0	0.48161125
11	0xbe1aa692	-0.15102604
12	0x3d980ced	0.074243404
13	0x3d2f7645	0.0428374
14	0x3e36e05a	0.17859021
15	0x3dbe02c1	0.09277869
16	0xbdc5efeb	-0.09664901
17	0x3ee06298	0.4382522
18	0x3ec903f1	0.3926082
19	0x3d447ba7	0.047969487
20	0x3e172689	0.14760794
21	0xbd334605	-0.043767948
22	0x3dfe94c6	0.1243072
23	0x3d1d85b3	0.038457584
24	0x3d2f6132	0.042817302
25	0x3e64ffd5	0.22363217
26	0x3e03beb8	0.12865722
27	0x3e42f47d	0.19038577
28	0x3dd1ab11	0.102377065
29	0x3e1bfcb7	0.15233122
30	0x3e8645b5	0.26225057
31	0xbc809607	-0.015696539
32	0x3e33b090	0.17547822
33	0x3ca40258	0.020020649
34	0x3dec4530	0.11536634
35	0xbdf467c7	-0.119338565
36	0xbce231f1	-0.027611705
37	0x3e275fb7	0.16345106
38	0xbd8a6272	-0.06757058
39	0x3e47c4db	0.19508688
40	0x3e938d84	0.28818905
41	0xbde01560	-0.10941577
42	0xbb8995e9	-0.004198779
43	0xbdd57555	-0.1042277
44	0x3e20c925	0.1570173
45	0xbd1e248f	-0.038609084
46	0x3d9e73ce	0.07736932
47	0x3df13ffb	0.117797814
48	0xbb172341	-0.0023061784
49	0xbc90fd2d	-0.017698849
50	0xbe0dc959	-0.1384634
51	0xbbbfc209	-0.005851988
52	0x3cd80778	0.026370749
53	0x3da341fd	0.07971571
54	0x3e2d8de2	0.16948655
55	0x3e643c7f	0.22288702
56	0x3dbe3b9f	0.092887156
57	0x3cebd6f9	0.02878903
58	0xbd8c4649	-0.06849343
59	0xbd97cef5	-0.07412521
60	0x3da59cab	0.08086523
61	0x3e0c4f10	0.13702035
62	0xbdb0bd7a	-0.0862989
63	0x3e00ded0	0.12584996
64	0xbdd2652b	-0.102732025
65	0x3d393232	0.045213886
66	0x3d5e0956	0.054208122
67	0x3db130a6	0.08651857
68	0x3d9f59d2	0.07780804
69	0xbd2a1fcd	-0.041534234
70	0x3e113775	0.14181311
71	0x3b0e46b1	0.0021709616
72	0xbc88aa6c	-0.016682826
73	0x3cb90400	0.022584915
74	0x3de30289	0.11084468
75	0x3d08f3c8	0.033435613
76	0xbd948804	-0.072525054
77	0x3d2a627c	0.04159783
78	0x3d7730e3	0.060349356
79	0xbde89527	-0.113565736
80	0xbde7b50c	-0.11313829
81	0x3dbf9e99	0.09356422
82	0xbd80d3db	-0.06290408
83	0x3dea9343	0.11453869
84	0xbe0583bd	-0.13038535
85	0xbc0a08aa	-0.008424917
86	0x3dfd1cbd	0.12358997
87	0xbe55879b	-0.2085251
88	0x3df6ba0f	0.120472066
89	0x3c152550	0.009103134
90	0xbcdb5cb8	-0.02677761
91	0x3ddacb6b	0.1068333
92	0xbe0e0980	-0.13870811
93	0x3dd45b7a	0.1036901
94	0x3d5e2f47	0.054244306
95	0xbdefff10	-0.11718571
96	0x3cd507ec	0.026004754
97	0x3d493a7e	0.049128048
98	0x3e1c5626	0.15267238
99	0x3e7216af	0.23641466
100	0x3e980714	0.296929
101	0xbe1c1622	-0.15242818
102	0x3e2b8f59	0.16753902
103	0x3e7ab8b4	0.24484521
104	0x3e9f6bab	0.31136832
105	0x3e8209e9	0.25398186
106	0x3eba59da	0.36396676
107	0x3e09cfd9	0.13458194
108	0x3ea31e22	0.31858927
109	0xbd0abef1	-0.033873502
110	0x3ea4576b	0.32097945
111	0x3e9da367	0.3078873
112	0x3d8ce3ad	0.06879363
113	0x3e9d7376	0.30752152
114	0x3ea27f12	0.31737572
115	0xbe071ee2	-0.13195375
116	0x3e4a613c	0.19763654
117	0x3e9380fa	0.2880934
118	0xbdeb359e	-0.11484836
119	0x3e82e614	0.2556616
120	0x3e665c50	0.22496152
121	0xbbb52526	-0.00552811
122	0x3dc22096	0.094788715
123	0x3dc35234	0.095371634
124	0x3d303a6e	0.043024473
125	0xbd05bdd6	-0.032651745
126	0x3e68bdc7	0.22728644
127	0x3d840505	0.0644627

lstm.weight_ih_l1 f4 [128, 32]
0	0xbe3098b1	-0.17245747
1	0x3c3b0db7	0.011416844
2	0x3eb388db	0.3506535
3	0x3d99ce6e	0.075100765
4	0xbdb3d00f	-0.087799184
5	0xbd1ba23c	-0.037996516
6	0x3e439a4c	0.19101828
7	0xbe0d2967	-0.13785325
8	0xbd86e79f	-0.06587147
9	0xbd20f7cf	-0.03929883
10	0x3e48db01	0.19614793
11	0x3dc3bb7e	0.09557246
12	0xbb047525	-0.0020211425
13	0xbe0354f7	-0.1282538
14	0x3d471708	0.04860595
15	0xbcea56b8	-0.028605804
16	0x3d3d780b	0.04625706
17	0xbdaf054a	-0.08545931
18	0x3e8c3364	0.27382958
19	0x3cd74826	0.02627952
20	0xbdd2d90a	-0.10295303
21	0xbdc5e151	-0.09662116
22	0x3e0a9651	0.13533904
23	0x3d59f11e	0.053208463
24	0x3e855530	0.26041555
25	0xbe70019a	-0.23438111
26	0xbd3bd3d0	-0.045856297
27	0xbdec30ba	-0.11532731
28	0xbe6be663	-0.23037104
29	0x3e0eace5	0.13933142
30	0x3e1bcf0e	0.15215704
31	0xbe90c4f7	-0.28275272
32	0x3c40831f	0.011750012
33	0x3ead3575	0.33829847
34	0x3e23d73f	0.16000079
35	0x3d78f00c	0.0607758
36	0x3e6a3cc6	0.22874746
37	0xbe8b0c8c	-0.2715801
38	0xbe6e521d	-0.23273511
39	0xbe3a8df1	-0.18218209
40	0xbda9d811	-0.082931645
41	0xbd8984ce	-0.067147836
42	0x3e91dd10	0.2848897
43	0x3e846015	0.25854555
44	0xbe515acf	-0.20444797
45	0xbdcc2404	-0.09967807
46	0x3d3a4541	0.045476202
47	0xbe61ddc7	-0.22057258
48	0xbde8d9f5	-0.11369697
49	0xbd83c681	-0.06434346
50	0x3cf4d694	0.029887475
51	0x3e12f400	0.14350891
52	0xbdb9dd07	-0.09075361
53	0xbe91ce6b	-0.28477797
54	0x3e2a08d5	0.16604932
55	0xbdd06266	-0.10175018
56	0x3c193dd4	0.00935312
57	0x3ea8cf21	0.32970527
58	0xbea79177	-0.32728168
59	0xbe982147	-0.2971289
60	0xbe98f882	-0.29877096
61	0x3dcaa7db	0.09895297
62	0x3e0de091	0.13855197
63	0xbe869647	-0.26286528
64	0xbe24b53c	-0.1608476
65	0x3e44b5ce	0.19209978
66	0x3e9a5d3c	0.30149257
67	0x3e4cc1d8	0.1999582
68	0x3e536e7e	0.20647618
69	0xbe609101	-0.21930315
70	0x3c1d16d5	0.009587963
71	0xbe01c5d3	-0.1267312
72	0xbe084452	-0.13307312
73	0xbd44f74b	-0.0480874
74	0x3e5ddfc4	0.21667391
75	0x3e6e5070	0.23272872
76	0xbdd61a50	-0.104542375
77	0x3df1d5be	0.11808346
78	0xbe7eec14	-0.24894744
79	0xbe8a6f3c	-0.2703799
80	0xbe6d2213	-0.2315753
81	0xbd0dd2bc	-0.0346248
82	0x3e269924	0.16269356
83	0xbcb0a678	-0.021563753
84	0xbe24e0ee	-0.16101429
85	0x3d7f918e	0.06239467
86	0x3e68a281	0.2271824
87	0x3ded4abd	0.11586521
88	0x3dec16f9	0.11527819
89	0xbda7a718	-0.081861675
90	0xbea757ea	-0.3268426
91	0xbe9cf2c9	-0.3065398
92	0xbe1e676d	-0.15469141
93	0x3eab141b	0.33413777
94	0xbdaeaabd	-0.085286595
95	0xbde72c51	-0.112877496
96	0xbe76fe0f	-0.24120353
97	0x3cbd8ed6	0.023139399
98	0xbdcf052e	-0.1010841
99	0xbe4589d8	-0.19290864
100	0x3e65a3a4	0.22425705
101	0xbe72a77a	-0.236967
102	0xbdff5dfe	-0.124690995
103	0xbdc91519	-0.09818477
104	0xbe012cf3	-0.12614803
105	0xbe255489	-0.16145529
106	0x3e923cd8	0.28562045
107	0x3e041fac	0.12902707
108	0x3d87c345	0.066290416
109	0xbe04ee5b	-0.1298155
110	0x3cba0593	0.022707736
111	0xbc988333	-0.018617248
112	0xbcf1c153	-0.02951113
113	0x3e358617	0.17726932
114	0x3d3edfc9	0.046600137
115	0x3ccc0378	0.024903998
116	0xbe205a3d	-0.15659423
117	0xbe225152	-0.15851334
118	0x3e5b6b4d	0.21427651
119	0xbe1770aa	-0.14789072
120	0x3e499a9d	0.19687887
121	0x3ca4490b	0.02005436
122	0xbe54bb0e	-0.2077448
123	0x3e33c26b	0.17554633
124	0xbda075c1	-0.0783496
125	0x3e597ba8	0.21238577
126	0x3e6b4fe7	0.22979699
127	0xbe8089cc	-0.2510513
128	0xbddfd9e0	-0.10930228
129	0x3e1995d0	0.14998555
130	0x3d952630	0.07282674
131	0xbe46c5ba	-0.19411364
132	0x3e1dec68	0.15422213
133	0x3dad31cb	0.08456763
134	0xbd5bf699	-0.05370197
135	0x3cbcfe05	0.023070345
136	0xbe0b44fb	-0.13600533
137	0xbe8fa2b9	-0.28053835
138	0x3aec52b8	0.0018030023
139	0x3e686dad	0.22698088
140	0x3d008e40	0.03138566
141	0xbdf8e21f	-0.12152504
142	0x3e77e77f	0.24209403
143	0x3dbffe10	0.093746305
144	0xbd15d783	-0.03658248
145	0xbd285525	-0.041096825
146	0x3e4bcfb8	0.19903457
147	0xbc4ab7f1	-0.012372957
148	0xbdcb49f5	-0.099262156
149	0xbde029ad	-0.10945449
150	0xbd2b3469	-0.04179803
151	0xbdf1a5ec	-0.11799225
152	0x3e638fd1	0.2222283
153	0x3d9aa9d0	0.075519204
154	0xbe978477	-0.2959325
155	0x3ca37565	0.019953439
156	0xbd484139	-0.048890326
157	0x3d27015b	0.040772777
158	0x3b819263	0.0039542182
159	0xbe3882bc	-0.18018621
160	0xbda005a3	-0.07813575
161	0xbdc670f7	-0.09689515
162	0x3d3ca7d2	0.046058483
163	0x3d8dd70c	0.069257826
164	0x3e3caea0	0.18425989
165	0xbe08303b	-0.13299648
166	0xbd252c25	-0.040325303
167	0xbe27fbab	-0.16404597
168	0xbe8fc144	-0.28077137
169	0xbd87cffd	-0.066314675
170	0xbe0c19c5	-0.13681705
171	0x3dd11508	0.102090895
172	0x3c1564b4	0.009118248
173	0x3d1e986c	0.03871958
174	0xbdd474e6	-0.10373859
175	0x3b07962c	0.0020688875
176	0x3d613c50	0.05498916
177	0x3e386124	0.18005806
178	0x3d0b01f9	0.03393743
179	0x3d0011c8	0.031266958
180	0x3e15dad5	0.14634259
181	0x3caaaf3b	0.02083551
182	0x3ddd0c70	0.10793388
183	0xbc6f9854	-0.01462372
184	0x3e174126	0.14770946
185	0xbe3c5841	-0.18393041
186	0xbe2b96be	-0.16756722
187	0x3dfdf178	0.12399572
188	0xbe06bbf8	-0.13157642
189	0xbdfaf0ce	-0.12252961
190	0x3d0a9ce5	0.033841033
191	0xbe2c998a	-0.16855446
192	0x3deb8161	0.114992864
193	0xbb0ccf58	-0.0021485891
194	0xbc9cafc9	-0.01912679
195	0x3e3d4fdb	0.18487494
196	0x3d912959	0.070879646
197	0x3e000a0f	0.12503837
198	0x3c9983cd	0.018739605
199	0xbbd0723a	-0.006361273
200	0xbe0e7fab	-0.13915889
201	0x3d0285ed	0.031866003
202	0x3d7f6f86	0.062362216
203	0xbcaa0dcf	-0.020758538
204	0xbe35b50c	-0.17744845
205	0xbdf8138f	-0.121131055
206	0xbe9d5f62	-0.30736834
207	0x3c4ab203	0.012371543
208	0x3e245e30	0.16051555
209	0xbcf41ed9	-0.029799866
210	0xbcc2c2e7	-0.023774577
211	0xbdde70c5	-0.10861353
212	0xbdf893b9	-0.12137551
213	0xbc4156b7	-0.01180046
214	0xbd8b0d2b	-0.06789621
215	0x3e23b0e2	0.15985444
216	0xbe10b238	-0.14130485
217	0xbd266fdf	-0.040634032
218	0xbe0932eb	-0.1339833
219	0xbd1d3ed7	-0.038390007
220	0x3d552819	0.052040193
221	0x3cbbb06f	0.022911279
222	0x3b4c0f44	0.0031137029
223	0xbd26e9bf	-0.04075026
224	0xbe937e3f	-0.28807256
225	0x3e1ec649	0.15505327
226	0x3e1bc6c2	0.15212539
227	0x3d8a85c1	0.06763793
228	0x3e0be99d	0.13663335
229	0xbe59d123	-0.21271186
230	0x3df1be86	0.118039176
231	0xbe19b5e0	-0.15010786
232	0xbd6c460c	-0.05768399
233	0xbe38cd26	-0.18047008
234	0x3b6924f1	0.0035574997
235	0x3e042775	0.12905677
236	0x3dd243ee	0.10266863
237	0x3c3e2be5	0.011607145
238	0x3e3fb488	0.18721211
239	0xbc670d35	-0.01410227
240	0xbcd5b671	-0.026087971
241	0xbd3117ff	-0.043235775
242	0x3db5711e	0.08859466
243	0xbda104db	-0.07862254
244	0xbe8e0a1c	-0.27742088
245	0xbc7d780b	-0.015470515
246	0x3e4cfdbd	0.20018668
247	0xbdc1cd81	-0.09463025
248	0x3e675127	0.22589551
249	0x3e0b6a6b	0.13614814
250	0xbe908421	-0.28225806
251	0x3c8b01bb	0.016968599
252	0xbe583816	-0.21115145
253	0x3e954569	0.29154518
254	0x3d2b7342	0.041857965
255	0xbe87b276	-0.26503342

lstm.weight_hh_l1 f4 [128, 32]
0	0x3d0515f3	0.032491636
1	0x3e5cdd4c	0.21568793
2	0xbdc3d9bd	-0.09563015
3	0xbdf32610	-0.11872494
4	0x3e3673e4	0.17817646
5	0xbdd9a03c	-0.106262654
6	0xbdd9131d	-0.10599349
7	0xbe5fb470	-0.21846175
8	0xbe45e33d	-0.19324966
9	0xbe2a391a	-0.16623345
10	0xbd50ea52	-0.051004715
11	0xbd4f3123	-0.05058397
12	0x3b80cf92	0.0039309943
13	0x3df02569	0.117258854
14	0xbe8a0c96	-0.26962727
15	0x3d8db175	0.06918613
16	0x3e1e0361	0.15430976
17	0x3da282cb	0.07935103
18	0xbca6036e	-0.020265307
19	0xbcf85f22	-0.0303188
20	0x3da099fd	0.07841871
21	0xbe2bb31f	-0.16767548
22	0x3e285c91	0.16441561
23	0xbe0f0a0e	-0.1396868
24	0xbdcabf09	-0.09899718
25	0xbe866f16	-0.26256627
26	0xbde78181	-0.11303998
27	0x3e4e4287	0.20142566
28	0xbd6e0ffe	-0.05812072
29	0xbdbeb05a	-0.0931098
30	0x3c6d2322	0.014473708
31	0xbe828bde	-0.25497335
32	0xbdd915e4	-0.105998784
33	0x3dfd0dba	0.12356134
34	0x3c1e976a	0.009679655
35	0x3eb1bb6d	0.34713307
36	0xbd8e2bcd	-0.06941948
37	0xbe5110f3	-0.20416622
38	0xbe8940b0	-0.26807165
39	0xbe4a0d49	-0.1973163
40	0xbd1a0463	-0.03760184
41	0xbe7026ed	-0.23452349
42	0xbe467198	-0.1937927
43	0xbdab5ae8	-0.08366948
44	0x3ee7ecf9	0.45297983
45	0x3e1b6ef7	0.15179048
46	0xbcbf746e	-0.023370948
47	0x3d78d2fa	0.060748078
48	0xbe3f38ef	-0.18674062
49	0xbd922515	-0.07135979
50	0xbdd86ea6	-0.105679795
51	0x3d623715	0.05522831
52	0xbdb35ed3	-0.08758321
53	0xbe34f125	-0.17670114
54	0x3e5d8482	0.21632579
55	0xbe049662	-0.12947991
56	0x3dafddd3	0.085872315
57	0xbdbf8590	-0.09351647
58	0xbed678fb	-0.41889176
59	0x3e90492a	0.2818082
60	0xbccd1b6e	-0.025037494
61	0x3b86b007	0.0041103396
62	0xbd612c79	-0.054974053
63	0xbc16e382	-0.0092095155
64	0x3e4ce4be	0.20009133
65	0xbd89bfc3	-0.06726029
66	0xbcc54c93	-0.024084365
67	0x3d21203c	0.03933738
68	0xbe21e4b8	-0.15809906
69	0xbe5810fc	-0.21100229
70	0xbd9794cc	-0.074014276
71	0xbe203924	-0.15646797
72	0x3d0782b2	0.033083625
73	0xbded83ee	-0.11597429
74	0x3e00fcdb	0.12596457
75	0xbd82a856	-0.06379764
76	0x3e65aa00	0.22428131
77	0xbe03a034	-0.12854081
78	0xbda6aca6	-0.08138399
79	0x3dc1ef25	0.09469441
80	0xbe94ba43	-0.29048356
81	0xbe0913ca	-0.13386455
82	0xbd546e7f	-0.05186319
83	0x3b3be52e	0.0028670537
84	0xbe5902ac	-0.21192425
85	0xbea521fe	-0.32252496
86	0x3d1a524e	0.037676148
87	0x3e5d9bbf	0.21641444
88	0xbe115128	-0.14191115
89	0x3ca18d2f	0.019720642
90	0xbc2d442c	-0.0105753355
91	0x3e10a6da	0.14126149
92	0x3dbd0113	0.092287205
93	0xbded1c37	-0.11577647
94	0xbe213238	-0.15741813
95	0x3da7c838	0.081924856
96	0x3e8ae9b1	0.27131417
97	0x3e434bb7	0.19071852
98	0xbddfceea	-0.109281376
99	0xbd878837	-0.06617778
100	0xbe04c1ac	-0.12964505
101	0x3c93bf30	0.018035501
102	0xbe38dc9c	-0.18052906
103	0xbdee0920	-0.11622834
104	0xbe29e211	-0.16590144
105	0x3e28ee2e	0.16497108
106	0xbe37f3d6	-0.1796411
107	0xbd5af4c4	-0.053456083
108	0x3e6ad89b	0.22934191
109	0x3d94413d	0.07239006
110	0xbdce2255	-0.10065142
111	0xbe0d56d3	-0.13802652
112	0xbe96679f	-0.29375932
113	0x3d1bf7d9	0.038078163
114	0x3d9541bd	0.07287929
115	0xbbad5ab9	-0.005290356
116	0xbc5f0523	-0.0136120645
117	0xbe49bf4b	-0.19701879
118	0x3e2f0bbc	0.1709432
119	0x3e24915a	0.16071072
120	0x3e106bd1	0.14103629
121	0xbd41d834	-0.047325328
122	0xbe1c256d	-0.15248652
123	0x3e102d91	0.14079882
124	0x3dba94b7	0.09110396
125	0xbe076254	-0.13221103
126	0x3d49556c	0.04915373
127	0x3c834f86	0.01602913
128	0x3d400713	0.046881747
129	0x3e18bf1c	0.14916652
130	0x3e8a10ee	0.2696604
131	0xbdfad245	-0.12247137
132	0x3d4a540e	0.049396567
133	0x3a49bafd	0.0007695405
134	0xbbed780e	-0.0072469776
135	0xbd8be1d1	-0.068301804
136	0xbd3f8dd3	-0.046766113
137	0x3e5fc812	0.21853665
138	0xbdd3ecdb	-0.10347911
139	0xbd8f6459	-0.07001562
140	0xbd0c9e09	-0.0343304
141	0xbe81d8fc	-0.25360858
142	0x3df6daec	0.12053475
143	0xbdfd3b8c	-0.12364873
144	0x3cce8444	0.025209554
145	0x3d2422d4	0.040072277
146	0x3c9bc34d	0.019014025
147	0xbd3436c1	-0.04399753
148	0xbddfc51d	-0.10926268
149	0x3dbbde41	0.09173251
150	0x3dc60ebd	0.0967078
151	0x3e00b39f	0.1256852
152	0xbe1ce723	-0.15322547
153	0xbdda5f3d	-0.106626965
154	0xbe3ce073	-0.18444996
155	0xbda7d94a	-0.081957415
156	0xbe2a2edd	-0.1661944
157	0xbce414d9	-0.027841972
158	0xbe7a4ff2	-0.24444559
159	0xbd945e51	-0.07244552
160	0x3db45d30	0.088068366
161	0xbda78308	-0.08179289
162	0x3da986c2	0.08277656
163	0x3de9236d	0.1138371
164	0x3d02f508	0.03197196
165	0x3c2d7e96	0.0105892625
166	0x3df1b0f7	0.118013315
167	0xbd984f8f	-0.074370496
168	0xbe79f26c	-0.24408883
169	0x3e60160c	0.2188341
170	0xbd99464f	-0.074841134
171	0x3dd9d5cd	0.106364824
172	0x3dad94cb	0.08475646
173	0xbe5efc7e	-0.21776006
174	0x3d0d696d	0.03452437
175	0xbd8acb92	-0.06777109
176	0xbdad34ed	-0.084573604
177	0x3db3f63f	0.08787202
178	0x3af7b842	0.0018899518
179	0xbe651e17	-0.2237476
180	0xbdf42765	-0.119215764
181	0x3d6cf757	0.05785307
182	0xbdba649f	-0.09101223
183	0xbe20540a	-0.15657058
184	0x3e11e87d	0.14248843
185	0xbe45769d	-0.19283529
186	0xbe1d4c5d	-0.15361162
187	0x3e01c59a	0.12673035
188	0x3d52d471	0.05147213
189	0xbd29bd28	-0.04144016
190	0xbd346b28	-0.044047505
191	0x3e62a92d	0.22134848
192	0x3e5cf401	0.21577455
193	0xbe0d359e	-0.13789985
194	0xbd965ed1	-0.073423035
195	0x3e0b0f1b	0.13579981
196	0xbdaac990	-0.08339226
197	0x3b11caf3	0.0022246211
198	0x3d46bc92	0.04851968
199	0xbe4412d6	-0.1914781
200	0xbd86b49b	-0.065774165
201	0xbd845b78	-0.06462759
202	0xbccfb8cf	-0.025356678
203	0xbc2359f6	-0.009970179
204	0x3c81d1f0	0.015847176
205	0xbd20c6db	-0.039252143
206	0x3e17284e	0.14761469
207	0x3cd89eab	0.026442846
208	0xbdd3e229	-0.10345871
209	0x3d74f23a	0.059801318
210	0x3d83cb48	0.06435257
211	0x3d30dbf5	0.043178517
212	0x3d793218	0.06083879
213	0xbe29e5d2	-0.16591576
214	0xbda26319	-0.07929058
215	0x3df49db9	0.11944146
216	0x3da72c15	0.08162705
217	0xbc7cbcdb	-0.015425886
218	0xbd4f7801	-0.050651554
219	0xbd9242a3	-0.07141616
220	0x3e360b27	0.17777692
221	0x3d4401e9	0.047853384
222	0x3d460965	0.048348803
223	0xbc97707b	-0.018486252
224	0x3e026050	0.12732053
225	0xbe48775b	-0.1957678
226	0xbdbb2775	-0.09138385
227	0x3e23ac3a	0.15983668
228	0x3e0531d5	0.1300729
229	0xbd2862bb	-0.04110978
230	0xbdeae5f3	-0.114696406
231	0x3dab69d3	0.08369794
232	0x3cc0ecd5	0.02355043
233	0x3e52208c	0.20520228
234	0xbe4727df	-0.19448803
235	0xbe5d1dd3	-0.21593408
236	0x3d414cf7	0.04719254
237	0xbd477d92	-0.048703738
238	0xbe2cdf6a	-0.168821
239	0xbd5df9c0	-0.05419326
240	0xbe86060d	-0.2617649
241	0x3d346369	0.044040117
242	0xbd1fabc0	-0.038982153
243	0xbd926dcf	-0.071498506
244	0xbe9b437f	-0.30324933
245	0x3d8509ea	0.064960316
246	0x3ddeb7f3	0.10874929
247	0xbe210f4f	-0.15728496
248	0xbd849331	-0.06473387
249	0xbe84d63f	-0.25944707
250	0xbd986069	-0.07440264
251	0x3ea6a27c	0.3254584
252	0x3dc5db84	0.0966101
253	0x3dd04c4e	0.10170804
254	0xbd1bdfd1	-0.038055245
255	0xbdf8017c	-0.12109658

lstm.bias_ih_l1 f4 [128]
0	0x3e61e8ee	0.22061512
1	0x3e73b0fd	0.23797984
2	0x3e53f2f2	0.20698145
3	0x3ea1570e	0.3151173
4	0x3d96f330	0.07370603
5	0x3e20ff68	0.1572243
6	0x3c58e678	0.013238542
7	0x3ea13873	0.3148838
8	0xbceea8b5	-0.02913318
9	0x3da3ba74	0.079945475
10	0x3db83f04	0.08996394
11	0xbcd26143	-0.025681144
12	0x3dcb248b	0.099190794
13	0x3e114e69	0.14190067
14	0x3e509af1	0.20371605
15	0x3d186ac9	0.037211213
16	0x3dc0f30e	0.09421359
17	0x3ecece6b	0.4039186
18	0x3dd2589a	0.10270806
19	0x3e33966e	0.17537853
20	0xbd634301	-0.05548382
21	0x3e7831bc	0.24237722
22	0x3e23aacd	0.15983124
23	0x3ee72c3c	0.45150936
24	0x3e5fb27f	0.21845435
25	0xbd176d05	-0.036969204
26	0xbd3584b4	-0.04431601
27	0x3e52af57	0.205747
28	0x3ddc78bb	0.10765215
29	0x3e89f50d	0.2694477
30	0x3e140803	0.14456181
31	0x3e3e5d0f	0.18590187
32	0x3e62cca9	0.22148384
33	0xbdddeb9c	-0.108359545
34	0xbe4277ba	-0.18990985
35	0x3e08502c	0.13311833
36	0x3d84bbf3	0.06481161
37	0xbd8e389a	-0.0694439
38	0xbbf9cbe1	-0.007623181
39	0xbde4ca84	-0.11171439
40	0x3d63b656	0.05559381
41	0xbdea810e	-0.114503965
42	0xbce628cc	-0.028095625
43	0x3e55d0c0	0.20880413
44	0x3dd021ae	0.10162674
45	0xbbce30f3	-0.0062924563
46	0x3d7fbe1c	0.06243716
47	0xbdd6aa6c	-0.10481724
48	0x3ea4346c	0.32071245
49	0xbe8849f9	-0.26618937
50	0xbdc97fcb	-0.09838828
51	0xbe0fcbb1	-0.14042546
52	0x3dbb741a	0.09153004
53	0xbe2579f3	-0.16159801
54	0xbc82bfe4	-0.015960641
55	0x3d969ef2	0.07354535
56	0xbdcd2cc4	-0.10018304
57	0x3d55d64a	0.052206315
58	0xbddbdf9d	-0.1073601
59	0xbd65b435	-0.056080062
60	0xbdbdc21c	-0.09265539
61	0xbda990ff	-0.08279609
62	0xbde7ceac	-0.113187164
63	0xbcc5d874	-0.024151064
64	0x3b71f08a	0.0036917054
65	0xbd8fdbc2	-0.07024337
66	0x3dd39b6e	0.1033238
67	0x3d3e3ce6	0.046444796
68	0xbd8bd501	-0.06827737
69	0x3cecd79e	0.028911408
70	0xbc17595e	-0.009237615
71	0x3df853ec	0.12125382
72	0xbd2c0faa	-0.042007126
73	0xbda135bd	-0.07871578
74	0xbe19f892	-0.15036228
75	0x3dd106de	0.10206388
76	0x3e1763dc	0.14784187
77	0x3d953e8e	0.07287322
78	0xbd8384d6	-0.06421821
79	0x3d908b48	0.07057816
80	0xbd2220d3	-0.039582085
81	0x3e1c28a5	0.1524988
82	0x3dada916	0.08479516
83	0xbe3ff5cc	-0.18746108
84	0x3d928916	0.07155053
85	0x3dcde9d2	0.10054363
86	0x3ccf9ed5	0.025344292
87	0xbe286741	-0.16445638
88	0xbdaf36ee	-0.08555399
89	0xbd2b3922	-0.041802533
90	0xbdd9962c	-0.10624346
91	0x3e57809d	0.21045156
92	0x3d2ab1e1	0.041673545
93	0xbd195faa	-0.037444748
94	0xbe2e3238	-0.17011344
95	0x3db134e7	0.086526684
96	0x3e158430	0.14601207
97	0x3e4bebdf	0.19914196
98	0x3ed1d64f	0.40983817
99	0x3ebe91d0	0.3722062
100	0x3dd10b14	0.10207191
101	0xbc9ac9fa	-0.018895138
102	0xbb4f8ecb	-0.0031670805
103	0x3e2cb628	0.16866362
104	0x3e0ba3a7	0.13636647
105	0x3e6ba021	0.23010303
106	0x3d3bc7bf	0.04584479
107	0x3de61ff7	0.112365656
108	0x3e79d4a5	0.24397524
109	0x3e761dcb	0.24034803
110	0xbd892a10	-0.06697476
111	0x3e43fb37	0.191388
112	0x3cca8e17	0.024725957
113	0x3ee2bc53	0.44284305
114	0x3d99413e	0.07483147
115	0x3e45cbef	0.19316076
116	0x3d9b7350	0.075903535
117	0x3eac49e0	0.33650112
118	0x3e493d4c	0.19652289
119	0x3e67c4fd	0.22633739
120	0xbda0e558	-0.07856244
121	0xbd2bfbac	-0.04198806
122	0x3dc9e81c	0.098587245
123	0x3dc7db06	0.09758572
124	0x3e976da5	0.2957584
125	0x3e294843	0.16531472
126	0x3e5eb66a	0.21749273
127	0x3e934d2f	0.28769824

lstm.bias_hh_l1 f4 [128]
0	0x3e96c9b1	0.29450753
1	0x3e8a3aff	0.26998135
2	0x3e7c196a	0.2461907
3	0x3e9c6f0d	0.30553475
4	0x3dbd552d	0.092447616
5	0x3e9105a7	0.28324625
6	0x3d9e9e90	0.07745087
7	0x3e663d82	0.22484401
8	0x3e05aa37	0.13053213
9	0x3e8c579d	0.27410594
10	0x3decda31	0.11565054
11	0x3cf2e3b7	0.029649599
12	0x3e749944	0.23886591
13	0x3e0495e7	0.12947808
14	0x3e58d9f9	0.211769
15	0x3e8fa556	0.2805583
16	0xbd7aa625	-0.061193604
17	0x3ebd111f	0.36927125
18	0x3eb3da0b	0.3512729
19	0x3d4b0706	0.049567245
20	0x3de21b0d	0.11040316
21	0x3d52726a	0.051378645
22	0x3d9427b9	0.07234139
23	0x3dd94704	0.10609248
24	0x3e3ae227	0.18250333
25	0x3d3ff469	0.046863947
26	0x3b747a65	0.0037304398
27	0x3d9ad8d7	0.0756089
28	0x3df49187	0.1194182
29	0x3e42c540	0.19020557
30	0x3e27371c	0.16329616
31	0xbcb8655a	-0.022509266
32	0x3e53d299	0.20685805
33	0x3daebf31	0.085325606
34	0x3de0c456	0.10974948
35	0xbe1df077	-0.15423761
36	0x3e11c3ce	0.1423485
37	0x3e4db5a0	0.20088816
38	0xbd43259a	-0.04764328
39	0xbe1ca987	-0.15299045
40	0xbd0722fe	-0.032992356
41	0xbc7d73d5	-0.015469511
42	0x3e6c75c7	0.23091803
43	0x3c2bf144	0.010494534
44	0x3e211ded	0.15734072
45	0xbe3f0107	-0.18652736
46	0xbdef85c5	-0.116954364
47	0x39a5b934	0.0003160924
48	0x3dafca20	0.08583474
49	0xbe847fd7	-0.25878784
50	0x3dd04c69	0.10170824
51	0xbe2021cb	-0.15637891
52	0x3e3abf45	0.18237026
53	0x3e023c65	0.12718351
54	0x3dbc52b7	0.09195464
55	0xbd76a0a3	-0.06021179
56	0xbce70007	-0.028198255
57	0x3d71ce59	0.05903468
58	0xbd2afdf9	-0.041746113
59	0xbdaf4087	-0.085572295
60	0x3de1e429	0.11029846
61	0xbd9a579d	-0.07536242
62	0xbe15146b	-0.1455857
63	0xbd6b4abb	-0.057444315
64	0x3df7fe5e	0.121090636
65	0xbd16eaf9	-0.03684518
66	0x3da8e655	0.08247057
67	0x3d809793	0.062789105
68	0x3ddee31d	0.10883162
69	0x3dd8a143	0.10577633
70	0xbd86648b	-0.06562146
71	0xbe1bbdfe	-0.15209195
72	0xbddb7287	-0.10715204
73	0xbdc7a570	-0.097483516
74	0xbd0490d5	-0.032364685
75	0xbe0b289f	-0.13589714
76	0x3db81475	0.08988277
77	0xbd3d8939	-0.046273444
78	0xbdef066a	-0.11671145
79	0xbdde52b4	-0.10855618
80	0x3db43717	0.0879957
81	0xbd6f0080	-0.058350086
82	0xbe0f1c58	-0.13975656
83	0xbdff0955	-0.12452952
84	0xbdceb1ef	-0.10092532
85	0xbd99b4b4	-0.075051695
86	0x3d035ac9	0.032069
87	0x3dcbcb0c	0.099508375
88	0x3dd3a48b	0.103341185
89	0xbd20ee3d	-0.0392897
90	0x3e195fc2	0.14977935
91	0xbdc383e0	-0.095466375
92	0xbcfb75f9	-0.030695902
93	0x3d1a7b89	0.03771547
94	0x3ccb317f	0.024803875
95	0xbe43e843	-0.1913157
96	0x3e6a7047	0.22894393
97	0x3eb2119b	0.34779057
98	0x3eb1da94	0.34737074
99	0x3e8af5e4	0.27140725
100	0x3c8a6ae9	0.016896682
101	0x3d55b9ff	0.052179333
102	0xbd84545a	-0.06461401
103	0x3eb3ace7	0.35092852
104	0x3e3230be	0.17401406
105	0x3e4fe752	0.20303085
106	0x3c23608e	0.009971751
107	0xbd9febdc	-0.078086585
108	0xbdb978cb	-0.090562426
109	0x3e56f695	0.20992501
110	0x3e1513d9	0.14558353
111	0xbbc335e1	-0.0059573506
112	0x3e650b15	0.22367509
113	0x3e733edb	0.23754446
114	0x3e0a6438	0.13514793
115	0xbdfc720e	-0.12326442
116	0x3bf69872	0.007525497
117	0x3e0ea6b4	0.1393078
118	0x3dde7248	0.10861641
119	0x3ebd8f0b	0.37023196
120	0xbd805c5c	-0.06267616
121	0x3d31198c	0.043237254
122	0x3d260974	0.04053636
123	0x3cc0a75e	0.023517307
124	0x3e2ea4b4	0.17055017
125	0x3e2c741f	0.16841172
126	0xbd14c2a6	-0.036318444
127	0x3de9df5c	0.114195555

lstm.weight_ih_l2 f4 [128, 32]
0	0x3c96a403	0.018388754
1	0xbe21eb7c	-0.15812486
2	0xbd9fa908	-0.07795912
3	0x3cf103e2	0.029420797
4	0x3d5dfa57	0.05419382
5	0xbd0ff3b5	-0.035144527
6	0x3b3a7824	0.0028452957
7	0x3e3c5b54	0.18394214
8	0xbe2ce72a	-0.16885057
9	0x3da2fac5	0.07957987
10	0xbc4ab8bc	-0.012373146
11	0x3df264cd	0.118356325
12	0xbd4a6e80	-0.049421787
13	0xbb208ad7	-0.0024496817
14	0xbe116067	-0.14196931
15	0xbd739dd8	-0.059476703
16	0xbe581b94	-0.2110427
17	0xbda80a2f	-0.08205067
18	0x3e0c362f	0.13692544
19	0xbe295cac	-0.16539258
20	0x3bd19151	0.006395497
21	0xbe3bccc0	-0.18339825
22	0x3e9b3e73	0.30321082
23	0xbcff88f4	-0.031193234
24	0x3e36a9c9	0.17838205
25	0x3e1f1d90	0.15538621
26	0xbdaff4db	-0.08591624
27	0xbd9d3c7a	-0.076775506
28	0xbe193b17	-0.14963947
29	0x3c686f61	0.014186711
30	0xbdb9182e	-0.09037815
31	0x3e02b1b3	0.127631
32	0xbd81b56e	-0.06333433
33	0xbc639ddd	-0.013892618
34	0x3b1f774b	0.0024332579
35	0xbe5419be	-0.20712945
36	0xbd93fddd	-0.07226155
37	0xbdb4ea67	-0.08833771
38	0x3e190eb4	0.14947015
39	0x3e380e58	0.17974222
40	0xbe5ce82b	-0.2157294
41	0x3e09be7e	0.13451573
42	0x3e88cb60	0.26717663
43	0x3d9343ba	0.07190652
44	0xbd1dfaeb	-0.038569372
45	0x3e34198e	0.17587873
46	0xbe9d49a9	-0.3072026
47	0xbe2cc5c2	-0.16872314
48	0x3d51014f	0.05102664
49	0x3e378218	0.1792072
50	0x3e07caa0	0.13260889
51	0xbd939c16	-0.072075054
52	0x3caa180b	0.020763418
53	0xbd800aa1	-0.06252027
54	0x3e535929	0.2063948
55	0xbe1d354e	-0.15352365
56	0xbe4d8798	-0.20071256
57	0xbb39405b	-0.0028267119
58	0x3e0192de	0.12653682
59	0xbde734cc	-0.11289367
60	0xbdb53392	-0.08847727
61	0xbe2437f5	-0.16036971
62	0xbd91bead	-0.07116447
63	0xbe958fa9	-0.29211167
64	0x3e28434e	0.16431925
65	0x3ddf0b6e	0.10890852
66	0x3d7d4c82	0.06184054
67	0x3e9dccdb	0.30820355
68	0x3e3dbca1	0.18528987
69	0xbdb87d27	-0.09008246
70	0xbe0a3122	-0.13495305
71	0xbcd3da0a	-0.025860805
72	0xbddb2fc3	-0.10702469
73	0x3de36529	0.11103279
74	0xbd91ddb3	-0.07122364
75	0x3d157986	0.036492847
76	0x3d91831b	0.071050845
77	0xbe117e11	-0.14208247
78	0x3d6c8d79	0.057752106
79	0xbc966088	-0.018356577
80	0x3dccd527	0.10001593
81	0xbd965091	-0.073395856
82	0xbd306707	-0.043067005
83	0x3dd6bdae	0.10485397
84	0xbddb6651	-0.10712875
85	0xbdb65750	-0.08903372
86	0xbd83e2ba	-0.06439729
87	0xbd0d3526	-0.034474514
88	0x3d3543b0	0.044254005
89	0xbe22b08f	-0.15887664
90	0x3d9dd1c2	0.07706024
91	0x3d0e38ab	0.03472201
92	0xbc4165db	-0.011804069
93	0xbe413b9c	-0.18870395
94	0xbdbe41c4	-0.092898875
95	0xbe43111b	-0.19049494
96	0x3e084f8c	0.13311595
97	0x3db6bbf0	0.08922565
98	0xbd5c0980	-0.053719997
99	0x3dce6d8b	0.100794874
100	0x3e287798	0.16451871
101	0xbdb5ee70	-0.08883369
102	0xbdb7e421	-0.08979059
103	0x3e330faf	0.17486452
104	0x3deb7fc4	0.11498979
105	0x3df2bb93	0.11852183
106	0x3d0881ff	0.0333271
107	0xbdb24b00	-0.08705711
108	0x3c6f8a48	0.014620371
109	0x3bba9580	0.0056940913
110	0xbe5271fb	-0.20551293
111	0x3e19b63e	0.15010926
112	0x3cbe42d7	0.023225231
113	0x3e0ce359	0.13758601
114	0xbe3af873	-0.18258838
115	0x3dbec700	0.093153
116	0xbd89d3fc	-0.06729886
117	0xbe402474	-0.18763906
118	0x3ded634c	0.11591205
119	0xbdecf5e1	-0.11570335
120	0xbe1f74d4	-0.1557191
121	0x3da4e71f	0.08051895
122	0xbdeb0c48	-0.11476952
123	0x3d89e3f0	0.06732929
124	0xbe222595	-0.15834649
125	0xbe448166	-0.19189987
126	0xbe1343b6	-0.14381298
127	0x3d943aa6	0.07237749
128	0x3d63f883	0.05565692
129	0xbe0d2d74	-0.1378687
130	0xbcd19fbc	-0.025588863
131	0x3e6dbd1a	0.23216668
132	0x3e085cb1	0.13316609
133	0x3d88eedf	0.06686186
134	0xbe21e00a	-0.1580812
135	0x3cc946fd	0.024569983
136	0xbdb37334	-0.087622076
137	0xbe3db8ce	-0.18527529
138	0xbe5c3e58	-0.21508157
139	0xbdac0a38	-0.084003866
140	0x3ead2980	0.33820724
141	0xbe5ef342	-0.21772483
142	0xbda1b81c	-0.07896444
143	0x3e40c9f3	0.18827038
144	0xbe17a151	-0.14807631
145	0x3e476ca1	0.19475032
146	0xbd656143	-0.05600096
147	0xbe88e174	-0.26734507
148	0x3d18cc17	0.03730401
149	0xbdcbcbaa	-0.09950955
150	0x3e92f485	0.2870218
151	0x3e462625	0.19350488
152	0xbdf768b2	-0.12080516
153	0xbe76b598	-0.2409271
154	0xbea49203	-0.32142648
155	0x3eb839bf	0.35981557
156	0xbe108a9c	-0.14115375
157	0xbe14363c	-0.14473814
158	0xbd89fc14	-0.06737533
159	0x3c5b6ea0	0.013393074
160	0xbe3af94c	-0.18259162
161	0xbdc8abfa	-0.09798427
162	0xbe68d968	-0.22739184
163	0x3e45c547	0.19313537
164	0xbdc85955	-0.09782664
165	0x3e004e04	0.1252976
166	0xbd75e9fb	-0.060037594
167	0x3d617845	0.05504634
168	0xbcbe867b	-0.023257485
169	0x3e290142	0.16504386
170	0x3d900244	0.07031682
171	0xbcde4cae	-0.027136173
172	0xbe226db9	-0.15862168
173	0x3d47c8e7	0.04877558
174	0x3e3ce5e3	0.1844707
175	0xbdf404a3	-0.11914947
176	0x3e688679	0.22707547
177	0x3ddc08bf	0.10743856
178	0xbdf41b0a	-0.1191922
179	0xbe1eb1a4	-0.15497452
180	0x3e153018	0.14569128
181	0xbd5d2107	-0.053986575
182	0xbd6e9624	-0.058248654
183	0xbbfb7a7c	-0.0076745134
184	0xbd87cbd5	-0.06630675
185	0xbbc1ebf8	-0.0059180222
186	0xbd977c51	-0.07396758
187	0x3dd8c0cf	0.1058365
188	0x3dc97ee0	0.098386526
189	0xbe1596ad	-0.1460826
190	0xbe1087e3	-0.14114337
191	0x3da607d4	0.08106962
192	0xbd91325e	-0.07089685
193	0xbe490045	-0.19629009
194	0xbe2cf293	-0.1688941
195	0x3c9103b8	0.017701969
196	0x3de2f1ff	0.11081313
197	0x3dda4113	0.10656943
198	0x3c904bc8	0.01761426
199	0x3e0249e5	0.12723501
200	0xbe12d092	-0.14337376
201	0x3d3ad253	0.045610737
202	0x3d0389f0	0.03211397
203	0xbde66917	-0.11250513
204	0xbda4d7ed	-0.08048997
205	0x3ddca155	0.10772959
206	0xbe9357e7	-0.28778002
207	0x3d45ff65	0.048339266
208	0x3deacd17	0.11464899
209	0xbd653997	-0.055963125
210	0x3ba0d5ba	0.0049082907
211	0xbdd24a86	-0.102681205
212	0xbe4c7faf	-0.19970582
213	0xba2460eb	-0.00062705454
214	0x3dbff897	0.093735866
215	0xbd9f88ff	-0.07789802
216	0x3dee94b3	0.11649456
217	0x3d3573a4	0.044299737
218	0x3db5d78e	0.088790044
219	0x3e3277fc	0.17428583
220	0x3cb5b0c7	0.02217902
221	0x3bdf9af9	0.006823894
222	0xbe5e709d	-0.21722646
223	0xbcd4836b	-0.025941571
224	0x3ddceceb	0.10787376
225	0xbe52b910	-0.20578408
226	0xbdd98d6e	-0.10622679
227	0xbe014c1b	-0.12626688
228	0xbe555b8a	-0.208357
229	0xbd8f8565	-0.07007865
230	0xbe15d9b7	-0.14633833
231	0x3e2a7771	0.16647126
232	0xbe84e9f1	-0.25959733
233	0xbdaa56d2	-0.08317341
234	0xbe72fea3	-0.23729949
235	0xbcdda283	-0.02705503
236	0xbdb1b68e	-0.08677398
237	0xbda107bd	-0.07862804
238	0xbe815168	-0.2525742
239	0xbdfd1ece	-0.12359391
240	0x3dffd7ea	0.12492354
241	0x3e005088	0.1253072
242	0x3d4e66b4	0.050390914
243	0xbc7c34ee	-0.015393479
244	0xbd459df5	-0.048246343
245	0xbcf70f7b	-0.030158749
246	0x3e878d6a	0.26475078
247	0x3cb85e01	0.022505762
248	0xbe2ea0a5	-0.17053469
249	0x3da92019	0.08258075
250	0xbdaf8d2e	-0.0857185
251	0x3d81daf3	0.063405894
252	0xbe1f65ca	-0.15566173
253	0xbe37b60d	-0.1794054
254	0xbc05d8b1	-0.008169339
255	0xbd836190	-0.06415093
