LSTM/model_recursion/best_epoch_model_336.pth (torch, 50340 bytes, 6 tensors)

lstm.weight_ih_l0 f4 [200, 7]
00000000: bdb7 1f3e 4b29 79bd 8a3a a33e 9069 9cbe
00000010: 57da 753e d7f5 353e 0507 cabd 598d 993e
00000020: 83f2 c33c 5e4e 8c3e 0eb1 e8bc ad1c 45be
00000030: 55e8 2ebe e2b1 073e 52da 50be d679 dc3d
00000040: 1ba5 d0bd 56bc 0d3e 4d05 9b3d 594f 17bd
00000050: 6c76 d43c 3904 253d fceb 30bb 72e9 193e
00000060: 9df9 e23d e9f5 a7bd b207 82be cf83 cf3e
00000070: 0df8 04be 9635 d23d 874b 72bd f6f8 b03e
00000080: df3e 993e a6a2 c6bd d4aa 4c3e a1d4 c63d
00000090: 9d0f ca3b b68a 713e 5ea1 d1bc 170f 70be
000000a0: a580 07bd 97c3 bb3c a646 44bd c37d a8bd
000000b0: c6c1 babc 0d17 15bc 4a1a 473b 746a d33c
000000c0: 4221 ef3c cfc7 6d3a 5e52 c1bd 0d2f ddbc
000000d0: c3da f5bd 4f8e 3c3e 5d4b 013d d658 fbbd
000000e0: 52d4 843e afb9 56bd b6fe 653e 9d05 59bc
000000f0: 7e19 ddbc 3421 893c 604b 07be 0d32 2e3c
00000100: 7189 d03d 768f e53d 2751 353e 5a4c c13d
00000110: c732 d63d 93df c3bc 49c1 b23c 567d 53bd
00000120: a6d9 863c d819 babd a436 2fbe 0eb8 883d
00000130: 2add 10bd cd4f 87be 759b 60bd ff1e a3be
00000140: 65fa f13d e972 acbd 3ef9 363e f47a afbe
00000150: b74a 6a3e 6738 f9bd a83b 8d3e b95f 98be
00000160: a285 41bd 59ea 17be c385 55be 4562 16be
00000170: a88c d9bd df62 af3d b17e 92bb 435d 5bbe
00000180: 2c65 da3d 6c22 64bd 88c8 043e 3013 613b
00000190: 81f2 0e3e 8ebd 933c 6f2f 103d 5bb0 a2bd
000001a0: 98d9 1abe 8715 2d3e f7dc 89bd 2ebf 703d
000001b0: f031 abbd 6128 b5bc a415 3bbb 0e1a 643e
000001c0: c5d9 2b3d b1e8 1b3d 9faa e53d 8c11 2e3e
000001d0: 09d6 31be d03f f7bd 293a 8cbe 6c1f c23d
000001e0: ebd9 443d c1cd 03bc 7c8b d43d 4bfb 84bd
000001f0: 4af1 21be 22ee 13be 19ea 6d3e b567 963e
00000200: aa88 833e a538 743e cdca c9be c558 243e
00000210: 889a 1fbe cfdd da3b 2cb8 e93c 8565 4cbd
00000220: 4b9e b53c 135c b23d 6e9a b9bd 7805 093e
00000230: 0a3f 81be 2409 ebbd 8dfd 94bd 3200 663d
00000240: 8a98 6cbe 43d9 e83c fbfe efbd 0a6a e33b
00000250: f2f2 9fbe e48e ad3d b524 c5be 0e16 0abe
00000260: d97e 8abe b1fb bbbe 2731 1e3e eb75 02be
00000270: 7aff 3f3d 4172 fc39 ea51 ae3c b88a f4bc
00000280: f9f2 f53d fadf b83c ef1e 96be c8e1 313e
00000290: 5aef 52be 67c3 b53e 6856 f73d b612 9d3d
000002a0: 2833 363e eb4b 8bbe d499 473e 882d ffbe
000002b0: db5e 023e 1693 6f3d f81b fdbd 7427 84be
000002c0: c937 ac3d b7bd 97bd a113 193e 22e2 87bd
000002d0: 9650 5c3d 9fe0 4a3d d9a4 3e3d 5abc 0e3e
000002e0: e3c0 0cbd 12fb f73d 2112 58be aa75 11bd
000002f0: 8fbd ba3d c895 e7bd d36c 193d 18d8 1f3d
00000300: c462 f1bd 25cd 1f3d 7148 af3d bd3e be3c
00000310: d696 ca3e 5dde 8abe 3dc2 573e 671b 9fbe
00000320: 5087 8e3d 866e 83bc 8b2d b63c 29a0 a7bd
00000330: 5106 ae3d 3805 ebbd ba1b 1a3e 31df ecbd
00000340: 9328 2abc 099c 1ebe a731 58bd 60e0 2fbd
00000350: e291 f4bc 84be ae3b b6f4 98be 2a03 a8bd
00000360: 4fe5 babd ecf5 48bd 6aef dbbd 7a84 bd3d
00000370: a7de 313e a0ed 06bd e891 00be d99f b5bd
00000380: d84e 183e 6699 793d 0d36 fc3d 580a 6b3d
00000390: de31 abbe 02f7 3ebd cd87 01bd b411 8b3c
000003a0: 48f1 8e3d 64f8 6a3e 018b 2e3e ef1e c83e
000003b0: 80a1 2dbd 3551 afbd edde 443e 0691 1bbd
000003c0: 41c4 093e 90e3 60bd 4685 19be 331a 59be
000003d0: 6988 92be 55e2 953e 440e 99be 86bf c93d
000003e0: b946 70bd 5be0 5bbd e528 1dbd 5be2 94bd
000003f0: 942c 193e 97c5 a7bd 6c1e 9a3e ecfc 343e
0.15597434 -0.060830396 0.318806 -0.30549288 0.24009071 0.17769562 -0.0986462 0.29990652
0.02391935 0.2740354 -0.028404739 -0.1924922 -0.17080815 0.1325145 -0.20395783 0.10765426
-0.10187741 0.13841376 0.075693704 -0.036940906 0.025935374 0.04028723 -0.0026996126 0.15030459
0.11082766 -0.082012005 -0.25396496 0.4053025 -0.12985249 0.10264127 -0.05915406 0.34564942
0.2993078 -0.096989915 0.19987041 0.097085245 0.006166412 0.2358807 -0.025589641 -0.23443256
-0.03308167 0.022920413 -0.047918938 -0.08227112 -0.022797477 -0.009099734 0.003038066 0.025807597
0.029190663 0.00090706063 -0.094395384 -0.026999975 -0.12004616 0.18413661 0.031566013 -0.122728035
0.25943238 -0.052423175 0.22460446 -0.013245967 -0.026989695 0.016739465 -0.13212347 0.01063205
0.10182465 0.112090036 0.17706738 0.09438391 0.10458904 -0.02391032 0.021820681 -0.0516332
0.016461205 -0.090869606 -0.17110687 0.06675731 -0.03536717 -0.2642807 -0.054835755 -0.31859586
0.11815337 -0.08420355 0.17868516 -0.34273493 0.22880064 -0.12168961 0.27584577 -0.2976053
-0.047246583 -0.1483549 -0.20851807 -0.14685924 -0.10622531 0.0856378 -0.004470669 -0.21422295
0.10663828 -0.05569689 0.12967122 0.0034343712 0.13959695 0.018034723 0.035201486 -0.079437934
-0.15122068 0.16902743 -0.06731599 0.058776073 -0.08359134 -0.02211398 -0.0028546834 0.22275564
0.041955728 0.03806371 0.11214184 0.16998881 -0.17366804 -0.12072718 -0.27388123 0.094786495
0.048059385 -0.008044661 0.10378167 -0.06493243 -0.158147 -0.14446309 0.23233832 0.29375997
0.25690204 0.23849733 -0.39412537 0.16049488 -0.15586293 0.0066792737 0.028530203 -0.049901504
0.022170207 0.08708968 -0.09062658 0.13380992 -0.25243407 -0.11476353 -0.072749235 0.05615253
-0.23105064 0.028423911 -0.117185555 0.006940131 -0.3124004 0.0847452 -0.38504568 -0.13484976
-0.27049902 -0.36715463 0.15448438 -0.12740295 0.0468745 0.0004815031 0.021279294 -0.029851303
0.12009234 0.022567738 -0.29320475 0.17371285 -0.20599118 0.35500643 0.120770276 0.076695845
0.17792952 -0.27206358 0.19492275 -0.49839425 0.12731497 0.05848988 -0.1235885 -0.2581135
0.08409078 -0.07409232 0.14948894 -0.06634928 0.05378779 0.04953062 0.04654393 0.13939038
-0.03436364 0.12108435 -0.21100666 -0.035512604 0.09118187 -0.113078654 0.0374573 0.039024442
-0.11786416 0.039014 0.08558739 0.023223275 0.39568204 -0.27122775 0.2107019 -0.31075594
0.069594026 -0.016043913 0.022238513 -0.08184845 0.084972985 -0.11475605 0.1504964 -0.11566008
-0.01038565 -0.1548921 -0.052781727 -0.04293859 -0.029854719 0.00533277 -0.298742 -0.082037285
-0.091257684 -0.049062654 -0.10739024 0.092537835 0.17370091 -0.03294146 -0.12555659 -0.08868379
0.14873827 0.060937308 0.12314997 0.05738291 -0.33436483 -0.046622284 -0.03162365 0.016976215
0.069796145 0.22946316 0.17045213 0.390861 -0.042390347 -0.08560411 0.19225664 -0.037980102
0.13453771 -0.05490452 -0.14992246 -0.212014 -0.28619698 0.2927424 -0.29893696 0.09850983
-0.058661196 -0.05368076 -0.03836908 -0.072697364 0.14958411 -0.08191984 0.30101335 0.17674607

lstm.weight_hh_l0 f4 [200, 50]
00000000: 088f 063e 39fd 32be 19ba 14bc 06d5 6f3e
00000010: 414b b4bd d9ed 16be 897a 3dbd 7978 05be
00000020: 1209 e03d 23ef b0bd a432 1a3e 3a2e 993c
00000030: cece c0bd 7a4c 8ebd 0ee7 9b3b 100e 683b
00000040: 708e 5cbd 4160 9fbd fa1a 8b3d a5c7 9ebd
00000050: 346d 60bd ba99 7fbd 9a00 1b3e e4eb 053e
00000060: 0984 acbc 7695 50bc 45af 1e3d 2d86 ed3c
00000070: a6d6 83be 1324 603c 6f00 17be de4f c6bc
00000080: b83b 89be ccce 163d 396e f03d 12b4 1cbb
00000090: c4de 6bbe 3075 a53d f229 69be 7584 a2bc
000000a0: 1ed9 0abe 16ce 91bc a217 0d3c be3e e03c
000000b0: a5bc fd3c 2824 d33d eef6 663e be04 8ebe
000000c0: 2162 ed3d 0be7 c4bd c484 013d 2c50 c7bd
000000d0: 0c42 e23b 422b 023e 0b6f a2be f2a4 36be
000000e0: 3cd2 f8bc 79d5 b53d e482 a03d 0563 e2bd
000000f0: 5cb9 493e ed25 14bd 058d bf3c cf4f 513d
00000100: 41a6 13be 1f61 29be 8869 c3bd 98dd f53c
00000110: 2a51 b43c 05c3 24be bb1d 8abd 2a7c 4d3c
00000120: 8869 303d 8a50 8e3e 5044 173e adae f03c
00000130: a275 ac3d ff86 293e b11f 0dbe fcda 8ebd
00000140: f716 0abe 324c 0b3e 4d53 10be 0726 1cbe
00000150: 1f76 8fbd 57bc a7be 1893 0ebe 2d1a ef3d
00000160: 893b 74be 06a3 10be 5e0d 923d c98f 693e
00000170: e982 36be c156 993c dbac 13ba f1ab e93d
00000180: 3257 e93d 5849 bb3c 41f9 d13b 171e 073d
00000190: 8088 2fbd f395 f3bd 3e72 bbbd 98b6 f3bd
000001a0: c845 0b3d 1eda 72bc 6e64 1b3e d960 4dbd
000001b0: 1c5a f1bc d8e9 2a3c 1332 32be 3432 2b3d
000001c0: a844 1bbe 1a22 dcbc acd4 02bd ecea 13be
000001d0: df8b 12be 63bd 55bd 2da9 4dbd 87c7 ad3d
000001e0: 9721 35be b227 efbd 879c 303e 99a4 483d
000001f0: 256e 0c3e 4728 253e b3ba 3c3e a79b 113e
00000200: 3c64 e3bd b768 473d 3a56 b2bd c42f 87bd
00000210: e7da 30bd 1142 45be 7665 ecbd 56b9 51bd
00000220: a894 17be 56a3 743e ea36 763c e6ee 963d
00000230: 8aaa 9abd fff4 313d fe68 35bd fc09 22be
00000240: bbf8 7f3c 3e17 613c e52f f83d 61ca 203d
00000250: bc5d 923d e987 cabd c4f8 ae3c be6b 16be
00000260: dcfe 94bc e4c5 dbbd c2e3 5bbe 85b2 01be
00000270: 0353 2ebc d4b6 4d3c 7e25 9d3d ee3c 3cbe
00000280: fe67 0d3d b4e7 31be 0457 fc3d 128c ce3c
00000290: 2243 2cbe 26f1 903d ab1a 69bd ea0f 27bd
000002a0: 3d15 c1bd 26db 0abe 8660 493c f4dc 1d3d
000002b0: 11ad a53d 6f3d 22bd 3f3c 1c3e 6d77 153e
000002c0: 71e6 00be c753 25bd 0955 97bd d1db 153e
000002d0: 76a8 693c f2de 603c ab16 39be de14 f7bd
000002e0: 76e1 093e bfe6 c8bd 2e71 0e3d 1d61 4b3c
000002f0: a1be cebd 8bc8 1bbe 9e67 b1be 270c ca3d
00000300: 5ee6 2cbe 403d 34be c6fc d63d 52e5 363e
00000310: 9263 f1bd 6a55 93bd e0c6 093e acfb 213d
00000320: d259 483e 027d e53a a586 a5bd eed9 c9b7
00000330: d694 02be df10 9abd 8c9a 09be 5aa3 4e3c
00000340: 1f3a c83d 2904 bebb 54b3 7bbd 467b 323e
00000350: becd 5b3e 0c2b eb3d d766 0abe f8a0 b43d
00000360: dcb9 933d d7ca 1a3a 87e7 8f3d 1154 64bd
00000370: be2e 123e cd51 eb3c 9c11 39be 3dbc 5d3d
00000380: 3afa 82be 7987 ad3d 683a 4abe db2a e13d
00000390: 78f5 293e 6edf ea3d 78ec 17be 0710 6e3e
000003a0: 468f 23bc 9c6f 31bc a83e be3d 4941 c1bd
000003b0: 5fcd 193c 2dd7 e5bd 548f 3fbd 51ee 75bd
000003c0: 6182 9ebd 7ca4 3f3e 79cb b5bd 4de4 cc3c
000003d0: dbc3 36bd 0d8b d5bd 3842 07be d94e dbbc
000003e0: 3b65 4a3d 4008 8c3e 005c 113e 354d b9bd
000003f0: 7cc1 8bbe a17e e23d c058 b8bd 82ee 19be
0.131405 -0.1747941 -0.009077572 0.23421106 -0.08803416 -0.14739169 -0.046259437 -0.13034238
0.1093923 -0.08639362 0.1505838 0.0186988 -0.09414445 -0.069481805 0.0047577685 0.0035408773
-0.053846776 -0.07782031 0.06792255 -0.07752923 -0.054791644 -0.062402464 0.15136948 0.13078266
-0.021059053 -0.012730947 0.03874137 0.028994644 -0.257497 0.013680476 -0.14746259 -0.024208006
-0.26803374 0.03681831 0.11739773 -0.0023911041 -0.23034197 0.08078992 -0.22769907 -0.019838551
-0.13559386 -0.017798465 0.0086115915 0.027373668 0.030973742 0.10309631 0.22555134 -0.27737993
0.11590982 -0.096143804 0.031620756 -0.097320884 0.006904846 0.12711814 -0.31725344 -0.17836359
-0.030373685 0.08878607 0.078374654 -0.11054043 0.19699615 -0.03616898 0.023382673 0.051101502
-0.1441889 -0.16540955 -0.09541613 0.03001289 0.022011358 -0.16090019 -0.06743952 0.01254181
0.043069392 0.2779582 0.14772153 0.029380167 0.08420874 0.16555403 -0.1378162 -0.06975362
-0.13485323 0.13603285 -0.14094277 -0.15248881 -0.07004952 -0.3276088 -0.139233 0.116749145
-0.23850836 -0.14124689 0.07131456 0.22808756 -0.17823376 0.018718125 -0.00056333625 0.11409748
0.11393584 0.022862121 0.006407887 0.03298768 -0.042854786 -0.11893835 -0.09152649 -0.11900061
0.034002095 -0.014822511 0.1517503 -0.05014119 -0.029461913 0.010431729 -0.17401914 0.041795924
-0.15162909 -0.02687173 -0.0319411 -0.14445084 -0.14311169 -0.052182566 -0.050210167 0.084853224
-0.17688595 -0.11677493 0.1724721 0.048985098 0.13713892 0.16128646 0.18430595 0.14219533
-0.111031026 0.04868385 -0.08707853 -0.066009074 -0.04317751 -0.19263484 -0.1154279 -0.05120214
-0.14802802 0.23890433 0.015027741 0.07369785 -0.07552059 0.043446537 -0.04428958 -0.15824121
0.015623267 0.0137384515 0.1211851 0.039255504 0.07146785 -0.09889204 0.021358855 -0.14689538
-0.018187933 -0.10731104 -0.21473601 -0.12665756 -0.010639909 0.012555797 0.07673167 -0.18382618
0.034523003 -0.17373544 0.123212844 0.025213275 -0.16822484 0.070772454 -0.0569102 -0.04078666
-0.09427879 -0.13560161 0.012291079 0.038540795 0.080896504 -0.03960937 0.15257357 0.14596339
-0.12587906 -0.0403631 -0.07389266 0.14634635 0.014261356 0.013725029 -0.18075053 -0.12064527
0.13464913 -0.09809636 0.034775905 0.01241329 -0.10094953 -0.1521322 -0.34649366 0.09865599
-0.16884753 -0.1760149 0.104974315 0.17860916 -0.1178657 -0.07194026 0.13454771 0.039546654
0.19565514 0.0017508569 -0.08082322 -2.4062549e-05 -0.12752089 -0.07522749 -0.13437861 0.012612188
0.09776711 -0.005798836 -0.061450318 0.17429838 0.21465203 0.1148282 -0.13515793 0.08819765
0.07213184 0.0005904859 0.07026582 -0.055744234 0.14275643 0.02872553 -0.18073124 0.054134596
-0.25581533 0.08473105 -0.19748843 0.10994502 0.16597545 0.11468397 -0.148363 0.23248301
-0.0099828895 -0.010829832 0.092892945 -0.0943628 0.009387343 -0.11222682 -0.046767548 -0.06004173
-0.077397116 0.1871509 -0.088767 0.025011206 -0.044620376 -0.104269125 -0.13208854 -0.026770996
0.049412947 0.27350044 0.14195251 -0.09047929 -0.27296054 0.11059309 -0.09001303 -0.1503239

lstm.bias_ih_l0 f4 [200]
00000000: 3774 6cbb 6fe4 3b3d 4553 f0bd 8ccf 1a3e
00000010: fe2c c33d c747 eabc 363f d43c 3e14 5d3d
00000020: e26e 4c3e ff9c 373d e880 c53d 71fc c83d
00000030: c842 b23e f778 913d 5e66 873d 2624 c6bc
00000040: 29b0 843c 6379 133e 2905 053e 0c12 493e
00000050: caab c5bd b142 063e d642 c93d 3730 fabb
00000060: 0897 aa3e 5c77 2c3e 8e2b 6fbd 26f4 203e
00000070: 05f3 9b3e 7c05 233e 2d2e b63d 8ec4 b13d
00000080: 86e7 4b3e e017 ba3d fe88 343e 8dd0 ce3e
00000090: 9ef6 dc3d c64c ce3d 3385 133e 5c4c a33e
000000a0: 1e6d 6d3d 276c 703d 2f19 823e 3371 493e
000000b0: 17af b63d 3a7f 3dbd 7e70 e53e 406c a13d
000000c0: 2a6b aa3e 86d0 5c3e 1445 0fbe 6784 3039
000000d0: bfaf 1c3e 5c00 c9bd 1b97 efbd 7640 b13d
000000e0: 70fe 5fbd feaf dfbd 2993 923d a4e4 d53d
000000f0: 9c85 a3bd 39a7 febd 1bf8 dcbd 0f2e bbbc
00000100: 89bb 403e 3e02 e73d e1f0 013e 12ac 1a3d
00000110: bd0a 03be b782 fe3d 282f aebd 5025 18be
00000120: 4d27 253e 44f8 e43d 8890 96bd 9223 f03c
00000130: 4622 133e 408c a7bd ed77 20be 4a2b bfbc
00000140: 46ca 57bc 50bb 86bd bef5 d7bd df12 c2bd
00000150: 768b 13bb 1721 593d da76 283e 81ff afbd
00000160: 31f3 7fbe c54e e2bd be85 733d f17f 863d
00000170: 4852 213e 7c6e 2abe ee87 0abd 65ec 8ebd
00000180: 52da 093d 8c1b ac3d a274 dc3d 49a7 35bc
00000190: 1411 1f3e 4967 403d 372d 313d 63d4 d63d
000001a0: 823a 573c 4028 abbd 26c3 acbd fe08 fb3d
000001b0: 5b77 63bd 859c 473c 74d3 8abd f193 b73d
000001c0: bad8 00be ac74 533d c4da 1abd 4548 b2bc
000001d0: 3551 ddbc 3d33 da3d e9af 863d 056a 423c
000001e0: 98fe 8dbd 2184 f1bd bc6c 203e ae4b 553d
000001f0: 0b92 acbd 35ae 94bb 55a5 c03d 6e1a fe3d
00000200: e0e4 b1bc 061d 1d3e c2c2 7bbd a4ab 9bbb
00000210: 72ab 02bd 5881 01bd 4cdd 01be cac6 8abd
00000220: 1395 31bd 31c5 063c 10b4 7b3c cc78 763d
00000230: 132c 21bd aba7 883c fe8a 963d d8b4 00be
00000240: 4f64 5fbd 95b8 e03d ec1f ae3d d7de bf3d
00000250: 2d54 afbb e98b 523d 2bac c13d 35ed 2d3e
00000260: a92c 203e a15e dc3d 3cb0 693e bc9e 853d
00000270: 4172 143e 97d0 123d 7691 2d3e 1d5a 3d3d
00000280: a6a3 573d d252 6f3e 4a76 303e 205f 403e
00000290: 8574 e23d 039e c73d 36c9 afbd abad 68bd
000002a0: 38d9 b03c 5a31 4c3e 0f23 b03d f5df 553e
000002b0: 68af 123e bf8a 503e 8b4f a73e 021f 9b3e
000002c0: 5864 b13d 7099 cb3c a24e 913e e660 673e
000002d0: cc5c 173e 61a4 b2bc c0ee 413e 9b72 963e
000002e0: 7c19 b73d 42ee 9b3e ccc3 8d3d 6d12 5b3e
000002f0: d7ab 56bc 1224 6c3e 9a5d 093d 3c1b 48bd
00000300: 5374 b23d 9581 90bb b393 473e 456c 233e
00000310: bb3b 963e 2903 3e3e ef99 ae3d 2022 fa3d
-0.0036080012 0.045872148 -0.117346324 0.15118235 0.09530066 -0.02859868 0.025909048 0.053974383
0.19964173 0.044827458 0.096437275 0.098137744 0.34816575 0.0710315 0.06611322 -0.024187159
0.016197281 0.14401774 0.1299025 0.1963579 -0.09651907 0.13111378 0.09827201 -0.007635142
0.33318353 0.16842407 -0.058391146 0.15718135 0.30458847 0.15920061 0.08895526 0.08680068
0.19912538 0.09086585 0.17630383 0.40393487 0.10789226 0.10073237 0.1440628 0.31894195
0.05796539 0.058696892 0.2540984 0.19672088 0.089201145 -0.04626391 0.44812387 0.07881975
0.33284885 0.2156392 -0.13991195 0.00016833992 0.15301417 -0.09814522 -0.11698743 0.08654873
-0.05468601 -0.1092224 0.07156975 0.10444 -0.07984468 -0.12434239 -0.1078951 -0.02284911
0.18821539 0.112797245 0.12689544 0.037761755 -0.12797065 0.12427276 -0.08505088 -0.14857984
0.16128273 0.111801654 -0.07351786 0.029313836 0.14368543 -0.081810474 -0.15670748 -0.023336072
-0.013170784 -0.06578696 -0.105449185 -0.094762556 -0.0022513545 0.053010073 0.16451588 -0.085936554
-0.24995114 -0.1105018 0.05945372 0.06567372 0.15754044 -0.16643709 -0.03382104 -0.069786824
0.033655472 0.08403692 0.107644334 -0.011087247 0.15533859 0.0469735 0.04325601 0.10489728
0.013136508 -0.083572865 -0.08435659 0.122575745 -0.055533748 0.012183313 -0.06778613 0.089637645
-0.12582675 0.05162494 -0.037806287 -0.021762976 -0.027016262 0.10654304 0.06576521 0.011866097
-0.069333255 -0.1179278 0.15666479 0.052074127 -0.08426293 -0.0045373687 0.094065346 0.12407385
-0.021715581 0.15343103 -0.061465032 -0.0047506858 -0.031901784 -0.031617492 -0.12682074 -0.06776197
-0.04335506 0.008225725 0.015362754 0.060173795 -0.039348673 0.016681513 0.073507294 -0.12568986
-0.05453902 0.10972706 0.08502182 0.09368675 -0.0053506107 0.05140296 0.094566666 0.16985019
0.15642036 0.107602365 0.22821134 0.06524417 0.1449671 0.035843458 0.1695002 0.046228517
0.0526463 0.23371437 0.17232624 0.18786287 0.110573806 0.09746935 -0.085833 -0.056806248
0.021587953 0.19940701 0.08600437 0.20886214 0.14324725 0.20365427 0.32677874 0.30297095
0.08661717 0.024853438 0.28380305 0.22595558 0.14781493 -0.021806898 0.18938732 0.29384312
0.08940408 0.30455214 0.06922111 0.21393748 -0.013102493 0.23060635 0.03353653 -0.048854098
0.08713593 -0.0044099786 0.19489937 0.1595927 0.29342446 0.18555893 0.08525454 0.1221354

lstm.bias_hh_l0 f4 [200]
00000000: a584 243e c37c 3c3e 042d 4f3d 57f3 c9bc
00000010: 901f 42bd f186 ef3d fb40 3d3c 5ae9 c83d
00000020: f968 c63d 6a2d a23d 132e 2a3e 5477 9d3d
00000030: 6f92 973e a254 c53d f0e2 303e 214f f5bc
00000040: c0c9 4c3d 7556 af3d 6618 1c3d 5013 ea3d
00000050: dde0 74bb 65bf 5b3e 74a7 183e ebbd a2ba
00000060: f836 bb3e 310f f73d d110 93bb a076 073e
00000070: 33aa b23e c004 7e3e 0714 433e a734 523e
00000080: ba94 443e d4ff 2b3c fe0c 093e 948f d43e
00000090: c4bd ae3d 6c14 fb3c 8c3a f5bc 8634 8c3d
000000a0: dad1 8c3e fbe9 553d 8125 083e 895a 5f3d
000000b0: 1344 0a3e f8a0 b43d bea0 463e 8e4e 0a3e
000000c0: 73cd 873e 02be 603e e79f 863d 7468 ce3d
000000d0: 8b5a 1d3e d2cd 9c3d e332 ec3d a595 69bc
000000e0: 259b cb3d de93 53bc 763b 5abc b10a 82bd
000000f0: d3e1 613c fe67 123d e556 33be fcda 923c
00000100: ec48 6fbd a6e4 913d 20e0 ed3d fcbf 8b3c
00000110: 4c62 f4bd ab9e 193e 1a88 a2bd 779d 13be
00000120: 7d13 6f3c a95b 8e3b 2b85 99bd a314 1e3e
00000130: fae4 fb3c d3c7 433c 1896 2d3d 7ab0 adbd
00000140: 0791 243e 140a 123e a03e b3bc bafb 08be
00000150: 486f e0bc 160b 253e 93e1 223e 70a2 51be
00000160: a880 dbbd 8570 d1bc 69b8 33be 9c63 f2bc
00000170: 6e1a ce3d 5008 863c 3962 0a3e f5d7 04bc
00000180: 4073 bdbd 95a7 ca3d a2cb c8bc 9c7a ca3d
00000190: 4cba 87bd 8c59 abbd 6f4d ebbd 3c63 b13d
000001a0: 5a42 c2bd 4f7f 0fbd 9acc a83c 38e8 173e
000001b0: 5421 243d 79d8 5dbd d0ff 00be a45e b83c
000001c0: 1bcd ec3d c0fc 2dbd 3c09 e13d f93d 5d3d
000001d0: 4bde dc3c ca98 06bd d843 563d c9ac ffbd
000001e0: 63f7 c7bd ad16 8bbd 7d38 e9bd 011a c93c
000001f0: f175 c1bd bdd4 fb3d 861d 2bbd 4fa7 0bbd
00000200: 5cfd 8bbc fe17 d0bc d89c 90bd 0a2c 283e
00000210: f478 fb3d 1388 9ebd 6479 98ba 2a1f 033e
00000220: 8863 dc3b 627f 8d3d 6116 96bd 4189 80bd
00000230: a3df eebd 1604 633d 5b3e 78bd e467 c13d
00000240: aa16 e43d 3e7c 26bd c540 853d 591d dcbd
00000250: acaa 22bd 538a 2dbc 214e 663c 38a0 063d
00000260: b505 723d 8d42 863d 3120 da3d 95f5 34bd
00000270: 0eb4 1f3e 81a1 08bd a844 463d 3baf 8f3d
00000280: 85aa 023e 2924 323e 2d13 3b3e 087d 903e
00000290: 9f29 703e 9071 e33d 3709 4d3d 4b1a 123e
000002a0: d32a 813d 1cec 663d 30cf 92bd a670 9f3e
000002b0: 0ae5 003d 068b 60bd f216 a53e bb5f 5b3e
000002c0: 0619 1c3e f4fd cd3d e985 b53e 6d40 933e
000002d0: 6056 1b3d 7d62 f93d 8879 9a3e b15f d13c
000002e0: 7624 203e f65a 653e 85e8 bc3d e583 273e
000002f0: 6e80 0d3e d45d 1f3e e2be 923d 5b07 b43d
00000300: b8a6 3a3e 4a9c 8d3d 78ac 183e c9a8 953c
00000310: 710a c03e 9341 453e 1620 c93d 7f09 ac3c
0.16066225 0.18406968 0.05058004 -0.024652166 -0.04739338 0.1169566 0.011551137 0.09810133
0.09687991 0.07918818 0.16619138 0.07688776 0.29603907 0.09635283 0.1727407 -0.029944958
0.04999709 0.08561412 0.038109206 0.11429465 -0.0037365474 0.2145973 0.14907628 -0.0012416219
0.36565375 0.120634444 -0.0044880887 0.13228846 0.34895477 0.248065 0.19050609 0.20527898
0.1919736 0.010498006 0.13383862 0.4151579 0.08532289 0.030649386 -0.029935144 0.068459556
0.27503854 0.052225094 0.13295557 0.0545297 0.13502531 0.08819765 0.19397256 0.13506529
0.26523933 0.21947482 0.06573468 0.100785166 0.1536657 0.076564446 0.11533143 -0.014256869
0.09941701 -0.012913672 -0.013319841 -0.063496955 0.013786751 0.035743706 -0.17513616 0.017926686
-0.058419153 0.07123689 0.11615014 0.017059319 -0.11932811 0.15001933 -0.079361156 -0.14415537
0.014592049 0.004344423 -0.07496103 0.1543756 0.030748833 0.011949497 0.04237947 -0.08480926
0.16070949 0.14261657 -0.021880448 -0.13377276 -0.027396813 0.1611751 0.15906362 -0.20472121
-0.107178986 -0.025566349 -0.17550816 -0.029588513 0.10063635 0.016361386 0.13514031 -0.008108129
-0.09250498 0.09895245 -0.024511162 0.09886667 -0.0662733 -0.08366689 -0.11489379 0.086615056
-0.09485312 -0.03503352 0.020605374 0.14834678 0.040070847 -0.054161523 -0.12597585 0.022506066
0.11562558 -0.04247737 0.109880894 0.05401418 0.026961466 -0.032860555 0.052310795 -0.12484128
-0.09763982 -0.067914344 -0.113877274 0.024548532 -0.09446324 0.12296436 -0.041776203 -0.034095105
-0.017088585 -0.025402065 -0.070611656 0.1642305 0.12278929 -0.07740798 -0.0011632857 0.12804857
0.0067257322 0.06909062 -0.07328487 -0.06276179 -0.11663749 0.05542382 -0.06060634 0.09443644
0.11137135 -0.04064583 0.065064944 -0.10747785 -0.039713547 -0.010592061 0.014056713 0.03286764
0.059087474 0.06555662 0.10650671 -0.044179518 0.15596029 -0.033357147 0.04840532 0.070158444
0.1276036 0.17396607 0.18269034 0.2822039 0.23453377 0.11105645 0.050057616 0.14267842
0.06306996 0.056377515 -0.07168424 0.3114063 0.03146843 -0.054820083 0.32244068 0.21423237
0.1524392 0.10058203 0.35453728 0.2876009 0.03792417 0.12176988 0.30170846 0.025558325
0.15638909 0.2239798 0.09224037 0.16358908 0.13818523 0.15563136 0.07165314 0.087904654
0.1822766 0.069145754 0.14909542 0.01826896 0.37507966 0.19263296 0.09820573 0.021000622

fc.weight f4 [7, 50]
00000000: a356 de3d 1e66 c93d f49d c23d a25e 213d
00000010: f5cd 173d 444b c4bd 4c56 053e 5687 63be
00000020: f418 6a3e 52a3 36be d44b 913e 8fec 83be
00000030: c008 d33c 5fdb 313d 916b 2f3d 3c05 51bd
00000040: 52e1 9dbb 37ad 8ebd b6ca eb3d 38e9 5bbe
00000050: fff1 ff3d 5456 a13e 6c76 0bbe 543b 113e
00000060: ba29 793e 1829 38be 4b47 08be 2788 3ebc
00000070: 9c7d a9bd 4c1e 523d b3fa cf3d c3ea af3d
00000080: 96ae 08be b5f2 cebd 8d08 b53c 61a4 16be
00000090: e544 1fbe d64d 42be e577 4dbe 9f17 63be
000000a0: 28b6 293d 7ba3 babd 348a 11bd 83a6 9ebd
000000b0: fc6d 5f3d dcd0 183e c374 08be a8b6 6fbd
000000c0: 89e5 2c3e 7a01 a03d db93 bcbd 6a21 a93e
000000d0: 87be 3fbe 5f42 09be d601 a8bc 82ba 60be
000000e0: fb59 b73d bc92 23be 7c1b 153d a951 76bd
000000f0: 64f2 3c3c 275f 153e 59b8 60be 9b26 40bd
00000100: 0216 22be 8f35 223d 6b7b d5bd fb08 4c3e
00000110: dcc0 e23d df13 9f3d be65 ed3d 1f66 b23c
00000120: d162 f3bd c471 12be 8eaf dfbd 789a ba3d
00000130: f5ac 2d3c 6163 0f3e 851f a73e 276a f93d
00000140: 3a69 a3b8 ead9 f33c bd3f 15be d74c 27bd
00000150: 2b8f 66bc 301c 53bd 9e24 a6bd dc6d ddbd
00000160: 49ed 42bd ad0d 27bd 83a7 7a3e 3001 00bd
00000170: 19a3 65be ea9c 5a3e 16fa f0bd 3035 3dbd
00000180: 0543 2dbe 7db7 c6bd 26cb 11bd 0bbb 113d
00000190: b8e8 a83d 935d a6bb 5cd0 bd3a 45a3 f3bd
000001a0: 041a cbbd d379 d53d 079a 10be 348d 14be
000001b0: b33d 593e 500c 30be 7357 a73e ab89 93be
000001c0: 7681 6d3e 7a1e ffba bc2a 1ebd 6a30 27be
000001d0: 4ed7 2dbe 74f0 333b af1a fc3d 2be0 fabc
000001e0: 74d2 ef3d 7322 723e 796a e43c ec9e 513d
000001f0: ebc1 5a3e 243c 8cbe 79ab 8d3d 0398 91bd
00000200: 143d 6abc 5dbc 27be 74a7 9ebc 36b7 d03c
00000210: 4be8 83be e018 43be 8fb1 babd ffc7 4abe
00000220: 2964 27be eef8 1e3d 5cef 62be 16bc 1cbe
00000230: c191 cd3d b3a8 5abd 13b3 e3bd 62a9 d6bc
00000240: 001b a63d 6b26 b53d 75d4 3f3d 0e1b 1dbe
00000250: 3804 573e 4e0b 5e3e dd27 14be 0307 163e
00000260: 1c3c d6bd 8fe1 1a3e 3da4 a4bc 00e5 3bbe
00000270: d5bf 9b3b 7a56 b63d 4c41 5e3d 557d 8e3d
00000280: 9feb 3bbe 5013 4f3e 6625 69be 8185 ed3d
00000290: 6c36 1cbe 3448 443d a05e 55be 866f 18bd
000002a0: 6861 093e f02a bbbd 788d 2dbd 69e2 dcbd
000002b0: dda1 1cbe 03c7 c9bd a6cd 58bc e155 bdbd
000002c0: d744 3e3e 58c0 8b3e 8c57 473e 9b9f 183e
000002d0: f5d0 9f3d 77c4 cd3d 1c2f 7dbe ba1f 15bc
000002e0: d750 81bd f693 a53c c530 4b3b 80b7 863d
000002f0: 65e9 bbbd 7fde 4fbe d95d 333b fc1f 223e
00000300: 8540 2abe 6ba0 f53d 3886 443d d076 b23d
00000310: 7f8d c8bd 47f0 c13c 20e0 2c3d 901b 2a3e
00000320: 13ec 5a3e e457 0e3e 31c3 8b3b 96e1 49be
00000330: 82de 44be 9c82 d43d decc 03bd f148 e83d
00000340: d9a4 733e adbb 0ebe 48b4 53be af52 1ebd
00000350: 226c 3c3e 13aa 263e 2c17 2dbe 16d4 8bba
00000360: 2b6a 8b3d d22a 1abe 6ad0 07be a6c2 49be
00000370: 52db 1a3e e8f1 1f3e a1f0 cfba 39fa 613e
00000380: 0065 9b3d 543d 743d 3459 36be fcfd 0c3c
00000390: f1e0 8b3e dbdb 3d3e a197 843e 554c 143e
000003a0: 30f2 ea3d 0b3b fbbd 10ed d43d 8dc3 08be
000003b0: 6bde 3c3d 3c3b 34be 36a2 6e3e ab9a 6b3d
000003c0: b964 18be 766a cc3d 61ae 57be e394 3bbe
000003d0: 38b2 94bd abd3 5e3b 7c6e a8be db5a c73d
000003e0: 96aa c4bc d66d 43bd e44e b93d 5347 0c3e
000003f0: 6822 b3bd d2ac 8dbd 6de1 443d c6f9 89bc
0.108563684 0.098339304 0.095027834 0.03939689 0.03706165 -0.09584668 0.13021201 -0.22219595
0.22861081 -0.1783574 0.28378165 -0.25766417 0.025761008 0.0434221 0.042827193 -0.051030383
-0.00481812 -0.06966632 0.115132734 -0.21475685 0.12497329 0.31511176 -0.13619393 0.14182788
0.24332324 -0.17984426 -0.13308446 -0.011629141 -0.08275911 0.051298425 0.10155239 0.08589699
-0.13347849 -0.101048864 0.022098804 -0.14711143 -0.15553625 -0.18975005 -0.20065267 -0.2217698
0.041433483 -0.09113213 -0.03553219 -0.07746603 0.05454825 0.14923424 -0.13325791 -0.058523804
0.16884436 0.07812782 -0.09207889 0.33033305 -0.18725024 -0.13404225 -0.020508688 -0.21946147
0.08952709 -0.15973943 0.036403164 -0.06013647 0.0115324 0.14587079 -0.21945323 -0.046911817
-0.15828708 0.03960186 -0.10423931 0.19925301 0.11071941 0.07767462 0.115916714 0.02177721
-0.11884082 -0.1430121 -0.10922156 0.09111494 0.010600318 0.14002754 0.32641235 0.1217845
-7.792046e-05 0.029766995 -0.14575095 -0.040844765 -0.01407222 -0.051540554 -0.08112453 -0.1081197
-0.047589574 -0.040784527 0.24477963 -0.031251132 -0.22425498 0.2134892 -0.1176645 -0.0461933
-0.16920097 -0.09702966 -0.035594128 0.03557877 0.082475126 -0.005077073 0.0014481652 -0.118963756
-0.099170715 0.10423627 -0.14121257 -0.1450699 0.21214943 -0.17192197 0.32683906 -0.2881597
0.23193917 -0.0019464039 -0.038614973 -0.16327062 -0.16976663 0.0027456554 0.12309777 -0.03062447
0.117100626 0.23645954 0.027882801 0.05117695 0.21363036 -0.27389634 0.069174714 -0.07109072
-0.014296789 -0.16380449 -0.019366957 0.025477987 -0.25763163 -0.19052458 -0.09115898 -0.19802855
-0.16346802 0.038811617 -0.22161621 -0.15306124 0.10037566 -0.05338354 -0.1111814 -0.026203815
0.081106186 0.08845218 0.046833474 -0.15342352 0.20997703 0.21684 -0.14468332 0.14651112
-0.10460684 0.15125106 -0.020097846 -0.18349075 0.004753093 0.08903213 0.05426149 0.06957499
-0.18351601 0.20222211 -0.22768173 0.115977295 -0.15255135 0.04792042 -0.20836878 -0.037215732
0.13416064 -0.09139049 -0.042371243 -0.10785372 -0.15296121 -0.098524116 -0.013232624 -0.09244896
0.18580948 0.27295184 0.1946699 0.14904635 0.07803527 0.10047238 -0.24725002 -0.0091018025
-0.06314247 0.020212155 0.003100441 0.065779686 -0.09175376 -0.2029972 0.002736917 0.15832514
-0.16626175 0.11993488 0.047979563 0.08714068 -0.09792613 0.023674143 0.04220593 0.16612077
0.21379118 0.13900715 0.004265212 -0.1971496 -0.19225505 0.10376474 -0.0321778 0.113420375
0.23793353 -0.1393878 -0.2067424 -0.038653072 0.18400624 0.16275816 -0.1690337 -0.0010668065
0.06807359 -0.15055397 -0.13263097 -0.19703159 0.15122727 0.15619624 -0.001586456 0.22068109
0.075876236 0.0596288 -0.17807466 0.0086054765 0.27320054 0.185409 0.25896934 0.14482243
0.11471975 -0.12267121 0.103967786 -0.13355847 0.04611055 -0.17600721 0.23304066 0.05752055
-0.14882173 0.09981243 -0.21062614 -0.18318515 -0.07260555 0.0034000676 -0.32896793 0.09734126
-0.024007123 -0.04771217 0.0904825 0.13699083 -0.08746797 -0.069177285 0.048066545 -0.016842734

fc.bias f4 [7]
00000000: c6c2 8a3d 2df5 463b dbae d13d 46a3 98bd
00000010: 94b5 54bd 58b9 b3bd 9b41 69bb
0.06775431 0.0030358538 0.10238429 -0.07453017 -0.05193098 -0.08775586 -0.0035592082
