LSTM/model_recursion/best_epoch_model_96.pth (torch, 50335 bytes, 6 tensors)

lstm.weight_ih_l0 f4 [200, 7]
00000000: baa4 b73d 04d8 323e 48c8 2fbc d85d bcbc
00000010: 21b7 6e3e fc37 433e 5669 c13d 5287 3fbe
00000020: ea55 80bc 1f48 093c 48ce 3bbe 7838 a1bd
00000030: 203e 0c3e 8657 c6bd 25b5 69bc 3b75 9cbd
00000040: 21b7 b4bd 0d66 ac3d 510d 923d cc87 643d
00000050: f09c 433d 6bc1 1fbe 718d 65be 77f0 a8bd
00000060: dce1 2ebc 6d74 e43d d898 e4bd 9e8d 3cbe
00000070: 54a4 4bbe 691c b6bc 4c61 0dbe 823b 143e
00000080: cd92 a6be 5724 c53d bb93 853e 228e 0c3e
00000090: ca47 bebd 15e5 17bd 489f ce3d de24 19be
000000a0: cdd8 99bd d17c a33d 4aca a13e 1ce8 1abe
000000b0: 6ccf 933d c666 f9bd 6254 83bd e4d9 25bc
000000c0: 1e42 cd3c 9926 6bbe 8d9b e43d 707b 6cbe
000000d0: 6706 523e 6372 b13c 470b 19be 8a07 073e
000000e0: d24f 23be 8d42 653d 7b18 bbbd 8a7f 4b3e
000000f0: 58fe 7dbd bf61 95bd 0336 afbd eed5 4a3e
00000100: 5eb8 30bd 9835 0c3e 835f 0f3e 2f7e 013e
00000110: e977 033e 1195 38be 808c 08bd 2618 4ebe
00000120: 78ca 173e 60b2 da3a cdbb 513d b6e6 d0bd
00000130: a5b7 d93c 44df c83c 611a bdbd a601 91bd
00000140: 13e4 c1bd fb2e 76bd 3291 e53d 6215 423e
00000150: b274 3a3e 3109 00be 2a82 293e 2974 213d
00000160: 05a9 2cbd 117b 953b d060 4f3d 941e 21bd
00000170: e36c 0ebc a4e9 c5bd aae1 35bc 296a 31bd
00000180: 1afd dabb e949 edbd 9cfb 973e 5403 23be
00000190: 5422 7b3e c9c7 043e 94e3 71be 74f5 8cbe
000001a0: 5da4 be3d 1a88 c6bc 4aee f5bd 2454 853d
000001b0: 6a8d 03be 03af 36be 5e14 2ebd 91f6 75bd
000001c0: 67e9 383d abe5 5fbd 9355 aa3d e568 cbbd
000001d0: 0c8b 003e 3a9a 11ba a7e9 843d 836d ed3d
000001e0: 2f75 5bbd 6827 0c3e 5bb9 c83d 2e12 763d
000001f0: e4ec e1bc 1855 2dbe a608 babd 02de 343c
00000200: b103 f2bd ccd1 d7bd cd45 03be e865 da3c
00000210: ac69 643d a365 cc3c 0975 aabd 2c83 c23d
00000220: f2aa 5bbe 6a5f 8fbc 46c2 f0ba 564f 9abe
00000230: 9fac 86be 539f 743c 6ff5 40be 4225 393d
00000240: 74ce 4b3d d6cf f13c cf67 aabc 2e55 13bd
00000250: 8b0e 97be 651f 233e c0af 943c 96f2 203e
00000260: 1864 17be ad98 383e d874 41be cd66 05be
00000270: a7b1 49be d299 ee3d e764 453c fb56 093b
00000280: ecbe a53d b801 1f3e f6b7 153d 1239 94bd
00000290: 6b2b e3bd 3a1c 81bd 3e4a 183d 1a09 97bd
000002a0: cf95 4e3d d2fe 13be 99b0 de3d ddc8 c53d
000002b0: ee5b a8be 2118 bebd 1a96 6dbc d683 55be
000002c0: 2d46 c8bc 6e6a 62be fd59 c8bc af5a 3a3d
000002d0: 6545 48be ea4c 04be 0203 983b 92d7 a93d
000002e0: 177b 0dbc 7c1c 9d39 c736 96bd 574b 01be
000002f0: 6859 983d 9ef0 173d fdee 20be 8f20 593e
00000300: c2bd 053e 1fd8 91bd 1d0a 56be 838d 23be
00000310: 0471 c33d e434 063e 332d 48bd 3f79 003e
00000320: 3652 5dbd 7f54 883d a529 2bbb 1420 233e
00000330: 9c38 1fbe 3334 aa3c 84c3 38be 9faf 35bc
00000340: 6c23 1c3e f13d bdbc 5ccb 033d efa4 31be
00000350: 85c4 033e dd54 2abe e77c 903d 5710 93bd
00000360: c163 97be 22e3 0cbe d062 0abe 0b7e b6bd
00000370: 070c ebbd 5fc2 a03d 4400 453d a16e bbbc
00000380: e534 543d a6e2 04be 47e5 53bd 99ac 11be
00000390: 37f1 913c a298 d9bd 852a de3c 8f42 ecbc
000003a0: 170e a93c 6494 6e3d aade 5c3e cea4 d0bd
000003b0: bfb3 f0bb f3cd febd e282 103e 247d c33c
000003c0: 30bf 823e ac61 bbbb c7e0 7e3e 8c05 84bd
000003d0: f59c de3b 28c3 9ebd 56cd 85bd 8e40 32bd
000003e0: 05db 813e 8b68 343e 87ac 44be f6f3 0bbe
000003f0: ffd5 e53c a9ee c6bd d116 743c 9827 9ebb
0.08966966 0.17465216 -0.010728903 -0.022993967 0.23312046 0.19064325 0.09443919 -0.18703964
-0.015665967 0.008379011 -0.18340409 -0.07872099 0.13695574 -0.096846625 -0.01426438 -0.076395474
-0.088239916 0.08417902 0.07131446 0.05579357 0.04775709 -0.15601127 -0.22417237 -0.0824899
-0.010673966 0.11155019 -0.11161965 -0.18413398 -0.19886905 -0.022230344 -0.13806647 0.14475825
-0.32533875 0.09626072 0.26089272 0.13726094 -0.092910364 -0.037083704 0.10088974 -0.1495547
-0.075120546 0.07982791 0.31599647 -0.15127605 0.07217297 -0.121778056 -0.06412579 -0.01012275
0.025055941 -0.22963943 0.111624815 -0.23093963 0.20510255 0.02166099 -0.14945708 0.1318647
-0.15948418 0.05597167 -0.09135529 0.19872871 -0.06201014 -0.07294034 -0.08555224 0.1980817
-0.043144576 0.1369232 0.14001279 0.12645791 0.12838711 -0.18025614 -0.033337116 -0.201264
0.1482333 0.001668524 0.05120449 -0.102002546 0.026576826 0.024520524 -0.09233547 -0.070803925
-0.0946733 -0.060103398 0.112093344 0.1895347 0.18208578 -0.12503506 0.1655356 0.03941742
-0.042153377 0.00456179 0.050629437 -0.039335802 -0.008692953 -0.09663704 -0.011101166 -0.043314133
-0.006683004 -0.11586363 0.2968415 -0.15919238 0.24524814 0.12966837 -0.2362197 -0.27531016
0.093086936 -0.02423482 -0.12008341 0.06510189 -0.12846914 -0.17840199 -0.042499892 -0.060049597
0.045144465 -0.054662388 0.08317103 -0.099321164 0.12553042 -0.00055542926 0.06489878 0.11593153
-0.05357855 0.13686907 0.09800979 0.06007593 -0.027578779 -0.16926992 -0.09083681 0.011039259
-0.1181711 -0.105380625 -0.12819596 0.02665992 0.05576484 0.024950808 -0.08323104 0.09497675
-0.21451929 -0.017501552 -0.0018368445 -0.30138654 -0.26303574 0.014930564 -0.18843625 0.045201547
0.049757436 0.02951805 -0.020801453 -0.035969906 -0.29503283 0.15929945 0.01815021 0.15717539
-0.14784276 0.18026991 -0.18892229 -0.13027497 -0.19696675 0.11650433 0.012047983 0.0020956385
0.08093056 0.15528 0.036552392 -0.07237448 -0.11092266 -0.06304212 0.037180178 -0.07374783
0.050435837 -0.14452675 0.10873527 0.09657452 -0.32882637 -0.09281946 -0.014501119 -0.20851073
-0.024447525 -0.22110912 -0.024456972 0.04549664 -0.19557722 -0.12919965 0.0046390304 0.0829307
-0.008635304 0.00029966596 -0.07334667 -0.12626396 0.07438928 0.037094705 -0.15716167 0.21203826
0.13060668 -0.071213 -0.20902295 -0.15971951 0.095430404 0.13106114 -0.04887123 0.12546252
-0.05403348 0.06656741 -0.0026117351 0.15930206 -0.15548939 0.020776844 -0.18043333 -0.011089235
0.15247887 -0.023100825 0.03217636 -0.17348073 0.12867935 -0.16633935 0.07055073 -0.07180851
-0.29568294 -0.1375852 -0.13514256 -0.089107595 -0.114769034 0.07849573 0.048095956 -0.0228799
0.051808257 -0.12977085 -0.051732328 -0.14225997 0.017815216 -0.106248155 0.027119884 -0.028840331
0.020636601 0.058246985 0.21569315 -0.10187684 -0.007345646 -0.124416254 0.14112428 0.023863383
0.2553649 -0.0057184305 0.24890433 -0.064463705 0.006793613 -0.07752067 -0.06533305 -0.043518595
0.2536241 0.17618005 -0.19206439 -0.13667282 0.028056143 -0.097134896 0.014898018 -0.0048264973

lstm.weight_hh_l0 f4 [200, 50]
00000000: 4484 1fbe af7d bd3c c232 22be d886 013e
00000010: 7f06 6bbe 658d d03c c3ab 36bd 1d29 00be
00000020: 5188 d63c 63ac 06be a519 0ebe 7397 e8bd
00000030: 8c1f f43c 2a53 263e 391d 9d3d 7676 083d
00000040: 07f5 4d3e 4aad 2a3e 0f25 06be 76b1 83bc
00000050: 99ff 243e 1f3c 4cbc e6d2 7f3d 6a55 bf3d
00000060: 17c2 4c3c b798 8e3c ba6f 06bd 4165 96bd
00000070: fd9c 923d 1a87 36be ac03 48bd 9c0b 873c
00000080: 3ce7 2f3c 8f53 923d 445c 3b3e c806 853d
00000090: 6919 04bd bc72 71bd 159f e1bc a16a f83c
000000a0: 131f 3dbe 6b65 c7bb 2dfb aa3c 4d6a 893c
000000b0: f3cd 21be e99d d1bd 33e7 e03d cc24 c03c
000000c0: 90bc b6bd a3df f73d 0552 63be bcd0 9cbd
000000d0: 9296 62bd 68a6 2f3e 989b 09be cbf0 aabd
000000e0: 2eb8 75bd 968a 8fbe 5f9f d63c ed96 e3bd
000000f0: 4349 223d 4182 dbbd c96f 0abe 3ed2 abbc
00000100: b69a fe3d 8b12 bb3d b803 3d3e 93ee b73d
00000110: f326 dc3d 9d13 d33c 9342 2f3d fdc2 a73d
00000120: a670 cfbd 7f3f 7ebc b440 8e3d e91b d0bd
00000130: 01f4 e53d cdac 55bc feb1 9c3d 369b 3c3d
00000140: 34ae 29bc 4826 47be 26be 94bd 6060 2d3e
00000150: b3b1 05bd f069 1bbd 9383 173d c241 cd3c
00000160: 9a5d d1bd 3f5d f2bb fc5d cfbd 25c9 cc3c
00000170: 342d 0fbc 5f4e 9c3d 02d4 09be 7eb0 b0bd
00000180: 69aa d93d 2d70 35be b9b2 da3d c29e 05bd
00000190: 2923 4cbe 417e febd b896 283c 7917 913d
000001a0: 86b4 8fbe 9286 10bc 184a d7bc 2fef 82be
000001b0: 0fcf 403d 5f91 6f3d 5bdb 90ba 5db2 823d
000001c0: 3167 0a3d 9fea c23d 3392 523d 2131 483e
000001d0: d2bf 78bc 15ae e73d 3dec 24be e8ef 353d
000001e0: 52f0 043e 69cb a0bd 83d9 8abc c1df 96bd
000001f0: 4f06 9abd 5ea7 ec3d d8cb 83bc 789b 9a3c
00000200: 4c0e 64bd 5de4 98bd 6003 7abb 18d9 083e
00000210: 7255 d73d ef4b 113d c0c1 953d ac2c 503d
00000220: 7a26 c13c 7dfe 8a3d 4456 d0bd 1f04 343d
00000230: fb4f 14bd 0ba2 4f3e 84d3 a83d 54bc bebd
00000240: 858a 1cbe 0045 3b3d 38c0 933c 56a9 e23d
00000250: 7a3a 063e 52d6 b939 227c acbd 2d74 7d3e
00000260: f5ad 4bbd d278 a03c f72a 8fbc be30 c2bc
00000270: d869 613e d899 d33c 2bff 623e 712a bfbd
00000280: 1e84 ff3d 0b23 dbbd ebd3 bdbd b80b 00be
00000290: d5ae 17be 2b11 babc 850b 643c 6fda 593b
000002a0: 60bd 8dbe fda8 ef3d 9b35 17bd 0f1f 8dbd
000002b0: 220e 5fbe b64b db3d 64e5 ddbd e8fd 453e
000002c0: e12a 18bd ed72 e6bd a840 753e 0dad 93be
000002d0: 400e 97be 5d1c 7dbe a495 8f3d 4215 b43d
000002e0: 595a 883c 657b 5d3e 9f8e 113e db6f 3abe
000002f0: 9662 11be 5eaa 863e 4271 15be 9860 1d3e
00000300: a221 37be 0e95 8a3d a7a8 66be ab57 e33d
00000310: 196d c03d 6ff1 163d efc1 02bd fc76 6dbd
00000320: fa13 f73d 1181 bbbc 34e5 ac3c 499b 703e
00000330: 8f55 09be 759d ccbd 5f4e 00be 52b1 0e3c
00000340: 17d3 df3c 0cf9 d53d 04e4 383e d8b5 733d
00000350: 20f4 ae3d 33d6 0bbe 2615 203d 34ea acbc
00000360: c1f5 443e 6851 cc3d 4d50 283d 71a0 343d
00000370: e95d 53bd 9532 8fbd 3dad 35be c547 093c
00000380: 8b82 05be 1226 f83d b6ff d4bd aaf4 9cbd
00000390: 30d5 1b3d 10d5 533d e846 db3d b3ac 36be
000003a0: b292 3a3e 125d 6a3d 207f 003e 45ad dc3d
000003b0: 1371 783d 4647 ea3a e389 89bd f7aa d8bc
000003c0: 9f42 823d acc5 f9bd 3806 5b3d 00b5 843d
000003d0: 948d 44be ae12 493d a4aa 7abd a1bc a13d
000003e0: b1b1 353d fa6a 0b3e 2693 a23c b079 a33d
000003f0: 75f2 18be dbb0 32bd adb2 823d e6d7 9bbd
-0.15577799 0.02313122 -0.15839675 0.12649095 -0.22951697 0.025458047 -0.0445974 -0.12515683
0.026188048 -0.13151698 -0.1387697 -0.11357012 0.029800199 0.16242662 0.076715894 0.0333161
0.20113002 0.16667667 -0.13100074 -0.01607583 0.16113128 -0.012465506 0.062456988 0.09342463
0.0124974465 0.017406804 -0.032821395 -0.073435314 0.071588494 -0.17824975 -0.048831627 0.016485028
0.010736283 0.07144844 0.18296915 0.06495434 -0.032250796 -0.05894731 -0.027541677 0.030324282
-0.18468885 -0.006085088 0.020871723 0.016774321 -0.1580122 -0.10235197 0.10981598 0.023455046
-0.08922684 0.12103202 -0.22199257 -0.076570004 -0.055319376 0.17153323 -0.1343826 -0.08346709
-0.0599901 -0.2803542 0.026199041 -0.11112771 0.03962065 -0.10718203 -0.13519205 -0.020974275
0.124318525 0.09134396 0.1845845 0.08981051 0.107496165 0.025766188 0.0427881 0.08191488
-0.10128908 -0.015518068 0.06945935 -0.101615734 0.11228181 -0.013041687 0.07651137 0.04604646
-0.010356475 -0.19448197 -0.072628304 0.16931295 -0.03264017 -0.037942827 0.036990713 0.02505577
-0.10222931 -0.0073963697 -0.10125348 0.024998257 -0.008738805 0.076321356 -0.13459781 -0.08627413
0.10628206 -0.17718573 0.1067862 -0.032622106 -0.19935288 -0.12426425 0.01028984 0.07084555
-0.28067416 -0.008821147 -0.026280448 -0.25573108 0.047072466 0.058488246 -0.0011051701 0.06381676
0.033789817 0.09517407 0.051408958 0.19549991 -0.015182452 0.113125004 -0.16105743 0.044418246
0.129823 -0.078512974 -0.01694942 -0.073668964 -0.075207345 0.1155536 -0.016088411 0.018872961
-0.055677697 -0.07465432 -0.0038148984 0.13364065 0.10514344 0.035472807 0.073123455 0.050823852
0.023577917 0.06786821 -0.10172704 0.043949243 -0.036209088 0.20276658 0.082434684 -0.093132645
-0.15287216 0.0457201 0.018035993 0.110674545 0.13108245 0.0003544563 -0.08422114 0.24751349
-0.049726445 0.019588862 -0.017476542 -0.023704883 0.22013032 0.025830194 0.22167651 -0.09334267
0.12476371 -0.10700043 -0.09268936 -0.1250447 -0.14812787 -0.022713264 0.013918762 0.0033241769
-0.27683544 0.11702154 -0.036916357 -0.068906896 -0.21782735 0.107078 -0.108347684 0.19335139
-0.037150268 -0.11252389 0.23950446 -0.28842965 -0.2950306 -0.24717851 0.070109636 0.08793117
0.016644644 0.21629103 0.14214562 -0.18206732 -0.14197764 0.26301855 -0.14593986 0.15368879
-0.17883924 0.06766711 -0.22525273 0.11100706 0.09395809 0.036851343 -0.03192323 -0.0579748
0.12064357 -0.022888692 0.021105386 0.23496737 -0.13411544 -0.0999097 -0.12529896 0.008709269
0.027322335 0.104478925 0.18055731 0.05949959 0.08542657 -0.1365593 0.03908267 -0.02110777
0.19234373 0.099764645 0.041092206 0.04409832 -0.05160323 -0.0699207 -0.17741866 0.008378928
-0.1303808 0.12116636 -0.104003355 -0.076638535 0.03804511 0.051716864 0.10706884 -0.17839317
0.18220022 0.057217665 0.12548494 0.10775236 0.06065471 0.0017874024 -0.06715753 -0.02644871
0.06360363 -0.12195906 0.053472728 0.064798355 -0.19194633 0.04909008 -0.06119789 0.07897306
0.044358913 0.13615027 0.019845556 0.079821944 -0.1493624 -0.043625694 0.06381736 -0.07609539

lstm.bias_ih_l0 f4 [200]
00000000: d958 eabc ca2c 173e b13f e53d 3cc4 4a3d
00000010: 9cad a2bd 3d1c 3b3e db08 8fbd 128c debc
00000020: ed88 da3d 3944 c33e 2b4e af3d 95f3 483d
00000030: 3650 e43d 120f e13d 5494 96bd 81a8 c23e
00000040: 9897 303e 2ab2 8e3e 14cd 8a3d 9a59 9e3e
00000050: e7cc b53d aee1 2e3e 8cd2 413e fd4e 7a3e
00000060: 8b2f 983c efd6 1d3e 8bc2 f03c 34a0 823e
00000070: a546 5d3e a282 103e 6012 5bbd c255 8d3e
00000080: 95ff a63e abb1 203e 25a7 0d3d 4fd6 d4bc
00000090: 860b 513e 692e 1bbc 4728 b13d 313f e93d
000000a0: a615 1abc 1eba 293c dfd0 213e 2890 9f3d
000000b0: bba3 823d be24 653e 0f0a c83c 1ea9 5f3d
000000c0: dc59 863d 199a 62bb acde 61bd 4557 ce3d
000000d0: c0f8 76bd 02b5 533d 9cca c63d e2c8 eebc
000000e0: 5440 1a3e d487 a83c 0e7d c63c f6cd bc3d
000000f0: cda0 dfbb 60c8 583d 9a62 2c3e c524 2e3c
00000100: 5eeb 46bc 7a26 d9bc 2cf6 113e 0dfc f3bd
00000110: 0e6b 10bd 3637 dcbd 95b6 84bd f7e2 143e
00000120: 8b5b 68bd ae8a c23c 5c25 69bb d189 153d
00000130: c712 3bbd 4b68 d43d 4e0a 1b3e e2b7 b5bb
00000140: a3c9 653d 5e04 eb3b 359a 24be 32c0 f23c
00000150: aed5 4fbb db04 d23b f806 bb3d 5939 e53d
00000160: 7a43 103e 2555 ccbd b836 38bd 3fa7 c43d
00000170: aed0 2bbd 2cd2 33bd 14c2 f8bb 07cc c83c
00000180: 69c4 d2bd a7dc 123e 0242 6dbd 59b4 02be
00000190: 0a4d ffbd 6aa4 d1bc fd3e 193c c0e8 9e3d
000001a0: 06fc c6bd bde4 d63d 6b58 72bc 9880 61bd
000001b0: 7c5e 143e 83f6 843b c6c8 493d 90aa 4e3d
000001c0: ff7b cbbc 7578 b03c 159b 5fbc 0a7b 9f3d
000001d0: 93ac cd3d 9fda 4fbd 16c4 d0bd 6c54 23be
000001e0: 0b04 a53d 1d1e abbd b750 bfbd eee0 343d
000001f0: 2d2b 58bd f94c 4bbb 0296 543d f735 8e3d
00000200: bd1b 223d b306 7a3d e7b7 bcbd 2b36 963d
00000210: 7d18 0cbd fcfa 473d 44a9 183e ea2b 833d
00000220: 826c bdbd 25a8 953d 6c79 bdbd 428b ec3d
00000230: eccf ebbd ce40 103e dac2 863d 5665 bb3d
00000240: 210d 86bd 154f 193e 6704 66bd b557 093d
00000250: 9355 dabd 22d8 b23d dae5 8f3d d16a 8dbd
00000260: 4c1b 5b3e 8ecc 133e 3daf b23d f340 0e3e
00000270: 61f9 b1bd 09a9 7c3d 7181 8f3c aaec 973e
00000280: a80b 963e 718c 22bd 79bf aebc fa8d 383e
00000290: 9d36 2a3e d21a 963e 4895 a43d d86c 9e3e
000002a0: f213 f33c 7a43 863d 9eca 193e e65d f03d
000002b0: 99ab 133d 1bc1 7e3e 0741 58bd 4494 d43c
000002c0: 6de4 10bc 79fb 623e 038a ff3d 8de5 e0bd
000002d0: 74b1 073e d9c9 db3e 5b01 cf3e 94f2 1a3d
000002e0: 625e a9bc 1563 5dbd 40ea 7b3e 19cb 623e
000002f0: 8c7c 473b 1e85 53bd 6ac8 4d3e bfed 8d3d
00000300: 949f e13d 8067 c8bd 29ff 793d 2820 2c3e
00000310: 410c 003d 62f0 fd3d 5b60 543e 8c77 bb3d
-0.028606819 0.1476318 0.11193789 0.04950355 -0.079432696 0.18272491 -0.06984111 -0.0271664
0.10670648 0.38137987 0.08559831 0.049060423 0.111481115 0.109892026 -0.0735251 0.38019183
0.17245328 0.27870303 0.06777397 0.30927736 0.08876973 0.17078277 0.18927974 0.24444194
0.018577358 0.15414022 0.02938964 0.2551285 0.2160898 0.14112332 -0.05348432 0.2760449
0.3261687 0.15692775 0.03458323 -0.025981097 0.20414552 -0.009471514 0.086502604 0.11389006
-0.009404575 0.010359315 0.15802334 0.077911675 0.06378885 0.22377297 0.024418859 0.054604642
0.06560108 -0.0034576713 -0.055143997 0.10075239 -0.06029582 0.051686294 0.097066134 -0.029148523
0.15063602 0.02057258 0.024229553 0.092189714 -0.006824589 0.052925467 0.16834489 0.010628884
-0.012141077 -0.026507605 0.14254063 -0.11913309 -0.035258345 -0.10752718 -0.06480137 0.14539705
-0.056727927 0.023747768 -0.0035575246 0.036508385 -0.045672204 0.10371455 0.1514065 -0.005545602
0.0561005 0.0071721515 -0.1607445 0.029632661 -0.0031713056 0.00640927 0.091321886 0.11192579
0.1408824 -0.099771775 -0.04497406 0.09602212 -0.04194706 -0.043901607 -0.0075914953 0.02451135
-0.102913685 0.14341985 -0.057924278 -0.1276411 -0.12465866 -0.025591094 0.0093533965 0.07759237
-0.097160384 0.10492847 -0.014791588 -0.055054277 0.14489168 0.004057707 0.049263738 0.05045563
-0.0248394 0.021541813 -0.013647814 0.0778714 0.100426815 -0.050745603 -0.101936504 -0.15950173
0.08057412 -0.08355353 -0.09341567 0.044159822 -0.05277555 -0.003102122 0.05190087 0.06943887
0.039577235 0.061041545 -0.09214764 0.073345505 -0.03420304 0.04882334 0.1490832 0.0640486
-0.09249212 0.07307462 -0.09251675 0.11549999 -0.11514267 0.14087221 0.06580134 0.09150188
-0.06545473 0.14971574 -0.056156542 0.03353091 -0.10660853 0.0873263 0.070262626 -0.06905139
0.21397132 0.144335 0.0872483 0.13891964 -0.086901434 0.061684642 0.017517777 0.29672748
0.29305768 -0.039684717 -0.021331536 0.1802291 0.16622396 0.29317337 0.08036286 0.30942416
0.029672597 0.06555839 0.15018699 0.1173666 0.03605232 0.24878351 -0.05279639 0.025949605
-0.008843523 0.22166242 0.124774955 -0.10981283 0.13251287 0.42927435 0.40430722 0.037828997
-0.020674888 -0.05404957 0.24601078 0.22147788 0.0030439226 -0.051640622 0.20095983 0.06930112
0.11016765 -0.09785366 0.061034355 0.16809142 0.031261686 0.12399365 0.20739882 0.09153661

lstm.bias_hh_l0 f4 [200]
00000000: 610e 55bd bd14 72bd 0ee0 c53d 7389 873e
00000010: f32a 913d f33b d53d 52da 8cbc 8062 4c3e
00000020: d69a c63b ffd7 433e 4996 f53d 1428 013e
00000030: f5b9 543d 3010 1c3e 37f0 94bc da74 be3e
00000040: abd1 583e 303a 933d d556 063e c49c 063e
00000050: e834 e33d 2006 f8bc b95a 5c3e 77e5 363e
00000060: 9138 233e af65 473e b94c be3d cc34 9c3d
00000070: dcfa d1bc e063 ff3d c2f4 b4bd ea58 343e
00000080: 76db c73e 361d 45bc d48c ba3d 76d7 18bd
00000090: a5bf 2b3d 2f28 a13d 1b1f ef3d ab36 443e
000000a0: a2a6 ecbb f53b e43d bf81 563c 5b5c a23d
000000b0: cbfd ff3b e10f c03d 3538 013e eddc 0b3d
000000c0: e116 543e a8db 873c 452d fcbd c697 6f3c
000000d0: d325 6abd f34c fabd 8cb9 8cbc aac4 ddbd
000000e0: e86c 0b3d b97a 193e 20bf 193e 9cc9 0dbe
000000f0: cf5f a33c c766 fc3d 4503 2a3e 5db3 813d
00000100: 0ebc 0a3d ffa5 f9bd d1bb fbbd e7ad 14be
00000110: 0532 933d 5ec7 e5bd b1b0 06be 152a 59bd
00000120: 9a30 fd3d fd1c 12be 21af d8bd 585e e8bd
00000130: d219 bdbd d570 7ebd 2d93 383e e1f1 f93d
00000140: d8f9 60bd 983c 28bd a14e 93bd f538 753c
00000150: 52d6 023e e705 febd e0c6 7f3c 9089 d03d
00000160: 79e4 a03d 0b92 90bd 1a5e df3d 5335 b33d
00000170: a94c 003e 082e d4bc 94ef b2bd f1ec 48bd
00000180: ab58 d7bd f2d7 f43d 3476 08bd a3d9 bfbd
00000190: c7fc 77bd 0a52 8e3d 41c7 b83c 982a 31bd
000001a0: bd93 03be 785c f0bd 24f7 c03d 5755 9cbd
000001b0: 3cd9 513d 7685 cabd f843 c4bd bcf0 f8bd
000001c0: 876d 0bbe 66a1 7bbd e145 0bbe 300a 153e
000001d0: 41cb 76bd de0d 823d d206 65bd c925 923d
000001e0: 7b0e 493d bbd9 d2bd bec2 103d bc9d 0fbe
000001f0: 5fbf f43c 9504 a23d 6e5c d33b e97b e4bd
00000200: 7356 da3d cae8 f0bd 5bee b13d 35e8 9d3d
00000210: 1abc c33d 78fe 39bd 64bd 123d d663 073e
00000220: 36e5 9f3d 7469 fb3b 830c 373d 3bb5 ce3d
00000230: b5d4 e4bd c6a1 f13d e98d bebd 0c03 a6bd
00000240: bf74 aa3c ae17 e3bd 5056 e13d 45c4 3fbc
00000250: ccc7 c23d 6538 8b3d f35c 2d3e 97eb 0d3e
00000260: 605d 013e 3e59 4c3e 6b55 b83b 066f 5c3e
00000270: 9a25 f33d d46e 4b3d eb30 633d 1c6a 0b3e
00000280: 18bf 663e e559 c53c 45f0 0d3e 1212 5dbd
00000290: 5e4c 9d3d 3788 8a3e f4a8 313e c541 373e
000002a0: b6e9 143e a1d0 873e a805 86bd e18c 173e
000002b0: 51f9 563e 1798 3d3e 61bd b73d b6c7 383e
000002c0: c096 723e 4f78 463d 7d44 653e 9030 c43d
000002d0: 98b0 37bc d5b5 a13e 3c9f 373e 408b 593e
000002e0: 160b eabb 502a f53d 6fa8 763d 8c08 ab3b
000002f0: 7ad3 853d 135e 413e 6930 eb3c c147 0e3e
00000300: 40d7 60bd d7be 86bd 87dd 473e 642e 0b3e
00000310: 4277 96bc 3f81 f93d 6156 823c 5bc1 9bbc
-0.052015666 -0.05910181 0.09661876 0.26472053 0.0708827 0.10411825 -0.017193947 0.1995945
0.0060609384 0.19125365 0.11991555 0.12612945 0.051935155 0.1524055 -0.01818095 0.37198526
0.21173732 0.07188833 0.13119061 0.13145739 0.110940754 -0.030276358 0.21518983 0.17860971
0.15939547 0.19472383 0.092919774 0.07627258 -0.025632314 0.124702215 -0.08835746 0.17612043
0.39034623 -0.01203089 0.09108892 -0.037314855 0.041930813 0.078689925 0.11675855 0.19161479
-0.0072220126 0.111442484 0.013092457 0.07927772 0.007812237 0.09378029 0.12619098 0.034146238
0.20711853 0.016584232 -0.12313322 0.014623588 -0.05716498 -0.12221708 -0.01717832 -0.10828526
0.034039408 0.14988221 0.15014315 -0.13846439 0.019943146 0.12324291 0.1660281 0.06333039
0.03387075 -0.12189864 -0.122916825 -0.14519463 0.07187275 -0.11219667 -0.1315334 -0.05301865
0.12362786 -0.1426887 -0.10580278 -0.1134612 -0.092334405 -0.062119324 0.18024893 0.12204338
-0.05492577 -0.04107341 -0.07192732 0.014967193 0.12777069 -0.124034695 0.01561138 0.10182488
0.07856078 -0.070591055 0.1090662 0.08750405 0.12529244 -0.025900856 -0.08737102 -0.04905409
-0.10514959 0.11955251 -0.033315852 -0.09367683 -0.0605438 0.069492415 0.02255595 -0.04325351
-0.12849326 -0.11736387 0.09422138 -0.07633465 0.05123256 -0.09888737 -0.095832765 -0.121552914
-0.13616 -0.06143322 -0.13600875 0.14554667 -0.06025243 0.06350301 -0.055914707 0.07136113
0.049086075 -0.10295435 0.03534197 -0.14025015 0.02987641 0.0791103 0.0064502275 -0.111564465
0.1066102 -0.11763151 0.08688041 0.077103056 0.09557362 -0.045408696 0.03582515 0.13221678
0.078073904 0.007672483 0.044689666 0.10093161 -0.11173383 0.11798434 -0.09304411 -0.0810605
0.020807622 -0.11088501 0.11002791 -0.011704509 0.095107645 0.06797866 0.16929989 0.13859402
0.12633276 0.19955918 0.005625417 0.21526727 0.11872406 0.04966624 0.055466574 0.13614696
0.22533834 0.024090717 0.13861187 -0.05397231 0.076805815 0.2705705 0.17349607 0.17896183
0.14542279 0.2652636 -0.065440476 0.14799835 0.20993544 0.18515049 0.08971668 0.18044934
0.23690319 0.04845458 0.22389407 0.09579575 -0.011211537 0.3158404 0.17931837 0.21244526
-0.007142435 0.11970961 0.060219225 0.0052195247 0.065344766 0.18883543 0.028709607 0.1389456
-0.05489278 -0.065793686 0.195181 0.13591915 -0.018367413 0.12182855 0.01591033 -0.019013098

fc.weight f4 [7, 50]
00000000: 9c10 56be 7fb8 e7bc 50f6 e83d 2d17 b3bc
00000010: 8d85 7e3d 4c49 2ebe 540f 1c3e bb5a ce3d
00000020: 4a0e 543d 643f 40be bd8f 6abd 11c8 d8bd
00000030: 12f9 bfbc c2e6 0c3e b127 49be 3a60 83be
00000040: 6e0a cf3d 886a 413e 8bf1 ca3d 9530 173e
00000050: 6da5 bebd 4646 eebc faaf 873c 1a91 2a3e
00000060: 8c28 c0bd 4e36 0e3d 7c83 b63d 540a 86be
00000070: 74df e83b 0910 93bd 44ea f6bd 0360 a43e
00000080: 9f15 bcbe eec1 8a3d df84 a73d 5601 9cbc
00000090: 7795 f2bd d2d4 63bb 380c f1bc 174e 81bd
000000a0: 6d35 123d ba93 303e 1cb0 18bd 27f5 ed3d
000000b0: 6b9d c83c 9f68 883d 0143 573c e66d 55bd
000000c0: 16b9 85bd b360 3d3e 7642 21be 7f7f 7abd
000000d0: 5482 7ebe 449c 843e e012 cebd e8f6 84bd
000000e0: a4f8 eabc 23a5 a1bd 9a1e ca3d 358e 29bd
000000f0: 692b a73c 0587 3f3d 23cd 743d 2a8c 3c3e
00000100: 0d23 a53d a8ef 74be 6098 0c3e a4aa f73d
00000110: 87ae 9fbd 7dd9 5fbe 40c9 423e 0d1e 123e
00000120: a6d2 023e 1228 14be fce2 0dbe 2cef 98bd
00000130: 6c1b ef3d b2f5 863d f9f0 7e3d 3b7e 2a3d
00000140: f0a0 7bbd 1d6e 10bc ac7a fb3d 1be4 7fbd
00000150: fc51 073e fba5 a63d 6f5c 81be bc36 da3d
00000160: 9115 b93d db4c a4bb ee99 35be b99c 7dbd
00000170: 9e5f ed3d 579b 403d d4fc d2bd 7091 2b3e
00000180: ddc3 8d3c e4c4 dbbd fd53 013e add3 da3d
00000190: 0e93 bdb9 2539 943d 92c0 70bd 3495 78be
000001a0: c816 a03d e1c0 c9bc de6b 723d 00bc 103c
000001b0: 3175 0fbe 55d1 a9bd 6811 a5bd 4c00 1ab8
000001c0: 1624 a3bc f2f2 303e 8901 13be d935 a8be
000001d0: 82e4 d03d 65ac 633e 0a80 293d 3ca5 743e
000001e0: 7775 1dbd 9439 8abd 328d 163e 2c78 513e
000001f0: 1d16 3cbd 7d04 b7bd 71dd f53d a2c8 2ebe
00000200: 6bf6 403e c83b ac3d 240b 23be ee16 a43e
00000210: 5abb 55be 6abf 8c3b 8179 0d3e 4035 f33d
00000220: d645 063c 9d2b e63c 72bc 8f3c dee3 a23c
00000230: 7561 1abe 30df e93d 3a80 05be 5312 003d
00000240: 7692 943e 664c fb3d 0a61 27be 90cd 223d
00000250: 13a8 95bc 555d 223e 264b a43b bc0e 09bd
00000260: 8227 dabd c3b6 943e ef09 50bd 8820 74bd
00000270: 4e73 13bd 4e5f 99bd 0b38 3f3e 884c d83d
00000280: e951 223e 8e92 bf3d 8d93 b5bc a32f 793e
00000290: 5d1b 4ebd 8297 01be ae5c 3a3e a915 d03c
000002a0: c4a9 083d 6703 02be a400 d73d d04c 823d
000002b0: 0f72 0dbb d402 85be 3b0c 43bd b3c3 653e
000002c0: 014b 163e 09eb 66bc 89eb ed3c b1fc 033e
000002d0: bb47 bc3d 9398 f33c d4aa c13c 093c dcbd
000002e0: 985c b33d 70a6 273e 4077 06be 08ff 063e
000002f0: 671d 123e ef2a 9f3c 68d5 6ebe 6ff1 d23d
00000300: 58cc 1b3e 29b7 bf3b 2e26 11be 6291 183e
00000310: 25ce 55bd 44c1 87bd 7985 453e 9c4e 053e
00000320: 1ecf 0abe ded6 18be 8724 813d 2993 b53e
00000330: 71e1 de3d bd66 eebd 60f4 f43c 0248 10be
00000340: d948 a3bd 9d91 98be 0a92 8cbe 0f8b e3bc
00000350: cac8 893e 4103 313d 471f b93d 7821 dc3d
00000360: 73cb 283e ac8f 9b3d df86 1d3e 8fda 133e
00000370: d1d4 6a3c b3bd 85bd a681 e9bd 950a b03d
00000380: c94a 8e3e 60fb 533e adc8 443d 8aa3 2b3e
00000390: 5d10 8d3c 2230 6a3d 4a89 9fbc d788 01be
000003a0: 0f91 0dbe 9f4f ec3c 47ce b43d ed26 963d
000003b0: 0c96 3a3b baa6 56be bd82 0abd 33d3 80be
000003c0: ab28 23be dad4 9dbd 2b06 c1bd bb50 963d
000003d0: 601a 6ebe 86c8 cdbb feee 183e 129a 033e
000003e0: 1151 1fbe e16a ef3d 0dbe 46be 097c 8c3d
000003f0: c347 41be e9c8 debc 9326 2abd beed 683d
-0.20904773 -0.028286217 0.113751054 -0.021861637 0.062139083 -0.17020148 0.15240222 0.10075899
0.05177144 -0.18774182 -0.057265986 -0.10585035 -0.023434196 0.13759902 -0.19644047 -0.25659353
0.10109411 0.18888295 0.09909352 0.14764626 -0.09308896 -0.029086243 0.016563404 0.16656914
-0.09382734 0.034719758 0.089117974 -0.26179755 0.007106716 -0.07180793 -0.12056401 0.321045
-0.36735246 0.067752704 0.0817964 -0.019043606 -0.118449144 -0.0034764302 -0.029424772 -0.063137226
0.035695482 0.17243853 -0.037277326 0.11619025 0.024489125 0.0666058 0.013138534 -0.05210676
-0.06529443 0.18493919 -0.15748009 -0.061156746 -0.24854404 0.2590047 -0.10062194 -0.06492406
-0.028683014 -0.078928255 0.09869118 -0.041395385 0.020406442 0.046759624 0.059765946 0.18412843
0.08063326 -0.23919547 0.13730001 0.12093094 -0.0779696 -0.21860309 0.19022083 0.14269276
0.12775669 -0.1446841 -0.13856119 -0.074674934 0.11675152 0.065898314 0.06224153 0.04162429
-0.06143278 -0.008815316 0.12279257 -0.062473398 0.13214868 0.08137127 -0.25265834 0.10654971
0.090373166 -0.0050140447 -0.17734501 -0.06191704 0.11590503 0.047023144 -0.103021294 0.16754699
0.017305309 -0.10730913 0.12629695 0.10684905 -0.00036158453 0.07237462 -0.0587774 -0.24275666
0.07816845 -0.024628105 0.0591849 0.008833885 -0.14009549 -0.0829188 -0.080599606 -3.6716738e-05
-0.019914668 0.17280176 -0.14356054 -0.32853583 0.101998344 0.22233732 0.041381873 0.23891157
-0.0384421 -0.067492634 0.14702299 0.20455998 -0.045919526 -0.08936403 0.12005127 -0.17068723
0.18844001 0.0840984 -0.15922219 0.32048744 -0.2087225 0.0042952793 0.13815881 0.11875391
0.008195361 0.028096968 0.017545912 0.019884046 -0.1507624 0.11419523 -0.13037196 0.031267475
0.2901799 0.12270431 -0.16345611 0.03974682 -0.01826862 0.15855916 0.005013841 -0.033461317
-0.10652067 0.29045686 -0.050790723 -0.059601337 -0.035998635 -0.07488881 0.18673722 0.10561472
0.15851559 0.09354125 -0.022165084 0.24334578 -0.050319064 -0.12655452 0.18199417 0.025400953
0.033365026 -0.1269661 0.10498169 0.06362307 -0.0021582877 -0.2597872 -0.047619086 0.22437935
0.14677049 -0.014094123 0.029042976 0.12889363 0.09193369 0.029735839 0.023641028 -0.10753638
0.08757895 0.16372085 -0.13131428 0.13183224 0.14269029 0.019429652 -0.23323596 0.10299956
0.1521467 0.005850692 -0.1417472 0.14899209 -0.052198548 -0.06628659 0.19289197 0.13018268
-0.13555571 -0.14925715 0.06305795 0.35463837 0.10882843 -0.116406895 0.029901683 -0.14089969
-0.07972879 -0.29798594 -0.2745517 -0.02777627 0.26911002 0.043215994 0.09039169 0.10748571
0.1648386 0.075957626 0.1538348 0.14438842 0.014332966 -0.06530323 -0.114016816 0.08595768
0.27791432 0.2070136 0.04804294 0.16761604 0.017219717 0.05717481 -0.019474644 -0.12649857
-0.13824867 0.02884656 0.08828407 0.07331643 0.0028470783 -0.20962039 -0.033816088 -0.25161132
-0.15933482 -0.07706614 -0.094250046 0.07339617 -0.23252249 -0.006280008 0.14934918 0.12851742
-0.15558268 0.116903074 -0.19408436 0.06859595 -0.18875031 -0.02719541 -0.041540693 0.056867354

fc.bias f4 [7]
00000000: cd07 9bbd 925d 7abd 0c89 a13d 9216 37bd
00000010: d91d 15bd 4d8b d8bc 2b9b 063e
-0.07569847 -0.06112439 0.07887468 -0.04469926 -0.036405418 -0.026433611 0.1314513
