LSTM/model_recursion/best_epoch_model_96_layer4_hidden64.pth (torch, 478831 bytes, 18 tensors)

lstm.weight_ih_l0 f4 [256, 7]
0.020931697 0.00505733 0.0343668 0.017730556 -0.005208944 -0.019124338 -0.020596592 0.049968142
-0.03823033 0.06996125 -0.033499174 -0.029039377 -0.033866663 -0.059816346 0.007843033 0.005100833
0.008677873 0.003939956 0.0065034213 0.005594837 0.0013097933 0.0015336644 -0.011909237 0.0065025175
-0.0082375305 0.019645246 0.011546761 -0.01950897 0.009662443 -0.01221095 0.013811515 -0.012412737
-0.0054722456 0.009266414 0.022182744 0.0399805 0.022042533 0.04010898 0.021941535 0.017792206
0.02020105 -0.03337511 0.02577939 -0.010754023 0.043665953 0.00017947597 -0.012798508 -0.029034095
-0.016471729 0.01745496 0.021340197 0.029848967 0.030950475 0.018879367 -0.0025159179 0.0051715313
0.058507793 -0.020792633 0.07718316 -0.001515463 -0.0035429334 0.0047070766 -0.027363637 0.04362569
-0.018649254 0.055142578 -0.013944787 -0.0063251453 0.011072688 -0.04113537 0.023412667 -0.018891685
0.03298061 -0.0143455025 0.005414829 -0.0018626223 -0.017845323 0.034415897 0.009290648 0.04380359
0.01588685 0.021530557 -0.02840772 0.014276427 0.027149143 -0.01855594 0.040493283 -0.0101703955
0.0075636636 -0.0027907887 -0.011492463 0.0033001679 0.0065147886 0.011620265 0.0012615384 -0.0008897708
0.029015249 0.013858726 0.0052823983 -0.006623108 0.015276461 -0.002934454 -0.01702249 0.018301181
-0.010353723 0.007705601 -0.011423312 0.013027286 -0.006650032 -0.0077240537 -0.00048662478 -0.015158832
-0.010392713 -0.014823808 0.003583524 -0.008301206 -0.003734942 0.016516304 -0.04847752 0.0505665
-0.005382925 0.056155745 -0.0077572567 -0.008601706 0.017092776 0.045809016 -0.0077229748 -0.0033072638
0.0015700827 -0.0047965045 -0.012482115 0.013870598 -0.012322474 0.06239039 -0.012893558 0.07205745
-0.0001601872 0.006082261 0.008006853 -0.06471847 0.022957465 0.021783292 0.029565498 0.020048574
0.029251631 0.03044735 0.04759592 0.021861156 -0.018575221 0.030679977 -0.015134295 -0.010291687
-0.004393633 -0.012386039 0.007534662 0.007118345 0.03772504 0.061788734 -0.029775104 -0.09718242
-0.048190597 0.050322365 -0.029302415 0.06841566 -0.019530756 -0.0019871446 0.01860735 -0.06915058
-0.0061946735 -0.042674467 0.0054385946 -0.03151293 0.0034206235 0.009253051 -0.0010017146 0.015753223
-0.009892 0.034885697 0.0065793023 -0.0045961626 -0.02871841 -0.042602655 -0.008380157 -0.023388783
0.006835061 -0.016085919 -0.012501788 0.0043368717 -0.06153849 0.02117961 0.0050972616 0.026590103
0.009590556 -0.007328854 -0.009488563 -0.009182241 0.038241513 -0.06064076 0.058607094 -0.053221807
-0.028725782 -0.037014987 -0.014636149 0.027277205 -0.0032668677 0.041390076 0.00888953 -0.0060628187
-0.019058317 -0.051494695 -0.028222503 0.0034924082 -0.006919332 0.025942512 -0.06290746 -0.02766817
-0.0010507955 0.017141523 -0.011112818 0.025523413 -0.0059540714 0.0005169227 -0.0032783058 -0.00030253973
-0.0028353045 -0.0057653384 0.003646047 -0.0029858798 -0.0064841323 0.0072363145 -0.013588421 0.0070910384
-0.0061824797 0.018068755 0.007075745 -0.012907006 -0.027248701 -0.026067568 0.022020448 -0.030668354
0.045926232 -0.01667574 -0.022783324 -0.004810524 0.0035681394 0.024955386 -0.009987227 0.028125592
-0.004734266 0.004909874 0.005434729 -0.04443372 0.023087757 -0.02493432 0.035712834 -0.018368218
00000000: f378 ab3c f5b7 a53b 34c4 0c3d ac3f 913c
00000010: caaf aabb a5aa 9cbc 2fba a8bc 65ab 4c3d
00000020: 6897 1cbd d847 8f3d 6e36 09bd fde3 edbc
00000030: c5b7 0abd fc01 75bd 1180 003c e324 a73b
00000040: a32d 0e3c bf1a 813b a71a d53b e554 b73b
00000050: 5fad ab3a 3d05 c93a f61e 43bc 1213 d53b
00000060: b5f6 06bc 11ef a03c a02e 3d3c 47d1 9fbc
00000070: 394f 1e3c 7010 48bc b149 623c cb5e 4bbc
00000080: 8650 b3bb 28d2 173c 96b8 b53c 98c2 233d
00000090: 8b92 b43c 5049 243d bcbe b33c f6c0 913c
000000a0: ac7c a53c 57b4 08bd 4d2f d33c a431 30bc
000000b0: 12db 323d b731 3c39 d5b0 51bc e9d8 edbc
000000c0: b8ef 86bc b4fd 8e3c a3d1 ae3c d285 f43c
000000d0: da8b fd3c e7a8 9a3c 19e2 24bb f375 a93b
000000e0: dea5 6f3d 5055 aabc 3412 9e3d 80a2 c6ba
000000f0: 8f30 68bb d23d 9a3b b529 e0bc dab0 323d
00000100: 52c6 98bc 2fdd 613d ad78 64bc 2a43 cfbb
00000110: 386a 353c 907d 28bd eccb bf3c bcc2 9abc
00000120: ad16 073d 6609 6bbc e16e b13b 3c23 f4ba
00000130: 5b30 92bc aff7 0c3d cd37 183c 656b 333d
00000140: 2425 823c da60 b03c 4fb7 e8bc ade7 693c
00000150: e167 de3c a002 98bc 49dc 253d bba1 26bc
00000160: 9cd8 f73b aae5 36bb e24a 3cbc a147 583b
00000170: 027a d53b ed62 3e3c 345a a53a 823f 69ba
00000180: 63b1 ed3c b60f 633c f817 ad3b a806 d9bb
00000190: 1f4a 7a3c f84f 40bb c072 8bbc 5cec 953c
000001a0: a9a2 29bc 447f fc3b d828 3bbc 6670 553c
000001b0: 83e8 d9bb 0f1a fdbb ac21 ffb9 c05c 78bc
000001c0: 3346 2abc 8fdf 72bc 8ed9 6a3b c801 08bc
000001d0: eec5 74bb 334d 873c 5d90 46bd d11e 4f3d
000001e0: 3f63 b0bb 9103 663d 9630 febb 2bee 0cbc
000001f0: 2606 8c3c 3ca2 3b3d 0211 fdbb aebe 58bb
00000200: 3ccb cd3a ff2b 9dbb c981 4cbc 8141 633c
00000210: 34e4 49bc 118d 7f3d 803f 53bc db92 933d
00000220: edf7 27b9 b44d c73b 2d2f 033c 1e8b 84bd
00000230: 4b11 bc3c e072 b23c 5833 f23c e83c a43c
00000240: 1ea1 ef3c b96c f93c f0f3 423d 2b16 b33c
00000250: 102b 98bc 9354 fb3c d6f5 77bc 779e 28bc
00000260: 77f8 8fbb d0ee 4abc 53e5 f63b 0141 e93b
00000270: 9285 1a3d 2f16 7d3d ebea f3bc 9407 c7bd
00000280: 8163 45bd d31e 4e3d 9e0b f0bc 821d 8c3d
00000290: f7fe 9fbc c13a 02bb 716e 983c d29e 8dbd
000002a0: b0fc cabb 6ccb 2ebd 3d36 b23b b413 01bd
000002b0: 8a2c 603b 1c9a 173c f74b 83ba e70c 813c
000002c0: 0e12 22bc 4ee4 0e3d 3097 d73b 689b 96bb
000002d0: df42 ebbc 1f80 2ebd ed4c 09bc d599 bfbc
000002e0: a6f8 df3b 9ec6 83bc 4dd4 4cbc 511c 8e3b
000002f0: c90f 7cbd dd80 ad3c ee06 a73b 7dd3 d93c
00000300: b521 1d3c e226 f0bb eb75 1bbc 1c71 16bc
00000310: 22a3 1c3d 7262 78bd fe0d 703d 1cff 59bd
00000320: 5552 ebbc 079d 17bd 75cc 6fbc 7274 df3c
00000330: f218 56bb a488 293d 64a5 113c 9caa c6bb
00000340: 3020 9cbc 1aec 52bd e132 e7bc e3e0 643b
00000350: 90bb e2bb 6485 d43c a0d5 80bd 5ca8 e2bc
00000360: d9ba 89ba 616c 8c3c 8912 36bc 7a16 d13c
00000370: 5f1a c3bb 1882 073a d8d8 56bb 329e 9eb9
00000380: 84d0 39bb 2aeb bcbb 85f2 6e3b c0ae 43bb
00000390: d878 d4bb 9b1e ed3b f8a1 5ebc f15b e83b
000003a0: 6696 cabb ed04 943c a7db e73b e877 53bc
000003b0: ab38 dfbc a78b d5bc 3a64 b43c 333c fbbc
000003c0: 251d 3c3d 909b 88bc 18a4 babc 9aa1 9dbb
000003d0: 72d7 693b 3d6f cc3c 77a1 23bc a467 e63c
000003e0: e721 9bbb 02e3 a03b d015 b23b 2200 36bd
000003f0: 8922 bd3c 0f43 ccbc 9f47 123d f278 96bc

lstm.weight_hh_l0 f4 [256, 64]
0.000116302814 0.0065456233 -0.0010118079 0.003655686 0.003252186 0.002936303 -0.006317024 -0.0024375182
-0.00028472272 0.00095559645 -0.000990101 0.014815243 -0.0036626651 0.0031949016 0.0012937202 -0.0013152212
-0.0011632143 -0.003190844 -0.003173562 -8.9477486e-05 -0.003956446 -0.00047696198 -0.025432019 0.0010028644
-0.009912244 0.0029070664 0.00038455086 0.0022151412 -0.003635261 -0.0018340672 0.007828185 -0.0031558864
-0.00014883486 0.0031294078 -0.0063178358 -0.00055335124 0.0019218968 -0.0075775385 0.0024746517 0.0044540777
0.00019215047 0.0005805109 0.0015814467 -0.0009329426 -0.008672885 -0.001191631 -0.005179655 0.0034619605
0.0036677304 -0.0010968703 0.0017593394 -0.0012699468 -0.0021217733 -0.0018300278 -0.0038162163 -0.00092395506
0.0018058455 0.0018434818 0.0071131233 0.02144924 0.004928671 0.0011671925 -0.0061598304 0.0035066463
-9.75038e-05 0.00846113 0.0063552153 -0.013643124 -0.004782741 0.0019580354 -0.004317442 0.0027304876
0.013686214 0.0048383945 -0.006436381 0.0012032579 -0.0049375137 0.020624444 0.02492666 0.021054223
0.019651908 -0.00023120864 -0.012137453 -0.011556847 0.017460058 0.005702659 0.031474378 -0.01814783
0.015860122 -0.0015455206 0.007978677 -0.011292467 0.03188017 0.009470439 -0.016073484 1.4366679e-05
0.015393745 -0.005800739 0.039636035 -0.000532644 -0.006631425 0.0067320494 -0.009116758 -0.0053151315
-0.02228312 0.023184108 0.0029381835 -0.022763439 0.007932557 3.0692816e-05 -0.0030739678 -0.0013809052
0.020382319 0.016619878 0.021398615 0.034158945 0.014911862 0.00909512 0.0030802242 -0.001122867
-0.013960528 -0.0020516575 0.013910576 -0.020589732 -0.0111253355 -0.008017965 0.009780582 0.012268495
0.0005651016 -0.0026956417 -0.0005900133 -0.0002168996 0.0005421197 -0.001915923 0.00027441393 0.0012905209
-0.001006679 -0.0011583156 0.0006089594 -0.0005371958 0.0004944061 -5.5086417e-05 -0.00014469767 -0.00029402567
0.0012070611 4.7197518e-05 0.0006693324 0.0018564279 0.0004444099 -0.0008992965 -0.0018106307 -0.0015642837
-0.00022178265 0.0007541775 -0.00012751407 -0.00035008203 -0.0008892396 0.0012939818 -0.0016453817 0.00047214841
0.0003691659 2.3540535e-05 0.000109591354 -0.001918569 0.00020724283 0.00038392024 0.00048192363 -9.630213e-05
-0.0011091043 0.0012243417 -0.001073013 0.0010445777 0.00024938714 -0.0011766254 0.0008471165 0.0019760097
0.00074402284 -9.813023e-05 0.0015157437 0.0008742074 -0.00036155898 -0.0011871435 -0.0015956147 3.4418714e-05
-0.0014809868 0.0028044453 -0.00012704164 0.00035659215 -0.0011702805 -3.6817182e-05 0.0012001297 -0.0008316968
-0.009421762 0.0017799364 -0.0022144478 -0.0028108018 -0.0057292255 -0.0077340207 0.0023394956 0.008141807
-0.0048239217 -0.0059226537 -0.0011757589 0.00027733354 0.0017817544 -0.004322831 -0.003096555 -0.00021075859
-0.0027256433 -0.001602048 0.004529441 0.0034485809 -0.0012650768 0.0053775026 0.00655489 -0.009550381
0.00679462 -0.007337052 -0.0030584026 0.0043039983 0.010940544 -0.009136141 -0.0139430165 0.0015969768
0.0004598397 -0.006295596 0.011616656 0.0026071204 -0.002750329 0.0026106564 -0.00029719798 -0.008489621
0.0013666919 0.0010133124 0.00021511967 -0.0040179193 0.0032126806 -0.0046449215 0.0055247755 0.0053748367
-0.008399585 -0.0060301935 0.0019963644 0.007721432 -0.00095105 -0.010530519 -0.00066646736 -0.0011003885
-0.0034510377 0.0043176864 -0.008006963 -0.0025514928 -0.0013454659 -0.000832211 0.003403581 0.0035880236
00000000: 99e7 f338 ab7c d63b a49e 84ba 3c94 6f3b
00000010: a122 553b fd6e 403b 0aff cebb c5be 1fbb
00000020: d646 95b9 fe80 7a3a 47c6 81ba a2bb 723c
00000030: 5309 70bb 8e61 513b 0c92 a93a 8063 acba
00000040: ff76 98ba 7b1d 51bb 89fb 4fbb dca5 bbb8
00000050: 13a5 81bb c110 fab9 cf56 d0bc 8c72 833a
00000060: f766 22bc 7b84 3e3b 8b9d c939 e72b 113b
00000070: 8f3d 6ebb 1565 f0ba ca41 003c fdd2 4ebb
00000080: 8e10 1cb9 c016 4d3b d905 cfbb c60e 11ba
00000090: 28e8 fb3a 004d f8bb c42d 223b 83f3 913b
000000a0: 007c 4939 6d2d 183a 8c48 cf3a b890 74ba
000000b0: b718 0ebc 8030 9cba 18ba a9bb 0fe2 623b
000000c0: 4e5e 703b dcc4 8fba a299 e63a 5874 a6ba
000000d0: 730d 0bbb 8bdd efba 7c19 7abb 9335 72ba
000000e0: 1fb2 ec3a fca0 f13a 3415 e93b 51b6 af3c
000000f0: b080 a13b 7bfc 983a 67d8 c9bb c3cf 653b
00000100: f47a ccb8 8da0 0a3c 693f d03b 6987 5fbc
00000110: 8ab8 9cbb 6252 003b 5479 8dbb fbf1 323b
00000120: 243c 603c 658b 9e3b 47e8 d2bb a3b6 9d3a
00000130: deca a1bb 98f4 a83c ff32 cc3c e879 ac3c
00000140: 0afd a03c 9970 72b9 2bdc 46bc ee58 3dbc
00000150: 6508 8f3c 5fdd ba3b 47eb 003d c2aa 94bc
00000160: 16ed 813c 1193 caba ffb8 023c 0a04 39bc
00000170: c894 023d e629 1b3c 8aac 83bc 6b08 7137
00000180: 0c36 7c3c 2014 bebb 6559 223d 22a1 0bba
00000190: 6d4c d9bb 8698 dc3b 745e 15bc 8e2a aebb
000001a0: 178b b6bc 99ec bd3c 8a8e 403b 647a babc
000001b0: 8ef7 013c 29bc 0038 9f74 49bb 7dff b4ba
000001c0: d2f8 a63c 6926 883c 264c af3c 40ea 0b3d
000001d0: e250 743c b303 153c 96dd 493b 2a2d 93ba
000001e0: b3ba 64bc 1a75 06bb 2fe9 633c ccab a8bc
000001f0: 0a47 36bc c85d 03bc bc3e 203c cc01 493c
00000200: 5423 143a 5da9 30bb 1fab 1aba 8b6f 63b9
00000210: 0a1d 0e3a b51f fbba 37df 8f39 b226 a93a
00000220: 8bf2 83ba 9fd2 97ba 93a2 1f3a 9ad2 0cba
00000230: 089b 013a 970c 67b8 fcb9 17b9 7527 9ab9
00000240: 4036 9e3a f3f5 4538 2376 2f3a 6253 f33a
00000250: b0ff e839 c4be 6bba af52 edba a708 cdba
00000260: 548e 68b9 ffb3 453a 4cb5 05b9 378b b7b9
00000270: dc1b 69ba d39a a93a d9a9 d7ba b08a f739
00000280: 9c8c c139 ea78 c537 69d4 e538 7e78 fbba
00000290: 534f 5939 e748 c939 b2aa fc39 d0f5 c9b8
000002a0: 5d5f 91ba 177a a03a 57a4 8cba 36ea 883a
000002b0: 2dc0 8239 ff38 9aba 0711 5e3a f17f 013b
000002c0: 870a 433a 44cb cdb8 ebab c63a 112b 653a
000002d0: a08f bdb9 ed99 9bba f223 d1ba d05c 1038
000002e0: ac1d c2ba c9ca 373b 7b36 05b9 fdf4 ba39
000002f0: 1964 99ba 266c 1ab8 ac4d 9d3a 3a06 5aba
00000300: bc5d 1abc c14c e93a 4520 11bb 6e35 38bb
00000310: 3abc bbbb ab6d fdbb 3952 193b 3765 053c
00000320: fd11 9ebb d212 c2bb ec1b 9aba 1467 9139
00000330: c289 e93a 89a6 8dbb 92ef 4abb 14ff 5cb9
00000340: b5a0 32bb d0fb d1ba b46b 943b 9601 623b
00000350: efd0 a5ba c335 b03b 67ca d63b 3479 1cbc
00000360: 67a5 de3b a76b f0bb 7b6f 48bb 8e08 8d3b
00000370: f83f 333c c1af 15bc 4071 64bc a651 d13a
00000380: a416 f139 494b cebb c953 3e3c 39dc 2a3b
00000390: dd3e 34bb 8c17 2b3b 3dd1 9bb9 0d18 0bbc
000003a0: 9222 b33a 1fd1 843a bf91 6139 c0a8 83bb
000003b0: d68b 523b 6d34 98bb 2d09 b53b 661f b03b
000003c0: 6a9e 09bc ee98 c5bb 70d5 023b 1104 fd3b
000003d0: e34f 79ba 3388 2cbc deb5 2eba e93a 90ba
000003e0: ce2a 62bb 617b 8d3b a32f 03bc f236 27bb
000003f0: 585a b0ba bc28 5aba 9d0e 5f3b 0c25 6b3b

lstm.bias_ih_l0 f4 [256]
0.08987988 0.15643068 0.019266386 0.08865707 0.056279477 0.1087953 0.13143432 0.090908214
0.21167634 0.15296035 0.081735015 0.09308 0.09499147 0.09586951 0.09919671 0.05210532
0.17318486 0.057210725 0.07541877 0.22269292 0.09710004 0.07247956 0.15406096 0.23615193
0.176139 0.13907932 0.15202445 0.06413411 0.12703839 0.14733067 0.12617986 0.04765167
0.07575104 0.05992474 0.13712555 0.15609403 0.14547457 0.07471578 0.0652185 0.0711025
0.14708425 0.12975033 0.08917634 0.057021677 0.0402801 0.13886943 0.20353319 0.20265676
0.16291188 0.10377856 0.12314805 0.1684935 0.057511695 0.15417592 0.16470204 0.035088718
0.04465336 0.15169051 0.25924367 0.095485784 0.071744874 0.044378914 0.053023126 0.05381617
-0.010717441 0.16457671 -0.003620254 -0.0045845606 0.0024609403 0.007901229 0.011321148 0.003542674
-0.053679742 -0.036577918 -0.011860484 0.10623917 0.017641485 0.0010707475 -0.027614411 -0.016910946
-0.030998204 0.099358074 -0.008732502 -0.035034936 0.060191546 -0.011416158 0.1798203 -0.06956869
0.01840325 -0.011884215 -0.05851676 0.011018598 0.019282304 0.029234733 0.09232112 0.0038399182
-0.02164286 0.0027648187 0.07830281 -0.03586265 -0.040796153 0.0100576095 -0.0037606582 0.02961546
0.0510841 0.041436415 -0.00075659424 -0.0056056883 0.05500414 -0.027200421 -0.030682659 -0.06262404
0.02473309 -0.022609148 0.019973643 -0.02907871 -0.02312386 0.03711596 -0.034380168 -0.005513386
0.03429651 -0.031001672 -0.048285868 0.16424902 0.07389939 0.023423225 0.01145418 -0.0049110935
-0.0937574 -0.07706 -0.047113486 0.06804202 0.0018649133 0.04823582 0.03275057 0.10501101
0.029068852 -0.065393604 0.011126559 -0.08985525 0.017626666 -0.04079298 -0.02695717 -0.036502756
-0.06085674 -0.06489764 0.116767 -0.06614902 -0.011539774 -0.018432887 0.066814326 0.065316215
-0.06453546 -0.04238712 -0.1156401 0.032855764 -0.06473263 -0.08190099 -0.13182802 0.038946506
-0.01474678 0.0006445954 0.069571435 0.10940327 -0.029362477 -0.005708322 0.03676044 -0.00860788
-0.011521752 0.0059706327 -0.05196484 -0.012531081 -0.024579516 -0.042684335 0.18088564 -0.0429631
-0.12872896 -0.006560905 -0.07178296 -0.0081261555 -0.058442075 -0.09739931 -0.004728022 -0.05610234
0.05437224 0.006425067 -0.1591102 -0.076680206 0.037446238 -0.006491269 -0.0007812306 -0.035807304
0.09178724 0.18560344 0.020328986 0.09172672 0.053695716 0.112262994 0.13401145 0.09857485
0.2167772 0.15782087 0.08559495 0.093517855 0.10600867 0.1016835 0.10006709 0.054773662
0.18133074 0.08051255 0.07698008 0.21966603 0.08058066 0.07305286 0.13383092 0.235019
0.16016082 0.14387621 0.1640131 0.06452618 0.13849358 0.15056942 0.13365126 0.04958502
0.07691574 0.061388362 0.14868453 0.1635394 0.14819029 0.073598 0.06750968 0.066556975
0.14807831 0.13349819 0.09779968 0.069848076 0.03811858 0.14362144 0.2113401 0.21165496
0.17347163 0.106456906 0.12755637 0.16173302 0.058568954 0.16935997 0.15887955 0.035704765
0.049428944 0.1525124 0.26342425 0.10659492 0.067790054 0.047143277 0.056034263 0.06309751
00000000: f112 b83d 5d2f 203e 8ad4 9d3c d791 b53d
00000010: 4f85 663d 12d0 de3d b896 063e 162e ba3d
00000020: afc1 583e a3a1 1c3e b064 a73d baa0 be3d
00000030: e38a c23d 3c57 c43d a527 cb3d 636c 553d
00000040: 5f57 313e cb55 6a3d 2875 9a3d 9d09 643e
00000050: 63dc c63d 2a70 943d 28c2 1d3e d0d1 713e
00000060: c85d 343e cf6a 0e3e 4cac 1b3e bf58 833d
00000070: 5a16 023e dadd 163e 4b35 013e 662e 433d
00000080: 5c23 9b3d a573 753d a46a 0c3e 1dd7 1f3e
00000090: 49f7 143e 9604 993d 4791 853d 309e 913d
000000a0: 419d 163e 45dd 043e 16a2 b63d 908f 693d
000000b0: bffc 243d ca33 0e3e 016b 503e 4185 4f3e
000000c0: 5fd2 263e db89 d43d 0b35 fc3d 8f89 2c3e
000000d0: 6291 6b3d 4be0 1d3e a7a7 283e 30b9 0f3d
000000e0: 71e6 363d c254 1b3e 96bb 843e 0d8e c33d
000000f0: faee 923d aac6 353d c72e 593d 586e 5c3d
00000100: 3598 2fbc cc86 283e c941 6dbb 153a 96bb
00000110: ba47 213b 2874 013c 567c 393c 352c 683b
00000120: 4adf 5bbd bad2 15bd 7a52 42bc ec93 d93d
00000130: e084 903c 5358 8c3a 9e37 e2bc d388 8abc
00000140: f2ef fdbc 3f7c cb3d c512 0fbc cb80 0fbd
00000150: 698b 763d d60a 3bbc d022 383e 087a 8ebd
00000160: 6ac2 963c 03b6 42bc 45af 6fbd 5a87 343c
00000170: ecf5 9d3c ae7d ef3c db12 bd3d 23a7 7b3b
00000180: 5e4c b1bc f631 353b 395d a03d b7e4 12bd
00000190: de19 27bd acc8 243c 6075 76bb 1f9c f23c
000001a0: 903d 513d 3bb9 293d 2e56 46ba ecaf b7bb
000001b0: 054c 613d 6bd3 debc 335a fbbc 0841 80bd
000001c0: 0d9d ca3c d236 b9bc c49f a33c 7a36 eebc
000001d0: 406e bdbc e806 183d 38d2 0cbd a2a9 b4bb
000001e0: 7f7a 0c3d 38f7 fdbc 67c7 45bd e530 283e
000001f0: 9058 973d 10e2 bf3c 50aa 3b3c 3ded a0bb
00000200: e103 c0bd a2d1 9dbd 12fa 40bd 9d59 8b3d
00000210: 1b70 f43a ec92 453d 7625 063d 0310 d73d
00000220: cd21 ee3c 15ed 85bd 2c4c 363c 0806 b8bd
00000230: cc65 903c 8a16 27bd 48d5 dcbc ea83 15bd
00000240: eb44 79bd 0ee9 84bd 8923 ef3d 2379 87bd
00000250: 5211 3dbc 9100 97bc f3d5 883d 82c4 853d
00000260: 2b2b 84bd 1e9e 2dbd b7d4 ecbd c493 063d
00000270: 8b92 84bd b5bb a7bd edfd 06be 5f86 1f3d
00000280: 7a9c 71bc 11fa 283a 787b 8e3d d20e e03d
00000290: 9489 f0bc e00c bbbb 1d92 163d 1108 0dbc
000002a0: bbc5 3cbc 4ca5 c33b 16d9 54bd 2a4f 4dbc
000002b0: fb5a c9bc c5d5 2ebd 163a 393e 13fa 2fbd
000002c0: 86d1 03be dcfc d6bb f202 93bd 9123 05bc
000002d0: f560 6fbd 4a79 c7bd 86ed 9abb 91cb 65bd
000002e0: 6db5 5e3d 5e89 d23b c9ed 22be 830a 9dbd
000002f0: 3a61 193d b6b4 d4bb 80cb 4cba aeaa 12bd
00000300: f3fa bb3d d40e 3e3e f988 a63c 38db bb3d
00000310: 0af0 5b3d 24ea e53d 4c3a 093e 9ce1 c93d
00000320: d8fa 5d3e cb9b 213e 684c af3d 4a86 bf3d
00000330: 131b d93d 703f d03d f9ef cc3d 595a 603d
00000340: c4ae 393e c4e3 a43d bba7 9d3d 22f0 603e
00000350: 7907 a53d bd9c 953d f90a 093e d2a8 703e
00000360: 3301 243e 4954 133e 0df3 273e 4d26 843d
00000370: 43d1 0d3e df2e 1a3e e0db 083e a919 4b3d
00000380: 0086 9d3d 5d72 7b3d c240 183e df76 273e
00000390: 32bf 173e 8cba 963d 8442 8a3d 064f 883d
000003a0: d7a1 173e c0b3 083e 334b c83d 820c 8f3d
000003b0: 3a22 1c3d 8011 133e 8a69 583e 14bc 583e
000003c0: 8ca2 313e 1406 da3d 239e 023e 579d 253e
000003d0: 00e6 6f3d b36c 2d3e 52b1 223e 293f 123d
000003e0: 0176 4a3d 362c 1c3e 8bdf 863e 704e da3d
000003f0: 83d5 8a3d 4f19 413d 2f84 653d 4439 813d

lstm.bias_hh_l0 f4 [256]
0.087605864 0.1533854 0.01960462 0.08784557 0.056246318 0.103926696 0.12297755 0.091368884
0.21101001 0.15894255 0.08178426 0.09703664 0.09668303 0.09252748 0.09993593 0.052442957
0.18370652 0.07200301 0.07331973 0.20954016 0.087861344 0.077947825 0.15968432 0.2326323
0.17742597 0.13636622 0.14877588 0.06313754 0.13093406 0.15106252 0.106843 0.048487328
0.075722806 0.05959836 0.14492951 0.15211563 0.14552313 0.06693785 0.06323693 0.07055369
0.14003325 0.13088453 0.09018879 0.061947886 0.043405604 0.13811079 0.20312168 0.20449226
0.16358973 0.1041147 0.11284491 0.15841381 0.05730822 0.1637292 0.16277565 0.03509098
0.042469498 0.15523936 0.25970542 0.08417163 0.05131288 0.045128 0.054187536 0.048963726
-0.013944694 0.1660954 -0.004199744 -0.014628317 0.0024939177 0.008258279 -0.001007073 0.003931928
-0.059457716 -0.043260816 -0.012949903 0.09818748 0.01943349 -0.004870406 -0.030352807 -0.017722543
-0.032374393 0.09211876 -0.008627366 -0.036519792 0.07762089 -0.018120186 0.18681332 -0.061232526
0.030557819 -0.011243358 -0.03887339 0.012384704 0.028912881 0.024606742 0.07916594 0.0012675992
-0.021676777 0.0032062086 0.037320882 -0.037570838 -0.040891737 0.024163583 -0.001966098 0.032411426
0.049649037 0.037958514 -0.00024202747 -0.008596466 0.03878985 -0.02687764 -0.028509287 -0.062596016
0.021318905 -0.021543017 0.021902965 -0.021506269 -0.02378166 0.04081217 -0.04047782 -0.0055192453
0.03137738 -0.027108716 -0.055632107 0.14108565 0.0637113 0.023154637 0.004828564 0.0020660881
-0.022201432 -0.04434012 0.0647085 -0.03875876 -0.09627974 -0.09398856 0.14863542 0.06296912
-0.051769882 0.104255915 0.023887828 0.033315785 0.00086631905 -0.043243065 -0.094463095 -0.00044741435
-0.11616694 0.009869511 0.03989682 0.02198359 -0.012556771 -0.007836699 0.028738664 -0.029466644
0.0047810897 -0.124415964 -0.078797005 -0.04102349 0.032020323 -0.02389294 -0.05771878 -0.047395382
-0.11703108 -0.12282712 -0.1236242 -0.018209089 0.07778443 0.005528008 -0.04218658 -0.01697922
0.092504516 -0.13269776 0.012516036 -0.0157589 0.08787369 -0.018013528 0.033718187 -0.001393814
-0.046294846 -0.10257622 -0.01876908 -0.08517828 0.0082736295 -0.15779206 -0.036476277 0.006238682
-0.062400606 0.020921092 -0.14254712 0.03344847 -0.04112082 -0.043484606 -0.025140679 0.049107853
0.09112968 0.18927768 0.02020552 0.092381984 0.05640999 0.11132156 0.13470851 0.09798359
0.21355703 0.16470025 0.08720172 0.096200995 0.103553034 0.10549386 0.1023057 0.05327157
0.18751794 0.06849315 0.07883544 0.2152273 0.10446604 0.07284373 0.16209084 0.23954837
0.18121341 0.14489214 0.1624675 0.06410377 0.15015028 0.1579605 0.13233475 0.051345762
0.076998234 0.06178949 0.13026343 0.15551455 0.14815694 0.08661102 0.06766209 0.082376055
0.14749183 0.13819076 0.09578239 0.056502827 0.038479835 0.14169721 0.2141192 0.20831518
0.17596474 0.10529708 0.14350852 0.1638007 0.058248926 0.16123393 0.16064873 0.035709344
0.042289782 0.1676213 0.2748373 0.11070281 0.065341376 0.04746491 0.05238983 0.06370971
00000000: b46a b33d 1011 1d3e de99 a03c 61e8 b33d
00000010: 8a62 663d 85d7 d43d a7db fb3d 9c1f bb3d
00000020: 0213 583e d6c1 223e 827e a73d 25bb c63d
00000030: c101 c63d 0c7f bd3d 35ab cc3d 6dce 563d
00000040: 901d 3c3e 5076 933d a828 963d b291 563e
00000050: a6f0 b33d 1ca3 9f3d 4984 233e 2937 6e3e
00000060: 27af 353e 96a3 0b3e b458 183e 414e 813d
00000070: 9413 063e 22b0 1a3e 81d0 da3d a69a 463d
00000080: 8f14 9b3d 691d 743d 6768 143e 33c4 1b3e
00000090: 0404 153e b616 893d 5d82 813d 747e 903d
000000a0: e064 0f3e 9806 063e e6b4 b83d 11bd 7d3d
000000b0: 13ca 313d ea6c 0d3e 21ff 4f3e 6b66 513e
000000c0: 1184 273e 163a d53d 3b1b e73d 3b37 223e
000000d0: 06bc 6a3d a1a8 273e a9ae 263e 8fbb 0f3d
000000e0: 7ff4 2d3d 11f7 1e3e 1cf8 843e 2d62 ac3d
000000f0: 742d 523d 23d8 383d c0f3 5d3d 308e 483d
00000100: 4978 64bc ea14 2a3e 029e 89bb 9cab 6fbc
00000110: ff70 233b bc4d 073c c3ff 83ba 67d7 803b
00000120: ef89 73bd 4132 31bd d42b 54bc 8416 c93d
00000130: fb32 9f3c ed97 9fbb 73a6 f8bc de2e 91bc
00000140: 039b 04bd c3a8 bc3d cc59 0dbc c795 15bd
00000150: b4f7 9e3d c970 94bc fe4b 3f3e f5ce 7abd
00000160: 6454 fa3c 1036 38bc b439 1fbd 37e9 4a3c
00000170: b5da ec3c 1494 c93c c121 a23d 9225 a63a
00000180: 7f93 b1bc 411f 523b c8dd 183d e1e3 19bd
00000190: 187e 27bd b5f2 c53c a7d9 00bb d8c1 043d
000001a0: ca5c 4b3d 637a 1b3d c1c8 7db9 31d8 0cbc
000001b0: 1be2 1e3d 7f2e dcbc 4f8c e9bc 5732 80bd
000001c0: fca4 ae3c fb7a b0bc d96d b33c ea2d b0bc
000001d0: c1d1 c2bc a92a 273d 12cc 25bd c9da b4bb
000001e0: 9185 003d 1913 debc 7ede 63bd c278 103e
000001f0: 127b 823d cbae bd3c ee38 9e3b 3567 073b
00000200: c7df b5bc fc9d 35bd e485 843d 81c1 1ebd
00000210: 502e c5bd 137d c0bd e233 183e f4f5 803d
00000220: a80c 54bd 2084 d53d 68b0 c33c 2276 083d
00000230: b019 633a a41f 31bd de75 c1bd f092 eab9
00000240: efe8 edbd bbb3 213c d96a 233d ee16 b43c
00000250: eaba 4dbc 7f65 00bc 596d eb3c 0864 f1bc
00000260: b0aa 9c3b cccd febd 5360 a1bd 3f08 28bd
00000270: be27 033d 20bb c3bc 876a 6cbd a921 42bd
00000280: fead efbd c98c fbbd af2e fdbd 3a2b 95bc
00000290: 714d 9f3d 4b24 b53b d6cb 2cbd 0118 8bbc
000002a0: 0273 bd3d ece1 07be 0f10 4d3c cf18 81bc
000002b0: 1ff7 b33d 1b91 93bc 151c 0a3d a3b0 b6ba
000002c0: aa9f 3dbd 7b13 d2bd 9dc1 99bc f371 aebd
000002d0: 1e8e 073c 3e94 21be 2668 15bd dc6d cc3b
000002e0: c797 7fbd b662 ab3c dff7 11be 4301 093d
000002f0: 4e6e 28bd ea1c 32bd d3f3 cdbc 5125 493d
00000300: 33a2 ba3d 02d2 413e 0c86 a53c c432 bd3d
00000310: 290e 673d 8ffc e33d 07f1 093e 9fab c83d
00000320: b2ae 5a3e 2fa7 283e d196 b23d 0705 c53d
00000330: 9d13 d43d 2a0d d83d a785 d13d 4a33 5a3d
00000340: b404 403e 2346 8c3d 7a74 a13d 8c64 5c3e
00000350: 4bf2 d53d 182f 953d 24fb 253e 2b4c 753e
00000360: 0290 393e 9b5e 143e e15d 263e d648 833d
00000370: ffc0 193e 66c0 213e c382 073e ef4f 523d
00000380: 40b1 9d3d fa16 7d3d c763 053e 353f 1f3e
00000390: 74b6 173e 1e61 b13d 6c92 8a3d c7b4 a83d
000003a0: 1908 173e e181 0d3e 8f29 c43d 826f 673d
000003b0: 089d 1d3d 1319 113e 1042 5b3e 9350 553e
000003c0: 1a30 343e ffa5 d73d e6f3 123e 5fbb 273e
000003d0: 6d96 6e3d 821a 253e 1a81 243e f643 123d
000003e0: 0d38 2d3d eba4 2b3e 79b7 8c3e 28b8 e23d
000003f0: b3d1 853d 916a 423d b896 563d 3d7a 823d

lstm.weight_ih_l1 f4 [256, 64]
-0.003464883 0.0044965674 -0.0015463736 0.00037404738 0.0010206815 -0.003497991 -0.002056086 0.0028165062
-0.004843548 -0.0023980343 -0.0007400946 0.0037383046 6.402049e-05 0.00022507398 -0.0012285392 -0.0016322179
-0.0033590384 0.0024303158 -0.0014971558 0.004556223 2.2461441e-05 0.0020437303 -0.009106009 -0.0040996186
-0.0006606193 -0.0020066667 -0.0008393336 0.0042438493 0.0019405391 -0.005315436 0.0005189399 0.0003733977
-0.0007079743 -0.0011816962 0.0014972405 -0.00028989356 0.00024586974 -0.0014817448 0.0031871933 -0.0030701018
-0.0013574022 -0.00047829113 0.0022496167 -2.40326e-05 -0.0014289753 -0.0040798276 -0.0010110405 0.005225522
-0.0016847178 -0.004170921 0.0011943596 0.0018598379 -0.0020659617 -0.004993941 -0.0020884129 -0.0023255076
-0.0003323974 0.0036737605 0.00036427024 0.007474243 -0.0005626865 0.001274066 -0.0009963809 0.0018181258
1.7855704e-05 0.0012894933 0.0014584082 -0.0019298116 -0.0022113754 -0.00084208505 -0.0015867562 0.0030355242
-0.0032417437 -0.0017881413 -0.0045174253 0.0036216644 -0.0059589976 0.0027578094 -0.0002808438 0.000770769
0.0026143494 -0.005987123 0.00034157597 0.0011148874 -0.0003170576 -0.003360341 -0.004879988 -0.003432781
0.0018258179 0.0013439837 0.001974299 -0.002667592 0.00041691258 0.00379548 -0.0018224712 -0.0051246476
8.187507e-05 0.0016074234 0.0011555435 -0.002120076 -0.0021878695 -0.005955177 -0.0012916942 0.0045456984
-0.0013296652 0.00021938207 -0.004772678 -0.0021982274 -0.0012964435 -0.004523628 -0.0011423414 0.0023638168
-0.0016353579 0.0011348488 -0.0010312854 0.002547503 0.0006959322 0.00056105445 -0.006481506 0.0015916338
-0.0018280593 0.0050498336 -0.0017610585 0.0034540296 -5.8218724e-05 -0.004716215 -0.0022285173 0.00010611887
-0.0015241017 0.0023174777 0.00018926323 -0.0002669356 -0.0019634818 0.00038402673 -0.001972586 -0.0007092051
6.0202347e-05 -0.0021241242 -0.001539036 0.0052242745 -0.0009085583 -0.0008187549 0.001064424 0.001236066
0.0007061693 -0.0057428544 -3.3330434e-06 -0.001194593 -0.0036201691 0.0021681094 -0.0048166746 -0.003677152
0.0019620864 -0.00025822624 0.00043810258 0.00013594133 0.002442698 -0.0011523551 -0.002829221 -0.00042057727
0.0013299104 -0.0004536425 0.001045328 0.0018835563 -0.0016781886 -0.0016232469 -0.0017511627 -0.00012392484
0.0048609013 0.001377983 -0.0007986554 -0.0031613463 -0.0015190004 0.00060725043 -0.0016419429 0.0011932456
-0.0013251697 0.0009921672 0.00052710465 0.0033106545 0.0013862898 -5.79702e-05 -0.00028455336 -1.2247286e-05
0.00027013363 0.00013422914 0.001063645 0.0043183235 0.0034783226 -0.00030034743 0.00058627257 0.0030834146
-0.007922503 -0.0033669402 -0.0037761084 -0.0039644926 -0.007107329 -0.012922762 -0.0014602885 0.010008556
-0.0093773585 -0.010225642 -0.00078822393 0.004044462 0.0014440914 -0.003727877 -0.0026904729 0.0006253882
0.0023527066 -0.00862321 0.0065484038 0.008977095 -0.0045188223 0.0032204748 0.0052599665 -0.015926454
0.011070442 -0.0024896814 -0.002400092 0.0025435835 0.0110521335 -0.002251767 -0.018994732 0.0015028965
0.0013268498 -0.0051395064 0.015309155 -0.0022978378 -0.00473419 0.0015573273 -0.0016833947 -0.0072209216
0.003726843 0.008760595 -0.0050578546 -0.0031893912 0.002029583 -0.007663068 0.004452155 0.011908365
-0.007633442 -0.005568381 0.005938349 0.013331545 -0.0005859068 -0.007592133 -0.006402558 -0.00094389933
-0.00684194 0.011522567 -0.0032686524 -0.0025958845 0.0020241197 -0.0008657884 0.006788365 0.0028884807
00000000: 1713 63bb f157 933b b0af caba ca1b c439
00000010: 63c8 853a 8d3e 65bb 66bf 06bb 2295 383b
00000020: a0b6 9ebb 5728 1dbb e802 42ba 58fe 743b
00000030: bd42 8638 d601 6c39 ef06 a1ba 25f0 d5ba
00000040: 5023 5cbb ef45 1f3b 363c c4ba 5e4c 953b
00000050: 946b bc37 1bf0 053b 5f31 15bc 1856 86bb
00000060: 692d 2dba 4882 03bb b906 5cba fd0f 8b3b
00000070: b059 fe3a 1c2d aebb 7809 083a 97c4 c339
00000080: 5a97 39ba 25e3 9aba 0e3f c43a dbfc 97b9
00000090: 14e8 8039 1b37 c2ba 3be0 503b c333 49bb
000000a0: dcea b1ba 26c3 fab9 4e6e 133b 9e99 c9b7
000000b0: 744c bbba 13b0 85bb e484 84ba db3a ab3b
000000c0: c0d1 dcba 39ac 88bb 0f8c 9c3a cec5 f33a
000000d0: 1665 07bb 37a4 a3bb c1dd 08bb 8b67 18bb
000000e0: a045 aeb9 79c3 703b 86fb be39 7fea f43b
000000f0: 4081 13ba 90fe a63a ff98 82ba 2e4e ee3a
00000100: d5c8 9537 3704 a93a 0f28 bf3a bbf1 fcba
00000110: b9ec 10bb 5fbf 5cba b4fa cfba a5ef 463b
00000120: 6f73 54bb 1160 eaba e906 94bb 7259 6d3b
00000130: b243 c3bb 5dbc 343b 373e 93b9 6f0d 4a3a
00000140: 8155 2b3b a12f c4bb 8d15 b339 6a21 923a
00000150: c03a a6b9 2b39 5cbb 4ee8 9fbb 82f8 60bb
00000160: 4850 ef3a 9c28 b03a 3e63 013b c4d2 2ebb
00000170: 0f95 da39 96bd 783b fcdf eeba a9ec a7bb
00000180: 58b4 ab38 2eb0 d23a 9b75 973a f9f0 0abb
00000190: 5c62 0fbb a523 c3bb 114e a9ba 15f4 943b
000001a0: 2948 aeba ed09 6639 2064 9cbb 2310 10bb
000001b0: 6ded a9ba f13a 94bb 9eba 95ba 44ea 1a3b
000001c0: 8159 d6ba 35bf 943a 322c 87ba 02f4 263b
000001d0: 386f 363a ba13 133a d062 d4bb 5e9e d03a
000001e0: 7e9b efba 1379 a53b 51d3 e6ba 005d 623b
000001f0: e12f 74b8 7b8a 9abb 510c 12bb 228c de38
00000200: 5ec4 c7ba d3e0 173b f674 4639 7df3 8bb9
00000210: c2ad 00bb 3257 c939 8046 01bb f3e9 39ba
00000220: c781 7c38 e434 0bbb 7bb9 c9ba 6430 ab3b
00000230: 512c 6eba b6a1 56ba 2584 8b3a 7e03 a23a
00000240: 381e 393a 8e2e bcbb 40ad 5fb6 e493 9cba
00000250: 5c40 6dbb d716 0e3b 32d5 9dbb 60fc 70bb
00000260: 5996 003b 8a62 87b9 22b1 e539 798b 0e39
00000270: ac15 203b 9f0a 97ba 746a 39bb ed80 dcb9
00000280: 6350 ae3a ded6 edb9 6303 893a a9e1 f63a
00000290: aaf6 dbba 21c3 d4ba 4587 e5ba d2f1 01b9
000002a0: 3248 9f3b 709d b43a db5c 51ba 972e 4fbb
000002b0: 3219 c7ba e32f 1f3a 7636 d7ba ae66 9c3a
000002c0: 51b1 adba 9b0b 823a 652d 0a3a 91f7 583b
000002d0: 2bb4 b53a 0725 73b8 1b30 95b9 b179 4db7
000002e0: b9a0 8d39 dcbf 0c39 016a 8b3a b980 8d3b
000002f0: 92f4 633b f377 9db9 16b0 193a 1d13 4a3b
00000300: 63cd 01bc e2a7 5cbb 9678 77bb 93e8 81bb
00000310: 99e4 e8bb feb9 53bc 2767 bfba edfa 233c
00000320: 7ea3 19bc 7389 27bc d0a0 4eba 6887 843b
00000330: ab47 bd3a 664f 74bb a552 30bb 17f1 233a
00000340: de2f 1a3b 5d48 0dbc fe93 d63b aa14 133c
00000350: a112 94bb 9a0e 533b cc5b ac3b 3278 82bc
00000360: cd60 353c ec29 23bb dd4a 1dbb 40b2 263b
00000370: 0214 353c 6292 13bb d79a 9bbc d7fc c43a
00000380: b1e9 ad3a 4e69 a8bb 40d3 7a3c 5297 16bb
00000390: 4421 9bbb 3c1f cc3a 5aa5 dcba 7b9d ecbb
000003a0: 0d3e 743b 9988 0f3c 5cbc a5bb 1b05 51bb
000003b0: c102 053b 791a fbbb 62e3 913b 4e1b 433c
000003c0: f421 fabb f776 b6bb 7b96 c23b 8d6c 5a3c
000003d0: 8a97 19ba 6dc7 f8bb 8dcc d1bb 0370 77ba
000003e0: 5a32 e0bb 26c9 3c3c e336 56bb b71f 2abb
000003f0: 18a7 043b 13f6 62ba ef70 de3b aa4c 3d3b

lstm.weight_hh_l1 f4 [256, 64]
-0.00508131 -0.00028052184 -0.0004679579 -0.001913892 -0.001431696 5.4046075e-05 0.0004606047 0.0034383154
-0.0014865348 -0.0007733782 0.0012723744 0.0010563122 -0.0033805748 0.0035391366 -0.0045386897 -0.0027411783
0.0033752746 -0.0024820354 0.002937703 0.0008332619 -0.0024330753 -0.00075877557 0.0058411835 0.00082213926
-0.0060417913 0.0022372773 0.0038270361 -2.7198981e-05 -0.0038232934 0.004565842 -0.0012713398 -0.0019149669
0.0032116065 -0.0025821947 0.0006769647 0.0004072761 -0.0009992573 -0.005700113 -0.0085730115 0.0015442321
-0.004677341 0.00069077796 -0.0033232477 0.00036040513 0.0025857042 0.0058226474 0.00040054886 0.0031677845
0.0005194523 -0.009013907 -0.0030175864 0.0026976138 -0.0014723727 0.0017179757 -0.0021917664 -0.0008930186
0.0005528185 -0.0012292218 -0.00018641901 -2.3310846e-05 -0.0007152698 0.0014744955 -0.00087608764 -0.003211916
0.008140977 -0.00015696611 0.0038957438 -0.0035600676 0.00393852 0.00019503258 -0.0020035447 -0.0052289166
0.0035935123 0.0009372123 -0.0065535563 -0.0026711088 -0.004662632 -0.0020013226 0.0056838556 0.011177772
-0.009776274 0.0062810886 0.0035615375 -0.0078049144 0.0016027589 0.0033657535 -0.007845229 0.0039217332
0.008309026 0.00047146535 -0.006880712 0.00015747022 -0.0019160174 -0.0075122016 0.0024351117 0.010247664
-0.002704426 0.0035645575 0.00047984908 -0.0012073573 0.0070288735 0.0065014865 -0.00071570923 -0.002417703
0.008585971 -0.00291872 0.005138664 0.00068835483 -0.0032159935 -0.004799661 0.0009814363 -0.005491139
-0.002103936 0.006144883 0.0029653567 -0.013208645 -0.002633358 0.0018351646 -0.007081634 0.008997256
0.00024045489 0.003716086 0.008988355 -0.0016056377 -0.00011166418 -0.00086149306 0.000429447 0.012757091
0.00058310566 -0.00045412366 0.001038981 0.00067090517 -0.00042469543 6.1518654e-06 -0.00018872705 -0.0022267187
0.0026980499 -0.00024550833 0.004001785 0.0019626527 0.0025192257 -0.00046363263 0.002083308 0.002425504
-0.0029939741 0.002767633 -0.0030567194 -0.0012339149 0.0006248756 5.8968348e-05 -0.0019926084 0.0071007577
0.0013270389 -0.0022152853 0.0016021794 0.0005639959 0.0018368536 -0.009232684 0.0014992098 0.0021106037
0.00068035757 0.0029730764 -0.0018057029 0.0013732889 0.0031773997 -0.001995772 -0.005072522 0.00021722646
-0.0014507949 -6.4679014e-05 -0.0018558512 -0.0002065125 0.00037844927 -0.0012651739 -0.002376938 -0.0037920421
0.0016748375 0.0012331163 0.0018551925 -0.0020203495 0.00031065312 -0.000131079 -0.0013578366 0.0017586378
0.0022111402 0.0021058249 0.0016932981 -0.0010955618 0.00018853032 -0.001154244 0.0003197492 0.0024302287
0.008377464 0.0030743943 -4.2655738e-05 -0.002187307 0.0028964276 -0.00064123486 -0.0027397468 -0.008813343
0.0145945465 0.0010404296 -0.0010714562 0.0055826274 -0.00056178495 -0.006921587 0.009515829 0.019952266
-0.017066851 0.014218846 -0.003698694 -0.007286021 0.0062351767 -0.0003876806 -0.004543382 0.017493388
0.006807558 -0.005210545 -0.00047546043 0.005360257 -0.002441424 -0.033070683 0.0073335404 0.0026490362
0.0024330446 0.009077633 -0.007513813 -0.006169767 0.014174505 -0.0038923877 -0.017136103 0.00083969976
0.005764405 8.993124e-05 0.0014090467 0.0006957622 -0.0002819359 -0.006464804 -0.004471097 -0.0126288235
0.002474837 7.82757e-05 0.0063443207 -0.00968533 0.0017248291 -0.0060148383 -0.0053136675 0.013503895
0.009337698 0.004147412 0.01288595 -0.0054295124 -0.00076503586 -0.0046236245 0.00042097687 0.023461834
00000000: 1e81 a6bb 0113 93b9 3f58 f5b9 8fdb faba
00000010: bfa7 bbba 88af 6238 517d f139 5c55 613b
00000020: d5d7 c2ba 88bc 4aba cdc5 a63a f573 8a3a
00000030: a28c 5dbb dcf0 673b 4ab9 94bb 57a5 33bb
00000040: b633 5d3b a5a9 22bb 7a86 403b 426f 5a3a
00000050: 3b74 1fbb 91e8 46ba 6667 bf3b d584 573a
00000060: 38fa c5bb 499f 123b 03cf 7a3b 5e29 e4b7
00000070: 3890 7abb 0f9d 953b 16a3 a6ba a0ff faba
00000080: d179 523b 0a3a 29bb 5576 313a ac87 d539
00000090: 83f9 82ba 03c8 babb d175 0cbc d567 ca3a
000000a0: 6144 99bb 5315 353a d8ca 59bb c2f4 bc39
000000b0: eb74 293b e8cb be3b c200 d239 9b9a 4f3b
000000c0: db2b 083a 11af 13bc b3c2 45bb 73ca 303b
000000d0: a1fc c0ba b32d e13a bda3 0fbb 7719 6aba
000000e0: 06eb 103a d71d a1ba 7979 43b9 a98b c3b7
000000f0: f280 3bba dc43 c13a 3fa9 65ba 027f 52bb
00000100: bb61 053c 4597 24b9 bc4f 7f3b 0650 69bb
00000110: b30e 813b a981 4c39 e74d 03bb 5557 abbb
00000120: 2281 6b3b 41af 753a 37bf d6bb c50d 2fbb
00000130: fec8 98bb 9f28 03bb a33f ba3b f922 373c
00000140: aa2c 20bc 97d1 cd3b af68 693b 5ec0 ffbb
00000150: aa13 d23a f993 5c3b 4689 00bc e281 803b
00000160: 9522 083c 022f f739 9977 e1bb 971e 2539
00000170: e022 fbba ea28 f6bb 6596 1f3b d1e5 273c
00000180: bd3c 31bb 5a9b 693b 4194 fb39 3040 9eba
00000190: 7752 e63b 6c0a d53b 6f9e 3bba 5372 1ebb
000001a0: 2cac 0c3c ff47 3fbb 3d62 a83b b672 343a
000001b0: 6bc3 52bb 7a46 9dbb 8aa3 803a 03ef b3bb
000001c0: 30e2 09bb 045b c93b 6e56 423b 1369 58bc
000001d0: 6a94 2cbb e889 f03a 0d0d e8bb 3a69 133c
000001e0: 9e22 7c39 9489 733b e543 133c 4374 d2ba
000001f0: 402d eab8 d2d5 61ba 6727 e139 1e03 513c
00000200: 8fdb 183a 7217 eeb9 6b2e 883a afdf 2f3a
00000210: a8a9 deb9 1f6c ce36 08e5 45b9 24ee 11bb
00000220: c4d1 303b 92b7 80b9 6821 833b d99f 003b
00000230: 9819 253b b813 f3b9 1c88 083b 34f5 1e3b
00000240: 8d36 44bb 2d61 353b 3e53 48bb 50bb a1ba
00000250: b1ce 233a c854 7738 6c96 02bb 79ad e83b
00000260: 09f0 ad3a 522e 11bb 3800 d23a 20d9 133a
00000270: 94c2 f03a af44 17bc 2281 c43a 0e52 0a3b
00000280: 065a 323a f2d7 423b 56ad ecba eeff b33a
00000290: ec3b 503b 7fcb 02bb 6637 a6bb 49c7 6339
000002a0: 9928 beba 48a4 87b8 0840 f3ba 478b 58b9
000002b0: 9a6a c639 31d4 a5ba 67c6 1bbb e983 78bb
000002c0: 3986 db3a 84a0 a13a ee29 f33a d767 04bb
000002d0: 28df a239 4072 09b9 70f9 b1ba 1882 e63a
000002e0: c7e8 103b e101 0a3b a8f1 dd3a f498 8fba
000002f0: 39b0 4539 004a 97ba 03a4 a739 7944 1f3b
00000300: a141 093c c77b 493b 40e9 32b8 ec58 0fbb
00000310: fed1 3d3b 8b18 28ba 538d 33bb d765 10bc
00000320: f71d 6f3c 065f 883a 1b70 8cba 79ee b63b
00000330: c044 13ba 7bce e2bb 48e8 1b3c ef72 a33c
00000340: c8cf 8bbc 2af6 683c ca65 72bb 93bf eebb
00000350: 7450 cc3b 9c41 cbb9 a7e0 94bb 4b4e 8f3c
00000360: ef11 df3b 38bd aabb 3847 f9b9 18a5 af3b
00000370: 4c00 20bb 2075 07bd 324e f03b 749b 2d3b
00000380: b773 1f3b 5aba 143c 6f36 f6bb c22b cabb
00000390: 2f3c 683c 6e17 7fbb 0361 8cbc 4c1f 5c3a
000003a0: 55e3 bc3b 7899 bc38 c3af b83a d063 363a
000003b0: ccd0 93b9 b5d6 d3bb 4882 92bb 20e9 4ebc
000003c0: e030 223b f227 a438 05e4 cf3b 38af 1ebc
000003d0: a913 e23a 1f18 c5bb 461e aebb 713f 5d3c
000003e0: 25fd 183c 03e7 873b 971f 533c 0dea b1bb
000003f0: b08c 48ba c681 97bb 8fb6 dc39 0833 c03c

lstm.bias_ih_l1 f4 [256]
0.049160812 0.058443956 0.055145964 0.12202967 0.041795067 0.001285254 0.0023212985 0.038982466
0.10797536 0.013841455 0.25253588 0.07409595 0.1490549 0.11072477 0.094718754 0.078215994
0.090751186 0.07690104 0.34001693 0.10960573 0.042247485 0.07362633 0.2449197 0.11500441
0.20170721 0.1231477 0.119810924 0.042171173 0.10176711 0.1976314 0.097454436 0.17436264
0.056808513 0.08806488 0.05667306 0.098048724 0.16148636 0.14051335 0.17750262 0.24687842
0.093731016 0.10001627 0.13165385 0.02087007 0.035849966 0.122081004 0.050295193 0.06507771
0.038699057 0.45921293 0.14042158 0.09295668 0.065084435 0.1622114 0.14061278 0.17371702
0.1499947 0.10291196 0.12338808 0.0053236494 0.040857885 0.012194365 0.025747722 0.08016482
0.0532808 -0.0038004639 -0.006309593 -0.016952198 0.009977114 -0.0009728855 -0.002643473 0.0041982587
0.011635366 -0.005964271 -0.04835071 0.009658409 -0.04166299 -0.007677083 0.016817348 0.07266541
0.023792407 0.0262632 -0.104913756 -0.020505244 -0.0026960922 -0.01892481 -0.017611295 0.09011269
-0.02954986 -0.04609021 0.0010736964 0.00065523945 -0.006691547 0.12709814 0.005094409 -0.016246635
0.012853909 0.01668016 0.022300098 0.03382425 0.00800759 -0.007948024 0.051061805 -0.044389907
0.041666772 -0.02242633 -0.014851429 -0.008674573 -0.015919872 -0.003971477 0.0073375106 -0.010202552
-0.013904246 -0.07728653 -0.013061951 0.017998302 -0.011845992 -0.010672662 -0.018879203 0.0040106755
-0.022116438 -0.0055578407 -0.024364375 0.0007026358 -0.009337808 -0.0068915654 -0.0068001575 0.08714171
-0.009580399 -0.0076609333 -0.04663076 -0.004568471 -0.0036999972 -0.03796789 -0.013018435 -0.0438385
-0.0143002765 0.050079267 0.09555061 -0.080229595 -0.055966787 -0.020808246 0.042309646 -0.039566807
-0.0089448765 0.06121264 0.021372266 0.07040447 -0.008971671 -0.030416656 0.119875334 0.11387298
0.08517036 -0.010033171 0.038349707 -0.032509997 -0.060581822 -0.05896671 0.001052259 -0.037341516
-0.05397972 0.028209226 0.05056081 -0.019578509 0.04089947 0.046751745 0.05431131 -0.015344308
0.002631347 0.008760677 0.031100793 0.0032698964 -0.0551098 -0.033658978 -0.01562682 0.00074587954
-0.05817332 0.078119144 -0.02103869 -0.064991325 -0.037554957 -0.052674096 0.0071005207 0.007158013
-0.062936194 0.03566765 0.025887514 -0.022915062 -0.06598897 0.03291292 -0.025802998 0.03613838
0.04799823 0.06060463 0.05180801 0.1144372 0.045614738 0.0012860543 0.0023806596 0.041883267
0.11079925 0.0139670605 0.28485504 0.077691324 0.15982291 0.1243004 0.10070559 0.09022464
0.09099741 0.080064416 0.34774962 0.1183466 0.04059075 0.07589789 0.2639128 0.12588915
0.2049233 0.12656906 0.13243437 0.053386442 0.10764226 0.19520293 0.116527885 0.18523498
0.06282799 0.0934609 0.050257817 0.10268313 0.17650913 0.15290104 0.1978817 0.25724778
0.11164221 0.10211288 0.13362738 0.020835849 0.035993893 0.1447716 0.06995112 0.06940515
0.03992279 0.47701052 0.16559303 0.09667472 0.0542492 0.17355824 0.16163474 0.16792127
0.16013172 0.105128124 0.13151053 0.005489175 0.04055262 0.012502657 0.026404584 0.10925456
00000000: d95c 493d ee62 6f3d bce0 613d b1ea f93d
00000010: 4e31 2b3d f875 a83a ed20 183b 14ac 1f3d
00000020: 2f22 dd3d 45c7 623c 624c 813e 9ebf 973d
00000030: d9a1 183e abc3 e23d e8fb c13d b52f a03d
00000040: c2db b93d 4b7e 9d3d b316 ae3e f878 e03d
00000050: b30b 2d3d 67c9 963d 3bcc 7a3e 6f87 eb3d
00000060: 568c 4e3e dd34 fc3d 6e5f f53d aebb 2c3d
00000070: 466b d03d e35f 4a3e 3196 c73d 1f8c 323e
00000080: 0bb0 683d 5c5b b43d 0322 683d c5cd c83d
00000090: ae5c 253e bbe2 0f3e 3fc3 353e b2cd 7c3e
000000a0: 0cf6 bf3d 55d5 cc3d 44d0 063e b6f7 aa3c
000000b0: 6ad7 123d 9b05 fa3d 5502 4e3d 7647 853d
000000c0: e782 1e3d f51d eb3e adca 0f3e 1260 be3d
000000d0: fd4a 853d bf1a 263e ccfc 0f3e e0e2 313e
000000e0: 3698 193e 81c3 d23d e4b2 fc3d 0272 ae3b
000000f0: 995a 273d e0ca 473c e3ec d23c 742d a43d
00000100: f83c 5a3d 3411 79bb b4c0 cebb 56df 8abc
00000110: 0d77 233c 3e09 7fba 1e3e 2dbb 8c91 893b
00000120: 43a2 3e3c ee6f c3bb 650b 46bd 4e3e 1e3c
00000130: d0a6 2abd 0a90 fbbb 89c4 893c 9ad1 943d
00000140: 4be8 c23c ec25 d73c 06dd d6bd 9dfa a7bc
00000150: ecb0 30bb 3408 9bbc 9045 90bc 018d b83d
00000160: 8c12 f2bc 17c9 3cbd 46bb 8c3a 60c4 2b3a
00000170: c444 dbbb 0426 023e 00ef a63b aa17 85bc
00000180: 3499 523c d5a4 883c b2ae b63c 4c8b 0a3d
00000190: 4432 033c 6e38 02bc 2f26 513d 31d2 35bd
000001a0: c7aa 2a3d 6cb7 b7bc 6853 73bc cc1f 0ebc
000001b0: 646a 82bc 2a23 82bb 806f f03b 9b28 27bc
000001c0: a2ce 63bc 6648 9ebd cb01 56bc 2d71 933c
000001d0: b115 42bc 64dc 2ebc 8fa8 9abc fc6b 833b
000001e0: 882d b5bc 8c1e b6bb cc97 c7bc 1731 383a
000001f0: 9bfd 18bc a4d2 e1bb dbd3 debb 5a77 b23d
00000200: 1bf7 1cbc 9108 fbbb e5ff 3ebd 1db3 95bb
00000210: a77b 72bb 3884 1bbd 464b 55bc 0090 33bd
00000220: b54b 6abc eb1f 4d3d 0ab0 c33d 6a4f a4bd
00000230: 6e3d 65bd 0e76 aabc e14c 2d3d ce10 22bd
00000240: 888d 12bc 1bba 7a3d e414 af3c 3830 903d
00000250: eafd 12bc 5a2c f9bc 3381 f53d 3d36 e93d
00000260: cc6d ae3d 2b62 24bc 9514 1d3d 3429 05bd
00000270: a524 78bd 1487 71bd f4eb 893a 6bf3 18bd
00000280: d719 5dbd 0917 e73c da18 4f3d 1c63 a0bc
00000290: 3486 273d c27e 3f3d 8975 5e3d b166 7bbc
000002a0: ad72 2c3b f188 0f3c 17c7 fe3c c24b 563b
000002b0: d0ba 61bd ffdd 09bd d103 80bc 2187 433a
000002c0: 2647 6ebd eefc 9f3d 5559 acbc 2c1a 85bd
000002d0: 3ad3 19bd cbc0 57bd 7cab e83b c48d ea3b
000002e0: b1e4 80bd 3e18 123d 0d12 d43c 5eb8 bbbc
000002f0: 3a25 87bd b3cf 063d cf60 d3bc d705 143d
00000300: cb99 443d 8f3c 783d a334 543d 0d5e ea3d
00000310: 85d6 3a3d d290 a83a d704 1c3b ca8d 2b3d
00000320: b8ea e23d 19d6 643c 85d8 913e a11c 9f3d
00000330: 9ea8 233e 3591 fe3d bb3e ce3d b2c7 b83d
00000340: da5c ba3d d0f8 a33d 3d0c b23e b45f f23d
00000350: 7c42 263d 5a70 9b3d 941f 873e 16e9 003e
00000360: 6ad7 513e 529b 013e e09c 073e beab 5a3d
00000370: 8c73 dc3d 47e3 473e 2ca6 ee3d 3dae 3d3e
00000380: f6ab 803d 6e68 bf3d 24db 4d3d 884b d23d
00000390: cfbe 343e 1792 1c3e 80a1 4a3e fbb5 833e
000003a0: aca4 e43d 8f20 d13d 9ed5 083e f1af aa3c
000003b0: 556e 133d 023f 143e 8842 8f3d 4a24 8e3d
000003c0: 1486 233d b93a f43e 3891 293e 65fd c53d
000003d0: 6934 5e3d 40b9 313e 9483 253e 8ef3 2b3e
000003e0: 92f9 233e 6a4d d73d b2aa 063e 8ade b33b
000003f0: 811a 263d f2d7 4c3c 6d4e d83c dbc0 df3d
