LSTM/model_recursion/best_epoch_model_96_layer4.pth (torch, 296258 bytes, 18 tensors)

lstm.weight_ih_l0 f4 [200, 7]
0	0x3e512804	0.20425421
1	0x3cfb7cd1	0.030699166
2	0x3decbc7a	0.115593866
3	0xbdf20474	-0.118172556
4	0x3d70c4e7	0.05878153
5	0xbdf1d7dc	-0.1180875
6	0xbdbb413f	-0.09143304
7	0x3e587126	0.21136913
8	0xbdc535d9	-0.09629411
9	0x3e044c09	0.1291963
10	0xbdc74d40	-0.09731531
11	0xbdda8c1d	-0.10671256
12	0xbea4a999	-0.32160643
13	0xbe70dda5	-0.2352205
14	0x3cd790e5	0.026314208
15	0x3cd16708	0.025561824
16	0x3cb2ef5f	0.021842657
17	0x3dde4208	0.10852438
18	0xbd301793	-0.042991232
19	0x3d176d87	0.036969688
20	0x3e3e6f03	0.18597035
21	0x3d30f837	0.043205466
22	0x3da7fe2d	0.08202777
23	0xbd97838d	-0.07398138
24	0xbdde22c5	-0.108464755
25	0x3b90e19c	0.004421426
26	0x3df9bd10	0.12194264
27	0xbb48867c	-0.0030597737
28	0x3ddf5e1d	0.109066226
29	0xbe0195d2	-0.12654808
30	0x3de8e451	0.11371673
31	0xbe6d0848	-0.2314769
32	0x3cf6bf3a	0.03012048
33	0xbd3204dd	-0.04346167
34	0xbd78c603	-0.060735714
35	0x3dbb7115	0.09152428
36	0x3e3a6f4c	0.18206519
37	0x3e10e74a	0.1415073
38	0x3e01f1fa	0.12689963
39	0x3d33e51d	0.04391967
40	0xbdf068e0	-0.11738753
41	0xbed6ac28	-0.4192822
42	0xbd82db84	-0.063895255
43	0x3be9dc8e	0.007136888
44	0x3c56bee5	0.013107036
45	0xbe285f14	-0.1644252
46	0x3dd60a92	0.10451235
47	0x3d8b159f	0.06791233
48	0xbe750e04	-0.23931128
49	0x3e4d1ee1	0.2003131
50	0xbd8f72f8	-0.070043504
51	0x3e14b176	0.14520821
52	0x3de3d4f9	0.11124606
53	0x3d4731a1	0.048631314
54	0xbddfd3f8	-0.10929102
55	0x3d90ba57	0.070667915
56	0xbd5bf96a	-0.053704657
57	0xbe37240c	-0.17884845
58	0x3e107de0	0.14110518
59	0xbdd07c2b	-0.10179933
60	0xbdc7aa3a	-0.09749265
61	0xbb81e933	-0.003964567
62	0x3e1aeb65	0.15128858
63	0x3e36952e	0.17830345
64	0xbe290108	-0.165043
65	0x3e30c872	0.17263964
66	0x3b50349b	0.0031769637
67	0xbe27a6c1	-0.16372205
68	0xbd9720d3	-0.073793076
69	0xbd27a762	-0.040931113
70	0x3e073243	0.13202767
71	0xbd3a15ac	-0.045430824
72	0x3e2435ee	0.16036198
73	0xbdd0e032	-0.10199012
74	0x3d126761	0.03574312
75	0x3df612dd	0.12015317
76	0xbcf70e6f	-0.03015825
77	0x3df2a56c	0.11847958
78	0xbdeb0b22	-0.11476733
79	0x3e27159c	0.16316837
80	0xbdf6a4ce	-0.12043153
81	0xbe57b83a	-0.2106637
82	0xbcf3b1f2	-0.029747937
83	0xbc7303ac	-0.014832418
84	0xbc64fa1f	-0.013975649
85	0xbd73ad69	-0.05949155
86	0x3e10cf25	0.1414152
87	0xbd9a2881	-0.07527257
88	0x3df4fa0c	0.11961755
89	0x3e476064	0.19470364
90	0x3d936031	0.071960814
91	0x3d45e9ed	0.048318792
92	0x3c185263	0.009296986
93	0x3e8535ec	0.26017702
94	0xbe0ee59d	-0.13954778
95	0xbe31f9bb	-0.17380421
96	0x3dd751c0	0.105136395
97	0xbe00c704	-0.12575918
98	0x3d294064	0.041321173
99	0xbe75e987	-0.24014865
100	0x3ddfc21d	0.10925696
101	0xbdc81e4f	-0.09771406
102	0xbc30ca3f	-0.010790407
103	0xbd2d46fb	-0.04230402
104	0x3d6f98a7	0.05849519
105	0x3dc7e44b	0.0976034
106	0x3c0517b7	0.00812333
107	0x3e69d244	0.22834116
108	0xbdd35bff	-0.10320281
109	0xbd842169	-0.06451685
110	0xbe888471	-0.26663545
111	0xbda32fed	-0.079681255
112	0x3d342e50	0.04398948
113	0x3dd71290	0.105015874
114	0x3e0982df	0.1342883
115	0x3e26be94	0.16283637
116	0x3ddbd0bc	0.10733172
117	0x3e01e9fe	0.12686917
118	0xbe250f54	-0.16119128
119	0x3d67977d	0.056540955
120	0xbd8e3e7d	-0.069455124
121	0x3d0ff034	0.035141185
122	0xbda14ceb	-0.07875999
123	0x3d7b55fb	0.061361294
124	0xbd0e38d4	-0.034722164
125	0xbe2ecb70	-0.17069793
126	0x3e67f173	0.226507
127	0xbd1017ae	-0.035178833
128	0x3bb78054	0.0056000147
129	0x3d7f9acf	0.062403496
130	0x3e1c4fff	0.15264891
131	0x3ddfdbc4	0.10930589
132	0xbe3fd891	-0.18734957
133	0x3d4ce4e7	0.050022986
134	0x3e4bab05	0.19889458
135	0xbcc7dcc3	-0.02439726
136	0x3e51d228	0.20490324
137	0x3e0f1f31	0.13976742
138	0x3d510ca2	0.05103744
139	0xbe285fd3	-0.16442804
140	0x3c57a688	0.013162263
141	0xbde5701b	-0.11203023
142	0xbb8bc6d3	-0.004265645
143	0xbd29698d	-0.041360427
144	0xbd1d5a42	-0.038416155
145	0xbb82840f	-0.003983028
146	0xbdb7f1d8	-0.08981675
147	0x3d997a05	0.074939765
148	0xbe143ddf	-0.14476727
149	0x3c8fe85a	0.017566849
150	0xbe1a3cef	-0.15062307
151	0xbdd9c212	-0.10632719
152	0xbdcd1339	-0.10013432
153	0xbd199b77	-0.03750178
154	0xbcbc63bd	-0.022996778
155	0x3d93f500	0.072244644
156	0x3cf6fc41	0.03014958
157	0xbe17ef97	-0.1483749
158	0xbd665ffc	-0.05624388
159	0xbda77b85	-0.08177856
160	0xbd64b8af	-0.05584019
161	0x3e14f789	0.14547552
162	0xbcad2622	-0.021136347
163	0x3e612d10	0.21989846
164	0xbdee14de	-0.11625074
165	0xbd77216e	-0.060334615
166	0x3e4d3e09	0.20043196
167	0x3e409658	0.18807352
168	0x3e4fe378	0.20301616
169	0xbda6acb1	-0.08138407
170	0x3d47eb3b	0.048808318
171	0x3dce086c	0.100602
172	0x3d259d1e	0.04043304
173	0xbd0ee375	-0.03488489
174	0xbcbdc1f6	-0.023163777
175	0xbbacb005	-0.0052700066
176	0xbe814304	-0.2524644
177	0x3e09a178	0.13440502
178	0xbe732ab1	-0.23746754
179	0x3ddade9a	0.10686989
180	0xbe6544c4	-0.22389513
181	0x3b338924	0.0027394975
182	0xbdaf1f39	-0.08550877
183	0x3e7d5584	0.24739653
184	0x3dc31c35	0.095268644
185	0x3e82a61f	0.25517365
186	0xbef7804b	-0.48340067
187	0xbe4f5b22	-0.20249608
188	0xbebb62bb	-0.36598763
189	0xbe1d644b	-0.1537029
190	0xbe4c0339	-0.19923104
191	0xbe28ce80	-0.16485023
192	0xbd2ed8ea	-0.042687334
193	0xbb3e9b99	-0.0029084443
194	0x3da04622	0.07825877
195	0xbe151082	-0.14557078
196	0xbd90703e	-0.070526585
197	0x3d781bed	0.060573507
198	0xbd9fd3f6	-0.078041
199	0xba557222	-0.0008142312
200	0xbbb3c924	-0.0054866243
201	0x3e1e3cbd	0.15452857
202	0x3de758f3	0.112962626
203	0xbd576192	-0.052583285
204	0x3e354951	0.17703749
205	0x3d21466d	0.039373804
206	0x3dc6bd41	0.09704066
207	0xbecbb6a8	-0.39787793
208	0xbe5615d3	-0.20906763
209	0xbe5b7b12	-0.21433666
210	0x3eaf0aea	0.34188014
211	0xbe0d0b22	-0.13773778
212	0x3e6ed9a2	0.23325208
213	0x3ccafd29	0.02477892
214	0xbe252877	-0.16128717
215	0xbd1a98af	-0.037743267
216	0xbe0f8e83	-0.14019208
217	0xbe1f0466	-0.15529022
218	0xbc9e707d	-0.019340748
219	0xbd57a573	-0.05264802
220	0xbdd24c8e	-0.10268508
221	0xbdd2b290	-0.10287964
222	0xbd95fdf7	-0.073238306
223	0x3dab119d	0.08352969
224	0x3de9cbed	0.11415849
225	0xbe335f30	-0.1751678
226	0x3cb782ed	0.022401297
227	0xbe673b69	-0.22581257
228	0x3de942b5	0.113896765
229	0x3d412562	0.04715479
230	0x3dec8d0b	0.11550339
231	0xbe0c3f41	-0.13696004
232	0xbe8174d4	-0.25284445
233	0xbe0325d9	-0.12807406
234	0xbd970d4e	-0.073755845
235	0xbcf64e0a	-0.030066509
236	0xbe71f7f9	-0.2362975
237	0xbd830792	-0.06397928
238	0xbd3bbdad	-0.045835186
239	0x3d3f4843	0.046699774
240	0x3cc255dc	0.023722582
241	0x3dad330e	0.084570035
242	0x3dcddd1d	0.1005194
243	0x3e1df61c	0.15425915
244	0x3e057273	0.1303194
245	0x3e4b628c	0.19861811
246	0xbe3bb0b9	-0.18329133
247	0x3e945c1a	0.28976518
248	0xbdfcc7fd	-0.12342832
249	0xbe0b9545	-0.1363116
250	0x3dcdc9c8	0.10048252
251	0x3dcfec7c	0.10152528
252	0x3c9a59fd	0.018841738
253	0xbe323aa7	-0.17405187
254	0x3d5c9d06	0.053860687
255	0xbe3cd2c1	-0.18439771

lstm.weight_hh_l0 f4 [200, 50]
0	0xbdfcf4d1	-0.123513825
1	0x3df9abf7	0.12191003
2	0x3d809b43	0.06279614
3	0x3cafaa72	0.02144358
4	0xbdb3a83d	-0.08772323
5	0x3e061c31	0.13096692
6	0xbdd503e7	-0.10401135
7	0x3e630e0b	0.22173326
8	0xbda8616e	-0.08221708
9	0x3df9d7a2	0.12199332
10	0xbd48cd47	-0.049023893
11	0x3c371e84	0.011176709
12	0xbe748217	-0.2387775
13	0xbd4f738f	-0.050647315
14	0x3d5e99ed	0.054346014
15	0x3e718ccc	0.23588866
16	0xbe67477f	-0.22585867
17	0xbd0e912b	-0.03480641
18	0x3e521a9e	0.20517966
19	0xbe074818	-0.13211095
20	0xbd3d70ed	-0.046250273
21	0xbde390da	-0.111116126
22	0x3ddb7cae	0.1071714
23	0xbd4f5762	-0.050620444
24	0x3d112c1c	0.035442457
25	0x3de8da0c	0.11369714
26	0x3d0d3692	0.03447587
27	0x3d912aa3	0.070882104
28	0xbd5a2f5e	-0.05326783
29	0x3e83be36	0.25731057
30	0x3c3ba000	0.011451721
31	0xbdfd41ac	-0.123660415
32	0xbdc89d61	-0.09795643
33	0xbdf2dbf8	-0.11858362
34	0xbbf3d0fa	-0.0074406834
35	0x3dce713c	0.100801915
36	0x3df57ec5	0.1198707
37	0x3d8f5a55	0.06999651
38	0x3c6f92cd	0.014622402
39	0x3bb18aef	0.0054181735
40	0xbd3ad22f	-0.045610603
41	0x3d7ba64c	0.06143789
42	0xbd3fcc69	-0.0468258
43	0x3ddc8336	0.10767214
44	0x3e1385be	0.14406487
45	0xbe3f966a	-0.18709722
46	0x3db4bc11	0.08824933
47	0xbdc1b03f	-0.094574444
48	0x3d0ec972	0.034860082
49	0xbe0b9453	-0.136308
50	0xbc8c2903	-0.0171094
51	0xbd935cc1	-0.07195426
52	0xbe33f006	-0.1757203
53	0xbc0a6b1c	-0.008448388
54	0x3cd95468	0.026529506
55	0xbd130548	-0.03589371
56	0xbdf5451b	-0.119760714
57	0x3e088aca	0.13334194
58	0xbdc2de0f	-0.095150106
59	0x3ca9001b	0.020629933
60	0x3bbbb72d	0.0057286234
61	0xbb25b0bf	-0.002528235
62	0x3d28f459	0.041248653
63	0x3df7c917	0.12098902
64	0x3da164bf	0.07880544
65	0x3dfacbf2	0.12245931
66	0x3d1ca750	0.0382455
67	0xbe10f6df	-0.14156674
68	0xbc27adb8	-0.010234289
69	0xbe28f542	-0.16499808
70	0x3de06ba4	0.10958031
71	0xbd88c217	-0.06677645
72	0xbe66567f	-0.22493933
73	0xbe355af0	-0.17710471
74	0xbd86bfea	-0.065795735
75	0x3e12e534	0.14345247
76	0xbd540b81	-0.051768783
77	0xbd271705	-0.040793438
78	0xbd874b2b	-0.06606134
79	0xbbebafd3	-0.0071925907
80	0xbe305f47	-0.17223845
81	0xbd8cf992	-0.06883539
82	0x3dc3bef1	0.095579036
83	0xbdcc3aaa	-0.09972127
84	0x3d18f0b0	0.037338912
85	0x3d9fb620	0.077984095
86	0xbe058bd8	-0.13041627
87	0x3cac0056	0.020996254
88	0x3de2e001	0.110778816
89	0x3cff899d	0.031193549
90	0xbd8ca9c1	-0.068683155
91	0xbd17bdbd	-0.037046183
92	0xbccd51b9	-0.025063382
93	0x3a12d405	0.00056010514
94	0x3daac621	0.08338571
95	0xbdae3dae	-0.08507858
96	0xbe1ad296	-0.15119395
97	0xbdeed4aa	-0.11661656
98	0xbca70a63	-0.020390695
99	0xbdb606c0	-0.08888006
100	0xbdb370f5	-0.08761779
101	0xbd66742f	-0.056263145
102	0xbdb32a30	-0.08748281
103	0x3d9e4e2c	0.07729754
104	0x3b9455b2	0.0045268172
105	0x3d40b7ee	0.04705041
106	0x3ddbc131	0.10730208
107	0xbd9e165d	-0.07719109
108	0xbdbc41d5	-0.09192244
109	0xbc8464bf	-0.01616132
110	0x3d36199b	0.044458013
111	0xbddf3270	-0.10898292
112	0x3da5ed1e	0.08101867
113	0x3df86a19	0.121296115
114	0x3dec8ea2	0.115506425
115	0x3d1286f7	0.035773244
116	0xbdb1d85e	-0.08683847
117	0xbe51f6af	-0.20504259
118	0x3d719b24	0.058985844
119	0xbd816ba1	-0.06319357
120	0xbdc3919d	-0.09549258
121	0xbd5baf8e	-0.05363422
122	0x3d5f8e5f	0.054579135
123	0xbd817f44	-0.06323102
124	0x3d2240f0	0.03961271
125	0x3e0875ca	0.13326183
126	0xbe1f12ac	-0.15534467
127	0x3d92bd0e	0.071649656
128	0x3c408bca	0.011752078
129	0x3dce6c49	0.100792475
130	0xbcf1d82d	-0.029522026
131	0x3da101ad	0.07861648
132	0x3dc25bff	0.09490203
133	0xbdea3fb9	-0.114379354
134	0x3da11382	0.07865049
135	0xbd8d3cce	-0.06896363
136	0x3dfc3179	0.12314124
137	0xbdcffefa	-0.10156055
138	0xbdc9d422	-0.09854914
139	0xbd21a990	-0.039468348
140	0xbe1cd0f8	-0.1531409
141	0x3d8ba37c	0.068182915
142	0xbcb9f001	-0.02269745
143	0xbd8437cf	-0.06455957
144	0x3e01da74	0.1268099
145	0x3dc2c3f0	0.09510028
146	0x3dde893f	0.10866021
147	0xbdc1b5a0	-0.0945847
148	0x3d4388f6	0.047738038
149	0x3c2fab65	0.010722016
150	0xbda74485	-0.08167366
151	0xbdb7f84e	-0.08982907
152	0x3c724547	0.014787025
153	0x3e2a5ff7	0.1663817
154	0xbc5f780b	-0.01363946
155	0x3e06d260	0.13166189
156	0x3d6a7b1f	0.057246324
157	0xbe281c91	-0.16417147
158	0xbd2403ca	-0.040042676
159	0xbe4230ad	-0.18963881
160	0xbe7f2d43	-0.2491961
161	0x3e41b2d5	0.18915875
162	0x3e26bb7c	0.16282457
163	0xbe55af77	-0.20867716
164	0xbde47e02	-0.111568466
165	0x3c1d9386	0.009617692
166	0xbd70f87c	-0.058830723
167	0x3dd35f50	0.10320914
168	0x3b171230	0.0023051612
169	0xbe0c69c1	-0.13712217
170	0xba942131	-0.0011301396
171	0xbddcd825	-0.10783414
172	0x3d913970	0.070910335
173	0x3e2e99b5	0.17050822
174	0x3d78d701	0.06075192
175	0x3c1074a5	0.008816873
176	0xbe07f23b	-0.13275997
177	0x3e2e37be	0.17013451
178	0x3d807b0b	0.062734686
179	0x3e47b935	0.19504245
180	0x398f4dc6	0.0002733303
181	0xbd6b1fc6	-0.05740335
182	0xbdd47f10	-0.10375798
183	0xbde0201b	-0.10943624
184	0x3b760b42	0.0037543331
185	0xbe09cca2	-0.13456967
186	0x3a932690	0.0011226702
187	0x3d99147d	0.07474611
188	0x3e64a617	0.22328983
189	0xbdac4802	-0.08412172
190	0x3d9cca5a	0.07655783
191	0xbdc33b71	-0.09532822
192	0xbd9853f4	-0.07437888
193	0xbd9bf532	-0.07615127
194	0x3e19ea46	0.15030774
195	0x3e16c781	0.14724542
196	0x3ca1e7d5	0.019763866
197	0xbdcfe1ca	-0.10150488
198	0xbd964db3	-0.07339039
199	0x3ded4057	0.115845375
200	0xbdd12ccd	-0.10213623
201	0x3dcc5306	0.09976773
202	0xbe2686ab	-0.16262309
203	0x3e0499ec	0.12949342
204	0xbe34df8e	-0.17663404
205	0x3ccd386a	0.025051314
206	0xbe29b587	-0.16573153
207	0xbc052be9	-0.008128145
208	0x3da0a355	0.07843653
209	0x3ce979b7	0.028500421
210	0xbdfd0898	-0.12355155
211	0xbe1f8640	-0.15578556
212	0xbc617750	-0.0137613565
213	0x3d29e274	0.04147573
214	0x3e7d6ec1	0.2474928
215	0x3e6c3a6c	0.23069161
216	0xbd5d8add	-0.05408751
217	0xbdc8b313	-0.09799781
218	0x3e9c01ef	0.30470225
219	0x3d1358f0	0.03597349
220	0xbdf3fcee	-0.11913477
221	0x39a5ff05	0.00031661257
222	0xbcc0a871	-0.02351782
223	0x3dd4d0be	0.10391377
224	0xbc789e5c	-0.015174475
225	0x3e22a0ac	0.15881604
226	0xbda8a2ad	-0.08234153
227	0x3cb0fdd1	0.021605404
228	0x3dab9858	0.08378667
229	0x3d510fb4	0.051040366
230	0xbea37b52	-0.31930023
231	0xbe5cc76f	-0.21560453
232	0xbbb99ce9	-0.005664457
233	0xbe2e631e	-0.17029998
234	0x3db0d56d	0.08634458
235	0x3e10a3ac	0.14124936
236	0x3e0f8d2d	0.14018698
237	0x3d94093c	0.07228324
238	0xbcc8a697	-0.024493499
239	0xbe2e72ff	-0.17036055
240	0xbe2d2b20	-0.16910982
241	0xbc0700dc	-0.008239951
242	0xbe29e882	-0.16592601
243	0x3d105c4a	0.035244264
244	0x3e72a9e5	0.23697622
245	0xbd10a633	-0.03531475
246	0xbdb70c73	-0.089379214
247	0xbdaf8bf0	-0.08571613
248	0xbcfc183d	-0.030773276
249	0xbea16c83	-0.315281
250	0xbdaf177b	-0.085494004
251	0x3eb969d4	0.36213553
252	0xbd0605fe	-0.03272056
253	0x3e3958e4	0.18100315
254	0xbd80fe4d	-0.06298504
255	0x3e5cffd3	0.21581964

lstm.bias_ih_l0 f4 [200]
0	0x3e8c34d2	0.2738405
1	0x3cb98051	0.022644194
2	0x3dbca9ea	0.09212096
3	0x3e0273f9	0.12739553
4	0x3bfd7418	0.0077347867
5	0x3e5a8fb6	0.21343884
6	0xbc31cfad	-0.010852736
7	0x3e1ddae4	0.15415531
8	0x3cf209d2	0.029545698
9	0x3e9c3184	0.30506527
10	0xbc522da7	-0.012828267
11	0x3ddf2e1b	0.10897466
12	0xbdbe59b0	-0.0929445
13	0x3e939b00	0.28829193
14	0xbdbf0a00	-0.09328079
15	0x3e1ec79e	0.15505835
16	0x3e30e930	0.17276454
17	0x3d6b9722	0.05751718
18	0x3e11cb87	0.14237796
19	0x3e4ed93a	0.20200053
20	0x3c529468	0.012852766
21	0x3d8740f6	0.06604187
22	0x3d861790	0.06547463
23	0x3ea3dc9d	0.32004252
24	0x3e378a39	0.17923822
25	0xbbdaced2	-0.006677487
26	0x3f0763b4	0.5288651
27	0x3e486ae2	0.19572023
28	0xbd487fb2	-0.048949905
29	0x3ecfcd4e	0.40586323
30	0x3ea73a37	0.32661602
31	0x3df00af8	0.11720842
32	0x3e351154	0.17682391
33	0x3d508b39	0.050914023
34	0xbdc16831	-0.09443701
35	0xbdbb00dc	-0.09131023
36	0xbd1f2b98	-0.038859934
37	0x3e3d75a8	0.18501914
38	0x3e066adb	0.131267
39	0x3e3e6ad9	0.18595447
40	0x3d03882a	0.032112278
41	0x3e225f0f	0.15856574
42	0x3e0280cc	0.12744445
43	0x3c643586	0.013928777
44	0x3ed3901a	0.41320878
45	0x3e892668	0.26787114
46	0xbc92db67	-0.017926885
47	0x3da2b727	0.0794509
48	0x3e661bc0	0.22471523
49	0x3daba49e	0.083810076
50	0xbe09a2a6	-0.13440952
51	0xbd87feb2	-0.06640376
52	0xbdea9b6f	-0.11455428
53	0x3d9f4165	0.07776145
54	0xbb5201bd	-0.0032044493
55	0xbcae275b	-0.021259
56	0xb98d55b1	-0.0002695746
57	0xbd3fa075	-0.046783883
58	0xbe1424f8	-0.14467227
59	0xbe3fd23f	-0.18732546
60	0x3d909009	0.070587225
61	0x3dbaf08b	0.09127911
62	0xbe1f4701	-0.1555443
63	0xbd816f67	-0.063200764
64	0xbcea5762	-0.02860612
65	0x3deac693	0.11463656
66	0xbe555b42	-0.20835593
67	0x3cc36fe6	0.023857068
68	0x3d2166ab	0.039404552
69	0xbe11ef32	-0.14251402
70	0x3d4f68e4	0.05063714
71	0x3d0710a1	0.032974843
72	0xbe31787e	-0.1733112
73	0xbddf1ffd	-0.10894773
74	0x3c178d77	0.009250036
75	0xbdd1da4d	-0.10246716
76	0xbe7c1dad	-0.24620695
77	0xbdd2e96d	-0.10298429
78	0xbd94a3d5	-0.07257811
79	0xbdbf33e7	-0.093360715
80	0xbdea910c	-0.11453447
81	0x3e2e1d24	0.17003304
82	0xbdde0e9d	-0.10842631
83	0xbd2f82f0	-0.04284948
84	0x3d434c3e	0.047680132
85	0xbce4ac14	-0.027914084
86	0x3d1dc069	0.038513575
87	0xbe0cf4e1	-0.13765289
88	0x3db150e4	0.08658007
89	0x3d9bffc9	0.076171465
90	0xbd816b1c	-0.063192576
91	0xbdf5ba2c	-0.119984
92	0x3d223d9c	0.039609537
93	0xbdea9761	-0.114546545
94	0xbb225e14	-0.0024775313
95	0xbdf1eb9b	-0.11812516
96	0x3dea4d0d	0.114404775
97	0xbe1ca2b6	-0.15296444
98	0xbe698117	-0.2280315
99	0xbdf23b13	-0.11827674
100	0xbd22c7f0	-0.039741457
101	0x3dad88c1	0.08473349
102	0x3cc41724	0.023936816
103	0x3da214f1	0.079141505
104	0xbca88070	-0.020569056
105	0x3cdcb8d8	0.02694361
106	0xbd571d5f	-0.052518245
107	0x3ce82c0f	0.028341321
108	0xbdb89c7f	-0.09014224
109	0x3d079761	0.03310335
110	0xbd8648d5	-0.0655686
111	0x3da3a22d	0.07989917
112	0xbc823374	-0.015893675
113	0x3c2f7814	0.010709781
114	0x3c99393b	0.018704047
115	0x3cbce6de	0.023059305
116	0xbc666bd0	-0.01406379
117	0xbda955b6	-0.08268301
118	0x3d9de7d6	0.07710235
119	0x3b6853d6	0.003545036
120	0xbd75a147	-0.05996826
121	0x3dbe85a8	0.09302837
122	0xbcfa6682	-0.030566458
123	0x3d98617a	0.07440467
124	0xbcd78d59	-0.026312517
125	0x3c713435	0.01472192
126	0xbddd50ca	-0.10806425
127	0x3ddee6c0	0.10883856
128	0x3d88e543	0.06684353
129	0x3e135828	0.14389098
130	0xba517561	-0.0007990208
131	0xbc4bb48d	-0.012433183
132	0xbe124a8f	-0.14286254
133	0xbb2e2a5d	-0.0026575543
134	0x3de39358	0.11112088
135	0xbdac88c9	-0.08424527
136	0x3da0b240	0.078464985
137	0x3cea99d5	0.028637806
138	0x3d0b75bd	0.03404783
139	0xbce001e0	-0.027344644
140	0xbd35b8f0	-0.044365823
141	0xbd66e19a	-0.056367494
142	0x3d2273bc	0.039661154
143	0xbd96d3e0	-0.07364631
144	0x3dc010c5	0.093781985
145	0xbd1ca854	-0.038246468
146	0xbc86d814	-0.016460456
147	0xbd34e02b	-0.044159096
148	0x3cb67427	0.022272183
149	0x3d0d37bb	0.034476977
150	0x3de6b176	0.11264317
151	0x3dd6813e	0.1047387
152	0x3d33e820	0.043922544
153	0x3d845037	0.06460612
154	0x3d89c197	0.067263775
155	0x3ec68950	0.38776636
156	0x3db621e8	0.08893186
157	0x3e95ecb7	0.29282162
158	0x3d9b5434	0.0758442
159	0x3e1c5770	0.1526773
160	0x3cd6dc16	0.026227992
161	0x3e078b56	0.13236746
162	0x3e16a87d	0.1471271
163	0x3e2eabcf	0.17057727
164	0x3df8002d	0.121094085
165	0x3e84949a	0.25894624
166	0xbd12188e	-0.03566795
167	0x3e1674f3	0.1469305
168	0x3dc29a63	0.09502103
169	0x3daed98d	0.08537588
170	0xbcafb5cd	-0.021448994
171	0x3dec2113	0.11529746
172	0x3d05d8bc	0.032677397
173	0x3ea04e8c	0.31309927
174	0x3e4bb18a	0.19891945
175	0x3b79bc0c	0.003810647
176	0x3f0729e9	0.52798325
177	0x3dc835a6	0.097758576
178	0x3bb2f757	0.005461614
179	0x3ef06217	0.46949837
180	0x3f11a65c	0.5689447
181	0x3d71ac64	0.059002295
182	0x3e40b1d2	0.18817833
183	0xbcef75da	-0.029231
184	0x3c692227	0.014229334
185	0xbdb59b5d	-0.08867524
186	0xb960ca28	-0.00021437614
187	0x3e08fca4	0.13377625
188	0x3e45757f	0.19283102
189	0x3e3d412f	0.18481897
190	0x3c9133fb	0.017724982
191	0x3de1cd22	0.11025454
192	0x3d489ffa	0.04898069
193	0xbca6b614	-0.020350493
194	0x3e558d83	0.20854764
195	0x3e747e12	0.23876217
196	0x3dedf50c	0.116190046
197	0x3d4cee2c	0.050031826
198	0x3e703272	0.23456743
199	0x3df2eb74	0.11861315

lstm.bias_hh_l0 f4 [200]
0	0x3da2f075	0.0795602
1	0x3df6a368	0.12042886
2	0x3dea0005	0.11425785
3	0xbbf276f8	-0.007399436
4	0x3dcd156f	0.10013854
5	0x3e2d6bda	0.16935673
6	0xbde3523f	-0.110996716
7	0x3e821c19	0.25412062
8	0x3d01cbc7	0.031688478
9	0x3e54727b	0.20746796
10	0x3e236b86	0.15958986
11	0x3e196421	0.14979602
12	0x3dfbd421	0.1229632
13	0x3e86a4b7	0.26297542
14	0xbd7bfb0f	-0.061518725
15	0x3cf5bf73	0.029998517
16	0x3d85c99f	0.06532597
17	0x3e6001f0	0.21875739
18	0x3e0fa8ec	0.14029282
19	0x3e0d043b	0.13771145
20	0x3e360fae	0.17779419
21	0x3c87934a	0.016549725
22	0x3d7dbde9	0.06194869
23	0x3e7d6035	0.24743731
24	0x3dc3ea82	0.09566213
25	0xbd5fa114	-0.054596975
26	0x3f1ff261	0.62479216
27	0x3da22e32	0.07918967
28	0x3e3742f4	0.17896634
29	0x3e906865	0.28204647
30	0x3e9fff04	0.3124925
31	0x3dcb337b	0.099219285
32	0x3dc53246	0.096287295
33	0xbe21acef	-0.15788625
34	0x3dbfd262	0.09366299
35	0xbde19657	-0.11015003
36	0x3d878097	0.066163234
37	0x3df82c28	0.12117797
38	0x3d5553d5	0.0520819
39	0x3cd2cb91	0.025731834
40	0x3dece592	0.115672246
41	0x3e9b72a5	0.30360904
42	0x3e230384	0.1591931
43	0xbd7cd9de	-0.06173121
44	0x3ecae022	0.39624125
45	0x3e8a21a8	0.26978803
46	0x3dcea20c	0.10089502
47	0x3dc0f8f9	0.09422488
48	0x3cc2fecb	0.023803135
49	0x3ca05b19	0.019574689
50	0xbd758e0e	-0.059949927
51	0x3cbfd9aa	0.02341922
52	0xbdd5d7df	-0.10441565
53	0x3df3292d	0.11873088
54	0xbd90e099	-0.070740886
55	0xbda73234	-0.08163872
56	0xbe5d5d9b	-0.21617739
57	0xbe18c55f	-0.14919041
58	0x3c7901ba	0.015198166
59	0xbe301b1a	-0.17197838
60	0x3db9840d	0.0905839
61	0xbdc9914a	-0.09842165
62	0x3d4f2fca	0.050582685
63	0xbe06f3cc	-0.13178939
64	0x3d364de1	0.044507865
65	0xbd04cd93	-0.032422613
66	0x3d1918f2	0.037377305
67	0xbac427fb	-0.0014965528
68	0x3dd1f5c6	0.10251956
69	0xbe012ae9	-0.12614025
70	0xbe423c33	-0.18968277
71	0xbe5d2501	-0.21596147
72	0xbd22b57a	-0.03972385
73	0xbc372e50	-0.011180475
74	0x3cf8da15	0.030377427
75	0xbb14cc46	-0.0022704764
76	0xbe84ebf6	-0.25961274
77	0x3d762a1e	0.06009876
78	0xbd245be9	-0.040126715
79	0xbe18aaf2	-0.1490896
80	0xbe94d3a3	-0.29067716
81	0xbc6814a7	-0.01416508
82	0x3dba57d4	0.09098783
83	0xbccec9cd	-0.02524271
84	0xbc7588b2	-0.014986204
85	0xbe132f40	-0.14373493
86	0xbdc480eb	-0.09594902
87	0x3c87ab0c	0.016561054
88	0xbdd90e1e	-0.10598396
89	0x3e029358	0.1275152
90	0x3d654356	0.05597242
91	0xbe88e398	-0.2673614
92	0x3d26ccb8	0.04072258
93	0xbdc5dd2f	-0.09661328
94	0xbe48e47f	-0.19618414
95	0xbdf180f3	-0.11792173
96	0x3d8de4b6	0.06928389
97	0xbd450ad8	-0.048106045
98	0xbd53732d	-0.051623512
99	0xbdc4a01a	-0.096008494
100	0xbd1db188	-0.038499385
101	0x3cc7a236	0.02436934
102	0xbdc34bc3	-0.09535935
103	0x3cb66d85	0.02226902
104	0xbd1788d0	-0.03699571
105	0x3d469334	0.048480228
106	0xbcf39695	-0.029734889
107	0xbe084f9a	-0.13311616
108	0x3e164918	0.1467632
109	0xbd6b29b0	-0.057412803
110	0xbdea8088	-0.11450297
111	0x3d26b5fc	0.040700898
112	0xbdea3193	-0.11435237
113	0xbe193d46	-0.1496478
114	0x3da92b60	0.08260226
115	0x3cd953bd	0.026529187
116	0xbc447748	-0.0119913295
117	0x3dcd6d3c	0.100306004
118	0x3d61d2b6	0.05513259
119	0xbdc8346c	-0.09775624
120	0x3de333a6	0.110938355
121	0xbd9b5ede	-0.07586454
122	0xbd9a903a	-0.0754704
123	0x3dfa9686	0.12235741
124	0xbc578c9f	-0.013156085
125	0xbd571111	-0.05250651
126	0xbd821877	-0.063523225
127	0x3cb3c8f2	0.021946404
128	0x3d8122dc	0.06305477
129	0xbc89b914	-0.016811885
130	0xbd05d5d0	-0.03267461
131	0xbd576340	-0.052584887
132	0xbd236971	-0.03989548
133	0xbe06e20e	-0.1317217
134	0xbdd4753f	-0.103739254
135	0x3d50ffbc	0.051025137
136	0x3d3e1459	0.046406124
137	0xbdad0e8b	-0.084500395
138	0x3d7b7da6	0.061399125
139	0x3de6d8e2	0.11271836
140	0x3d02b7d7	0.031913605
141	0x3dc724fa	0.097238496
142	0xbd644649	-0.05573109
143	0xbd85fc14	-0.06542221
144	0x3e238031	0.1596687
145	0x3e1ac07e	0.15112492
146	0x3e00c6c9	0.1257583
147	0xbd941839	-0.072311826
148	0x3c0f5986	0.008749371
149	0xbddad9fb	-0.10686108
150	0x3d8f68aa	0.07002385
151	0x3e1d18ec	0.15341538
152	0x3e03e3bc	0.12879843
153	0x3d4b3306	0.049609207
154	0x3e4a556e	0.19759151
155	0x3e5cf4e7	0.21577798
156	0xbdb03178	-0.086031854
157	0x3e3b4d71	0.1829126
158	0x3e81528b	0.25258288
159	0x3ea42990	0.3206296
160	0x3e0ba977	0.13638864
161	0x3d6cf9b8	0.057855338
162	0xbde8f3b2	-0.11374606
163	0x3de8cac9	0.11366803
164	0xbb88dc26	-0.0041766344
165	0x3e89436d	0.26809254
166	0x3deff8c6	0.11717372
167	0x3c8d3208	0.01723577
168	0x3dd5c115	0.10437218
169	0x3e70331c	0.23456997
170	0x3de00abf	0.1093955
171	0x3d4df42f	0.0502817
172	0x3e319d20	0.17345095
173	0x3de67299	0.112523265
174	0xbd8a3258	-0.067478836
175	0x3d4093a9	0.04701582
176	0x3f27a5b1	0.654872
177	0xbb9eda5f	-0.004847809
178	0x3e5bb9fa	0.21457663
179	0x3ec6d7db	0.3883656
180	0x3f0c3cb4	0.54780126
181	0x3e2229fb	0.15836327
182	0x3e177c6a	0.14793554
183	0x3dd72fb0	0.105071425
184	0xbd9d4fca	-0.07681234
185	0xbbf65d8d	-0.0075184763
186	0xbcb85fdc	-0.022506647
187	0x3e037f6d	0.12841578
188	0x3c63cb77	0.01390349
189	0x3e724945	0.23660763
190	0x3d98b016	0.07455461
191	0x3d74a30b	0.059725802
192	0x3e20c843	0.15701394
193	0x3db6a0e2	0.08917405
194	0x3e5df58f	0.21675704
195	0x3e8e8aac	0.27840173
196	0x3df80a52	0.121113434
197	0xbcb18433	-0.021669483
198	0x3e1bb39a	0.15205231
199	0x3e8857c8	0.26629472

lstm.weight_ih_l1 f4 [200, 50]
0	0xbe6e6ba7	-0.23283254
1	0x3e112609	0.14174666
2	0xbd76a6c1	-0.060217623
3	0x3e283544	0.16426569
4	0xbdbb3b6f	-0.091421954
5	0xbd844f9f	-0.06460499
6	0xbdac3d79	-0.084101625
7	0xbde22fb8	-0.11044258
8	0x3e6c5712	0.2308009
9	0xbc92f439	-0.01793872
10	0xbddcf806	-0.10789494
11	0xbe5d78b3	-0.21628074
12	0xbdac8a00	-0.08424759
13	0xbdb871fa	-0.09006114
14	0xbd10f249	-0.03538731
15	0x3df10683	0.1176882
16	0x3d457583	0.04820777
17	0x3cd73609	0.026270883
18	0x3e078881	0.13235666
19	0xbd9ae174	-0.07562533
20	0x3e21add8	0.15788972
21	0x3ce21a10	0.027600318
22	0x3d519d5b	0.051175456
23	0x3e14b7a7	0.14523183
24	0xbc74c7fc	-0.014940258
25	0xbd941d40	-0.072321415
26	0x3bb8252b	0.005619665
27	0x3e14c2ca	0.14527431
28	0x3e9104ef	0.28324077
29	0x3e62e458	0.22157419
30	0x3e3aaa5a	0.18229046
31	0xbd94c3fc	-0.072639436
32	0xbca7e613	-0.02049545
33	0xbe4015e2	-0.18758348
34	0xbb7270df	-0.0036993546
35	0x3d6f5afa	0.05843637
36	0xbc329574	-0.01089989
37	0xbe4ef96d	-0.20212336
38	0xbdee71b5	-0.11642782
39	0xbd9c6840	-0.076370716
40	0xbe57aa03	-0.21060948
41	0xbe8e5ce9	-0.2780526
42	0xbe244c81	-0.16044809
43	0xbd820854	-0.06349245
44	0x3e94a0b5	0.2902886
45	0x3e4dd75f	0.20101689
46	0xbe047b93	-0.12937765
47	0xbdf7728a	-0.120823935
48	0x3d866e66	0.065640256
49	0x3c0a5455	0.008442958
50	0xbd825479	-0.06363768
51	0x3ec161c0	0.3776989
52	0xbe3c86e7	-0.18410836
53	0xbd85ddef	-0.06536471
54	0x3e369a50	0.17832303
55	0x3e8fea02	0.2810822
56	0xbe6560e6	-0.22400245
57	0xbdfd7253	-0.12375321
58	0x3ec5cdf8	0.38633704
59	0x3d321e75	0.043486077
60	0xbdca784f	-0.09886228
61	0x3e1d93d1	0.15388419
62	0xbe3c4e6f	-0.18389295
63	0xbe93035f	-0.2871351
64	0x3e708571	0.23488404
65	0xbcc04e45	-0.023474822
66	0xbe1273ae	-0.14301941
67	0xbe911fa6	-0.28344458
68	0x3ee99480	0.4562111
69	0xbe07bfeb	-0.13256805
70	0xbd20cfe6	-0.039260767
71	0x3d8d0f8e	0.068877324
72	0xbd8daf58	-0.0691821
73	0x3e827a83	0.25484094
74	0xbe55242d	-0.20814581
75	0x3dc9e559	0.09858198
76	0xbd76114e	-0.060075097
77	0x3ec98b1d	0.39363948
78	0x3e4c6ad8	0.19962633
79	0x3ea14ab7	0.31502315
80	0xbe06b19f	-0.13153695
81	0xbde0494a	-0.10951479
82	0x3c8505ae	0.01623806
83	0xbecc9fa2	-0.3996554
84	0xbda27c07	-0.079338126
85	0x3d983b5e	0.074331984
86	0x3ed4350a	0.41446716
87	0xbe011905	-0.126072
88	0x3e0ebb59	0.13938655
89	0x3e43c8d9	0.19119586
90	0xbe132909	-0.14371122
91	0x3d09ba24	0.033624783
92	0xbea501b4	-0.32227862
93	0xbe3b904f	-0.18316768
94	0x3ea90218	0.3300941
95	0x3e92ef6f	0.28698298
96	0x3e0a03db	0.13478033
97	0xbea4ef9b	-0.32214054
98	0x3e735b5b	0.23765318
99	0xbd406e7d	-0.04698037
100	0xbe1cc2ad	-0.15308638
101	0xbd25c64b	-0.04047231
102	0xbda1a533	-0.078928374
103	0xbd494405	-0.049137134
104	0xbe09a1de	-0.13440654
105	0xbd377f6d	-0.044799257
106	0xbd8ba99b	-0.06819459
107	0x3e3f3f15	0.18676408
108	0xbce78aa6	-0.028264355
109	0xbdaf258c	-0.085520834
110	0x3c87113d	0.016487712
111	0xbe53fdf0	-0.20702338
112	0x3d5e9540	0.054341555
113	0xbd9c1841	-0.076218136
114	0x3d880806	0.06642155
115	0x3cc6826d	0.024232114
116	0xbde22112	-0.11041464
117	0xbdc71af0	-0.09721935
118	0x3e333be8	0.17503321
119	0xbd105e6d	-0.0352463
120	0xbdceb883	-0.100937866
121	0xbd16dbd1	-0.036830727
122	0x3dceb960	0.10093951
123	0xbdd26b32	-0.10274352
124	0x3cfca9a3	0.030842608
125	0xbe1488ff	-0.14505385
126	0x3d760a1e	0.060068242
127	0x3cddc964	0.02707357
128	0x3e1b43b1	0.15162541
129	0x3de6d36f	0.112707965
130	0xbd05c70f	-0.03266054
131	0xbd694719	-0.05695257
132	0xbc7c1b87	-0.015387422
133	0xbe04700b	-0.12933366
134	0x3ddc91f4	0.10770026
135	0x3dff8033	0.12475624
136	0x3d9be957	0.076128654
137	0xbe050cc9	-0.12993158
138	0xbd3e416f	-0.04644912
139	0x3e1a28de	0.15054652
140	0xbe0703ff	-0.13185118
141	0xbd6b3065	-0.0574192
142	0xbd8ce7fa	-0.068801835
143	0xbc4a00dc	-0.012329306
144	0x3dd2e6bb	0.102979146
145	0x3b929835	0.004473711
146	0x3d2060ec	0.039154932
147	0xbd751c1e	-0.059841268
148	0x3c7644a6	0.0150310155
149	0x3e1c9525	0.15291269
150	0xbd437c2b	-0.047725838
151	0x3e6eacd7	0.2330812
152	0xbe0507a9	-0.12991203
153	0x3e6140b9	0.21997346
154	0x3c5fef81	0.013667942
155	0x3df95d3d	0.12175987
156	0xbdf5f162	-0.12008931
157	0xbcc53f2b	-0.024077972
158	0x3e2cf7c4	0.1689139
159	0x3e621084	0.22076613
160	0x3df64f51	0.12026847
161	0xbcf46edd	-0.02983802
162	0xbc22c4bf	-0.009934603
163	0x3e2e9903	0.17050557
164	0xbdd34f87	-0.10317903
165	0x3aa672b3	0.0012698978
166	0xbe14931c	-0.14509243
167	0x3ca0ce55	0.019629637
168	0x3e3aa768	0.18227923
169	0xbdee3409	-0.11631019
170	0xbda4d9b8	-0.08049339
171	0xbd968a90	-0.073506474
172	0xbdcdbbf3	-0.10045614
173	0x3da7b490	0.081887364
174	0xbdbd3f11	-0.092405446
175	0x3d89315e	0.06698869
176	0xbda8e37b	-0.082465135
177	0x3e149522	0.14510015
178	0xbe20bde5	-0.15697439
179	0xbd7fa5ee	-0.062414102
180	0xbcaded55	-0.021231333
181	0xbe004d1b	-0.12529413
182	0x3c4d9a46	0.012548989
183	0x3a421b0b	0.00074045424
184	0xbe27ff8d	-0.16406079
185	0xbd74bbe6	-0.059749506
186	0x3e37489e	0.17898795
187	0xbdbd9280	-0.09256458
188	0x3d1fd171	0.0390181
189	0x3db1b362	0.08676793
190	0xbe8f8045	-0.2802755
191	0xbe488bcb	-0.19584577
192	0xbe15a73d	-0.14614578
193	0x3d89e6cb	0.067334734
194	0xbd46b375	-0.048510987
195	0x3e2756f8	0.1634177
196	0xbdfa2675	-0.12214366
197	0xbe093214	-0.1339801
198	0xbdfc0573	-0.12305727
199	0x3d889791	0.06669534
200	0x3db7cc0d	0.089744665
201	0x3e8589da	0.26081735
202	0x3bdcb5f4	0.0067355577
203	0x3db675f7	0.08909219
204	0x3d5d64da	0.054051258
205	0x3d98659a	0.07441254
206	0xbe0f73fa	-0.14009085
207	0xbe63157a	-0.22176161
208	0x3e075649	0.13216509
209	0xbe1645cc	-0.14675063
210	0x3dbd8814	0.092544705
211	0xbd86da5c	-0.065846175
212	0xbda6b449	-0.081398554
213	0x3e166d98	0.14690244
214	0x3d8003a8	0.062506974
215	0x3e86a570	0.26298094
216	0xbe37be2e	-0.17943642
217	0xbe2ac36f	-0.16676114
218	0x3de71ca6	0.11284761
219	0xbe6cc13e	-0.23120591
220	0xbc1baed7	-0.009502134
221	0xbba35528	-0.0049845167
222	0xbbdd65c7	-0.0067565176
223	0x3cb7efd1	0.02245322
224	0xbe3397eb	-0.17538421
225	0xbda4541d	-0.08023856
226	0x3d28e980	0.041238308
227	0x3df1c5ed	0.118053295
228	0xbe597f1f	-0.21239899
229	0x3e26e4f1	0.16298272
230	0xbe46cb59	-0.19413508
231	0xbe5c95a6	-0.21541461
232	0xbcbb73f5	-0.022882441
233	0xbd9743da	-0.073859885
234	0xbdc9626e	-0.09833227
235	0x3c814dc3	0.01578415
236	0xbdcecd70	-0.10097778
237	0x3d86a57a	0.06574531
238	0xbcdf939c	-0.027292065
239	0x3c1eaff5	0.009685506
240	0xbe04edda	-0.12981358
241	0xbe2065a0	-0.15663767
242	0xbdde9f3b	-0.108702146
243	0x3d82ea03	0.063922904
244	0x3cdd3a1e	0.027005251
245	0x3d72c597	0.059270468
246	0xbdebc13c	-0.11511466
247	0xbdea6d81	-0.114466675
248	0xbd63f2e7	-0.05565157
249	0xbe2c60a7	-0.16833745
250	0xbe5a1a53	-0.21299104
251	0x3e49ef70	0.19720244
252	0xbe255848	-0.16146958
253	0xbe03dd7e	-0.12877461
254	0xbdeae6e3	-0.114698194
255	0x3d7fa2b4	0.062411025

lstm.weight_hh_l1 f4 [200, 50]
0	0x3df0d26c	0.11758885
1	0xbd4fdee5	-0.05074968
2	0xbe130db0	-0.1436069
3	0x3e45899e	0.19290778
4	0x3de0c83a	0.1097569
5	0x3e51bdd6	0.20482573
6	0xbcf45b7b	-0.029828778
7	0xbe1d68f9	-0.15372075
8	0xbd7a4469	-0.061100397
9	0xbe53d238	-0.20685661
10	0x3e1be429	0.15223755
11	0xbd49993a	-0.049218394
12	0x3e35416e	0.1770074
13	0xbe3ba104	-0.18323141
14	0x3eaf0434	0.34182894
15	0x3e310a50	0.1728909
16	0xbd5154f4	-0.05110641
17	0xbdda645b	-0.106636725
18	0x3e77e2a0	0.24207544
19	0x3b2e8d25	0.0026634422
20	0x3e8a720f	0.27040145
21	0xbda8c2a1	-0.082402475
22	0x3e439989	0.19101538
23	0xbe50bd37	-0.2038468
24	0x3e3b6177	0.18298899
25	0xbd455758	-0.048179
26	0xbdc55d1d	-0.096369006
27	0xbd91d670	-0.07120979
28	0xbe80699e	-0.2508058
29	0xbe0c6a3d	-0.13712402
30	0xbe11f884	-0.14254957
31	0xbd8a67a0	-0.06758046
32	0xbc6d7ebd	-0.014495549
33	0xbe0df190	-0.1386168
34	0xbe0d0d61	-0.13774635
35	0x3cabed14	0.020987071
36	0x3c570feb	0.013126354
37	0x3e91a5c3	0.2844678
38	0x3e627a6f	0.22117017
39	0xbe83a08c	-0.25708425
40	0xbe02bf9d	-0.12768407
41	0xbdec9ed4	-0.115537316
42	0xbe589ffa	-0.21154776
43	0x3e7c17c4	0.24618441
44	0xbdde348b	-0.108498655
45	0xbdd74db1	-0.10512865
46	0x3d550cf5	0.05201431
47	0xbdb9d106	-0.09073071
48	0x3e099911	0.13437296
49	0xbcca43dc	-0.024690561
50	0xbe886e3d	-0.26646605
51	0xbc63c59d	-0.013902095
52	0xbe806220	-0.25074863
53	0x3e90adc6	0.2825758
54	0xbd8f0723	-0.06983783
55	0x3ec64bb2	0.38729626
56	0xbe941378	-0.28921103
57	0x3d1ebc88	0.038754016
58	0xbe43a9bf	-0.19107722
59	0xbe48ef83	-0.19622616
60	0x3e8a7676	0.27043504
61	0x3e2b4573	0.16725712
62	0x3ef921c0	0.48658562
63	0xbe989de8	-0.29807973
64	0x3eee8995	0.46589342
65	0x3d9fd6bc	0.07804629
66	0x3cdef793	0.027217662
67	0x3e22c0d7	0.15893875
68	0x3dbab9b7	0.091174535
69	0x3ede5652	0.43425232
70	0x3e7d6b75	0.24748023
71	0xbc5c0435	-0.013428737
72	0x3e896588	0.26835275
73	0xbe25b691	-0.16182925
74	0x3e8eb8b6	0.27875298
75	0x3bb59f68	0.0055426843
76	0xbd9959a3	-0.074878
77	0xbd539e4d	-0.05166464
78	0xbe1023f9	-0.14076222
79	0x3cc4b9b0	0.024014324
80	0xbe51f138	-0.20502174
81	0x3ecfda8a	0.4059642
82	0xbe4bc15b	-0.19897978
83	0xbd8fe7a2	-0.07026602
84	0xbe5b1533	-0.21394806
85	0x3da39eec	0.07989296
86	0xbd6151d6	-0.055009685
87	0x3ea048c1	0.31305507
88	0x3dd64fb8	0.10464424
89	0xbe628db6	-0.22124371
90	0xbe72523a	-0.2366418
91	0xbe0805c7	-0.13283454
92	0xbd4cf560	-0.050038695
93	0x3e03ee80	0.1288395
94	0xbde82688	-0.11335474
95	0xbdadb22d	-0.0848125
96	0x3dd294a7	0.102822594
97	0x3ce5eb37	0.02806626
98	0xbddedb68	-0.10881692
99	0xbe09f0c7	-0.13470756
100	0xbd889917	-0.066698246
101	0xbce492b9	-0.027901994
102	0xbdce7a8b	-0.10081967
103	0x3d96b715	0.07359139
104	0xbca8094c	-0.020512246
105	0x3dfe176f	0.12406813
106	0x3c9ff1f6	0.019524556
107	0x3cebf7da	0.028804708
108	0xbd332bfb	-0.043743115
109	0xbe28272c	-0.16421193
110	0x3d4d511d	0.050126184
111	0x3ca5ca36	0.020238023
112	0x3e37dde4	0.17955738
113	0x3e0b9f53	0.13634996
114	0x3dd91a08	0.10600668
115	0x3dbc98c9	0.09208829
116	0x3d81055d	0.06299851
117	0xbca744da	-0.020418573
118	0xbdc58ab9	-0.096456
119	0xbcbf4f48	-0.023353234
120	0x3de3a76e	0.11115919
121	0x3cf316d6	0.029673975
122	0x3e205319	0.15656699
123	0x3d75dcdb	0.060025077
124	0xbdc9d213	-0.098545216
125	0x3e3f3351	0.1867192
126	0xbd6f4d7d	-0.058423508
127	0x3b9162fc	0.0044368487
128	0xbdab0bca	-0.08351858
129	0xbcd19516	-0.025583785
130	0x3ba93492	0.0051637376
131	0x3dcac36a	0.099005535
132	0x3df1dab0	0.118092895
133	0xbdf22407	-0.11823278
134	0xbc44cf0e	-0.012012256
135	0xbdb6b633	-0.089214705
136	0xbced2993	-0.028950488
137	0x3debcecc	0.11514053
138	0x3e375b07	0.17905818
139	0x3dd558e7	0.104173474
140	0xbdbd2f7d	-0.09237573
141	0x3d830708	0.063978255
142	0x3cbb13ef	0.022836654
143	0xbe2c088d	-0.16800137
144	0x3d544832	0.051826663
145	0x3b84634a	0.0040401565
146	0x3bd3bed6	0.0064619584
147	0xbd7ce4d7	-0.061741676
148	0x3d450167	0.04809704
149	0x3ca322ba	0.01991402
150	0x3cbd046b	0.023073396
151	0xbe49e5db	-0.19716589
152	0xbdd1c6ae	-0.10242973
153	0x3c14e8d7	0.0090887165
154	0xbcf93da9	-0.03042491
155	0x3d941793	0.07231059
156	0x3cc15208	0.023598686
157	0xbd892456	-0.06696384
158	0x3d3f5538	0.04671213
159	0xbd5dbc25	-0.054134507
160	0xbe041aea	-0.12900892
161	0x3ddbd28d	0.10733519
162	0x3e567866	0.20944366
163	0xbdcd7565	-0.10032157
164	0xbcfdf0cb	-0.030998608
165	0xbd49eb64	-0.04929675
166	0x3cfca314	0.03083948
167	0x3daee1c3	0.085391544
168	0xbe2a1886	-0.16610917
169	0x3e4f1c6b	0.20225684
170	0xbd589846	-0.052879594
171	0xbd9da8c8	-0.07698208
172	0x3c280fa0	0.010257632
173	0xbe06fd52	-0.13182572
174	0x3d026a1e	0.031839482
175	0xbc9217db	-0.01783364
176	0xbc38680a	-0.011255274
177	0x3ab7d308	0.0014024684
178	0x3d9fd055	0.07803408
179	0xbccadd07	-0.024763597
180	0xbc8d0d32	-0.017218206
181	0x3e5df6d0	0.21676183
182	0xbd56d7b1	-0.052451793
183	0xbe219103	-0.15777974
184	0x3d756ade	0.05991637
185	0x3ddb6a4c	0.10713634
186	0x3dc32d25	0.09530095
187	0xbd76036b	-0.060061853
188	0xbe1e4a2d	-0.15457983
189	0xbe65af52	-0.2243016
190	0x3c0574e3	0.008145544
191	0x3db3e172	0.08783235
192	0xbd9027e3	-0.07038858
193	0xbde28494	-0.110604435
194	0xbb83fe38	-0.004028108
195	0x3d91a811	0.07112134
196	0xbd98fb70	-0.07469833
197	0x3cb1793f	0.02166426
198	0xbde39562	-0.11112477
199	0xbde687bc	-0.11256358
200	0x3d1dfae1	0.038569335
201	0xbcf39be0	-0.029737413
202	0xbe112d76	-0.14177498
203	0xbdf9a397	-0.121894054
204	0xbe1b8bc6	-0.15190038
205	0x3d4533fe	0.048145287
206	0x3d116405	0.035495777
207	0xbe3b265e	-0.18276355
208	0xbaedff06	-0.0018157668
209	0x3db91a76	0.0903825
210	0x3ca049a8	0.019566372
211	0x3d34b841	0.04412103
212	0xbd77f2da	-0.060534336
213	0xbe0f3fe3	-0.13989215
214	0xbd937013	-0.07199111
215	0x3dcbd9c8	0.09953648
216	0xbdeb6a9d	-0.11494944
217	0xbdc2db4c	-0.09514484
218	0xbdcf5312	-0.10123266
219	0x3dd8de51	0.105892785
220	0x3dac335a	0.08408232
221	0x3e74287a	0.23843566
222	0xbce493c8	-0.027902499
223	0x3ca7b95c	0.020474128
224	0x3db7be5a	0.089718536
225	0x3c58ca23	0.013231787
226	0x3e83beea	0.25731593
227	0xbe705b85	-0.23472412
228	0xbc8e99d8	-0.017407343
229	0xbe28e5f6	-0.16493973
230	0xbd40a969	-0.047036562
231	0x3d8da338	0.06915897
232	0x3e1d37bc	0.15353292
233	0xbe3f5c55	-0.18687566
234	0xbe0442bf	-0.12916087
235	0x3e672dcc	0.22576064
236	0x3dff5cf1	0.12468899
237	0xbe16ecf8	-0.14738834
238	0xbe0ad93a	-0.13559428
239	0x3d0c9569	0.034322176
240	0xbe6fcbcc	-0.23417586
241	0x3e42d66d	0.1902711
242	0x3ba80cfb	0.0051285005
243	0x3c4580a0	0.012054592
244	0xbdab8efa	-0.0837688
245	0xbe02c0f3	-0.12768917
246	0x3d72566d	0.059164453
247	0xbd5e9066	-0.054336928
248	0x3c8937ef	0.016750304
249	0xbdbe74f7	-0.09299653
250	0xbd956b57	-0.07295864
251	0x3cfd0ecc	0.030890845
252	0xbd7ab331	-0.061206046
253	0x3c291544	0.0103200115
254	0xbcc217cd	-0.02369299
255	0x3d4a6b4c	0.049418733

lstm.bias_ih_l1 f4 [200]
0	0x3ea75707	0.32683584
1	0x3f108013	0.56445426
2	0x3e196a43	0.14981942
3	0x3c61f501	0.013791324
4	0x3e4200eb	0.18945663
5	0x3e3cd6d1	0.18441321
6	0x3e7a98d9	0.24472369
7	0x3ebf5603	0.3737031
8	0x3d899a2b	0.06718858
9	0x3ecd84c8	0.40140367
10	0xbd6a1e58	-0.057157844
11	0x3e30ce5f	0.17266224
12	0xbd4160e9	-0.04721156
13	0x3b92810e	0.004470951
14	0x3e23f77a	0.16012374
15	0x3da4ca47	0.08046394
16	0x3d4ded40	0.050275087
17	0x3d1db2fc	0.03850077
18	0x3f00740d	0.5017708
19	0xbd33ea63	-0.0439247
20	0x3d8f6b94	0.07002941
21	0x3eeafbe7	0.4589531
22	0xbcb418c3	-0.021984464
23	0x3dee01f4	0.11621466
24	0xbca15619	-0.019694375
25	0x3e58d60c	0.21175402
26	0x3dcde682	0.100537315
27	0x3e59f1cf	0.21283649
28	0x3e151a8a	0.14560905
29	0x3d316657	0.04331049
30	0xbda0d684	-0.078534156
31	0xbc80822f	-0.015687076
32	0x3df56099	0.11981315
33	0x3e5a7010	0.21331811
34	0x3dd3f6c8	0.10349804
35	0x3dd3c35d	0.10339997
36	0x3dfced53	0.123499535
37	0x3e846be4	0.25863564
38	0x3e234cb4	0.15947229
39	0x3e1e2723	0.15444617
40	0xbc3d7d02	-0.011565449
41	0x3e7752da	0.24152699
42	0x3eb13e98	0.34618068
43	0x3e9037b2	0.28167492
44	0x3e0ae65a	0.13564435
45	0x3e19cb40	0.1501894
46	0x3e04ba73	0.1296175
47	0xbda698c2	-0.08134605
48	0xbcdd1952	-0.026989613
49	0xbd76586e	-0.060142927
50	0xbe4e41d6	-0.20142302
51	0x3dd70815	0.104995884
52	0xbe37ace3	-0.17937045
53	0x3c6c46ba	0.014421159
54	0x3d8b7004	0.06808475
55	0x3acc93ce	0.0015608014
56	0xb90703e6	-0.00012876056
57	0xbdec9b7d	-0.115530945
58	0xbd330915	-0.043709833
59	0xbcc1da6c	-0.023663722
60	0x3bfdb711	0.0077427705
61	0xbd13cb75	-0.036082704
62	0x3d0fc324	0.03509821
63	0xbcec7df1	-0.028868647
64	0xbe06f7a6	-0.13180408
65	0xbd758165	-0.059937853
66	0xbdeafb1b	-0.11473676
67	0xbc053137	-0.0081294095
68	0xbe77c4c1	-0.2419615
69	0xbcab6282	-0.020920996
70	0x3d07f2db	0.03319059
71	0x3d833820	0.06407189
72	0x3dc0b4b3	0.09409466
73	0xbd4109c5	-0.047128458
74	0x3ddc04a3	0.10743072
75	0xbdaadc94	-0.08342853
76	0xbe7e616f	-0.24841855
77	0xbdf31a03	-0.11870196
78	0x3d841132	0.06448592
79	0x3d8fd4cf	0.07023012
80	0x3d242b6d	0.040080477
81	0x3de130d6	0.10995643
82	0x3e1af16e	0.1513116
83	0x3e074bbb	0.13212483
84	0x3e48ba2e	0.19602272
85	0xbd8bab3c	-0.0681977
86	0xbd918efb	-0.071073495
87	0xbdac6dfc	-0.08419415
88	0xbe325296	-0.17414317
89	0xbceacc87	-0.02866198
90	0x3e06de73	0.13170795
91	0x3d9d3bc3	0.07677414
92	0xbe2e0d60	-0.1699729
93	0x3c984c17	0.01859097
94	0x3d71b1f3	0.059007596
95	0xbe018a6a	-0.12650457
96	0x3d94fbc0	0.0727458
97	0x3db6a958	0.089190185
98	0xbd73cfa1	-0.059524182
99	0xbb1bc2d9	-0.0023767261
100	0xbd84e6b4	-0.06489316
101	0xbd870c99	-0.065942
102	0x3d95e23a	0.0731854
103	0xbe2ed2e5	-0.17072637
104	0xbdbf2276	-0.09332745
105	0xbc93416b	-0.01797553
106	0x3d1bea7e	0.038065426
107	0x3d844a36	0.06459467
108	0x3e23e2cb	0.16004483
109	0xbd9cd59c	-0.0765793
110	0x3be84bc2	0.007089109
111	0x3da0f251	0.07858718
112	0x3daf748b	0.08567151
113	0xbdcdaabc	-0.100423306
114	0x3d0063af	0.031345066
115	0xbdd33c5c	-0.10314247
116	0x3ddba55e	0.10724901
117	0xbdb9de5e	-0.09075616
118	0xbde849c9	-0.113421984
119	0x3e0e53e2	0.13899186
120	0xbbf35987	-0.007426444
121	0x3cbd549a	0.02311163
122	0x3d281f40	0.041045427
123	0x3d0b2fdb	0.033981185
124	0x3d870fe2	0.06594826
125	0xbde4eab5	-0.11177579
126	0x3b15aae5	0.0022837457
127	0xbb9bd9c7	-0.0047561857
128	0x3d1664d0	0.036717236
129	0xb9c39bd0	-0.00037309388
130	0xbdbac1c4	-0.09118989
131	0x3dde8bed	0.108665325
132	0xbd3f9d57	-0.04678091
133	0xbc9274c0	-0.017877936
134	0x3a8f2ae7	0.001092282
135	0x3bb522f1	0.005527847
136	0xbe1806b8	-0.14846313
137	0x3c08fbb1	0.008360789
138	0xbd76e6c6	-0.060278676
139	0xbdcee05c	-0.10101387
140	0xbcce5ff2	-0.025192235
141	0x3dc9bf48	0.09850937
142	0x3dce10f3	0.100618266
143	0xbacf15fc	-0.0015799399
144	0xbd17291c	-0.03690444
145	0x3d83e85e	0.06440805
146	0xbd805fba	-0.062682584
147	0x3d0218ff	0.03176212
148	0x3c8d80e6	0.017273378
149	0xbd6d007b	-0.057861786
150	0x3e915a6a	0.28389293
151	0x3ec66691	0.38750127
152	0x3d8a0c92	0.06740679
153	0x3e0eb526	0.1393629
154	0x3e458673	0.1928957
155	0x3e85e51d	0.26151362
156	0x3e975968	0.295604
157	0x3e90c4b6	0.2827508
158	0x3e06884c	0.1313793
159	0x3ec67bdf	0.3876638
160	0x3d954d19	0.07290096
161	0x3e17bb8c	0.14817637
162	0x3df534e5	0.119729795
163	0x3e272c69	0.16325535
164	0x3eb8a142	0.3606053
165	0x3e06c2c0	0.13160229
166	0xbc4c1e27	-0.012458361
167	0xbd164aba	-0.03669236
168	0x3ed9c2bc	0.42531383
169	0xbdc4f96d	-0.09617887
170	0xbe21e4ed	-0.15809985
171	0x3ef3823d	0.475603
172	0xbc72114c	-0.014774632
173	0x3d710634	0.058843806
174	0x3da58d2b	0.08083566
175	0x3ea13e0b	0.31492648
176	0x3e77dae8	0.242046
177	0x3ea98c78	0.33114982
178	0x3db2c520	0.08729005
179	0xbd3b112f	-0.045670684
180	0xbdd639c3	-0.10460236
181	0x3b8963c5	0.0041928017
182	0x3e200383	0.1562634
183	0x3d8d7c59	0.06908483
184	0x3e2929a2	0.16519788
185	0x3e36693c	0.17813581
186	0x3e80f38a	0.25185806
187	0x3dd363f1	0.10321797
188	0x3dbb874b	0.091566645
189	0xbbb2288e	-0.0054369634
190	0x3b3e08e9	0.002899701
191	0x3e435dd8	0.19078767
192	0x3ebdb8fb	0.3705519
193	0x3e8a8240	0.27052498
194	0x3db8fc13	0.09032454
195	0x3dc5b06b	0.0965279
196	0x3e70db26	0.23521098
197	0x3dd791a9	0.10525829
198	0x3e517566	0.2045494
199	0xbd97b32f	-0.074072234

lstm.bias_hh_l1 f4 [200]
0	0x3eaa809c	0.33301246
1	0x3ede6541	0.43436626
2	0x3e5a14ab	0.21296947
3	0x3e3d8b3d	0.18510146
4	0x3e0ff00a	0.14056411
5	0x3e29c49a	0.16578904
6	0x3e55fbd9	0.20896854
7	0x3edc58e9	0.43036583
8	0xbd80010f	-0.06250202
9	0x3e5bd56a	0.2146813
10	0x3ce7b100	0.028282642
11	0x3dd50b90	0.10402596
12	0xbd20e1c3	-0.039277803
13	0x3e3445de	0.17604777
14	0x3e4542ee	0.19263813
15	0x3e660c05	0.22465523
16	0x3d9e82b0	0.077397704
17	0x3e07357b	0.13203995
18	0x3f02e709	0.5113378
19	0x3e2a10fc	0.16608042
20	0xbd6f5a34	-0.058435634
21	0x3ecbcb78	0.39803672
22	0x3dd54e1d	0.104152896
23	0xbd25c191	-0.040467802
24	0x3d168b50	0.036753953
25	0x3ead9686	0.33903903
26	0x3e806c75	0.25082746
27	0x3e8515c3	0.25993165
28	0x3e5e56bd	0.21712776
29	0xbc26e7bf	-0.0101870885
30	0xbc902e72	-0.017600272
31	0x3e69f90e	0.22848913
32	0xbe096cf4	-0.13420469
33	0x3cdb7355	0.026788393
34	0x3e29190a	0.16513458
35	0x3e75d450	0.24006772
36	0x3de3a72c	0.1111587
37	0x3eabcd2e	0.33554977
38	0x3e3070f9	0.17230596
39	0x3e77e3c4	0.2420798
40	0x3d8da968	0.06917077
41	0x3e3a035a	0.18165341
42	0x3ed3abfa	0.41342145
43	0x3e1d4dd9	0.15361728
44	0x3dd92e95	0.10604588
45	0x3defbb72	0.11705674
46	0x3e57d09a	0.21075669
47	0x3e2b2fb0	0.1671741
48	0x38ceb474	9.8564575e-05
49	0xbd406f7b	-0.046981316
50	0x3c9578bf	0.018246053
51	0xbd207305	-0.03917219
52	0xbd91433a	-0.070929006
53	0xbca82e33	-0.020529842
54	0x3d8986b8	0.06715149
55	0xbe26637b	-0.16248886
56	0x3e364e83	0.17803387
57	0xbe0a4f13	-0.13506727
58	0x3d14ba00	0.036310196
59	0xbddc40cc	-0.107545465
60	0x3c7c099e	0.015383152
61	0xbce508cb	-0.027958294
62	0x3caa1f45	0.020766864
63	0xbdbc4156	-0.09192149
64	0x3d84d1e0	0.06485343
65	0xbd908c10	-0.07057965
66	0x3dc7ffdb	0.097655974
67	0x3dda250f	0.106515996
68	0xbe4ed097	-0.20196758
69	0x3d2cdea8	0.04220453
70	0xbe4ce843	-0.20010476
71	0x3ccf43ba	0.02530085
72	0x3e8daa9d	0.2766923
73	0xbcc3c3e6	-0.023897123
74	0x3e4ea0fb	0.20178597
75	0xbd884cb3	-0.06655254
76	0xbd5dd137	-0.0541546
77	0xbdd2eea3	-0.102994226
78	0xbdb6f67f	-0.08933734
79	0x3dc76ffe	0.09738158
80	0xbd993576	-0.074809
81	0xbe14abd1	-0.14518668
82	0x3e13e606	0.14443216
83	0x3de51225	0.111851014
84	0x3d3d10a2	0.04615844
85	0x3c375e9a	0.011191988
86	0x3d8ac223	0.0677531
87	0xbdfb0609	-0.122570105
88	0xbe5cfb9a	-0.21580353
89	0x3e2215f7	0.15828691
90	0x3d1bff5c	0.038085327
91	0x3cae1588	0.021250501
92	0xbd955715	-0.07292
93	0xbdf587ff	-0.1198883
94	0xbd4a27c1	-0.04935432
95	0x3d399c91	0.04531533
96	0xbc5e513c	-0.0135691725
97	0x3dbb7cca	0.09154661
98	0x3b54e21a	0.00324834
99	0xbbdbc0a5	-0.0067063146
100	0xbe0a6c9d	-0.13517995
101	0xbdb39691	-0.08768953
102	0xbca4ab93	-0.020101344
103	0x3dad2376	0.08454029
104	0xbdc8e542	-0.098093525
105	0x3d64c40c	0.055851027
106	0xbd94edc4	-0.07271913
107	0x3d906c24	0.07051876
108	0xbdb5cc03	-0.08876803
109	0xbd83bb93	-0.06432261
110	0x3ddc63f0	0.10761249
111	0xbd09f830	-0.033683956
112	0x3cc5cb73	0.024144864
113	0xbdd195f0	-0.102336764
114	0xbca75b81	-0.020429375
115	0xbcb426c9	-0.02199115
116	0x3d629185	0.05531456
117	0x3d62f6fb	0.05541132
118	0x3d5ff93c	0.054681048
119	0x3d6eb331	0.05827636
120	0x3dcd1dc5	0.10015444
121	0x3d64ea8e	0.05588775
122	0x3dbe7562	0.09299733
123	0x3c5f863c	0.013642844
124	0x3daec2aa	0.08533223
125	0x3d5df59d	0.054189313
126	0x3d3576cf	0.044302758
127	0x3d842483	0.064522766
128	0xbd20944e	-0.039203934
129	0x3cb36f7a	0.021903742
130	0xbca92081	-0.020645382
131	0x3ba70619	0.0050971624
132	0xbd3998dd	-0.045311797
133	0xbc3d629d	-0.011559156
134	0xbd90bb0a	-0.07066925
135	0x3e119841	0.14218237
136	0x3dc9c81f	0.09852623
137	0xbd6ca61d	-0.057775605
138	0x3db9e134	0.09076157
139	0xbdbaccfa	-0.091211274
140	0xbd0bc062	-0.034119017
141	0xbde9cfbf	-0.114165775
142	0xbd77dace	-0.060511403
143	0x3d0e044d	0.03467207
144	0xbd996738	-0.074903905
145	0xbdde8421	-0.10865045
146	0x3d3e0d72	0.04639954
147	0xbd40ea99	-0.04709873
148	0x3d5ad1c4	0.053422704
149	0xbd17c8df	-0.0370568
150	0x3eb8a258	0.36061358
151	0x3eee8ba1	0.46590903
152	0x3e2415d2	0.16023949
153	0x3e3d7c36	0.18504414
154	0x3d9ab996	0.07554929
155	0x3d335355	0.043780643
156	0x3e573fd4	0.21020442
157	0x3eee951d	0.4659814
158	0xbd2234ad	-0.039601017
159	0x3eab6850	0.33478022
160	0x3e01d568	0.12679064
161	0x3e3cb643	0.18428902
162	0x3e10e556	0.14149985
163	0x3db03be7	0.086051755
164	0x3e0c65bc	0.13710684
165	0x3de3d79a	0.11125107
166	0x3d2b6bf8	0.041851014
167	0xbdf48872	-0.119400874
168	0x3f1ccf02	0.6125337
169	0x3e212fa0	0.15740824
170	0xbe35887e	-0.17727849
171	0x3ebc5313	0.3678213
172	0x3d5a6533	0.053319167
173	0x3e0bfa6b	0.13669746
174	0x3d7f22f4	0.062289193
175	0x3ea1c1fc	0.3159331
176	0x3dcf9403	0.10135653
177	0x3e8c5b53	0.27413425
178	0x3e1f1d53	0.1553853
179	0x3dfa1387	0.12210756
180	0x3e09e9ae	0.13468048
181	0x3e6b2d54	0.2296651
182	0x3dc8cfbc	0.09805247
183	0x3cf0ec32	0.029409502
184	0x3df1c6f4	0.118055254
185	0x3da373fd	0.079811074
186	0x3cf1e5e1	0.02952856
187	0x3eab5363	0.33462057
188	0x3d307e96	0.04308947
189	0x3e5680f9	0.20947637
190	0x3be190ab	0.006883701
191	0x3e875112	0.2642904
192	0x3e4edf60	0.20202398
193	0x3e7dfd6f	0.24803708
194	0x3caaaea9	0.020835238
195	0x3e73696a	0.23770681
196	0x3d987470	0.07444084
197	0x3de6f57b	0.112772904
198	0x3d16b2d9	0.036791656
199	0x3e1f8141	0.1557665
