LSTM/model_recursion/best_epoch_model_96_layer12.pth (torch, 952263 bytes, 50 tensors)

lstm.weight_ih_l0 f4 [200, 7]
0.07264777 0.0388047 0.05649673 0.1152711 0.05798264 0.085361294 -0.0056377403 -0.0020145003
0.14679742 0.09894848 0.1333357 -0.02818512 0.13905226 0.14577983 -0.12568398 0.0217447
0.14094284 0.088776074 0.030828202 0.06288447 -0.0040081344 0.12377146 0.113535985 -0.04478589
-0.04445245 0.07678094 0.051372834 -0.101787135 -0.035221893 0.101521924 -0.031014975 -0.11345129
0.082923174 0.101891674 0.10258674 -0.07918499 -0.08143449 -0.12406787 -0.11203911 -0.12798318
0.017731069 -0.03709749 -0.042073425 -0.06503007 -0.012146723 -0.11215332 0.05774556 -0.055441972
0.12734985 -0.013762013 0.08998693 -0.039591875 0.0042418703 0.006989955 0.08608128 -0.05101052
-0.0247251 -0.0798057 0.061705027 -0.1164894 -0.026454452 -0.026695564 0.047082882 -0.03841299
-0.12897618 0.10429638 -0.030948386 0.018630732 0.01572431 0.14243561 0.07400458 -0.13837416
-0.1286111 0.13301498 0.11034926 -0.037080213 0.07259341 0.11541561 0.06795656 -0.057052113
-0.058922097 -0.070544824 -0.04285626 0.11221606 0.12228677 0.061356846 0.111389555 -0.042375308
-0.112351775 -0.07035127 0.049085945 0.09617722 -0.024926635 -0.100544706 -0.009330865 -0.10120939
0.025099412 -0.13539761 -0.0036872851 -0.12093291 -0.038934115 -0.11569639 0.052237518 -0.026822062
-0.048688408 0.13814303 -0.075522 0.06959313 0.03177564 0.07450667 0.09128604 0.099712335
0.1072938 0.13618098 0.008883197 -0.0011836718 0.13557477 -0.092334315 0.04004456 -0.10585466
-0.08827278 0.069870636 -0.039513927 0.14374359 -0.08002326 -0.08123904 -0.037975237 0.07643075
-0.10892406 -0.13522969 0.07051589 0.11706411 0.1189757 -0.099833764 0.012829214 0.09577393
-0.14026003 0.14105178 -0.12828189 -0.058145702 0.13974163 -0.039107066 0.06972649 0.12803027
0.08732266 0.10736534 0.011206824 0.118888386 -0.045640297 -0.036263414 -0.057046477 -0.009039031
-0.0044568754 -0.12368842 -0.12949365 -0.08917567 0.1347521 0.045192175 -0.13211226 0.05763999
-0.0062948517 0.12144204 0.079980664 0.11846781 -0.0043365825 0.10105618 -0.121538356 0.10463914
-0.04187246 0.08722416 -0.04912647 0.062481496 0.02792115 0.1182026 0.12332296 -0.05883846
0.051262572 0.03778056 -0.11785001 0.11030092 -0.08765626 0.08543777 -0.0115115 -0.1270577
-0.06828658 -0.052784424 0.059969753 0.10024735 0.0038447122 -0.10409888 0.1313752 -0.08764069
0.14418682 0.0709643 0.12500043 0.07977926 0.04309269 -0.06798251 -0.05059656 -0.08800221
-0.10921358 0.07201594 -0.09081475 0.082100146 0.05667864 -0.07488078 -0.005356731 -0.07029406
0.12422091 -0.071090765 0.045146722 0.016278945 0.08173405 -0.011445039 -0.11527008 -0.007050333
0.021194272 0.019186402 -0.033507973 -0.055232346 0.1203462 -0.13452931 0.04900412 -0.11528446
-0.08692798 -0.037802517 -0.032753333 -0.09872975 0.12523535 0.13777184 0.11439791 -0.07334059
-0.067780696 0.08874767 0.00031426156 -0.099081874 -0.123119146 0.10685653 -0.083881214 -0.09133371
-0.1346949 0.059596572 0.13237356 -0.071211725 0.063183084 -0.08928954 -0.04832431 -0.10110084
-0.0869137 0.05063987 0.105633415 -0.005486096 0.034416728 0.13493972 -0.0042697927 -0.08928942
00000000: 5bc8 943d adf1 1e3d 1d69 673d 4113 ec3d
00000010: 347f 6d3d e7d1 ae3d cbbc b8bb b505 04bb
00000020: 1052 163e 80a5 ca3d 2789 083e 7be4 e6bc
00000030: b763 0e3e 4f47 153e 4db3 00be f121 b23c
00000040: 5253 103e 3bd0 b53d 6d8b fc3c 93c9 803d
00000050: ab56 83bb e47b fd3d 8e85 e83d 6971 37bd
00000060: c613 36bd 533f 9d3d 526c 523d c675 d0bd
00000070: d544 10bd baea cf3d 1e13 febc 2659 e8bd
00000080: a0d3 a93d 95ac d03d ff18 d23d bd2b a2bd
00000090: 20c7 a6bd 4c17 febd c374 e5bd 060e 03be
000000a0: bf40 913c 8af3 17bd 2f55 2cbd 7c2e 85bd
000000b0: 0d03 47bc a4b0 e5bd 9c86 6c3d 1f17 63bd
000000c0: 0068 023e 117a 61bc 114b b83d 172b 22bd
000000d0: 63ff 8a3b fe0b e53b 624b b03d 68f0 50bd
000000e0: 4b8c cabc 2c71 a3bd 69be 7c3d ff91 eebd
000000f0: 02b7 d8bc a8b0 dabc fbd9 403d f056 1dbd
00000100: 5512 04be 5799 d53d 7887 fdbc 7a9f 983c
00000110: 45d0 803c a4da 113e b78f 973d f5b1 0dbe
00000120: a1b2 03be 1435 083e cbfe e13d 6ce1 17bd
00000130: dbab 943d 055f ec3d cf2c 8b3d 7aaf 69bd
00000140: 4c58 71bd ce79 90bd 0c8a 2fbd 89d1 e53d
00000150: 7c71 fa3d 5151 7b3d 3520 e43d bb91 2dbd
00000160: b018 e6bd 5414 90bd 580e 493d 90f8 c43d
00000170: f132 ccbc 62ea cdbd 7ce0 18bc de46 cfbd
00000180: 489d cd3c aca5 0abe 61a6 71bb acab f7bd
00000190: 6179 1fbd 3bf2 ecbd 02f7 553d f1b9 dbbc
000001a0: 7f6d 47bd 5e75 0d3e 47ab 9abd d886 8e3d
000001b0: 2c27 023d f496 983d 2df4 ba3d fb35 cc3d
000001c0: dabc db3d 0773 0b3e d48a 113c 6f25 9bba
000001d0: 1dd4 0a3e c619 bdbd c405 243d 54ca d8bd
000001e0: 5cc8 b4bd 5618 8f3d 5bd9 21bd 8531 133e
000001f0: 3ce3 a3bd a760 a6bd ec8b 1bbd ba87 9c3d
00000200: 9413 dfbd a779 0abe a36a 903d 4fbf ef3d
00000210: 88a9 f33d a575 ccbd a031 523c 1f25 c43d
00000220: 53a0 0fbe e16f 103e 545c 03be 302a 6ebd
00000230: 6e18 0f3e bb2e 20bd c3cc 8e3d 5e1a 033e
00000240: 39d6 b23d 5ce2 db3d d49c 373c c17b f33d
00000250: 52f1 3abd f288 14bd 91a9 69bd 7218 14bc
00000260: fb0a 92bb 5b50 fdbd fc99 04be bca1 b6bd
00000270: 74fc 093e 6e1b 393d 7048 07be e917 6c3d
00000280: 0b45 cebb 9bb6 f83d e7cc a33d 409f f23d
00000290: e419 8ebb 8bf6 ce3d 1ae9 f8bd 0c4d d63d
000002a0: 7582 2bbd 95a2 b23d d638 49bd 99ec 7f3d
000002b0: e5ba e43c 3414 f23d c090 fc3d 9900 71bd
000002c0: b4f8 513d cabf 1a3d 595b f1bd 73e5 e13d
000002d0: 2085 b3bd fff9 ae3d bb9a 3cbc 6a1b 02be
000002e0: d6d9 8bbd 7b34 58bd d8a2 753d 7c4e cd3d
000002f0: 91f7 7b3b cb31 d5bd 3887 063e f67c b3bd
00000300: b6a5 133e bb55 913d 1d00 003e 4f63 a33d
00000310: f681 303d 6a3a 8bbd 573e 4fbd 813a b4bd
00000320: 5fab dfbd 187d 933d 15fd b9bd 1f24 a83d
00000330: dd27 683d 185b 99bd 8487 afbb 55f6 8fbd
00000340: 8867 fe3d 0998 91bd c5eb 383d 6c5b 853c
00000350: 2e64 a73d f983 3bbc b812 ecbd 7b06 e7bb
00000360: 9c9f ad3c cd2c 9d3c a83f 09bd 503b 62bd
00000370: 1278 f63d 0dc2 09be 8bb8 483d 421a ecbd
00000380: 4c07 b2bd d0d6 1abd 5c28 06bd d332 cabd
00000390: b23d 003e 1014 0d3e 7449 ea3d 9733 96bd
000003a0: 9bd0 8abd 57c1 b53d 79c3 a439 70eb cabd
000003b0: e425 fcbd 99d7 da3d eac9 abbd 2b0d bbbd
000003c0: 76ed 09be 891b 743d ef8c 073e 74d7 91bd
000003d0: 2266 813d 6fdd b6bd b6ef 45bd f50d cfbd
000003e0: cfff b1bd c16b 4f3d 5556 d83d b5c4 b3bb
000003f0: 8ef8 0c3d a32d 0a3e 9ee9 8bbb 5fdd b6bd

lstm.weight_hh_l0 f4 [200, 50]
-0.08733414 -0.040046852 -0.099963054 -0.056951277 0.10678006 0.13264763 -0.0111566745 -0.08180005
-0.1189804 0.14075544 -0.14065748 0.00870584 -0.048755117 0.093647674 0.029291907 0.017733783
0.14145526 -0.0593867 0.030926537 -0.12874256 -0.1286689 0.023068435 -0.027519893 0.04412894
0.0047675357 -0.1224466 -0.07825733 -0.14227705 0.018105637 0.13314593 -0.09946403 0.1342515
-0.08800514 -0.069626585 -0.070410945 0.066535264 0.06980604 0.14012218 -0.1255132 0.13247843
-0.05630481 0.09319025 0.042207904 0.016178846 0.14063188 -0.08095762 0.09226363 -0.08113526
-0.05959643 -0.12379315 0.0849362 0.0015356306 0.048181295 -0.04649295 0.038605344 0.07366377
0.046390127 -0.076115936 0.11102482 -0.055010483 0.0853511 -0.022059614 0.09734013 0.06728449
0.01382754 0.02661437 -0.0016650144 -0.11802201 0.08127168 0.087461606 0.05185991 -0.09162204
0.08211707 -0.07180251 0.06434829 -0.12706052 -0.12854478 0.0056798467 -0.023031274 -0.023371609
-0.061701875 0.09153142 0.0823324 0.09389805 0.10374122 0.05087298 0.1140023 -0.02647385
-0.12464241 0.013547125 0.11311897 -0.027746825 0.010443642 -0.10813191 -0.08988618 -0.01679958
0.06952328 0.042735014 0.08855277 -0.048712425 0.0714831 -0.09910379 -0.08907907 -0.0135129085
0.096232206 -0.119884364 9.665213e-05 0.07073574 -0.0622113 -0.031968236 0.13335057 -0.10089979
-0.13941443 -0.063163795 0.09585395 0.12995252 0.10828852 -0.007616416 -0.08602614 0.043724965
-0.10710999 0.013849746 0.0767989 -0.015409846 0.07643576 -0.09336149 -0.03308186 -0.036041852
-0.010311862 0.086713724 0.124158315 -0.13350566 0.023849586 0.118908286 -0.07659814 -0.07859393
-0.137951 -0.015051958 -0.09325348 0.009331138 -0.038628977 -0.090073146 -0.12740421 -0.0065620514
-0.059083316 0.025892276 0.000725681 0.13819686 -0.024812533 -0.022564448 -0.010232212 0.016946658
0.11191487 0.12043569 -0.08585243 0.069567166 0.12360684 -0.07128428 0.007642386 0.041031305
0.03773141 0.014217602 -0.0731935 0.110387295 0.106784366 -0.13069521 0.1029656 0.03273899
-0.12542465 -0.04723547 0.028751211 0.08932489 0.010131951 0.017943779 -0.14010103 0.06419091
0.014788597 0.011056794 -0.062229227 -0.035688706 -0.13293332 -0.040449377 0.11842297 -0.059137348
0.029791307 0.10990747 0.042226113 -0.104466915 -0.09632562 -0.08072723 0.13287276 -0.09652217
-0.11577227 -0.0920001 -0.080316454 -0.010460356 -0.10480244 -0.05156616 -0.10516116 -0.09715001
0.13691376 0.005394388 -0.07248967 0.11921243 -0.10654307 -0.03904076 -0.06314726 -0.0193372
0.0037252689 0.12448727 0.000495363 -0.016917428 -0.099795654 0.042555414 -0.11990838 -0.09382649
-0.013214568 -0.1044032 0.06964933 0.039060745 0.06338521 -0.090869226 -0.107175894 0.07116267
-0.104820624 -0.028937355 -0.06404651 0.11067079 0.100171804 0.015348257 -0.04515958 -0.031976096
0.1283594 0.01660017 -0.00060180906 -0.1345565 -0.082246125 0.10672708 0.03278057 0.13743012
0.02568674 -0.03846935 0.07068658 -0.1332185 -0.06674427 -0.0015473014 -0.033234417 -0.03900176
0.052027382 -0.11546013 0.014132992 0.05540197 0.14011203 -0.005066414 0.04618883 0.09290448
00000000: 3edc b2bd 2b08 24bd 6eb9 ccbd be45 69bd
00000010: 81af da3d c8d4 073e 7cca 36bc c986 a7bd
00000020: ffab f3bd 3222 103e 8408 10be f1a2 0e3c
00000030: 72b3 47bd 5aca bf3d 95f5 ef3c 7046 913c
00000040: a6d9 103e 783f 73bd a659 fd3c 17d5 03be
00000050: c8c1 03be 04fa bc3c 6671 e1bc 8cc0 343d
00000060: fd38 9c3b 48c5 fabd 6145 a0bd 13b1 11be
00000070: 4652 943c 6857 083e ccb3 cbbd 3a79 093e
00000080: 0a3c b4bd 6298 8ebd 9d33 90bd a443 883d
00000090: 78f6 8e3d 307c 0f3e 8886 00be 6da8 073e
000000a0: df9f 66bd 88da be3d 32e2 2c3d 8089 843c
000000b0: ce01 103e 1ccd a5bd b7f4 bc3d 3e2a a6bd
000000c0: 631b 74bd 4387 fdbd 08f3 ad3d 3647 c93a
000000d0: c059 453d 646f 3ebd a320 1e3d 08dd 963d
000000e0: 9303 3e3d ace2 9bbd fb60 e33d ac52 61bd
000000f0: 8fcc ae3d 5db6 b4bc 435a c73d 73cc 893d
00000100: e88c 623c 6106 da3c 9d3c daba 86b5 f1bd
00000110: c471 a63d 121f b33d 0f6b 543d 56a4 bbbd
00000120: ff2c a83d 320d 93bd 09c9 833d 271c 02be
00000130: 3ea1 03be 021e ba3b 15ac bcbc d175 bfbc
00000140: 1bbb 7cbd d374 bb3d e49d a83d 9f4d c03d
00000150: 4776 d43d 3060 503d 0a7a e93d b0df d8bc
00000160: 8544 ffbd c3f4 5d3c ebaa e73d 4f4d e3bc
00000170: cf1b 2b3c 4374 ddbd 3f16 b8bd 469f 89bc
00000180: 3962 8e3d e90a 2f3d 285b b53d ae86 47bd
00000190: bb65 923d eef6 cabd 166f b6bd 3f65 5dbc
000001a0: 6415 c53d ef85 f5bd b8b1 ca38 e6dd 903d
000001b0: 47d1 7ebd 20f1 02bd 0d8d 083e 8da4 cebd
000001c0: a8c2 0ebe 055c 81bd 134f c43d 4612 053e
000001d0: 5fc6 dd3d 2193 f9bb 792e b0bd f318 333d
000001e0: 7c5c dbbd 0cea 623c be48 9d3d 9479 7cbc
000001f0: 5a8a 9c3d 4f34 bfbd d880 07bd 9fa0 13bd
00000200: 16f3 28bc f796 b13d b746 fe3d b5b5 08be
00000210: 3560 c33c 3086 f33d 7cdf 9cbd dbf5 a0bd
00000220: 0743 0dbe 7d9c 76bc aefb bebd a1e1 183c
00000230: 6b39 1ebd 4578 b8bd 4076 02be 7a06 d7bb
00000240: 5901 72bd 0a1c d43c a13b 3e3a 7a83 0d3e
00000250: a743 cbbc 14d9 b8bc 02a5 27bc b8d3 8a3c
00000260: a033 e53d fda6 f63d 66d3 afbd 3b79 8e3d
00000270: 9525 fd3d 7efd 91bd fb6c fa3b 7110 283d
00000280: 408c 1a3d f2f0 683c 79e6 95bd bc12 e23d
00000290: c3b1 da3d f7d4 05be a1df d23d 5219 063d
000002a0: 526f 00be fb79 41bd a987 eb3c f8ef b63d
000002b0: 7c00 263c d5fe 923c a576 0fbe 8676 833d
000002c0: df4b 723c 8e27 353c 13e4 7ebd 522e 12bd
000002d0: ac1f 08be 3fae 25bd be87 f23d 013a 72bd
000002e0: e60c f43c 2b17 e13d 4af5 2c3d c0f2 d5bd
000002f0: 5e46 c5bd 5154 a5bd cc0f 083e 6aad c5bd
00000300: 031a edbd 8c6a bcbd f47c a4bd ea61 2bbc
00000310: a9a2 d6bd 0a37 53bd bc5e d7bd 96f6 c6bd
00000320: 1f33 0c3e 68c3 b03b 7775 94bd a625 f43d
00000330: 4133 dabd 34e9 1fbd 5a53 81bd 0c69 9ebc
00000340: a423 743b 2ff3 fe3d 40db 013a 6b96 8abc
00000350: aa61 ccbd 964e 2e3d 8692 f5bd 1a28 c0bd
00000360: ea81 58bc 58d1 d5bd 4fa4 8e3d 29fe 1f3d
00000370: 1bd0 813d a519 babd 097f dbbd bcbd 913d
00000380: 32ac d6bd 080e edbc d12a 83bd 5ea7 e23d
00000390: e026 cd3d 4177 7b3c 40f9 38bd 5ef9 02bd
000003a0: a670 033e 14fd 873c b9c2 1dba 2ec9 09be
000003b0: a870 a8bd ba93 da3d eb44 063d 7bba 0c3e
000003c0: 006d d23c 0a92 1dbd 20c4 903d 6e6a 08be
000003d0: 38b1 88bd d2ce caba d020 08bd 4fc0 1fbd
000003e0: aa1a 553d 5c76 ecbd 118e 673c 2ded 623d
000003f0: 8779 0f3e 2904 a6bb 8030 3d3d b444 be3d

lstm.bias_ih_l0 f4 [200]
0.112941004 -0.11055543 0.025486074 0.13763563 -0.105936095 -0.07303619 -0.0660001 0.079093724
0.058201347 0.064400874 0.098409064 0.07592434 0.06142012 -0.08520267 -0.12722188 -0.12694626
-0.03311956 0.1242378 0.1186618 0.0854014 0.12601689 0.120448075 -0.14407507 0.005702593
0.042102095 0.011803257 0.041842815 0.03324553 -0.017445888 0.105826475 -0.041140772 0.06770133
0.079775564 -0.11924259 0.06978072 -0.0754761 0.047843795 0.09774495 -0.03650814 -0.0744554
-0.08601219 -0.0064018597 -0.019487852 0.120723985 -0.0027843975 0.12203171 -0.046902835 0.13843155
-0.042633574 -0.016140947 0.043641176 0.01342469 0.026036615 0.05274453 0.06746873 -0.11689444
0.053133585 -0.01973586 -0.0779095 -0.1439517 -0.13410906 -0.14756683 -0.028615002 0.045401905
-0.12472849 0.056668606 0.021133024 -0.097370334 -0.095566876 -0.10608322 0.024389166 -0.14307955
-0.10340279 -0.1277096 0.08924924 -0.0156566 0.0003697291 -0.035068493 0.07181647 0.13416018
0.031640053 0.12647526 0.074489735 0.082094334 0.05557777 0.10750502 0.00784518 -0.05573836
0.019659327 0.026804144 -0.039807335 -0.08499128 0.06716372 0.09922755 -0.12885372 0.12700363
-0.03766606 0.069915645 0.12882674 -0.09446684 0.0942181 0.07149379 -0.096846774 -0.074189365
-0.09519829 0.01991886 0.041831147 0.030391652 -0.14596163 -0.0832514 0.105832994 0.051969975
-0.123009965 -0.09815968 -0.11287848 -0.059183713 -0.10683786 -0.12729806 -0.04601811 -0.04818964
-0.115799695 0.023759814 -0.13730572 0.0036728538 -0.091431506 -0.11050599 0.048136298 0.1305317
0.11178561 0.14617455 0.08028629 -0.13384476 -0.10315644 -0.103970416 0.12287071 0.008248273
-0.13905911 -0.014314019 -0.059740182 0.056042247 -0.03684186 0.051370747 0.051770587 0.03086694
-0.015361877 0.10729801 0.023347927 -0.06202199 -0.07486302 -0.03262299 -0.08429918 -0.13242123
0.028242469 0.039296426 0.04556301 0.11660826 0.0022679695 -0.13923778 0.11713904 -0.0036398352
-0.015614276 0.11129455 0.018500263 -0.12065835 -0.13730629 0.109241925 -0.06698732 0.13254078
-0.09277768 -0.06326777 0.079537295 -0.13175915 0.086914726 -0.09401821 0.06088151 -0.05570467
-0.062159866 -0.070482805 -0.103924766 -0.008964035 0.03165438 -0.09730897 0.062393285 0.055912726
0.11198488 -0.07100968 -0.019597722 0.060804486 0.10236938 -0.013264142 0.039461713 -0.058817614
0.102544464 0.05701892 0.11408811 -0.01693923 0.105679296 -0.066232316 0.117279924 0.11817251
00000000: 9d4d e73d e36a e2bd 2cc8 d03c 5bf0 0c3e
00000010: 06f5 d8bd ff93 95bd 0f2b 87bd e4fb a13d
00000020: 8964 6e3d 9be4 833d b18a c93d 387e 9b3d
00000030: aa93 7b3d bd7e aebd 7446 02be 33fe 01be
00000040: 60a8 07bd 6370 fe3d f504 f33d eee6 ae3d
00000050: 920a 013e 7bad f63d 6a88 13be d1dc ba3b
00000060: 3f73 2c3d 7362 413c 5f63 2b3d 772c 083d
00000070: aeea 8ebc 8dbb d83d 3a83 28bd ffa6 8a3d
00000080: 5f61 a33d 7635 f4bd 32e9 8e3d 3793 9abd
00000090: dbf7 433d 812e c83d 8f89 15bd 137c 98bd
000000a0: 2927 b0bd b1c6 d1bb fda4 9fbc 233e f73d
000000b0: 707a 36bb c3eb f93d 301d 40bd 00c1 0d3e
000000c0: 8ba0 2ebd 053a 84bc 17c1 323d 3bf3 5b3c
000000d0: bd4a d53c a60a 583d 0c2d 8a3d 5a66 efbd
000000e0: 9aa2 593d 19ad a1bc 048f 9fbd 1368 13be
000000f0: e353 09be c21b 17be 026a eabc 59f7 393d
00000100: a771 ffbd 571d 683d 2a1f ad3c 196a c7bd
00000110: 91b8 c3bd 2942 d9bd cacb c73c 7283 12be
00000120: d8c4 d3bd 4ec6 02be 4ec8 b63d 4542 80bc
00000130: 33d8 c139 fba3 0fbd 8314 933d 4961 093e
00000140: 0099 013d bb82 013e 138e 983d 1321 a83d
00000150: 84a5 633d 982b dc3d 1289 003c e84d 64bd
00000160: 990c a13c 5d94 db3c 040d 23bd e90f aebd
00000170: 228d 893d d037 cb3d 3bf2 03be 3d0d 023e
00000180: ba47 1abd ef2f 8f3d 28eb 033e d577 c1bd
00000190: 6bf5 c03d 566b 923d 9a57 c6bd 98f0 97bd
000001a0: 52f7 c2bd e12c a33c 2357 2b3d eaf7 f83c
000001b0: f776 15be b67f aabd f8be d83d 78de 543d
000001c0: a6ec fbbd f107 c9bd d52c e7bd 9f6a 72bd
000001d0: cfcd dabd 6c5a 02be 7c7d 3cbd 8062 45bd
000001e0: 6428 edbd f1a3 c23c df99 0cbe 43b4 703b
000001f0: 7140 bbbd f750 e2bd 912a 453d 1aaa 053e
00000200: dbef e43d c8ae 153e 236d a43d 9a0e 09be
00000210: af43 d3bd 71ee d4bd a4a3 fb3d c423 073c
00000220: 8365 0ebe 5985 6abc 1fb2 74bd 8e8c 653d
00000230: 7de7 16bd 226a 523d 650d 543d aadc fc3c
00000240: 62b0 7bbc 0fbf db3d 2744 bf3c c50a 7ebd
00000250: c851 99bd af9f 05bd 0ca5 acbd 6e99 07be
00000260: c05c e73c 4af5 203d 47a0 3a3d 50d0 ee3d
00000270: 37a2 143b 5994 0ebe 98e6 ef3d 4d8a 6ebb
00000280: 05d3 7fbc 66ee e33d dd8d 973c ba1b f7bd
00000290: 059a 0cbe 3bba df3d a630 89bd c5b8 073e
000002a0: 3902 bebd 8892 81bd 73e4 a23d dfeb 06be
000002b0: 5900 b23d 9f8c c0bd e45e 793d 942a 64bd
000002c0: 589b 7ebd 4a59 90bd 82d6 d4bd e3dd 12bc
000002d0: 06a8 013d ed49 c7bd 1a90 7f3d be04 653d
000002e0: 5458 e53d 866d 91bd 678b a0bc 200e 793d
000002f0: 0aa7 d13d d851 59bc 9ba2 213d bdea 70bd
00000300: d502 d23d ac8c 693d 07a7 e93d 24c4 8abc
00000310: 636e d83d cfa4 87bd 7530 f03d 6e04 f23d

lstm.bias_hh_l0 f4 [200]
-0.035552923 -0.11139404 0.05341658 0.110096484 -0.0839015 -0.12411481 -0.035036527 -0.014349219
0.0905462 -0.0753744 0.07247191 -0.039187875 0.004463204 -0.12658606 0.0841986 -0.13281828
0.011542564 -0.009948187 -0.00149597 -0.12723936 0.019099668 -0.11581018 -0.040074803 -0.05710313
-0.12734823 0.0031898615 -0.12949488 -0.09062654 0.061752237 -0.08250809 -0.026290826 -0.053712506
-0.078539014 -0.04018194 -0.024086146 -0.034354888 -0.11846394 -0.06199762 0.024367252 0.014011084
0.0077751465 0.021386113 0.012440376 -0.06557904 0.002967852 0.044146895 0.038770027 0.07095506
-0.063227795 0.13162874 0.057799265 0.06475479 0.012867942 -0.10291914 -0.07913601 -0.14157476
-0.11391 0.08694445 -0.009754876 -0.056669332 -0.04472548 -0.13244323 0.10906813 -0.0386422
-0.034900475 -0.14247681 0.009966908 -0.047482576 -0.012502243 -0.133716 0.010430188 0.0590876
0.11932464 0.04013451 0.111666724 -0.09778979 -0.05472756 0.0019101205 0.11704423 0.11830885
-0.00650486 -0.1274043 0.033538926 0.04076902 -0.0189179 0.009906634 -0.098511554 0.1263919
-0.11326704 0.10534568 -0.10027359 -0.000119770586 -0.12242285 -0.076402105 0.010792142 0.018225014
0.08976712 -0.09130714 -0.0931121 0.13689467 0.119672105 0.056850147 0.013968374 0.018428149
-0.05688976 -0.108893886 0.10733581 -0.0036130776 -0.018013226 0.114187494 -0.06084801 0.005775129
-0.065062664 0.108109616 -0.12443168 0.044563793 0.099188454 0.036441647 -0.079836786 -0.018709414
-0.074930005 -0.06583425 -0.0020388125 -0.06319238 0.022076763 0.032117777 -0.0528776 0.10740565
0.11294743 0.002829475 0.07360364 0.08350578 0.05491755 -0.107867435 0.090403676 -0.030310167
-0.11590757 -0.028947411 -0.08249374 0.07891996 -0.11128645 -0.03415911 0.081881024 -0.041365158
0.02187275 -0.08791669 0.03133148 -0.053730104 0.004819363 0.1451863 0.0018756367 0.07140772
0.055525538 -0.13174346 -0.1454835 -0.018843414 0.1114625 0.08915529 -0.1116889 0.06586256
0.075858094 -0.0799391 -0.07139244 -0.07278521 -0.09383187 -0.07475814 0.10090071 -0.0039253514
0.13737081 0.07623434 -0.019214602 -0.08785156 -0.058012694 0.007832209 -0.07741581 -0.005144717
0.115641974 0.050937295 -0.030496158 -0.025466774 -0.1425538 -0.13212645 0.12785104 -0.13538662
-0.058064472 0.12498211 0.10776015 0.069396645 0.04461456 0.078745805 -0.090757675 -0.015584506
-0.000598962 0.011596276 -0.02015976 -0.11967783 -0.11232775 -0.08674782 -0.042133555 0.105674565
00000000: f19f 11bd 8f22 e4bd 58cb 5a3d 447a e13d
00000010: 8dd4 abbd e82f febd 7682 0fbd fd18 6bbc
00000020: 4970 b93d e55d 9abd 276c 943d 7783 20bd
00000030: 1240 923b c79f 01be 5170 ac3d 8401 08be
00000040: 061d 3d3c b8fd 22bc 6c14 c4ba 094b 02be
00000050: e876 9c3c e32d edbd 7a25 24bd f9e4 69bd
00000060: 9367 02be ff0c 513b 4e9a 04be 689a b9bd
00000070: eaef 7c3d 00fa a8bd dc5f d7bc a501 5cbd
00000080: 10d9 a0bd d195 24bd 4f50 c5bc b6b7 0cbd
00000090: 399d f2bd 37f1 7dbd d59d c73c bf8e 653c
000000a0: a8c6 fe3b ee31 af3c b8d2 4b3c 4e4e 86bd
000000b0: 4b80 423b 60d3 343d 52cd 1e3d e350 913d
000000c0: 937d 81bd afc9 063e ecbe 6c3d 299e 843d
000000d0: 10d4 523c 45c7 d2bd 0f12 a2bd f9f8 10be
000000e0: a549 e9bd ef0f b23d ead2 1fbc 1a1e 68bd
000000f0: 1132 37bd 339f 07be 1d5f df3d 4947 1ebd
00000100: cdf3 0ebd 71e5 11be 3e4c 233c 177d 42bd
00000110: 35d6 4cbc d9ec 08be 61e3 2a3c d705 723d
00000120: 7a60 f43d 1564 243d 86b1 e43d 0346 c8bd
00000130: 022a 60bd 025d fa3a e3b4 ef3d e94b f23d
00000140: b826 d5bb 4676 02be 1d60 093d 6afd 263d
00000150: b6f9 9abc 6f4f 223c 6dc0 c9bd e16c 013e
00000160: 8df8 e7bd 7abf d73d 3d5c cdbd 582d fbb8
00000170: d5b8 fabd b578 9cbd 86d1 303c a04c 953c
00000180: d3d7 b73d 3dff babd 8fb1 bebd 1e2e 0c3e
00000190: a616 f53d b3db 683d 9bdb 643c a1f6 963c
000001a0: 3d05 69bd c203 dfbd e1d2 db3d 62c9 6cbb
000001b0: 7990 93bc 22db e93d c33b 79bd 4b3d bd3b
000001c0: 933f 85bd 9368 dd3d 09d6 febd 8688 363d
000001d0: 5123 cb3d d643 153d 7881 a3bd 7c44 99bc
000001e0: e774 99bd 1bd4 86bd 999d 05bb 026b 81bd
000001f0: 54da b43c ee8d 033d 2f96 58bd 7ef7 db3d
00000200: fb50 e73d b76e 393b 81bd 963d 1405 ab3d
00000210: 3af1 603d 9ae9 dcbd 9025 b93d 074d f8bc
00000220: f360 edbd 1f23 edbc 7af2 a8bd caa0 a13d
00000230: 26ea e3bd 6cea 0bbd 3db1 a73d 836e 29bd
00000240: 7b2e b33c aa0d b4bd 7055 003d 1914 5cbd
00000250: bfeb 9d3b b8ab 143e edd7 f53a 363e 923d
00000260: bf6e 633d c2e7 06be a0f9 14be 815d 9abc
00000270: 7446 e43d 0c97 b63d 26bd e4bd f3e2 863d
00000280: 7d5b 9b3d 1cb7 a3bd 3336 92bd 6a10 95bd
00000290: ec2a c0bd cc1a 99bd 08a5 ce3d 3ca0 80bb
000002a0: efaa 0c3e c020 9c3d f167 9dbc 85eb b3bd
000002b0: b89e 6dbd aa52 003c 2e8c 9ebd 0495 a8bb
000002c0: b3d5 ec3d a0a3 503d 14d3 f9bc b29f d0bc
000002d0: a0f9 11be 284c 07be 62eb 023e caa2 0abe
000002e0: 03d5 6dbd 9ff6 ff3d 5bb1 dc3d d41f 8e3d
000002f0: c2bd 363d 7b45 a13d 29df b9bd 2856 7fbc
00000300: a903 1dba 4ffe 3d3c 1526 a5bc a619 f5bd
00000310: 170c e6bd d7a8 b1bd 3c94 2cbd e86b d83d

lstm.weight_ih_l1 f4 [200, 50]
0.06708048 -0.03280879 -0.10227144 0.0146224275 -0.018437814 0.03377893 0.007277933 0.0891808
0.040658962 0.13191366 0.033227094 -0.12825672 0.06851824 -0.030536478 0.06505426 -0.019646306
0.02539943 0.11821413 0.008900995 -0.061780207 0.045938738 0.11309965 0.028295204 0.03918048
-0.004616807 -0.02783727 0.12257957 -0.05710809 -0.023701048 -0.075524926 -0.09816214 -0.104600854
0.04966486 0.0443393 -0.03864318 -0.08467766 0.07684964 0.03766248 -0.044781182 -0.038402725
-0.03156128 -0.13023464 -0.09095125 -0.0089169545 0.09789272 0.002876113 0.07237244 0.020750184
-0.057674915 -0.058989387 0.09558401 0.08036517 -0.012280954 -0.055464983 -0.07998871 -0.14054511
-0.005239173 -0.08783813 -0.085563496 -0.08639197 0.10610349 0.11178886 0.061088257 -0.0445807
0.060307052 -0.12051593 0.05994147 -0.11600879 -0.119710684 -0.08378481 0.033476107 0.06587287
0.10038906 0.14165546 -0.02762664 0.01202312 0.07483402 0.04590779 0.009573958 -0.007317692
0.13320912 0.12997992 -0.010329968 0.110843875 0.04675497 0.03912429 0.084979944 -0.10810422
-0.071070045 -0.08390349 -0.07567887 0.011077875 -0.11065496 0.13954371 -0.04322567 -0.07401878
-0.08218167 0.13473861 -0.11625666 -0.0023526638 -0.011162678 -0.032597736 0.02937331 -0.055655472
-0.13408065 0.023636714 -0.045277756 0.07700846 0.047048077 -0.07168781 0.06963082 -0.09994592
-0.12486545 0.11854616 0.103328325 0.1356669 -0.12002227 -0.058168434 0.032177877 0.106664516
-0.12762922 0.018390464 0.12616917 0.007490123 -0.13595203 0.12816958 -0.051677886 -0.106828675
0.09277015 0.016821556 0.1211279 -0.081736505 -0.11792432 -0.041439842 0.12033234 0.07805276
0.1398752 -0.0068997587 0.0057297572 -0.019090965 -0.042518932 -0.027316304 0.1362866 0.09293693
-0.10720406 0.10399837 0.06321787 0.11400101 0.093042545 0.10252298 0.045641053 0.110843174
0.09927708 -0.02134803 0.04732235 0.030361429 0.030294152 -0.058187604 0.053759813 0.14168735
-0.10893735 0.052751873 -0.12513535 0.030481467 -0.05785562 0.014060455 -0.1322691 0.11692876
0.10638554 -0.06792807 -0.013049175 0.11498979 0.049670257 0.051828273 -0.0788601 -0.13604505
-0.011875145 -0.11026167 0.025600227 -0.019727737 -0.051029313 0.04322185 0.06517712 -0.10310897
0.08546214 0.07545134 -0.084988706 -0.0071761543 -0.08562043 0.1400516 -0.014291081 0.11872467
0.03347034 0.08862634 0.02175983 -0.10526909 -0.060235705 0.056427777 0.021611137 0.06317492
0.061828636 -0.021674301 0.070170075 0.11066361 -0.1319827 -0.07822643 0.01161177 0.030156087
-0.01694173 0.021958096 0.1312907 0.13611326 0.09991311 -0.12978226 0.05613427 0.12827465
-0.030124698 -0.12576248 -0.025131345 0.08558944 -0.028739784 0.121115476 0.07843445 -0.07488494
-0.124607995 0.004015923 0.032240067 0.11315749 -0.116455704 0.10134087 -0.05537114 0.11438781
0.08280456 -0.070774905 -0.12762585 0.048968274 -0.03479712 -0.11065582 -0.09008346 -0.043318044
0.085657924 0.04336873 -0.13378718 -0.048668846 -0.007926614 -0.024221977 -0.11557526 -0.07467734
-0.13547212 0.039450016 0.08626697 0.11457107 0.102684885 -0.077523135 0.044536028 -0.11043422
00000000: 7e61 893d 8362 06bd b073 d1bd e892 6f3c
00000010: e60a 97bc c65b 0a3d ba7b ee3b 6ca4 b63d
00000020: 038a 263d 6014 073e 2219 083d bb55 03be
00000030: 4a53 8c3d a327 fabc 2b3b 853d 4af1 a0bc
00000040: 7712 d03c 401a f23d 7bd5 113c 3e0d 7dbd
00000050: 422a 3c3d caa0 e73d 58cb e73c b67b 203d
00000060: 9648 97bb fd0a e4bc ff0a fb3d 2cea 69bd
00000070: b328 c2bc d0ac 9abd 3b09 c9bd f938 d6bd
00000080: 616d 4b3d 209d 353d 5048 1ebd 7b6b adbd
00000090: 5863 9d3d f943 1a3d 796c 37bd 2d4c 1dbd
000000a0: 6746 01bd 3b5c 05be a644 babd 6b18 12bc
000000b0: fa7b c83d 2b7d 3c3b 0038 943d 4afc a93c
000000c0: 883c 6cbd db9e 71bd 8dc1 c33d 7f96 a43d
000000d0: 0e36 49bc 402f 63bd 1fd1 a3bd 0feb 0fbe
000000e0: 5ead abbb 7ae4 b3bd ea3b afbd 46ee b0bd
000000f0: c94c d93d 8ff1 e43d ae37 7a3d 419a 36bd
00000100: 8704 773d 0ed1 f6bd 3085 753d 0496 edbd
00000110: e02a f5bd 5f97 abbd 3e1e 093d 5be8 863d
00000120: c898 cd3d 210e 113e 4351 e2bc 9ffc 443c
00000130: 9442 993d cf09 3c3d 17dc 1c3c 40c9 efbb
00000140: f967 083e 7519 053e 073f 29bc 1d02 e33d
00000150: 2482 3f3d cb40 203d f709 ae3d bf65 ddbd
00000160: 2c8d 91bd 98d5 abbd 86fd 9abd fa7f 353c
00000170: 119f e2bd 8ce4 0e3e 660d 31bd 2897 97bd
00000180: dd4e a8bd ebf8 093e f917 eebd 262f 1abb
00000190: aae3 36bc 3485 05bd 4ca0 f03c fef6 63bd
000001a0: 704c 09be c8a1 c13c 2b75 39bd 9db6 9d3d
000001b0: 7cb5 403d 0fd1 92bd 9a9a 8e3d 72b0 ccbd
000001c0: 75b9 ffbd 54c8 f23d cd9d d33d 44ec 0a3e
000001d0: 3cce f5bd 0642 6ebd f3cc 033d ed72 da3d
000001e0: 3cb1 02be 99a7 963c 7e32 013e b56f f53b
000001f0: 0237 0bbe e33e 033e 31ac 53bd fec8 dabd
00000200: 47fe bd3d 5ccd 893c e811 f83d 7865 a7bd
00000210: 4e82 f1bd d3bc 29bd cd70 f63d 20da 9f3d
00000220: 723b 0f3e 5f17 e2bb b0c0 bb3b a864 9cbc
00000230: 5528 2ebd 71c6 dfbc b78e 0b3e b855 be3d
00000240: cd8d dbbd 19fd d43d 5f78 813d 5d79 e93d
00000250: 178d be3d 91f7 d13d 1df2 3a3d bf01 e33d
00000260: c851 cb3d 10e2 aebc 15d5 413d 88b8 f83c
00000270: 712b f83c 2056 6ebd 4033 5c3d 7d16 113e
00000280: 8c1a dfbd 5912 583d 7b23 00be 45b4 f93c
00000290: 04fa 6cbd d35d 663c 8d71 07be 5978 ef3d
000002a0: a9e0 d93d df1d 8bbd 35cc 55bc c47f eb3d
000002b0: 0a73 4b3d e249 543d 6781 a1bd 654f 0bbe
000002c0: f88f 42bc dfd0 e1bd 91b7 d13c 109c a1bc
000002d0: 1d04 51bd 6509 313d 957b 853d cc2a d3bd
000002e0: c606 af3d 3b86 9a3d 8f0e aebd f225 ebbb
000002f0: c459 afbd b069 0f3e 2325 6abc eb25 f33d
00000300: 3218 093d ba81 b53d ac41 b23c 5297 d7bd
00000310: b7b9 76bd d020 673d d709 b13c da61 813d
00000320: 0640 7d3d 4e8e b1bc 54b5 8f3d 9aa3 e23d
00000330: 7926 07be 2e35 a0bd 4b3f 3e3c e609 f73c
00000340: 62c9 8abc 77e1 b33c 1271 063e 4661 0b3e
00000350: 3f9f cc3d a4e5 04be 0ced 653d 6e5a 033e
00000360: 12c8 f6bc e1c7 00be 40e0 cdbc 8449 af3d
00000370: b26f ebbc 640b f83d 3ea2 a03d 475d 99bd
00000380: 7a32 ffbd 0198 833b 290e 043d 1dbf e73d
00000390: 5480 eebd cd8b cf3d d9cc 62bd 2844 ea3d
000003a0: 7095 a93d 6ff2 90bd 5ab0 02be f592 483d
000003b0: 6d87 0ebd 859f e2bd ad7d b8bd 436e 31bd
000003c0: 6c6d af3d 69a3 313d 82ff 08be fc58 47bd
000003d0: a1de 01bc 2b6d c6bc b9b2 ecbd 6ff0 98bd
000003e0: 34b9 0abe 5796 213d bdac b03d 3da4 ea3d
000003f0: 744c d23d 73c4 9ebd 696b 363d 562b e2bd

lstm.weight_hh_l1 f4 [200, 50]
-0.051339418 -0.052683286 0.058663227 0.13760771 0.0028351513 0.02204417 0.10224517 -0.131621
0.0998271 0.09815163 -0.056473393 0.11439976 0.14057674 -0.032789927 -0.0898655 -0.11177182
-0.008669228 -0.0790287 0.12548354 0.105287716 0.0253588 -0.09909939 -0.123250045 0.064243495
0.11372532 -0.02104394 -0.09805472 -0.13978827 -0.0857933 0.04341461 0.10617019 0.018786889
0.1250847 -0.08580902 -0.1275616 0.10117152 0.069834955 -0.0043591703 0.13479292 0.109127626
0.0047383304 -0.04659829 0.14181755 -0.12086285 -0.004927037 0.051540967 -0.11640359 0.13935243
0.099892326 0.08348645 -0.019464277 0.03245413 -0.12335293 0.0042757294 -0.12962534 -0.14288631
-0.12138274 -0.04005484 0.019057332 -0.065855786 0.0053470787 -0.06066404 -0.049791675 -0.07161672
-0.10312802 0.06622439 -0.05548719 0.09153345 -0.0893174 -0.025478356 0.1393672 -0.035070095
0.09544647 0.020158602 0.094665356 -0.06362932 -0.12056873 0.045132447 -0.1308164 0.08711529
0.04275704 0.10953023 0.1282024 -0.036293786 -0.10748181 0.07022165 -0.035309065 -0.008798316
-0.060439505 0.097339995 0.08494429 0.09601167 0.11436602 0.026483532 -0.09567749 0.033079505
-0.03274352 -0.07873169 0.04847817 0.085060455 -0.059207715 -0.09712638 -0.137957 -0.032214835
0.13459978 0.038049653 0.11764774 -0.1304579 0.09748337 -0.08408242 -0.036322657 -0.016434932
-0.11147795 -0.037558205 0.13152139 -0.016755324 -0.09463685 0.06730946 -0.07239057 -0.07112924
0.059887502 0.11287455 -0.04530585 0.12517014 0.085319035 -0.048427626 0.036183916 0.050296973
-0.12634395 0.113747485 0.055082448 -0.07962338 0.06867785 -0.12762666 0.12037956 -0.029657464
0.1422947 -0.031641103 -0.024094254 0.09947705 0.05085983 -0.045702968 0.13837883 -0.018427156
-0.13028024 0.07569336 -0.13803609 0.00026675846 0.0898905 0.0075620324 -0.1272579 0.104938835
-0.12731743 -0.13427459 0.109989956 0.111227214 0.0058951257 -0.04382207 0.059324477 -0.05382614
-0.018820364 -0.1148403 0.10871622 -0.055527113 0.043416835 0.08361932 -0.10553063 -0.0362906
0.0031168547 -0.010951074 0.13051334 -0.11518324 0.095867634 0.12531298 -0.09755951 -0.0951056
0.12368519 0.059832994 0.09902804 -0.04231934 -0.053161416 -0.1162832 0.02298097 -0.090683855
-0.058281988 -0.041796777 -0.039428174 0.021230655 0.110291414 0.13190028 -0.022159874 0.05414759
0.11052192 0.07044795 -0.009854158 0.08807213 -0.103677645 0.12181868 0.013174458 0.08732561
-0.025740214 0.031034656 -0.019123808 -0.015772618 -0.10745433 0.0530479 0.019127315 -0.044358753
-0.0011508781 0.13345058 0.112565435 -0.116901286 -0.13548103 -0.035486307 0.1304631 0.027255675
0.1279234 -0.0019179237 -0.10464099 -0.012011334 -0.07130269 -0.09153683 -0.13595071 0.13606972
3.3311055e-05 0.038803242 0.094809756 0.055754922 0.14058594 -0.053515576 -0.089938276 0.06575877
-0.031687822 -0.08491065 -0.060030997 0.08217479 -0.10728163 0.13691854 -0.09429018 0.083417594
0.04980298 -0.11469963 -0.011434882 -0.05400279 0.07517834 -0.12227814 0.09270501 -0.06624469
-0.01339348 0.033649307 0.063525304 0.07933642 0.0062605687 -0.09197544 0.11879271 -0.11415647
00000000: 4849 52bd 6eca 57bd da48 703d 09e9 0c3e
00000010: f2cd 393b fa95 b43c ea65 d13d a8c7 06be
00000020: 2772 cc3d b903 c93d a550 67bd 6c4a ea3d
00000030: 59f3 0f3e bb4e 06bd 670b b8bd a0e8 e4bd
00000040: 6109 0ebc cdd9 a1bd c27e 003e 16a1 d73d
00000050: 42bd cf3c 9ff4 cabd 856a fcbd 1892 833d
00000060: d2e8 e83d 5764 acbc ead0 c8bd a824 0fbe
00000070: 66b4 afbd 85d3 313d c26f d93d f6e6 993c
00000080: 3416 003e a4bc afbd 829f 02be 0433 cf3d
00000090: a105 8f3d 5fd7 8ebb 2807 0a3e 4e7e df3d
000000a0: ff43 9b3b d9dd 3ebd 9f38 113e f186 f7bd
000000b0: fb72 a1bb 9f1c 533d 0165 eebd 67b2 0e3e
000000c0: 5994 cc3d f2fa aa3d 8c73 9fbc 9fee 043d
000000d0: 76a0 fcbd 6b1b 8c3b 81bc 04be ca50 12be
000000e0: 8497 f8bd 8b10 24bd 1f1e 9c3c 66df 86bd
000000f0: 8c36 af3b db7a 78bd 5bf2 4bbd c9ab 92bd
00000100: c934 d3bd a7a0 873d 8946 63bd e475 bb3d
00000110: 0aec b6bd fcb7 d0bc 46b6 0e3e a9a5 0fbd
00000120: 7079 c33d a723 a53c e9df c13d 1750 82bd
00000130: bdec f6bd cddc 383d bcf4 05be 8069 b23d
00000140: 0222 2f3d 6351 e03d 7d47 033e cba8 14bd
00000150: 6c1f dcbd 5ed0 8f3d 3da0 10bd d026 10bc
00000160: 6a8f 77bd 315a c73d 46f7 ad3d c4a1 c43d
00000170: bb38 ea3d fef3 d83c 8ff2 c3bd 607e 073d
00000180: 121e 06bd 153e a1bd 0c91 463d 2d34 ae3d
00000190: ca83 72bd 32ea c6bd 9a44 0dbe b4f3 03bd
000001a0: 86d4 093e f4d9 1b3d 4cf1 f03d c196 05be
000001b0: 5ca5 c73d 6733 acbd 11c7 14bd 8da2 86bc
000001c0: 8d4e e4bd a2d6 19bd 8bad 063e 7642 89bc
000001d0: f7d0 c1bd 8bd9 893d 8241 94bd 35ac 91bd
000001e0: 994c 753d c62a e73d a192 39bd 9a2c 003e
000001f0: bfbb ae3d 0c5c 46bd 9635 143d 3304 4e3d
00000200: 4f60 01be 71f4 e83d 229e 613d 9511 a3bd
00000210: f9a6 8c3d 90b0 02be 8f89 f63d 36f4 f2bc
00000220: b4b5 113e 1a9a 01bd 5061 c5bc a0ba cb3d
00000230: 6652 503d 0933 3bbd 2eb3 0d3e 8cf4 96bc
00000240: 2f68 05be 1f05 9b3d 5559 0dbe b7db 8b39
00000250: 8318 b83d edca f73b e54f 02be 2cea d63d
00000260: 805f 02be 477f 09be 6a42 e13d 18cb e33d
00000270: e62b c13b c57e 33bd 39fe 723d cc78 5cbd
00000280: 2a2d 9abc 6431 ebbd 9ca6 de3d 6670 63bd
00000290: dad5 313d 9b40 ab3d 7120 d8bd 74a5 14bd
000002a0: 2544 4c3b 226c 33bc 4aa5 053e 31e5 ebbd
000002b0: 4056 c43d 0c52 003e 48cd c7bd bac6 c2bd
000002c0: a94e fd3d 7113 753d 37cf ca3d 0b57 2dbd
000002d0: c9bf 59bd e325 eebd 9642 bc3c 75b8 b9bd
000002e0: 18b9 6ebd 1933 2bbd 707f 21bd e9eb ad3c
000002f0: 77e0 e13d de10 073e a088 b5bc ddc9 5d3d
00000300: 5159 e23d 0447 903d 5673 21bc 295f b43d
00000310: f254 d4bd 127c f93d afd9 573c c5d7 b23d
00000320: 24dd d2bc 643c fe3c 88a9 9cbc 9435 81bc
00000330: 0411 dcbd c148 593d e3b0 9c3c 86b1 35bd
00000340: 10d9 96ba 45a7 083e b588 e63d f169 efbd
00000350: 8abb 0abe 175a 11bd 1e98 053e 4b47 df3c
00000360: 5afe 023e d762 fbba 044e d6bd 30cb 44bc
00000370: 2507 92bd a977 bbbd aa36 0bbe dc55 0b3e
00000380: 79b7 0b38 26f0 1e3d 9e2b c23d 465f 643d
00000390: c3f5 0f3e 2633 5bbd 8f31 b8bd 89ac 863d
000003a0: 17cb 01bd a3e5 adbd 10e3 75bd 424b a83d
000003b0: 79b6 dbbd 6034 0c3e 361b c1bd d8d6 aa3d
000003c0: 36fe 4b3d a4e7 eabd 5f59 3bbc 0832 5dbd
000003d0: 1af7 993d f66c fabd 20dc bd3d 4cab 87bd
000003e0: 5470 5bbc dbd3 093d 8e19 823d 227b a23d
000003f0: 7525 cd3b 9f5d bcbd 9849 f33d deca e9bd

lstm.bias_ih_l1 f4 [200]
0.0071289083 -0.09942077 0.019834511 0.09209755 0.11667948 0.11418666 -0.10399295 0.03498979
-0.046859477 -0.041492052 -0.1415246 -0.035091933 -0.07158935 0.09585165 -0.11570812 0.035683375
0.004090837 0.08403598 0.13843024 -0.0073772455 -0.04039964 -0.11575105 0.12051892 0.07945884
0.13982637 0.008722889 -0.100627616 -0.010763542 0.14424193 -0.040122595 -0.10389466 0.053672098
-0.09175083 0.075338274 -0.1075073 -0.1451932 0.068357565 0.02861783 0.08000154 0.012006111
0.072804645 -0.096269034 0.077727735 0.035102334 -0.12204108 -0.11287513 0.019192519 0.02021522
0.08806601 -0.11786 -0.14218023 0.07077021 -0.09503862 -0.014579167 -0.035358824 0.12984712
0.115370266 0.07416403 -0.051108487 0.042440042 -0.010712073 0.027562695 0.07930946 -0.016627101
0.016661858 -0.041301973 -0.103085965 0.10777021 0.01098653 0.051145606 -0.02438055 0.1076147
-0.118085615 -0.13139586 -0.043197587 0.13539363 -0.07511706 -0.058974702 0.15528283 0.032355312
-0.11756002 0.119063064 0.13558137 0.07163097 -0.117305435 -0.097094186 -0.048491873 -0.14411372
0.08428694 0.07117699 0.12539677 -0.07531126 0.13737954 -0.06695078 -0.114974 0.1119647
0.06134021 0.0034891397 -0.08755557 0.09436482 0.014615815 -0.14456612 0.032749668 -0.043521345
0.10885996 0.026133182 -0.019783009 0.07024013 -0.06281262 -0.07172632 -0.082279116 -0.14671838
-0.095645815 0.1372121 0.0031755893 0.09717507 -0.03232948 -0.09675353 0.15669979 0.0956109
0.09218823 -0.0655072 0.04119494 0.10340374 -0.082125135 -0.14077504 -0.046913173 -0.09595378
-0.1736949 -0.11446476 -0.06781694 0.05077699 -0.13980728 -0.109805 0.07332149 0.00597158
-0.019924698 -0.055925664 -0.14603275 0.119380094 0.087393805 0.0011008418 -0.1255951 0.06964603
-0.09121431 0.10239957 0.047313523 -0.014348041 0.025260832 -0.09381002 0.10430381 0.087735824
0.09882927 0.12469876 0.07313586 0.13017924 -0.1102568 -0.116111435 -0.09506334 0.1214376
0.088240676 -0.05233533 -0.10089359 -0.0477402 -0.12091036 0.024382014 0.06638577 -0.057480447
0.113713354 -0.11029497 -0.06173256 0.06629405 -0.003504959 -0.09292485 0.11093133 -0.006294849
-0.098301254 -0.05423615 0.05348378 0.046753727 -0.010581177 0.11387944 0.13755807 0.032989886
0.025953319 0.02641487 0.018518925 -0.04737999 0.032439098 -0.0145856375 0.098034136 0.0069098887
0.03753244 -0.05219728 -0.055237107 -0.11435571 -0.060833093 -0.057424556 0.10857079 -0.12653522
00000000: 9e99 e93b 1e9d cbbd fc7b a23c a49d bc3d
00000010: a7f5 ee3d b2da e93d 41fa d4bd 7451 0f3d
00000020: b9ef 3fbd 92f3 29bd d3eb 10be 8fbc 0fbd
00000030: 709d 92bd df4d c43d 61f8 ecbd bb28 123d
00000040: 6e0c 863b 0e1b ac3d a8c0 0d3e d2bc f1bb
00000050: 187a 25bd e30e edbd a0d2 f63d 51bb a23d
00000060: a52e 0f3e 73ea 0e3c da15 cebd 9159 30bc
00000070: 28b4 133e 9757 24bd b9c6 d4bd 46d7 5b3d
00000080: dce7 bbbd f44a 9a3d ca2c dcbd 87ad 14be
00000090: 0dff 8b3d f06f ea3c d9d7 a33d 48b5 443c
000000a0: 9a1a 953d b328 c5bd b82f 9f3d 77c7 0f3d
000000b0: acf0 f9bd 132b e7bd a139 9d3c 649a a53c
000000c0: f45b b43d 9560 f1bd b297 11be f9ef 903d
000000d0: 9ca3 c2bd 75dd 6ebc 6ad4 10bd a5f6 043e
000000e0: 3f47 ec3d 50e3 973d 2257 51bd 9cd5 2d3d
000000f0: b181 2fbc 29cb e13c 006d a23d 8f35 88bc
00000100: 737e 883c 422c 29bd bc1e d3bd a1b6 dc3d
00000110: d900 343c 0e7e 513d b8b9 c7bc 1965 dc3d
00000120: dfd6 f1bd a38c 06be f4ef 30bd a1a4 0a3e
00000130: f9d6 99bd 758f 71bd 7602 1f3e 0187 043d
00000140: 4fc3 f0bd 56d7 f33d d8d5 0a3e 42b3 923d
00000150: d53d f0bd 51d9 c6bd 6a9f 46bd 8c92 13be
00000160: a29e ac3d 3ec5 913d 0368 003e ca3c 9abd
00000170: 39ad 0c3e 7e1d 89bd 7d77 ebbd c04d e53d
00000180: df3f 7b3d 0daa 643b 5650 b3bd 5842 c13d
00000190: 2c77 6f3c 2409 14be 8424 063d 7043 32bd
000001a0: f9f1 de3d 4115 d63c fa0f a2bc 0fda 8f3d
000001b0: e7a3 80bd 40e5 92bd f481 a8bd 583d 16be
000001c0: f4e1 c3bd 5481 0c3e 8c1d 503b b903 c73d
000001d0: eb6b 04bd b726 c6bd e975 203e a6cf c33d
000001e0: 2fcd bc3d a428 86bd 07bc 283d 57c5 d33d
000001f0: 3931 a8bd 5527 10be 0728 40bd 6a83 c4bd
00000200: 13dd 31be 806c eabd 9ce3 8abd 88fb 4f3d
00000210: a429 0fbe 72e1 e0bd 9429 963d 3ead c33b
00000220: 1f39 a3bc 4f12 65bd 9c89 15be 8d7d f43d
00000230: 86fb b23d 1f4a 903a 009c 00be 94a2 8e3d
00000240: 91ce babd deb6 d13d d3cb 413d 0c14 6bbc
00000250: ceef ce3c 781f c0bd 3c9d d53d d7ae b33d
00000260: 0067 ca3d 1062 ff3d 41c8 953d b54d 053e
00000270: 51ce e1bd d5cb edbd 92b0 c2bd 47b4 f83d
00000280: 87b7 b43d 925d 56bd 4ca1 cebd 3a8b 43bd
00000290: da9f f7bd cabc c73c 43f5 873d 9e70 6bbd
000002a0: 8ce2 e83d 54e2 e1bd 48db 7cbd 2dc5 873d
000002b0: 74b3 65bb 624f bebd f72f e33d 0545 cebb
000002c0: 2b52 c9bd ba26 5ebd cf11 5b3d d680 3f3d
000002d0: ac5c 2dbc a039 e93d 06dc 0c3e 6720 073d
000002e0: 0e9c d43c ff63 d83c 00b5 973c 8511 42bd
000002f0: dcde 043d 99f8 6ebc 1fc6 c83d 596c e23b
00000300: 9ebb 193d d1cc 55bd 4e40 62bd 5433 eabd
00000310: 1f2c 79bd 0336 6bbd 5d5a de3d 7392 01be

lstm.bias_hh_l1 f4 [200]
-0.025936594 -0.12895879 -0.04534027 0.051019043 -0.10312822 0.080080874 0.0031772952 -0.13136266
0.103428185 0.10870356 0.13283682 -0.06476829 -0.0049174526 0.013861181 -0.038463566 0.1314073
-0.11717607 0.13808703 -0.026894217 0.037781425 0.07635917 -0.046924643 0.053853106 -0.0004813904
0.08866054 -0.12620609 -0.048253093 0.088482045 0.13985439 -0.13125274 -0.010232729 0.057045348
0.11286542 -0.07944281 0.0014215267 0.074456826 0.124929845 -0.017384911 -0.075245984 0.13488403
0.14258513 0.09441947 0.00912496 -0.02971805 0.03759438 -0.12502825 -0.10269697 -0.09874094
0.07705851 0.10988722 -0.1369322 -0.049757168 -0.13739906 -0.091493845 -0.12284369 -0.044833943
-0.015643328 0.10631606 0.014781071 -0.06871633 -0.03566326 0.13346039 0.039847434 0.08435542
-0.06044432 -0.07630949 0.024130004 -0.020996451 -0.037117187 -0.0035103962 0.027679607 0.028848298
-0.093114145 -0.0021636393 0.028151393 0.1269476 0.050986942 0.13415807 -0.047127552 -0.066227384
0.10720479 0.12876554 -0.06526214 -0.09754841 0.11496105 -0.028072488 0.007853775 0.025358485
0.0073152287 0.08284971 0.12113514 0.077374816 -0.11851989 0.016208034 0.0083243735 -0.07807055
0.11537915 -0.09530575 -0.050138872 -0.0074025104 -0.060774695 0.12006331 -0.027817968 -0.075963624
-0.02617737 -0.011132029 0.022714555 0.009825474 0.028261153 0.08225947 0.06920391 -0.08696146
0.091972254 0.13815029 -0.057287864 0.10538591 -0.14611043 -0.08513432 0.03607611 -0.10315451
0.041447382 -0.11067781 0.0075344048 -0.11440306 -0.13406737 -0.12541814 -0.022616137 0.00367776
-0.023764098 -0.07993044 0.032041788 0.046802625 0.03147125 0.1253458 -0.013631384 0.046541464
-0.122200556 0.018800708 -0.017716466 -0.053359974 0.07740805 0.033479944 0.11631919 0.029186774
0.09202669 0.039308466 -0.06563836 0.06574797 -0.16051382 0.13821758 -0.013509079 -0.053240065
0.083152115 -0.018659692 -0.011925734 -0.14200121 -0.14425552 -0.05825112 0.0016144526 0.024925886
-0.0913428 -0.12732765 -0.051413782 -0.04597524 0.11185476 0.112664014 -0.007881633 0.09453982
0.08905968 0.047549296 -0.06266977 0.07314847 -0.06561766 -0.09634231 -0.08392937 -0.11057578
-0.041422144 0.12563673 -0.10549568 -0.090772636 0.040754978 0.007667668 0.05956079 -0.058747623
0.07336305 0.016314957 -0.065783024 -0.0671255 -0.092579685 0.11616661 -0.107259534 -0.14150584
-0.045388088 0.023347957 0.056170486 0.05276876 -0.0969862 -0.01236423 0.052753724 0.10031197
00000000: fb78 d4bc c60d 04be b8b6 39bd 58f9 503d
00000010: e334 d3bd 7101 a43d 2b3a 503b ef83 06be
00000020: 28d2 d33d f99f de3d 6006 083e 3da5 84bd
00000030: 9522 a1bb 021a 633c f98b 1dbd a38f 063e
00000040: 02fa efbd b066 0d3e 4351 dcbc b2c0 1a3d
00000050: 3262 9c3d 0e34 40bd 1395 5c3d 2063 fcb9
00000060: a893 b53d 2b3c 01be 09a5 45bd 1336 b53d
00000070: fd35 0f3e 1e67 06be 2da7 27bc 62a8 693d
00000080: fc25 e73d e9b2 a2bd 8552 ba3a d27c 983d
00000090: 38db ff3d cd6a 8ebc 911a 9abd 0a1f 0a3e
000000a0: d601 123e ff5e c13d db80 153c 4573 f3bc
000000b0: 91fc 193d 6807 00be ca52 d2bd b138 cabd
000000c0: dad0 9d3d 8d0c e13d f437 0cbe 2cce 4bbd
000000d0: 57b2 0cbe 2061 bbbd 7995 fbbd cca3 37bd
000000e0: 7026 80bc 3cbc d93d 4e2c 723c 26bb 8cbd
000000f0: a313 12bd d7a9 083e 1037 233d 89c2 ac3d
00000100: 7794 77bd 2648 9cbd 49ac c53c c000 acbc
00000110: 3108 18bd ad0e 66bb 58c0 e23c 4453 ec3c
00000120: a1b2 bebd d8cb 0dbb c09d e63c 8dfe 013e
00000130: afd7 503d bc60 093e d208 41bd 39a2 87bd
00000140: 2f8e db3d 1ddb 033e 28a8 85bd 76c7 c7bd
00000150: b370 eb3d 46f8 e5bc 1fad 003c 99bc cf3c
00000160: 96b4 ef3b 1cad a93d b315 f83d b076 9e3d
00000170: 8eba f2bd b6c6 843c f462 083c 74e3 9fbd
00000180: e74b ec3d a92f c3bd 6b5e 4dbd c290 f2bb
00000190: e3ee 78bd c1e3 f53d 82e2 e3bc d192 9bbd
000001a0: ed71 d6bc 1d63 36bc e013 ba3c 06fb 203c
000001b0: ef83 e73c a777 a83d c8ba 8d3d da18 b2bd
000001c0: f35b bc3d 4577 0d3e aea6 6abd 91d4 d73d
000001d0: f99d 15be e75a aebd 8bc4 133d ac42 d3bd
000001e0: bbc4 293d 0cab e2bd 2be3 f63b 274c eabd
000001f0: f548 09be 9d6d 00be 7a45 b9bc 9306 713b
00000200: edac c2bc 92b2 a3bd 403e 033d 1cb4 3f3d
00000210: ffe7 003d a65a 003e 2b56 5fbc 43a2 3e3d
00000220: 4944 fabd f103 9a3c 1f22 91bc fd8f 5abd
00000230: 1d88 9e3d 4422 093d c138 ee3d 1a19 ef3c
00000240: 7d78 bc3d ea01 213d 686d 86bd dfa6 863d
00000250: bc5d 24be e988 0d3e 2f55 5dbc 4112 5abd
00000260: a84b aa3d 36dc 98bc 2764 43bc c468 11be
00000270: b8b7 13be ba98 6ebd 0a9c d33a 5f31 cc3c
00000280: ef11 bbbd 2e62 02be 4297 52bd 8950 3cbd
00000290: 1c14 e53d 64bc e63d f721 01bc 189e c13d
000002a0: ec64 b63d 0dc3 423d 0259 80bd ddce 953d
000002b0: 8d62 86bd 1e4f c5bd 29e3 abbd 8e75 e2bd
000002c0: 44aa 29bd eaa6 003e 1e0e d8bd 01e7 b9bd
000002d0: b1ee 263d 1041 fb3b 04f6 733d 59a1 70bd
000002e0: 5e3f 963d f2a6 853c 40b9 86bd 1879 89bd
000002f0: 6b9a bdbd c2e8 ed3d e3aa dbbd e8e6 10be
00000300: dce8 39bd 3744 bf3c 0613 663d 0e24 583d
00000310: b3a0 c6bd 5793 4abc 4a14 583d 5d70 cd3d
