LSTM/model_recursion/best_epoch_model_96_layer4_1.pth (torch, 126092 bytes, 18 tensors)

lstm.weight_ih_l0 f4 [128, 7]
000000 1d 79 3c 3e e9 4b 13 3e cb e7 db 3d 04 9b fe 3d
       0.18405576 0.14384426 0.107375704 0.12431911
000010 03 de d9 3d b6 4d 90 3e 43 2c b2 3d fd 9f 49 be
       0.106380485 0.2818429 0.086998485 -0.19689937
000020 77 a1 9a be ea af c3 3c a2 50 2c be 34 9c e6 3e
       -0.30201313 0.023887593 -0.16827634 0.4504105
000030 dd 5a 61 bd f8 c8 0e be d3 82 e2 3d d4 a1 00 be
       -0.055018295 -0.13943851 0.11060109 -0.12561733
000040 e5 c1 a0 3d c6 50 21 be eb 54 1f bc 76 03 ff 3d
       0.078494824 -0.15753469 -0.009724836 0.12451832
000050 76 ca 68 be b2 fa c8 3e 55 d7 16 3e 10 2b a6 3e
       -0.22733483 0.39253765 0.1473058 0.3245473
000060 ac a1 14 3b b6 13 2d be 3e 86 28 bd 38 71 47 bc
       0.0022679372 -0.1690205 -0.04114365 -0.01217299
000070 5d 41 d9 bd 59 c7 0c 3e 3b b9 bf 3d eb 02 80 bc
       -0.1060817 0.1374792 0.09361502 -0.015626391
000080 bb 0c f4 3c 85 81 00 be a1 28 d6 3b 97 9d bc bd
       0.029791227 -0.12549408 0.006535605 -0.092097454
000090 31 90 3c 3d 36 f7 c0 3d a4 1c 71 bd f4 56 3d 3e
       0.04603595 0.09422152 -0.058865204 0.18490201
0000a0 95 fc a6 3e 1b 57 12 3d b2 49 23 3d f7 6f 53 bd
       0.3261458 0.0357276 0.039865203 -0.05162045
0000b0 84 20 17 bd ad fd c2 3d f5 f7 8d 3d 08 19 f9 bd
       -0.036896244 0.09521041 0.0693206 -0.121629775
0000c0 d6 b8 12 3e 79 f7 86 3a 4f e6 46 3e 98 c3 0b 3c
       0.14328322 0.0010297141 0.19423793 0.00853052
0000d0 91 00 22 3e e2 e6 8b 3c 4c b4 39 3e a7 b7 3b be
       0.15820529 0.017077867 0.18135184 -0.18331777
0000e0 5f af d4 ba 4c 9f 04 3e 3d 3d cd bd a6 78 96 3d
       -0.0016226581 0.12951392 -0.10021446 0.073472306
0000f0 78 52 1a 3e dd 7f 17 bc a0 e0 f6 3c 41 e9 80 3e
       0.15070522 -0.009246794 0.030136406 0.2517796
000100 17 ea 4c be cf cc 8d 3e 8e 4a 7c be 70 0e 07 3e
       -0.20011173 0.2769532 -0.24637815 0.13189101
000110 70 36 f1 bc 70 da 0b 3e 4d 51 9b 3d 19 e9 c3 3b
       -0.029444903 0.13657546 0.07583866 0.005978715
000120 a8 c7 ef 3d da 50 dd 3d 9d 48 af be 09 aa 12 bd
       0.11708003 0.10806437 -0.34235087 -0.03580669
000130 cc 89 f3 3d 30 5b 49 3d 37 f0 50 3d 61 86 d4 bd
       0.11891517 0.04915923 0.051010337 -0.10377193
000140 ce 6d 12 be 0c 1d a3 3e af 86 3d be c7 90 48 3e
       -0.142997 0.31858099 -0.18508409 0.19586478
000150 bf da b4 bd e7 23 3b 3d e1 ae 88 3e 37 2c c5 bd
       -0.08830785 0.045688536 0.26695922 -0.09627574
000160 92 9d 9f bd 22 90 b8 bd 7b 1d c2 3c 2c 44 fc bd
       -0.07793726 -0.09011866 0.023695698 -0.1231769
000170 8c 98 6a 3d 32 2c 18 3c 88 8e 1a 3e 77 af a0 bd
       0.057274386 0.009287881 0.15093434 -0.07845967
000180 16 45 b6 bd f4 25 b3 3e ad 66 23 be e5 1b f3 3d
       -0.08899896 0.34989893 -0.15957136 0.11870555
000190 09 ce 27 bd ea 8f 43 3e 0c 17 24 be 5a 3d 3b bd
       -0.040967975 0.19097868 -0.16024417 -0.045712806
0001a0 a5 5a b3 bc 65 d3 be bc 94 fe ca bd 34 9e 79 3d
       -0.021893809 -0.02329416 -0.09911838 0.06094189
0001b0 d9 ab c9 3d 34 bf 1f be 11 ed 19 3e 49 66 e8 bc
       0.098472305 -0.15600282 0.1503184 -0.028369086
0001c0 64 ec 75 3e 78 af ed bb 72 ab 80 3e 06 6f b2 bd
       0.24015957 -0.0072535835 0.25130802 -0.08712582
0001d0 37 29 bf 3e a4 3d fa 3d 96 9a d8 bd dc c2 3a be
       0.37336132 0.12218788 -0.1057636 -0.18238395
0001e0 9c 77 16 3b b6 9f c0 bd dc b3 1d 3e 5f ef 9a 3e
       0.0022959476 -0.094054624 0.15400642 0.3026075
0001f0 c9 ae cb 3d 03 50 9d be d1 56 ff 3d 14 0f 88 bc
       0.09945447 -0.30725107 0.12467731 -0.016608752
000200 44 8c 8c 3e e8 fa 71 be 69 aa 9d 3e 33 b2 d8 3c
       0.27450764 -0.2363087 0.30794075 0.02645216
000210 e4 c2 b7 be b4 19 c9 bd 91 a8 84 bb ca c5 a8 3d
       -0.35890877 -0.098193556 -0.004048415 0.0824085
000220 91 83 58 bc ad ef 45 3e c0 30 f0 3d 18 60 e3 3d
       -0.013214962 0.1932971 0.11728048 0.11102313
000230 33 e0 93 bd c9 a2 28 be 30 ad 01 3e 08 b8 bc be
       -0.07220497 -0.16468348 0.12663722 -0.36859155
000240 3c d4 51 3d b4 6c 24 3c 8a 71 3e 3d 76 6f 32 bd
       0.051227793 0.0100356825 0.046494998 -0.04356333
000250 94 f6 29 bd ae 06 5b 3e 79 81 21 be ff b1 78 3e
       -0.04149492 0.21389267 -0.15772046 0.2428665
000260 9c 66 4c bd 80 6d 3b be 14 43 82 be 39 61 fe bd
       -0.049902543 -0.1830349 -0.25441802 -0.124208875
000270 bc 81 7e 3c 4a 17 9b 3c ca 2e 3d be 2c 16 89 be
       0.015533861 0.018932004 -0.1847488 -0.26774728
000280 61 25 3d 3e c1 7b 08 3c 0e 99 fc 3d 5d 22 db bd
       0.1847129 0.0083302865 0.1233388 -0.10699914
000290 ae 59 e9 bc 52 d3 23 3d d8 d4 5d 3e 51 b4 ed 3d
       -0.028485145 0.039996453 0.21663225 0.11606658
0002a0 12 1f 66 3d 3b fb 24 3e 4b 1c 26 3e 1f 15 34 3d
       0.056181975 0.16111462 0.1622173 0.043965455
0002b0 a5 03 32 3d 0e 9e 89 3e a4 c1 07 3e 15 26 3f 3d
       0.043460507 0.268784 0.13257462 0.046667177
0002c0 bd 08 7e 3e 2f 70 d4 bd 72 a7 02 3e 95 69 37 be
       0.24808021 -0.1037296 0.12759188 -0.1791137
0002d0 f1 21 d0 3d 9e 67 32 3d d3 c4 f7 be 24 6f 58 3d
       0.10162724 0.04355585 -0.48392352 0.052840367
0002e0 ea e0 bd be 23 7d a6 bc 6f c9 4b be b4 b3 ae bd
       -0.37085658 -0.020323342 -0.1990106 -0.085303694
0002f0 f8 44 d7 bc c8 c9 bd bd 4c fb 00 3e 61 31 00 bd
       -0.026278004 -0.09267002 0.12595862 -0.03129709
000300 99 fb 5b 3d 80 f1 9f 3d 76 bb 01 bd 90 e4 8e bd
       0.05370674 0.07809734 -0.031672917 -0.069771886
000310 8f f5 2d be 56 f7 88 3d 9b 7d 0a 3d 10 27 3f bd
       -0.16988204 0.066878006 0.033811193 -0.046668112
000320 02 e2 f2 3d 39 6d 6b be e3 b4 ec bc 1b d7 b1 3d
       0.11859514 -0.22990884 -0.028894847 0.08683606
000330 1a cd 66 bd 04 8e f7 3c fa b3 2e bd f4 0e 0e bd
       -0.056347944 0.030219086 -0.042652108 -0.03468223
000340 69 68 28 bc 63 8f a7 3d 3c 99 33 3e df ab e9 bd
       -0.0102788 0.08181646 0.17538923 -0.11409735
000350 ea 78 12 3d 93 0d 82 be 3b 9c f6 3d ec 73 a5 bd
       0.035759844 -0.2540098 0.12041517 -0.08078751
000360 c5 5d ba bd 8f c0 13 be f6 3e a5 bd 55 5f 33 be
       -0.09099916 -0.14428924 -0.080686495 -0.17516835
000370 e0 9b 4d bb 8c 48 24 3d 69 74 a1 be b5 96 c5 bd
       -0.0031373426 0.04010825 -0.31534126 -0.09647886
000380 6a 5d b2 bd 13 8d 88 3e 2d 64 57 3d f2 48 90 3e
       -0.087092236 0.2667013 0.05258577 0.28180653
000390 5c 48 77 3e f0 11 b4 3e a2 98 d4 3d 40 91 fb 3d
       0.24148697 0.35169935 0.10380675 0.122835636
0003a0 08 11 e7 bd 1e 47 cf 3a ae 5f ad be 8b 1e 8c 3e
       -0.11282545 0.0015814041 -0.3386206 0.27367052
0003b0 62 9b 97 bd f0 02 59 be c7 25 d1 3e 9c a1 6a 3c
       -0.07402684 -0.21192527 0.40849134 0.014320757
0003c0 6c 57 73 3e e8 1f d5 3d 83 85 1e be e0 4c 54 3c
       0.23763818 0.10406476 -0.15480618 0.012957782
0003d0 bf 14 91 be e7 5c 57 3e 17 45 60 bd 2e 1e 4f 3e
       -0.2833614 0.21031533 -0.05475339 0.20226356
0003e0 65 8f 0a 3d f9 46 87 3e ed de fa 3d 59 91 84 bd
       0.033828158 0.26421335 0.12249551 -0.06473035
0003f0 95 00 48 bc d0 37 1e 3e 3b b1 02 be 45 bc 47 3c
       -0.01220717 0.15450978 -0.1276292 0.012190883

lstm.weight_hh_l0 f4 [128, 32]
000000 9e 03 02 bc b8 0b f6 3d b7 df db 3e b4 9b 5a be
       -0.007935433 0.12013954 0.42944118 -0.21348459
000010 c2 83 a5 3d b5 57 81 be c8 a9 93 3e 93 f9 8b be
       0.080817714 -0.25262228 0.2884047 -0.27338848
000020 b4 ca 87 be 77 51 07 be 56 94 18 3e 1b a4 d9 bc
       -0.26521838 -0.1321467 0.14900336 -0.02656751
000030 8a 63 7c bd 7a 74 fd 3d 31 87 d8 3b 42 be fc 3b
       -0.061618365 0.12375732 0.006607913 0.00771311
000040 2c 9c 7c be 57 cd 9c 3d 16 92 8c 3e 26 57 0f be
       -0.2466895 0.07656353 0.27455205 -0.13998088
000050 82 d6 50 be 5a 20 e4 bd df f3 c2 3c 8d 7c 93 bd
       -0.20394328 -0.11138983 0.023797927 -0.072014906
000060 42 7a fc 3d 2a c3 c4 3d 2f 3f 3b be 12 e0 c5 bd
       0.12328006 0.09607537 -0.18285821 -0.09661879
000070 06 66 67 bd 47 81 db 3d 75 18 a9 3e dd 0c af be
       -0.05649378 0.10718017 0.33026472 -0.341895
000080 5e ee 09 be 31 71 96 3e 3b 50 dc 3d 32 6c a4 3e
       -0.13469836 0.29383233 0.1075749 0.32113796
000090 53 37 cb bd bb 78 36 be ad 01 62 be 71 8f 16 3e
       -0.09922662 -0.17819493 -0.22070952 0.14703156
0000a0 7a 37 a0 bc f7 ea ba bd a4 5b 1c be 3c 9b 82 3e
       -0.019557703 -0.09126847 -0.15269333 0.2550906
0000b0 10 8c 8c bb fe 72 90 bd c7 19 6e bc 58 7a 0d 3c
       -0.0042891577 -0.07053183 -0.014532513 0.008635126
0000c0 d4 a2 88 be cc 0a 12 bd 0d 42 3e bd d4 d5 b4 3d
       -0.26686728 -0.035654828 -0.04644971 0.08829847
0000d0 03 92 eb 3c 1d e1 44 3d e4 7e 27 bc 58 06 0f be
       0.028756147 0.048066247 -0.010223124 -0.13967264
0000e0 94 ba 8d 3e 1c a2 68 3e bd 9f a5 be 4f 16 f2 bd
       0.2768141 0.2271809 -0.32348433 -0.11820661
0000f0 48 42 a8 bc f7 58 98 3d 36 f3 0b be 8f a4 c6 bd
       -0.020539418 0.07438844 -0.13666996 -0.09699356
000100 89 70 92 be 71 4a 43 3e fc b1 72 3d e6 5c bf bb
       -0.28601483 0.19071366 0.05925177 -0.005839932
000110 22 c5 a5 3e 77 28 b6 be 6f 96 23 3e 00 07 2d be
       0.32376963 -0.35577747 0.15975355 -0.16897202
000120 b9 e7 92 bd 54 4a ad bd b8 f3 9f 3d 1d 29 9a 3d
       -0.07173104 -0.084614426 0.078101575 0.07527373
000130 fd 4b 85 be 40 3e b7 3d ff b7 d0 bd 53 c0 12 be
       -0.26034537 0.0894742 -0.101913445 -0.14331178
000140 12 eb d2 be 80 fe 19 3d dc 75 bb 3e 08 38 ea 3b
       -0.4119497 0.037596226 0.36613357 0.0071477927
000150 ce 71 4e be 15 61 78 bd 37 1d 23 3e 42 8d 97 3d
       -0.201606 -0.06063946 0.15929113 0.0739999
000160 c9 ca 03 3e 04 c1 9b bd d2 5c f1 be ab 97 fd bd
       0.12870325 -0.07605174 -0.4714113 -0.12382444
000170 c0 39 47 be dc db b8 3e e5 98 5c 3e 2c f5 1b be
       -0.19455624 0.3610524 0.215427 -0.15230244
000180 07 d2 9c bd d8 9d 1e bd 37 60 92 3e 7b 64 db 3d
       -0.07657247 -0.03872475 0.2858903 0.107125245
000190 ee f5 8a 3c 5f f5 94 bd d0 51 3e 3e 31 d0 89 be
       0.016962972 -0.07273363 0.18585896 -0.2691665
0001a0 19 dd 15 be ba eb 45 be 6b 9f 13 3d 54 f2 7a 3e
       -0.14635123 -0.19328204 0.036040705 0.24506503
0001b0 b3 70 2a 3c a4 20 b5 3d 18 d8 e5 bc 24 07 8d bd
       0.010402846 0.08844116 -0.028057143 -0.068861276
0001c0 ea a2 ab bd d2 0a 9e 3e 46 89 49 3e 1e 57 ca 3d
       -0.08380683 0.3086763 0.19681272 0.098798975
0001d0 80 87 d4 bc bc 9d c9 3c d2 88 f5 3d 8c 7f d7 bd
       -0.025943518 0.024611346 0.11988987 -0.105223745
0001e0 29 1d 6b 3c bc a0 09 3d 9b d5 8b be eb 67 d9 bd
       0.014350214 0.033600554 -0.27311406 -0.10615524
0001f0 93 9f 1d bd 37 70 6e ba 5e f2 0d 3e b7 5b 5f bd
       -0.03848226 -0.0009095701 0.13861987 -0.054530825
000200 88 ef 0f be 14 82 8c bd 44 bf 20 3e cc 96 b1 bd
       -0.14056218 -0.06860748 0.15697962 -0.0867134
000210 e6 73 ea 3d 56 20 97 3d 6b 3d d3 3d 80 98 f2 bd
       0.11447887 0.073792145 0.10314449 -0.11845493
000220 72 d4 c9 3d 6c 35 6f 3d 83 b2 7f 3d 93 e5 54 3e
       0.09854974 0.058400556 0.0624261 0.207907
000230 aa 05 87 bd fd ab 64 bd 10 31 19 3e 11 fa c9 bd
       -0.06592877 -0.055828083 0.14960122 -0.098621495
000240 5c 40 a0 bd 13 1e 64 3e 1c 10 80 bd f9 b0 1d 3e
       -0.078247756 0.22277097 -0.062530726 0.15399541
000250 09 7f 00 3e 55 9b f7 3c df 31 21 be 1c d1 79 be
       0.1254846 0.030225435 -0.1574168 -0.24396175
000260 5a a9 cb 3d c3 ef a4 bd eb ff 80 be bb 16 ef bc
       0.099444106 -0.080535434 -0.2519525 -0.029185643
000270 ff 0f c7 bb 10 60 0b 3d 68 49 21 be 7c 69 e3 bd
       -0.006074905 0.03402716 -0.15750659 -0.11104104
000280 69 5d 0e 3c da e3 5a be c8 27 90 be 01 df 05 bd
       0.008689263 -0.21375981 -0.2815535 -0.032683376
000290 00 3e 1a 3c 48 84 31 3c ca d9 c9 bd b7 72 02 be
       0.009414196 0.010834761 -0.09855993 -0.12739073
0002a0 4f bf 3e 3e 6b db f9 bd 65 a0 c8 bc 38 6b 5f 3d
       0.18627666 -0.12200054 -0.024490545 0.05454561
0002b0 34 65 d7 bd 16 f9 72 be d9 c0 73 3d 86 ec a4 bd
       -0.1051735 -0.23727831 0.059510086 -0.08052926
0002c0 65 25 ce bc 63 61 c3 bc 7b 6d c7 ba 17 6c 48 3e
       -0.025164315 -0.023850149 -0.0015215123 0.19572483
0002d0 6c e0 09 bd 3a 9a 45 bc 3a 0f f1 bd eb 48 6f be
       -0.03366129 -0.012060696 -0.11770482 -0.2336766
0002e0 21 1d 45 3d 3d e7 83 3e a6 c5 a2 bd 39 ad 54 3d
       0.048123483 0.25762358 -0.07947855 0.05192301
0002f0 8e 90 76 bd af 9e 37 be ae 07 bb bd 72 89 4a 3e
       -0.06019645 -0.17931627 -0.09132324 0.19778994
000300 5b 2f 48 3d 4b 5c e9 3c 01 a3 13 3e b3 67 05 be
       0.048873287 0.028486392 0.1441765 -0.1302784
000310 3d 46 d3 bd 66 24 c5 bd af fe 7f be 04 99 e6 3d
       -0.10316131 -0.09626083 -0.24999498 0.11259654
000320 13 21 dc 3b 9b b1 87 3d 94 43 65 3e 1f 5c 8c 3e
       0.00671781 0.066256724 0.2238906 0.27414033
000330 2f cf b1 bd 3c 57 04 3e 0b 77 8b 3e a5 92 a0 be
       -0.08682095 0.12923902 0.2723926 -0.3136188
000340 81 9e 9c bd 82 a5 23 3c 11 45 36 3e ec 60 1e 3e
       -0.0764742 0.009988191 0.17799784 0.1546666
000350 27 b2 43 be d2 83 87 be 09 79 03 be 3c b2 d7 bd
       -0.19110928 -0.26467758 -0.1283914 -0.105320424
000360 ae 4c a1 3d 17 6b 5a bd 13 60 fd bd da 46 0f 3d
       0.078759536 -0.053324785 -0.1237184 0.03497968
000370 fb 40 44 be f5 40 09 3e ed 75 16 3e fc b7 2a be
       -0.19165413 0.13403685 0.14693423 -0.16671747
000380 dd f3 8c be 67 70 18 bd 75 6b 80 3e d7 f8 cb bd
       -0.27529803 -0.03721657 0.25081983 -0.09959572
000390 97 35 17 bc 63 0d 89 3c 7e 30 45 3c a3 10 61 3d
       -0.009229085 0.016730016 0.012035487 0.054947507
0003a0 2e 9f 0b be 8a 4c 20 3e fb 28 02 3e 8e c9 88 3e
       -0.13634941 0.15654197 0.12710945 0.26716274
0003b0 30 21 00 3d a7 bf 30 3d 2b 96 79 3d 51 4e 5b be
       0.03128165 0.043151524 0.060934227 -0.21416594
0003c0 f4 5e 7b bc 1e ef fc 3d 82 ee 41 3d d7 85 62 be
       -0.015342463 0.123502955 0.0473466 -0.22121368
0003d0 4a 1f d9 3c 6d 53 3a be 26 22 4f 3e 2d 3b 19 be
       0.026504178 -0.18195887 0.2022787 -0.1496398
0003e0 1c 3c a3 3e cf cc 6d be a1 23 39 be 36 32 0d 3e
       0.31881797 -0.2322266 -0.18079998 0.13788685
0003f0 22 86 9f be 12 b7 85 3d de bf 33 bd c0 1b 26 be
       -0.31157023 0.065290585 -0.04388415 -0.16221523

lstm.bias_ih_l0 f4 [128]
000000 32 4f 12 3e 4c 09 ae 3d 4f da 41 3e da 2c 64 3d
       0.14288023 0.08497867 0.18930934 0.055706836
000010 2f 3e 80 3d c1 fb 0d 3e 74 e1 87 3e 2c d6 89 3e
       0.062618606 0.13865568 0.26539195 0.26921213
000020 60 7b b0 3e 05 42 7d 3e be 22 cf 3e 02 1c 28 3e
       0.34469128 0.24732216 0.40456194 0.16416934
000030 d1 87 8a 39 f4 19 05 3e 35 82 af 3e 3b 03 3f 3e
       0.00026422602 0.12998182 0.34279028 0.18653576
000040 f5 5d 9d bd 14 d4 a7 3e f1 48 05 3e 43 01 06 3e
       -0.076839365 0.3277899 0.13016106 0.13086419
000050 64 32 04 3e db b8 55 bd 46 81 0f bb ff d3 9d 3e
       0.12909847 -0.052178245 -0.0021897121 0.30825803
000060 00 28 ab 3e f6 62 e6 bc 7b bf 13 3c a4 42 60 3e
       0.33428955 -0.02812336 0.0090178205 0.21900421
000070 24 ea 5b 3e 7c 7c 3d 3e 47 2e 63 3e 8f 7e a1 bd
       0.21476036 0.18504518 0.22185622 -0.07885467
000080 a9 fb 16 be 24 db 01 be ad 47 8c 3d 0e 59 25 be
       -0.14744438 -0.12681252 0.068496086 -0.16147253
000090 0c 6d 0f 3e 5f 6b 27 3e ce 2d 1c 3e 46 28 1e 3e
       0.14006442 0.16349553 0.15251848 0.1544505
0000a0 33 ab 7a 3e 84 53 aa bd 78 25 0a be 7a 1a f6 3d
       0.2447937 -0.083167106 -0.13490856 0.12016769
0000b0 78 4f c7 bd 82 ab 5c 3d 69 8e bc bd 88 de b7 3c
       -0.09731954 0.0538745 -0.0920685 0.022444978
0000c0 4d 4e eb bc 8d c3 64 bd ae 0f 46 be ee 6b 38 bd
       -0.02872386 -0.055850554 -0.19341919 -0.045024805
0000d0 7b 02 19 be 67 50 05 3e 67 31 68 3d f2 a3 40 3e
       -0.14942352 0.13018952 0.05668774 0.1881254
0000e0 80 b2 96 bd 75 4e 21 3d 3b 5c 46 be ba 71 07 3e
       -0.07358265 0.039381463 -0.1937112 0.13226977
0000f0 0a f5 12 3e e4 b0 14 3e 26 1f 44 bd 0e 21 bc 3d
       0.14351287 0.14520603 -0.047881268 0.09185992
000100 2e 67 a6 3d 68 fc 08 3e 98 24 54 3d 05 77 96 bd
       0.08125149 0.13377535 0.05179271 -0.0734692
000110 c0 e3 f7 bd 3a d1 d7 bc 04 dd 83 bd 7b 30 8e 3d
       -0.12103987 -0.026344884 -0.0643864 0.06942841
000120 df ec cd 3d 78 01 e3 bd 1b 20 5c 3d fa 4d 13 3e
       0.10054945 -0.110842645 0.053741556 0.14385214
000130 e1 52 f0 bc c2 18 e5 bd b9 45 17 3e d7 44 54 be
       -0.029336395 -0.11186363 0.14772691 -0.20729385
000140 b3 0a 0c be 29 ac 1b be c6 5c 83 bb 27 81 35 be
       -0.13675956 -0.15202393 -0.004008862 -0.17725049
000150 e5 f1 5c bd f0 09 c2 bd e5 33 46 3d 98 e6 13 bd
       -0.053941626 -0.09474552 0.048389334 -0.036108583
000160 15 e8 dc 3d d2 10 37 3d b8 d1 63 be 27 b3 e7 bc
       0.10786454 0.044693775 -0.2224797 -0.028283669
000170 85 7d ce bc ec a1 41 3d ab 52 97 bd 67 73 16 be
       -0.025206337 0.04727356 -0.073888145 -0.1469246
000180 0b 7d 85 3e 55 71 d6 3c 94 e8 cd 3e 0d 6c a8 3e
       0.26071963 0.026177088 0.40216506 0.32894936
000190 f5 94 09 3d 3f bc 8d bd 5b 32 5f 3e d4 5c d3 3c
       0.033589322 -0.06920671 0.21796553 0.0258011
0001a0 7d 9f a6 3d a8 9a cc 3d da 34 a9 3e 98 79 29 bd
       0.08135889 0.09990436 0.33048135 -0.041375726
0001b0 e8 75 77 3e 1c 6d de 3d e1 e1 9f 3e f3 fa 17 3e
       0.24166071 0.10860655 0.3122702 0.14841823
0001c0 f0 c1 5e 3e 8e 69 fe 3e 6f 54 8a 3e 7f be d9 3d
       0.21753669 0.49689907 0.27017543 0.10632037
0001d0 d3 0a e8 3d d5 d4 2e 3e 06 af fe bd f0 21 75 3e
       0.113301896 0.17073376 -0.12435727 0.23938727
0001e0 7d 10 64 3e 6f 2e 4b 3e 02 cf a4 3e 24 79 9d 3e
       0.22271915 0.19841932 0.32189184 0.30756485
0001f0 ee 60 0a 3e 4a b5 83 3d 60 2f ff 3d fe 2a 57 3e
       0.13513538 0.064310625 0.12460208 0.21012494

lstm.bias_hh_l0 f4 [128]
000000 5c 36 97 3e 06 d8 91 3e 47 b2 a9 3e 89 27 de 3d
       0.2953366 0.28485125 0.33143827 0.108473845
000010 32 04 8f 3e 9d 07 85 3d 31 04 ae 3d 2c bd 9f 3e
       0.27932888 0.06495593 0.08496893 0.31199014
000020 92 fa 52 3e 4a a8 3d 3e 88 83 14 3f f2 9b 0a be
       0.20603397 0.18521228 0.580132 -0.13536051
000030 17 d3 97 3d 30 1c 8b 3d 3e d3 43 3e fe 50 dc 3d
       0.07413309 0.06792486 0.19123551 0.107576355
000040 4d e6 a6 bd 63 2e d7 3e 5e 5d c6 3e 12 07 7f 3d
       -0.08149395 0.42027578 0.3874311 0.062262602
000050 93 1a 16 3e df 8d 35 bd c6 e3 10 3e 43 7e 87 3d
       0.14658575 -0.044324752 0.14149389 0.066158794
000060 9d 3b e5 3d ed 7c 73 3e 3d 32 fe 3d c5 97 5c 3e
       0.11193011 0.23778124 0.12411926 0.2154227
000070 9e 69 f6 3d 10 f4 30 3e 7d 5d 92 3e 5e ba f5 3b
       0.12031864 0.17280602 0.2858695 0.0074990233
000080 dc 87 2d 3e f2 80 cf 3c 05 d4 d9 3d 93 70 f2 bd
       0.16946357 0.02533004 0.10636143 -0.11837878
000090 b0 e5 b2 bc 17 7b 2c 3e 22 8d 85 bd ee ef 3e 3e
       -0.02183804 0.1684383 -0.065210596 0.18646213
0000a0 ce ad 87 3e 67 3a f1 bd f4 e6 a9 3c d2 46 dd bd
       0.2649979 -0.117787175 0.02074001 -0.108045235
0000b0 1f be 07 3e 57 fa 0c bd 21 70 75 3d a8 e2 e4 3d
       0.13256119 -0.03441843 0.059921388 0.11176044
0000c0 84 bf 1a bc 28 c6 85 bc fb 72 1e be 4a 28 3e bc
       -0.009445075 -0.01632984 -0.15473549 -0.011606285
0000d0 2c 53 b1 3b 02 6e 9c 3d 3a 7d 2f 3e 5e 64 74 3e
       0.005411526 0.0763817 0.17137614 0.23866412
0000e0 ab 92 e2 3d f5 1d 5c 3c 64 b9 97 bd 88 99 c3 bd
       0.11063131 0.013434877 -0.07408407 -0.09550768
0000f0 b4 8b 75 3d 36 fa 12 3e c8 96 e5 bd db c6 0d 3e
       0.059947684 0.1435326 -0.112104 0.13845389
000100 14 2e d3 bd 97 b7 18 3d 51 61 4e 3d 5b 52 b8 3d
       -0.10311523 0.03728446 0.050385777 0.09000083
000110 e9 28 93 3d 5c d7 42 bd 70 8f 0f 3e b6 18 97 3a
       0.07185537 -0.047568664 0.14019561 0.001152775
000120 6d 53 f2 bc 8f aa d7 3c ff 28 e6 3d 24 98 d3 3c
       -0.029580796 0.026326446 0.11238288 0.025829382
000130 ae 42 9c bd f6 71 40 3d 1d 1f 88 3d 21 10 e8 bd
       -0.07629906 0.04698368 0.066465594 -0.11331201
000140 b3 6d e7 bd 4f b9 c7 3d 56 cd 90 bd 36 cf f5 3d
       -0.1130022 0.09752142 -0.07070415 0.12002413
000150 c8 d9 05 be 9a 42 5d bc 66 c4 f6 3d c9 9d 5e be
       -0.13071358 -0.013504649 0.12049179 -0.21739878
000160 d4 a2 e3 3d 7f c4 4d 3c b0 64 d1 bc 43 1b d7 3d
       0.111150414 0.012559055 -0.025560707 0.10503247
000170 0c 34 06 be c4 ca c7 3d f8 22 66 3d 10 fe f0 bd
       -0.13105792 0.09755471 0.056185693 -0.117672086
000180 f8 92 1e 3d a7 da 83 3d b1 b3 3c 3e d7 1b 9b 3e
       0.03871438 0.06438189 0.18427922 0.30294678
000190 fa 49 a5 3e aa da 20 be 6a c4 41 3e d0 0c 7e 3e
       0.32283002 -0.15708414 0.18922582 0.24809575
0001a0 d9 37 9b 3e 96 ee 8c 3e 2b c0 f7 3e aa c1 17 3e
       0.30316046 0.27525777 0.483888 0.1481997
0001b0 3d e2 a7 3e 60 f6 02 bc 82 b0 af 3e b4 08 a3 3e
       0.32789794 -0.007993311 0.34314352 0.31842577
0001c0 cc 43 a5 3d 23 7f 96 3e 22 0d 9c 3e 35 d8 f9 bd
       0.08069572 0.29393873 0.3047877 -0.12199441
0001d0 53 73 4a 3e 0a 67 96 3e df a0 c6 bd 25 20 8f 3e
       0.19770555 0.29375488 -0.096986525 0.27954212
0001e0 18 ec 93 3e 9a b6 45 3c 2f e1 b1 3d 7c 8b 0e 3e
       0.28891063 0.012067461 0.086855285 0.13920397
0001f0 1c b4 72 3d 3b 86 ae bc b8 f1 7a 3e 92 f8 84 3d
       0.059253797 -0.02130424 0.24506271 0.064927235

lstm.weight_ih_l1 f4 [128, 32]
000000 52 1b 3c be 8e 52 ca 3c 25 a0 b8 3e ff e1 7c 3d
       -0.18369797 0.024697568 0.3605968 0.061738964
000010 a0 f9 89 bd bd f4 85 bd 4b 08 3c 3e 29 1f 18 be
       -0.06737065 -0.06540821 0.18362539 -0.14855637
000020 05 5e 99 bd c9 38 85 bd d6 92 67 3e 16 ad d7 3d
       -0.07488636 -0.065049715 0.22614607 0.105310604
000030 77 b4 e6 bc f8 23 0e be 38 65 32 3d af c7 33 bd
       -0.028162224 -0.13880908 0.04355356 -0.043891605
000040 d7 cf e1 3c c0 03 89 bd cf 50 91 3e 9e cf da 3c
       0.027564926 -0.066901684 0.28381965 0.026710328
000050 73 70 fa bd 6b df d1 bd 6b e5 2b 3e 77 56 19 3d
       -0.12228479 -0.10247692 0.16786735 0.037435975
000060 54 5a 8c 3e f1 58 66 be a7 ec 8f bd c9 8b dc bd
       0.27412665 -0.22494866 -0.0702756 -0.107688494
000070 83 33 6a be a1 c5 0f 3e 7d e5 28 3e a6 ed 9a be
       -0.22871213 0.14040233 0.16493793 -0.30259436
000080 fb 7a 6d bd 37 d3 a9 3e 24 4c 33 3e 33 a8 2c 3d
       -0.05797861 0.33168957 0.17509514 0.042152595
000090 07 54 8e 3e cb b1 99 be aa c0 35 be 40 71 76 be
       0.27798483 -0.30018458 -0.17749277 -0.24066639
0000a0 ca bb 1b be 73 8d f1 bd 11 b7 ad 3e 67 87 a9 3e
       -0.15208355 -0.117945574 0.3392873 0.33111116
0000b0 c5 52 20 be 21 1a 0d be 1a 87 88 3d 02 90 94 be
       -0.15656574 -0.13779499 0.066663936 -0.2901612
0000c0 d7 ec 12 be 2b c5 35 bc a6 76 56 3c 30 06 06 3e
       -0.1434816 -0.011094372 0.013089811 0.13088298
0000d0 e4 3a 1c be be 13 91 be 97 70 71 3e fd 84 1b be
       -0.1525684 -0.28335375 0.23578106 -0.1518745
0000e0 5a 50 00 3e c2 20 be 3e 04 d4 d6 be bd 13 84 be
       0.12530652 0.37134367 -0.4195863 -0.2579631
0000f0 62 e4 b9 be cb b4 19 3e 9e 06 42 3e 94 28 a1 be
       -0.36307055 0.15010373 0.18947837 -0.3147627
000100 58 0f 35 be b2 e4 56 3e d5 08 a9 3e 90 a4 44 3e
       -0.17681634 0.20985678 0.3301455 0.192034
000110 1a b9 61 3e cd 34 66 be 33 9a ce 3c 94 51 0e be
       0.22043267 -0.2248108 0.025220012 -0.13898307
000120 40 9d 1f be f9 c4 6b bd 21 c9 63 3e eb 60 80 3e
       -0.1558733 -0.057560895 0.22244693 0.25073943
000130 fa b0 cf bd 32 d4 e1 3d 63 53 7c be 87 55 8a be
       -0.101411775 0.11026801 -0.24641185 -0.27018377
000140 da d5 6d be b4 74 04 bd b8 cd 2a 3e 90 c0 fd bc
       -0.23226109 -0.03233786 0.16680038 -0.03097561
000150 f9 33 2c be bf 1e 70 3d 7a 75 7e 3e 12 fc 08 3e
       -0.16816701 0.05862307 0.24849501 0.13377407
000160 d9 35 09 3e ea f3 99 bd 98 27 bc be 4f 67 9b be
       0.13399448 -0.07517226 -0.36748958 -0.30352256
000170 33 03 34 be de 95 ae 3e 1b ef 5d bd e2 af 1a be
       -0.17579345 0.34098715 -0.054183107 -0.15106156
000180 c3 c9 77 be 31 8a 02 3d 35 0d bd bd 1d d7 5d be
       -0.2419806 0.03187007 -0.09231035 -0.2166409
000190 d2 a5 71 3e a9 80 81 be a0 e2 0d be 76 02 d4 bd
       0.23598412 -0.25293472 -0.13855982 -0.10352032
0001a0 07 9b c6 bd 44 15 3d be f9 80 90 3e d5 98 0b 3e
       -0.09697538 -0.18465143 0.28223398 0.1363252
0001b0 e8 40 45 3d a0 b8 d7 bd a3 25 1e 3b 09 e4 22 bd
       0.048157603 -0.10533261 0.002413132 -0.039768253
0001c0 23 b9 4e bd b8 f0 50 3e a7 6a ab 3d 33 8a eb 3c
       -0.05046953 0.20404327 0.08369952 0.028752422
0001d0 f8 44 33 be 51 a4 16 be d1 80 5b 3e 43 8a 42 be
       -0.17506778 -0.14711119 0.21435858 -0.18998055
0001e0 b8 59 30 3e 82 20 4e 3d 65 aa 4c be d9 12 3c 3e
       0.17221725 0.05032397 -0.19986875 0.18366565
0001f0 40 97 9c bd 1f a0 69 3e cb 27 4a 3e 5a 88 81 be
       -0.07646036 0.22814988 0.19741742 -0.2529934
000200 55 58 44 be 94 a1 11 3e ec 8b b3 3d f0 ca 8d be
       -0.19174321 0.14221793 0.08766922 -0.27693892
000210 2f 03 71 3e 88 6c f3 3c f1 f5 88 bd a5 66 53 bd
       0.2353637 0.029714838 -0.066875346 -0.05161156
000220 19 f0 29 be f2 62 b0 be 66 dd 97 bd f9 13 88 3e
       -0.16595496 -0.3445049 -0.07415275 0.26577738
000230 7c e3 02 3d c3 31 07 be c2 12 80 3e cf ef d5 3c
       0.031955227 -0.13202576 0.2501431 0.026115326
000240 bf a4 c5 bd a0 d3 0d 39 34 6e 55 3e 91 99 dd bc
       -0.096505634 0.00013525644 0.2084282 -0.027050765
000250 c8 84 07 be 84 7b 9a bd 10 60 8a bc b5 0a 48 be
       -0.13234246 -0.0754309 -0.01689151 -0.19535334
000260 8f 08 91 3e f5 ff 2d 3e 13 ff a2 be 03 24 57 3d
       0.28326842 0.16992171 -0.3183523 0.052524578
000270 9c 4b 65 bd b1 16 20 3d 4f fa 49 bc 89 7c 36 be
       -0.05598031 0.03908414 -0.012327745 -0.17820944
000280 67 e1 64 bd 41 e1 a9 bd 3f d5 60 3d f0 c4 b9 3d
       -0.055879023 -0.08294917 0.054890867 0.09070766
000290 58 ef 15 3e 69 d0 03 be ce a3 6d bc 8a 7e 27 be
       0.14642084 -0.12872471 -0.014504386 -0.16356865
0002a0 44 04 8d be ba 58 8e bd f3 7d cd bd 35 db 0e 3e
       -0.27542317 -0.06950517 -0.100337885 0.13950808
0002b0 ba 7d 09 3d 6a fa d2 bb a4 3b d6 bd 8a 7f ea 3c
       0.033567168 -0.006438543 -0.10460594 0.028625268
0002c0 12 17 07 3d eb 8d 54 3e d1 4b 5c 3d b4 4a 2b 3d
       0.032980986 0.20757262 0.05378324 0.04181929
0002d0 11 4d 0f 3e ed f6 f3 3c a4 ff 2f 3e ff 01 78 bc
       0.13994242 0.02978083 0.17187363 -0.015137195
0002e0 0a 6f 2d 3e 54 53 43 be b5 74 27 be cd 2a 27 3e
       0.1693689 -0.19074756 -0.16353114 0.16324921
0002f0 33 41 04 be 59 00 b9 bd 4c e4 57 3d 28 26 31 be
       -0.12915497 -0.090332694 0.052707955 -0.17299712
000300 24 5c ec 3d 6f 6b 9f 3b eb 50 e7 bc 0b cd 6e 3e
       0.11541012 0.004865102 -0.028236827 0.23320405
000310 25 63 b6 3d 2f cf ee 3d 43 f3 8d 3a 0e c9 82 bc
       0.08905629 0.11660611 0.0010829944 -0.015965011
000320 a4 4b 1c be ca d6 97 3c cf 8a 96 3d 00 90 da bc
       -0.1526323 0.018535037 0.073506944 -0.026679993
000330 47 66 37 be 6e 12 f0 bd cc aa 90 be e1 80 74 3d
       -0.1791011 -0.11722265 -0.28255308 0.05969322
000340 46 42 28 3e 65 4a 56 bd 63 1a 68 bc 54 92 db bd
       0.16431531 -0.052317042 -0.014166447 -0.10721269
000350 96 f9 06 be 9e 97 63 bc 71 c7 b6 bd 93 79 2b 3e
       -0.13181147 -0.013891129 -0.08924759 0.16745596
000360 7c f0 f5 bd 52 d9 bb bc 8a cf 0c be 44 b8 0f bd
       -0.120087594 -0.022930775 -0.13751045 -0.03508784
000370 bb 2c 75 3d c3 74 46 3c b7 9d ce 3c 4c 23 0d bd
       0.05985711 0.012112799 0.025221689 -0.03445749
000380 5c 98 c2 be 92 e9 40 3e 50 a0 23 3e 60 d6 4b bc
       -0.38006866 0.188391 0.15979123 -0.012441248
000390 f0 e2 51 3e 8e 6f 84 be 0a e4 15 3e c1 10 6b be
       0.20496726 -0.2586636 0.14637771 -0.2295561
0003a0 0d 59 f7 bd 76 c2 59 be b4 f7 23 bd 11 80 4f 3e
       -0.12077532 -0.21265587 -0.04003115 0.20263697
0003b0 97 55 15 3e 70 29 b6 bc bc 2a 43 3e 84 b7 c8 bd
       0.14583431 -0.022236556 0.1905927 -0.09800628
0003c0 f3 3f 9c bd bf 79 04 b9 0d 40 00 3e 6c d9 0b be
       -0.07629385 -0.00012633855 0.12524433 -0.13657159
0003d0 a4 4d 9f be 51 7e 3e 3b ba a3 8c 3e 8c 59 ff bd
       -0.31113923 0.002906699 0.27468663 -0.124682516
0003e0 34 b8 92 3e 8b fb 39 3e 60 b3 b1 be 34 b3 08 3d
       0.2865616 0.18162362 -0.34707165 0.033374026
0003f0 6f f4 84 be 7f 9d b2 3e be 9f 50 3d ae 55 9d be
       -0.25967738 0.34885785 0.050933592 -0.3072943

lstm.weight_hh_l1 f4 [128, 32]
000000 60 48 f6 3c b3 b4 5c 3e 5a 9c af bd 70 f9 f1 bd
       0.030063808 0.21553306 -0.085747436 -0.118151546
000010 5e 68 4d 3e 00 d6 e8 bd 69 33 e4 bd 2e 31 7a be
       0.20059344 -0.11368942 -0.11142618 -0.24432823
000020 97 e7 58 be 91 3f 31 be 62 47 27 bd 07 e9 81 bd
       -0.21182095 -0.17309405 -0.04083956 -0.063432746
000030 d8 29 9f 3c ba fd fe 3d da 2b 97 be 2e 59 0f 3d
       0.019429132 0.12450738 -0.29525644 0.034997158
000040 64 d3 21 3e f7 c7 b4 3d c6 ab c3 bc bd 62 4d bd
       0.15803295 0.08827203 -0.023885619 -0.050142992
000050 e5 6d 9c 3d cd e6 10 be 13 b5 3f 3e 50 d6 0a be
       0.07638148 -0.14150544 0.18721418 -0.13558316
000060 76 36 d3 bd 77 17 84 be 94 ec fb bd 8c 82 5a 3e
       -0.10313122 -0.25799152 -0.12300983 0.21338862
000070 13 06 90 bd 57 ad cf bd 09 12 8e ba 22 19 86 be
       -0.070324086 -0.10140484 -0.0010839115 -0.2619105
000080 ef 1f c8 bd 21 d2 cc 3d 00 da 79 3c 11 c3 ad 3e
       -0.09771716 0.100010164 0.015249729 0.33937886
000090 ce 81 d4 bd ad d1 57 be eb 42 8f be 2c 28 49 be
       -0.10376321 -0.21076079 -0.27980742 -0.1964423
0000a0 85 ab dd bd a8 04 56 be 23 80 7f be 2f b4 b1 bd
       -0.108237304 -0.20900214 -0.24951224 -0.086769454
0000b0 bc d2 10 3f aa 50 02 3e d6 1d c8 bc c3 7b 70 3d
       0.56571555 0.12726083 -0.02442829 0.05871178
0000c0 73 8e 5a be 84 00 66 bd d5 58 dd bd 23 dc 49 bc
       -0.21343403 -0.056152835 -0.10807959 -0.012320551
0000d0 45 20 8e bd 64 1b 69 be c4 ea 2c 3e f9 f5 0d be
       -0.06939749 -0.22764355 0.16886431 -0.13863362
0000e0 1a 18 16 3e 57 31 f5 bd 61 a3 f9 be ad 62 ab 3e
       0.14657632 -0.119723015 -0.4875746 0.3347372
0000f0 dc 90 8a bd c9 fd 21 bd 44 c1 ae bd f7 08 40 3d
       -0.06765911 -0.03954867 -0.08532956 0.04688355
000100 34 0e 54 3e 2d a4 92 bd 2c ea e3 bc ee 30 24 3c
       0.20708543 -0.0716022 -0.027821623 0.010021431
000110 97 57 01 be 37 9c 72 be af 11 bc bd 6a 45 29 be
       -0.12631069 -0.23692404 -0.091830604 -0.16530386
000120 fd c4 2d 3c b4 ef a6 bd 8b 84 24 3e 53 cd a3 bd
       0.010606048 -0.081511885 0.16066186 -0.07998147
000130 4c b8 7f 3e 91 7a 01 be 9f 4c ec bd 36 ff c7 3d
       0.24972647 -0.12644412 -0.11538052 0.097654745
000140 a2 8d 99 be 9c 93 05 be 1e 31 3a bd e2 76 04 bd
       -0.2999087 -0.1304459 -0.045456998 -0.032339938
000150 7b f9 7f be b0 2a a8 be 92 dd 80 3d 85 bb 60 3e
       -0.24997513 -0.32845068 0.06292261 0.21946533
000160 22 fb 12 be 84 8a b8 3c 48 ba 0b bd a9 57 2b 3e
       -0.14353612 0.022526987 -0.0341132 0.16732658
000170 85 b8 9c 3d 96 88 0d be df 33 29 be 4b eb 9d 3d
       0.07652382 -0.13821635 -0.16523694 0.07710894
000180 0f c6 86 3e 40 43 53 3e 0b 0e cb bd 6f 86 a3 bd
       0.26322982 0.20631123 -0.09914788 -0.079846255
000190 7b e0 fa bd ee 63 3c 3d d0 64 3d be 02 e3 bb bd
       -0.122498475 0.045993738 -0.18495488 -0.09174158
0001a0 a1 2d 3d be 76 7e 42 3e ec 29 42 be a5 b8 31 bd
       -0.18474437 0.18993554 -0.18961304 -0.04338898
0001b0 a3 47 65 3e 15 e2 79 3d b0 7d ea bd 18 3a 2b be
       0.22390608 0.061006624 -0.11449754 -0.1672138
0001c0 fb 1a a1 be 14 b8 09 3d f8 37 bf 3d 78 2a 15 bd
       -0.31465897 0.033622816 0.09336847 -0.036417454
0001d0 5a 45 45 bb b4 ef 2a be f2 d1 38 3e 94 6f 33 3e
       -0.0030101151 -0.16693002 0.18048838 0.17523032
0001e0 e0 9f fa 3d 85 99 54 bd 3e 42 14 be 18 5b 20 3e
       0.12237525 -0.05190422 -0.14478394 0.1565975
0001f0 f5 44 b1 3d ab 4a 00 be dd 2a 9e bc ee f2 3a 3c
       0.08655731 -0.12528484 -0.019307548 0.011410458
000200 bf 83 cc 3d 74 28 cc 3d 4c 07 91 3e b6 67 ee bd
       0.09986066 0.09968653 0.2832588 -0.11640875
000210 21 2f 1f 3d 4c 4e 90 3c 97 9f 01 bc 16 90 11 bd
       0.038863305 0.01761546 -0.007911584 -0.0355378
000220 04 6b f9 bd e3 f4 85 3e 1f eb f4 bd 56 9a e9 bd
       -0.12178615 0.26163396 -0.11958908 -0.1140639
000230 45 ae d1 bb 44 77 9b be 1c 85 0b 3e 6b 44 28 be
       -0.0063989484 -0.3036443 0.13624996 -0.1643235
000240 20 94 6b bb f7 b5 df 3d 44 c8 89 3d 1a 9e ea bd
       -0.0035946444 0.10923379 0.06727651 -0.11455937
000250 94 b3 ee bd 13 fc 22 3e e9 38 e6 3d e8 2f 33 3e
       -0.116553456 0.15916471 0.112413235 0.17498744
000260 fa f3 cf bd 42 5c d0 bd e5 b5 76 be f8 a1 2f bd
       -0.10153957 -0.10173847 -0.24092825 -0.042879075
000270 18 cb 64 be 50 b3 71 bd 62 93 98 be 18 11 23 bd
       -0.22343099 -0.059008896 -0.29799944 -0.039811224
000280 f8 57 0a 3d 8e 5e 8b bd db fb 96 3d d4 59 e6 3d
       0.0337753 -0.06805144 0.07372256 0.11247602
000290 3e cb 3e 3d c5 54 d9 3c 2e ff 01 3e 8b cb ef bd
       0.046580546 0.02652968 0.12695 -0.117087446
0002a0 b5 68 7d be 32 70 67 3e e6 f7 bd bd 6a 4d ef 3d
       -0.24746974 0.22601393 -0.092757985 0.116846874
0002b0 ff 9d 84 3d 0d 22 69 be 44 bf 59 3c 51 a9 54 bd
       0.06475448 -0.22766896 0.01329023 -0.051919285
0002c0 09 72 86 bd d1 9d b5 3d 3c dd ba b9 49 de 6b be
       -0.06564719 0.08867992 -0.00035641517 -0.23034014
0002d0 77 4a fb bd c0 76 83 3d 15 82 b1 bd 5a 33 08 be
       -0.122700624 0.06419134 -0.08667389 -0.13300839
0002e0 74 93 2c 3e 81 8e 4d be ec e3 18 be 92 32 f6 3d
       0.16853124 -0.20073892 -0.14930695 0.12021364
0002f0 6f 36 20 3d f3 12 9e bd b6 84 9a bd 20 43 46 3e
       0.039114412 -0.07718458 -0.07544844 0.19361544
000300 9b 77 81 3e 7a f5 00 be 13 52 bb bd 82 f3 18 3e
       0.25286564 -0.12593642 -0.09146514 0.14936641
000310 89 d6 d9 bd 39 d7 2a 3c af ed 3e 3d 21 5f 4f be
       -0.106366225 0.01042729 0.04661339 -0.20251133
000320 07 91 5f bd f9 51 58 bd fc 81 f2 bb 6d 41 9f bc
       -0.05458167 -0.05281255 -0.0074007493 -0.019440377
000330 f0 8a 4e 3c 4e dc 55 bd 28 fa 2e 3e bd 26 ef 3c
       0.0126063675 -0.052212052 0.17087615 0.029193277
000340 07 73 01 be 51 e3 79 3d 30 7b 8c 3d bf f6 47 3d
       -0.12641536 0.0610078 0.06859434 0.0488193
000350 e8 78 46 3d c9 f1 3d be 2d 92 93 bd d9 37 12 3e
       0.04845515 -0.18549265 -0.07205615 0.14279117
000360 e2 c8 8e 3d 7c 56 9f bc 88 c5 4d bd 97 44 52 bd
       0.06971909 -0.019450419 -0.05023721 -0.051334944
000370 54 25 33 3e 0f 20 bd 3c ec f5 5a 3d 24 76 10 bd
       0.17494708 0.023086576 0.053457186 -0.035268918
000380 b5 3d 1f 3e 10 dd 86 be 14 fa f6 bd 12 c4 3a 3e
       0.15550883 -0.26340532 -0.12059417 0.18238857
000390 ee ff e5 3d c8 df 2c 3b ed 1f 17 be 6c a8 f8 3d
       0.11230455 0.0026378501 -0.14758272 0.12141499
0003a0 54 5e 81 bd f9 8f 8e 3e 92 09 78 be 82 cc 72 be
       -0.0631682 0.27844217 -0.24222401 -0.23710826
0003b0 5d 97 ee 3d e7 76 97 bd 46 37 6f be 97 29 da bd
       0.11649964 -0.07395726 -0.23360929 -0.10652464
0003c0 2a 6d 9c be ee c2 92 3d 52 66 b7 3c 23 f5 1f be
       -0.30552036 0.07166086 0.022387657 -0.15620856
0003d0 3f f7 9b be d8 5a c3 3d e2 3e 08 3e 06 26 35 be
       -0.3046207 0.095388114 0.13305238 -0.17690286
0003e0 06 c2 82 bd 2c 8e 92 be 33 2e 16 be 2d 97 cc 3e
       -0.06384663 -0.28624094 -0.14666061 0.39959088
0003f0 b5 d8 74 3d 49 3e aa 3d 22 71 c4 bd 51 dc cc bd
       0.05977698 0.08312661 -0.09591891 -0.100029595

lstm.bias_ih_l1 f4 [128]
000000 6b 2c 76 3e a7 e8 a1 3e 41 f5 61 3e 59 96 ab 3e
       0.24040382 0.31622812 0.22066213 0.33513144
000010 b4 48 0a 3e 3d 0c 21 3e 48 01 11 3c 0e 54 cc 3e
       0.13504297 0.15727325 0.008850403 0.3990788
000020 a8 de 4b bc 0d d1 9e 3d 14 86 a9 3d dc 38 ce bc
       -0.012443222 0.07754717 0.082775265 -0.025173597
000030 c0 e8 c8 3d 34 d3 1c 3e fc ab 61 3e 8c de 0c 3d
       0.098100185 0.15314943 0.22038263 0.034391925
000040 2b 48 bc 3d 8f 6f f5 3e c6 8a 17 3e fa 63 40 3e
       0.091934524 0.47936675 0.14799032 0.18788138
000050 c9 28 97 bd 15 68 8a 3e 2e 5d 21 3e c5 5e 19 3f
       -0.07380826 0.27032533 0.15758201 0.5991023
000060 54 3d 84 3e 5c 6d 13 bd 4c ac 26 bd 13 2d 5a 3e
       0.2582804 -0.035992965 -0.04069166 0.21306257
000070 9a 80 f8 3d 09 65 cb 3e fe ce 18 3e 76 d1 47 3e
       0.12133904 0.3972552 0.14922711 0.19513497
000080 34 5d 51 3e 5c ee f4 bd ca a9 5e be 04 3a 03 3e
       0.2044571 -0.11959526 -0.21744457 0.128151
000090 cb 58 31 3d 7e 3c aa bd 7f c0 4f bc 09 9f 11 be
       0.04329757 -0.08312319 -0.012680172 -0.14220823
0000a0 49 ad 49 3d fe 05 dc bd a8 5b ea bc a8 ae 4d 3e
       0.049237523 -0.107433304 -0.028608158 0.20086157
0000b0 db ac a2 3d 45 62 ca bc 99 92 42 3d e3 d7 fd bd
       0.07943126 -0.024705062 0.047503088 -0.12394693
0000c0 c6 96 a9 3e 87 d0 9e be 65 d3 f5 bd 7a d1 0d be
       0.33122844 -0.3101847 -0.12003211 -0.1384944
0000d0 40 e0 bf 3d ce ac 22 be 79 d8 c1 bc 2e d2 be 3d
       0.09368944 -0.15886232 -0.023662793 0.09317432
0000e0 48 76 ba bd 81 e5 4b 3d 2e 74 e9 bd 0c 86 89 bd
       -0.091045916 0.04977942 -0.11399113 -0.067150205
0000f0 d3 e2 c9 bd a2 56 ef bd a0 3b e3 bd 94 c5 0b bd
       -0.098577164 -0.11686446 -0.11095357 -0.034123972
000100 1f 57 0d bc ac 43 87 bd ad 4a dd 3d ef 26 27 3d
       -0.008626728 -0.06604704 0.10805259 0.040808614
000110 69 c2 8a bd b3 35 b5 3c 13 c7 51 bb a6 a3 fd 3d
       -0.06775362 0.022120332 -0.0032009527 0.12384729
000120 f8 62 3a bd 56 fe af bd 9a e6 19 be 89 6d ce 3d
       -0.04550454 -0.085934326 -0.15029374 0.10079486
000130 8e 47 1f 3e 65 16 95 3d b2 fb 85 bd 02 51 8d 3d
       0.1555464 0.07279662 -0.06542148 0.06900217
000140 e1 3a 21 bd 21 02 19 3e 93 0f a5 3d b2 5c 30 be
       -0.039362792 0.14942218 0.08059611 -0.1722286
000150 eb 01 9c 3d a6 4a c8 3d 38 cc e8 3c 28 0f 28 be
       0.07617553 0.09779863 0.028417692 -0.16412032
000160 62 9e ab bd 42 80 27 bd 3e 48 e1 bd 44 08 64 3e
       -0.083798185 -0.0408938 -0.11000107 0.22268778
000170 e8 8d 37 3d 5d 72 0f bd 60 09 26 be 94 9d a5 3d
       0.044813067 -0.035021175 -0.16214514 0.08086696
000180 58 95 23 3e bb 24 91 3e 07 9b da 3e c6 6b c3 3e
       0.15974939 0.28348336 0.426964 0.38168162
000190 34 97 1a 3e e6 1f 9a bc 73 9c 56 ba 0a c0 86 3e
       0.15096742 -0.018814038 -0.0008186765 0.2631839
0001a0 83 88 1f 3e 3c e2 7a 3e 97 a6 12 3d ad df e1 3d
       0.15579419 0.24500364 0.035803404 0.11028991
0001b0 20 39 80 3e b8 67 7f 3e 8a b9 79 bd 87 ca 45 3e
       0.25043583 0.2494191 -0.06096796 0.1931554
0001c0 e7 78 87 3c 4a 39 0d 3f ea 47 ff 3d 21 f2 51 3e
       0.016537143 0.5516554 0.124648884 0.20502521
0001d0 64 0a aa 3d ef 98 bc 3e cf ce 44 3e 5a d7 94 3e
       0.08302763 0.3683543 0.19219516 0.2907055
0001e0 3d 13 6a bd f4 a9 40 bd 5e e8 bf 3d b4 af be 3d
       -0.057147253 -0.04703708 0.093704924 0.093108565
0001f0 b2 48 9e 3e 83 97 91 3e d0 50 65 3e 6b 2a 97 3e
       0.30914837 0.28435907 0.22394109 0.2952455

lstm.bias_hh_l1 f4 [128]
000000 58 eb a0 3e 29 4b b2 3e e1 0d 85 3e 58 ae a6 3e
       0.31429553 0.34822968 0.2598715 0.3255489
000010 bd 79 1d 3e 1d 0c 91 3e f3 a1 95 3d 52 3a 9e 3e
       0.1537847 0.28329554 0.0730628 0.3090387
000020 7d c1 16 3e 3f 1d 8b 3e 41 21 de 3d 13 0c f7 3c
       0.14722247 0.2717075 0.108461864 0.030157125
000030 6e 7b 73 3e b2 1a 10 3e 04 eb 69 3e c4 33 8e 3e
       0.23777553 0.14072683 0.22843558 0.2777387
000040 fb fd 81 bd 43 b2 e3 3e 48 09 cb 3e 28 3d 7e 3d
       -0.06347271 0.4447194 0.3965552 0.062070042
000050 b5 93 bc 3d fd 75 a2 3d ad 8c 8f 3d fc e2 81 3e
       0.092078604 0.07932661 0.07009254 0.25368488
000060 6a aa 63 3e 12 f4 43 3d 5f 00 f1 3b 67 d4 a9 3d
       0.22232977 0.047840185 0.0073547806 0.08292466
000070 b6 4c 08 3e a6 d2 a2 3e 17 fe 2b 3e 6d 83 59 bc
       0.13310513 0.31801337 0.16796146 -0.013275963
000080 24 63 42 3e 6d bc 97 3d 4d 60 a8 3d 9f 06 23 be
       0.18983132 0.07408986 0.08221493 -0.15920494
000090 1a 78 f7 3d a0 b3 3f 3e 32 dc 57 bd 4a e3 3b be
       0.120834544 0.18720865 -0.05270023 -0.18348423
0000a0 11 2c 21 bd 28 9b 09 bc 4d ef 6b 3e 31 43 27 3b
       -0.039348666 -0.008398809 0.23040505 0.0025522227
0000b0 84 63 0a 3e ce db 51 be c0 0d 07 be d6 1e 9a bc
       0.13514525 -0.20494005 -0.13188839 -0.018813532
0000c0 94 53 c5 3d 65 06 9b be cf f8 a3 3d 94 27 1e be
       0.09635082 -0.30278316 0.08006441 -0.15444785
0000d0 4d f5 3c 3e 89 09 05 3e 88 8c ac 3d 53 3a 26 bd
       0.1845295 0.12991919 0.08425242 -0.040582966
0000e0 24 26 9c bc 90 dd 67 3d 25 27 46 bd 6b ec c5 bd
       -0.019061156 0.056607783 -0.048377175 -0.09664234
0000f0 72 c3 d5 3d 40 1d e0 bd e9 ca 12 be 09 12 8a bd
       0.10437669 -0.10943079 -0.14335217 -0.06741721
000100 f0 c3 de 3d ec ba 05 bd 94 95 b2 3d 35 19 6a 3d
       0.10877216 -0.032648966 0.08719936 0.057152946
000110 b5 f5 df 3d c2 b8 ca 3d 42 0f 74 bd 1a 16 19 be
       0.10935537 0.09898521 -0.059584863 -0.14949837
000120 2b 9c e2 bd 09 6e d6 bd 15 49 04 bd 2f 75 0c be
       -0.11064943 -0.10470206 -0.03229626 -0.13716577
000130 c1 db c7 3d 86 d9 3d bd 46 7d f1 bd fa 8c e1 bd
       0.097587116 -0.046350025 -0.11791472 -0.11013217
000140 f9 a9 b4 3d 92 9a 7b bd fb 68 13 be f3 d6 df bd
       0.08821482 -0.061426707 -0.14395516 -0.1092967
000150 1a 39 c5 bd e0 53 9f bd 75 f1 0f 3d 2f 7b cc 3d
       -0.09630032 -0.0777967 0.03514238 0.09984433
000160 17 3d d7 3d 5d 35 1d bd b0 86 15 3e 7c 74 aa bd
       0.10509699 -0.03838097 0.1460216 -0.08322999
000170 c6 bd e1 bc d6 68 24 3d 58 3c 06 3d fd b3 49 be
       -0.027556311 0.04013904 0.032772392 -0.19697566
000180 6f 81 78 3e 6b 40 dd 3e 4c 9f ba 3e da cf 8f 3e
       0.24268125 0.4321321 0.3644966 0.28088266
000190 25 be 86 3d 03 0f 56 3d 55 0a 7f bd e4 11 e4 3e
       0.06579236 0.05226041 -0.062265713 0.445449
0001a0 9a 15 46 3e 6d 29 5f 3e 0a 17 92 b8 26 2c a4 bd
       0.19344178 0.21793146 -6.966114e-05 -0.08016233
0001b0 83 3d ac bd 86 40 60 3e 88 3a 1b 3e 8f 4b 89 bb
       -0.0841017 0.21899614 0.15159047 -0.0041899155
0001c0 76 a8 5c 3e aa 55 b1 3e 88 67 3d 3e a8 25 e4 bd
       0.21548638 0.3463567 0.18496525 -0.11139995
0001d0 15 05 70 3c c2 44 2f 3e 3e 95 d5 3d dc 83 de 3e
       0.014649649 0.17116073 0.10428856 0.43459976
0001e0 52 01 29 bd 44 6b 1c 3d 4c 0a 12 3d 2b fa 9b 3c
       -0.041261025 0.038188234 0.03565435 0.019040188
0001f0 b0 5a 3c 3e 6c 2d 93 3e 03 b2 f4 bc 62 54 f9 3d
       0.1839397 0.28745592 -0.029870039 0.12174298

lstm.weight_ih_l2 f4 [128, 32]
000000 1b b2 b1 3c 4a af 2e be b1 6e cf bd fe 33 87 3d
       0.021691373 -0.17059055 -0.101285346 0.066017136
000010 98 88 75 3d 7d a4 58 bd 0e 9c 21 bd f4 56 45 3e
       0.05994472 -0.052891243 -0.039455466 0.19271451
000020 e8 33 3b be 2a 1c a6 3d 39 52 93 3c 66 9a f1 3d
       -0.1828152 0.081108406 0.017983543 0.11797027
000030 44 d1 2f bc 14 46 96 3c 0b 85 02 be e3 f8 fb bc
       -0.010731045 0.018343963 -0.12746064 -0.030758327
000040 cf fd 70 be 10 bb de bd 79 ba 2f 3e 31 a5 56 be
       -0.2353432 -0.10875523 0.17160977 -0.20961453
000050 02 e5 18 3c b9 8a 5f be 77 7a 96 3e 2a 18 ce bd
       0.0093319435 -0.21830262 0.29390308 -0.10063203
000060 e7 82 6a 3e ca 1a 10 3e 93 c9 f7 bd d9 8b 3d bd
       0.22901498 0.14072719 -0.12098994 -0.046275947
000070 18 fc 1b be ca 32 5f 3d b2 97 d2 bd d3 43 13 3e
       -0.15232885 0.054491796 -0.1028284 0.14381342
000080 63 cd fd bc eb 8c c1 3c 35 4c d9 3c 50 74 72 be
       -0.030981725 0.023626765 0.026525596 -0.23677182
000090 0c db 2b bd 13 da db bd 65 5f 4d 3e 34 94 78 3e
       -0.041956946 -0.10734954 0.20055921 0.24275285
0000a0 2f 5d 66 be d8 94 f3 3d 10 a6 a2 3e 9b 7a b1 3c
       -0.22496484 0.11893624 0.3176732 0.021664908
0000b0 01 68 04 bd db 66 02 3e aa 64 bc be 80 de 4d be
       -0.03232575 0.12734549 -0.3679555 -0.20104408
0000c0 4d 75 ef 3c 81 a2 42 3e 3c a6 c1 3d e6 7e af bd
       0.029230738 0.19007303 0.09455535 -0.08569126
0000d0 bf 69 31 bc aa 3c 37 bd dd 2f 61 3e 4a 9f 3f be
       -0.0108284345 -0.044735588 0.21990915 -0.18713108
0000e0 23 33 8f be 05 f9 23 3b a0 59 d0 3d a1 f3 c1 bd
       -0.27968702 0.0025020253 0.101733446 -0.09470297
0000f0 62 cb d1 bd fa 67 5f be a1 fe 90 bd 16 e9 a0 be
       -0.1024387 -0.21817008 -0.070798166 -0.3142783
000100 e0 df 2f 3e 7a 34 03 3e 31 ce 90 3d 8f fe a2 3e
       0.17175245 0.12812987 0.07070578 0.31834838
000110 27 46 40 3e c8 2a 8d bd cb a5 17 be b5 ed a5 bc
       0.18776761 -0.068929255 -0.14809339 -0.02025495
000120 2d 30 e6 bd 6d 2e 0f 3e ea e3 ca bd eb c2 0f 3d
       -0.112396576 0.13982554 -0.099067524 0.035097998
000130 95 50 95 3d 07 ec 12 be 06 73 9f 3d 7f c2 6c bc
       0.072907604 -0.1434785 0.07785611 -0.014450668
000140 fa 53 c1 3d 79 11 75 bd a0 01 0c bd e5 a7 b9 3d
       0.094398454 -0.059831116 -0.034181237 0.090652265
000150 f8 bd ca bd 53 d5 9f bd bd 25 b0 bd f9 dc 1b bd
       -0.09899515 -0.0780436 -0.08600948 -0.038052533
000160 4e 7b 5a 3d 05 40 29 be 5b e2 93 3d e4 60 15 3d
       0.05334025 -0.16528328 0.07220908 0.036469355
000170 69 6f 88 bc 12 08 39 be 7b b3 d6 bd c2 e1 3b be
       -0.016654687 -0.18069485 -0.10483452 -0.18347839
000180 70 1e 13 3e 3a 6d 0d 3e 2b 13 3f bd 42 25 97 3d
       0.1436708 0.13811198 -0.04664914 0.07380153
000190 58 eb 44 3e e8 8a a1 bd e6 df d2 bd ea f6 35 3e
       0.19230402 -0.078878224 -0.102966115 0.17769971
0001a0 7b 64 f6 3d 06 6c f7 3d d6 83 3c 3d 8c e6 aa bd
       0.12030884 0.12081151 0.046024166 -0.083447546
0001b0 55 11 85 3c 38 6a 5a 3a 2a 55 70 be 95 55 e5 3d
       0.016243616 0.0008331868 -0.23469988 0.11197964
0001c0 15 8a f0 3c cd a4 08 3e 86 7c 4d be 75 c5 b3 3d
       0.029362718 0.13344117 -0.20067033 0.08777896
0001d0 61 14 a4 bd 60 20 3f be 55 0b e3 3d 27 19 bf bd
       -0.080116995 -0.18664694 0.11086146 -0.09330969
0001e0 ac d9 3e be 00 f9 76 3d 85 f4 eb bd a2 5f 97 3d
       -0.18637723 0.06029606 -0.11521248 0.073912874
0001f0 2c 4d 22 be aa 18 55 be 0c 9e 18 be 02 c0 33 3d
       -0.15849751 -0.2081019 -0.1490404 0.043884285
000200 25 d1 d0 3d de c9 93 be 87 b8 92 3c a6 39 50 3e
       0.10196141 -0.2886495 0.017910255 0.20334491
000210 15 cd 2a 3e 3d 24 60 3d 56 d8 0c be 51 be c1 3d
       0.16679795 0.05472206 -0.137544 0.09460128
000220 40 10 84 be 21 36 a5 bd 3c 05 7e be ab d4 0d be
       -0.25793648 -0.08066965 -0.24806684 -0.13850658
000230 c8 4f da 3e f6 72 87 be 0b f7 0b be 31 ca 72 3d
       0.42638993 -0.26454896 -0.13668458 0.059274856
000240 b1 d8 48 be 31 fa 90 3e 28 03 12 bb f3 91 de be
       -0.19613911 0.2831588 -0.0022279713 -0.43470725
000250 d2 e8 a0 39 ee db 94 bc 5c 42 9e 3e df 7c 34 3e
       0.00030691043 -0.018171277 0.30910003 0.1762576
000260 f1 ff bd bd 13 ef 5b be 06 02 fd be 2d 01 d2 3e
       -0.092773326 -0.21477918 -0.49415606 0.41016522
000270 10 a5 6c be 43 be 29 be af e8 f0 bd de ea 6e 3d
       -0.23109841 -0.16576485 -0.11763131 0.058329456
000280 94 e4 52 be 62 68 c9 bd e8 77 4f be 25 0c 69 3e
       -0.20595008 -0.098343626 -0.20260584 0.22758539
000290 28 eb fe bd d8 6f 05 3e c5 78 81 bd 56 9d a6 3c
       -0.12447196 0.13030946 -0.06321863 0.020338695
0002a0 21 42 0e 3b b7 0a 2a 3e f8 19 a4 3d de 2e 85 bc
       0.0021706896 0.1660565 0.08012766 -0.0162577
0002b0 99 7e 25 be df 42 4e 3d 92 ef 58 3e 19 53 cb bd
       -0.16161574 0.050356742 0.21185139 -0.09927959
0002c0 91 52 6b 3e 8e 0c 12 3e 25 94 ea bd 2f 81 1a be
       0.22980715 0.14262602 -0.114540376 -0.15088342
0002d0 5c fe 1d 3e ae 49 51 bd ef d6 4e bd 89 a5 1e bc
       0.15429062 -0.051095657 -0.050497945 -0.009683021
0002e0 8b 12 f0 bc 4e e2 bd bb 53 01 8c bd 92 b2 bf 3d
       -0.029305717 -0.0057948 -0.0683619 0.093602315
0002f0 c5 be 06 3e df 9d fd bd f0 f8 27 be 2d f0 ef 3d
       0.1315871 -0.12383627 -0.16403556 0.11715732
000300 90 59 9b bd 7f e8 54 be 50 8d 23 be 7d ad d1 bc
       -0.07585442 -0.20791815 -0.15971875 -0.025595421
000310 90 f3 14 3e 46 20 d7 3d 60 2a 68 3b 87 3a 02 3e
       0.14546037 0.105042025 0.0035425648 0.12717639
000320 9f 31 15 be cc e2 b2 3d 43 cd 8d 3d 89 ac de bd
       -0.1456971 0.08734664 0.06923916 -0.10872752
000330 ab e0 98 bd 46 88 f8 3d 44 b5 a1 be 34 56 7b 3b
       -0.07464727 0.12135367 -0.31583607 0.0038350942
000340 60 98 e1 3d f4 c6 7e bd 9d c1 00 bc b1 11 f9 bd
       0.11015391 -0.062201455 -0.007858661 -0.121615775
000350 93 52 5d be 7b 9a e8 3c 02 ac bc 3d 13 01 01 be
       -0.21613531 0.028393975 0.092124954 -0.12598066
000360 03 ca c0 3d ab 22 7c 3d 75 85 b0 3d b0 a8 2c 3e
       0.09413531 0.0615565 0.08619205 0.16861224
000370 4b 2d a4 3c d5 eb 0a 3d 11 29 56 be 97 94 29 bd
       0.020041129 0.033916313 -0.20914103 -0.041401472
000380 0f a5 f8 3d 67 43 76 be a2 dd 0e be 60 d7 f9 bd
       0.121408574 -0.2404915 -0.13951734 -0.12199283
000390 bf 76 64 be 7c c6 ad bd 19 83 21 be bd 4c 2c 3e
       -0.22310923 -0.084851235 -0.15772666 0.16826148
0003a0 41 a3 8e be 62 f9 d7 bd 9d b8 67 be f6 ea dc bc
       -0.27858928 -0.10545613 -0.22629018 -0.026967507
0003b0 27 00 8c bd 2d 8c 9f bd a0 a9 81 be 85 8a f3 bd
       -0.068359666 -0.07790408 -0.25324726 -0.11891655
0003c0 ea 6c 0b 3e 6c 3f f8 3d be 06 66 3d 96 6d e5 bc
       0.13615766 0.12121472 0.056158774 -0.028006356
0003d0 fb c9 39 bd 00 52 88 bd 9c 0e 93 3e f4 e6 13 3d
       -0.04535864 -0.06656265 0.28722084 0.036108926
0003e0 d8 a0 11 be 80 da ab 3d f5 ae ca bd 89 8f a3 3d
       -0.14221513 0.08391285 -0.09896652 0.079863615
0003f0 70 e1 2b be 27 ae 53 be 08 21 32 bc 32 64 3f bd
       -0.16785216 -0.20671903 -0.010872133 -0.046726413
