LSTM/model_recursion/best_epoch_model_96_layer4_2.pth (torch, 126092 bytes, 18 tensors)

lstm.weight_ih_l0 f4 [128, 7]
0	0x3e3ea84e	0.1861889
1	0x3e136a04	0.1439591
2	0x3de03511	0.109476216
3	0x3dfeaa24	0.124347955
4	0x3dd4e1d8	0.10394639
5	0x3e91b7ec	0.28460634
6	0x3dad0bfc	0.084495515
7	0xbe4a4820	-0.19754076
8	0xbe9aa446	-0.30203456
9	0x3cbd24ef	0.0230889
10	0xbe2ce48f	-0.16884063
11	0x3ee78cb9	0.4522455
12	0xbd5e0f1b	-0.054213624
13	0xbe10641d	-0.1410069
14	0x3ddeda4b	0.1088148
15	0xbdfdd57c	-0.123942345
16	0x3d9cf53d	0.07663963
17	0xbe227aa6	-0.15867099
18	0xbc01d2b9	-0.007923775
19	0x3e03d5c9	0.12874521
20	0xbe6a9eb8	-0.22912109
21	0x3ec98f46	0.3936712
22	0x3e1a7542	0.15083793
23	0x3ea6e1b6	0.3259408
24	0x3bac8327	0.005264658
25	0xbe2ee03a	-0.17077723
26	0xbd21a685	-0.039465446
27	0xbc292399	-0.010323429
28	0xbdd46d3e	-0.10372399
29	0x3e0b0661	0.13576652
30	0x3dc4e398	0.096137226
31	0xbc86d8ad	-0.016460741
32	0x3ce43ea7	0.027861906
33	0xbe01ff83	-0.12695126
34	0x3b0f0667	0.0021823884
35	0xbdbc364f	-0.09190046
36	0x3d40c770	0.0470652
37	0x3dc2d3a9	0.09513027
38	0xbd638165	-0.055543322
39	0x3e3c2a3f	0.1837549
40	0x3ea57b95	0.32320848
41	0x3d1958e9	0.037438307
42	0x3d209e5e	0.03921353
43	0xbd4f7225	-0.050645966
44	0xbd177f4f	-0.036986645
45	0x3dc5ccbd	0.09658191
46	0x3d8bb1d2	0.06821026
47	0xbdf8ee15	-0.121547855
48	0x3e1095f1	0.14119698
49	0x3a5cd7d0	0.00084244926
50	0x3e455e60	0.19274282
51	0x3c0864f4	0.00832485
52	0x3e1f544a	0.15559497
53	0x3c7d2857	0.015451512
54	0x3e3b2a7b	0.18277924
55	0xbe3e9f71	-0.1861551
56	0xb98e7aa4	-0.00027175725
57	0x3e033a24	0.12815148
58	0xbdc989e5	-0.098407544
59	0x3d95fb9d	0.07323382
60	0x3e17522f	0.14777444
61	0xbc4030aa	-0.011730352
62	0x3ce6060d	0.028079057
63	0x3e80acae	0.25131744
64	0xbe4b1583	-0.19832425
65	0x3e8decc9	0.27719715
66	0xbe79749c	-0.24360889
67	0x3e026b0c	0.12736148
68	0xbcf27e6b	-0.029601296
69	0x3e0dd42c	0.13850468
70	0x3da04a01	0.07826615
71	0x3bda49f7	0.0066616493
72	0x3df612ea	0.12015326
73	0x3de0ffdd	0.10986302
74	0xbeb1100b	-0.34582552
75	0xbd112e2a	-0.035444416
76	0x3df20ddb	0.11819049
77	0x3d4fc3c5	0.05072381
78	0x3d502e1c	0.050825223
79	0xbdcffeb8	-0.101560056
80	0xbe119c79	-0.14219846
81	0x3ea2476f	0.31695125
82	0xbe3f2679	-0.1866702
83	0x3e47a887	0.19497882
84	0xbdb6cfe2	-0.08926369
85	0x3d3b324d	0.045702267
86	0x3e889caf	0.2668204
87	0xbdc220e9	-0.09478933
88	0xbda02278	-0.078190744
89	0xbdbd6bcf	-0.092490785
90	0x3cb33d1a	0.021879721
91	0xbdfbc2a2	-0.12292983
92	0x3d6583a7	0.056033757
93	0x3c234ea7	0.009967483
94	0x3e1af49e	0.15132377
95	0xbda8d363	-0.08243444
96	0xbdbc4f1f	-0.09194779
97	0x3eb1608d	0.34643975
98	0xbe226863	-0.15860133
99	0x3df4d2a4	0.11954239
100	0xbd256ce0	-0.040387034
101	0x3e4205bf	0.18947504
102	0xbe23ed7a	-0.16008559
103	0xbd2ec9cf	-0.04267293
104	0xbcabbac6	-0.020963084
105	0xbcbd571e	-0.02311283
106	0xbdcdc2fe	-0.100469574
107	0x3d7bf385	0.061511535
108	0x3dc9e193	0.09857478
109	0xbe224489	-0.15846457
110	0x3e16319c	0.14667362
111	0xbcf3bfd1	-0.029754551
112	0x3e76d537	0.24104773
113	0xbbe7039f	-0.007049992
114	0x3e817e44	0.25291646
115	0xbdadfe34	-0.08495751
116	0x3ebd51b6	0.36976403
117	0x3df2c7f4	0.11854544
118	0xbdd3fc6b	-0.10350879
119	0xbe3a71c9	-0.18207468
120	0x3b25e692	0.0025314433
121	0xbdbf9a46	-0.09355597
122	0x3e1f53b1	0.1555927
123	0x3e9a66bd	0.30156508
124	0x3dc671bd	0.096896626
125	0xbe9e1c84	-0.3088113
126	0x3dfd97a6	0.1238244
127	0xbc90ccb9	-0.017675744
128	0x3e8c4808	0.27398705
129	0xbe726470	-0.23671126
130	0x3e9caf8b	0.3060268
131	0x3cd02df5	0.025412539
132	0xbeb92d90	-0.36167574
133	0xbdc982ff	-0.09839439
134	0xbb8026ef	-0.0039108912
135	0x3da8a257	0.08234089
136	0xbc439c86	-0.011939174
137	0x3e44c222	0.19214681
138	0x3deb48fa	0.114885285
139	0x3de0221f	0.10944008
140	0xbd95dc22	-0.073173776
141	0xbe281703	-0.16415028
142	0x3e01bf33	0.12670593
143	0xbebb4b99	-0.36581114
144	0x3d48e02d	0.049041916
145	0x3bcbb916	0.0062171323
146	0x3d42cc26	0.047557972
147	0xbd328a25	-0.043588776
148	0xbd2b2994	-0.0417877
149	0x3e5b960d	0.21443959
150	0xbe1fff29	-0.1562468
151	0x3e782c89	0.24235739
152	0xbd5b0cbb	-0.053478938
153	0xbe39deb7	-0.18151365
154	0xbe81bd14	-0.25339568
155	0xbe004177	-0.12524973
156	0x3c8c3579	0.017115341
157	0x3cb02a5c	0.021504574
158	0xbe419124	-0.18903023
159	0xbe8a7fda	-0.27050668
160	0x3e39d763	0.1814857
161	0x3c5ba32e	0.013405604
162	0x3dfa258f	0.12214195
163	0xbdcf79dd	-0.101306655
164	0xbce8831e	-0.028382834
165	0x3d0b6d8e	0.034040026
166	0x3e5d1cdb	0.21593039
167	0x3de9c7dc	0.11415073
168	0x3d6a165f	0.05715024
169	0x3e269d09	0.16270842
170	0x3e27568f	0.16341613
171	0x3d3e5746	0.04646995
172	0x3d2c98d9	0.042137954
173	0x3e8914a5	0.26773563
174	0x3e0797fc	0.13241571
175	0x3d48f36e	0.049060278
176	0x3e7d550f	0.24739479
177	0xbdcea12c	-0.10089335
178	0x3e02885e	0.12747332
179	0xbe3a8f54	-0.18218738
180	0x3dd08c1b	0.10182973
181	0x3d29e138	0.04147455
182	0xbef76611	-0.48320058
183	0x3d56e0cc	0.052460477
184	0xbebcbad7	-0.36861297
185	0xbc71c236	-0.014755776
186	0xbe51e991	-0.20499255
187	0xbdb78359	-0.089605995
188	0xbcf0b220	-0.029381812
189	0xbdb8e2ee	-0.090276584
190	0x3e02aaa2	0.12760404
191	0xbce81c0f	-0.028333692
192	0x3d63b3b8	0.055591315
193	0x3d991af6	0.074758455
194	0xbd040980	-0.032235622
195	0xbd8f9fc8	-0.07012898
196	0xbe2c224e	-0.16809961
197	0x3d88720e	0.06662379
198	0x3d120a07	0.035654094
199	0xbd34f4a3	-0.044178616
200	0x3df3bada	0.119008735
201	0xbe6f6da7	-0.23381673
202	0xbcf0ffff	-0.029418943
203	0x3db8845b	0.0900962
204	0xbd6242ac	-0.055239365
205	0x3d09efca	0.033675946
206	0xbd1fe8b6	-0.03904029
207	0xbd1dd0cd	-0.038529206
208	0xbc5e9e27	-0.013587511
209	0x3da1c3a5	0.07898644
210	0x3e31d092	0.1736472
211	0xbdefc939	-0.11708302
212	0x3d0ca578	0.03433749
213	0xbe840d2d	-0.25791302
214	0x3df102cd	0.11768112
215	0xbda4da0d	-0.080494024
216	0xbdc1043e	-0.09424637
217	0xbe15795a	-0.14597073
218	0xbda11490	-0.0786525
219	0xbe3481a5	-0.1762758
220	0x3b02deac	0.0019969149
221	0x3d1dbcf2	0.03851027
222	0xbea370bb	-0.31921944
223	0xbdc30345	-0.09522108
224	0xbdaf4bb1	-0.08559359
225	0x3e881e6e	0.26585716
226	0x3d5d9c8b	0.05410437
227	0x3e90529a	0.2818802
228	0x3e757ac1	0.23972608
229	0x3eb42eab	0.35191855
230	0x3dd03872	0.10167016
231	0x3dfb2c38	0.122642934
232	0xbde65f14	-0.112486035
233	0x3ab34e5f	0.0013679973
234	0xbeacd967	-0.33759615
235	0x3e8cde21	0.2751322
236	0xbd9c1ffe	-0.076232895
237	0xbe581fcf	-0.21105884
238	0x3ed00b83	0.40633783
239	0x3c8273a3	0.01592428
240	0x3e711ddd	0.23546548
241	0x3dd29d17	0.10283869
242	0xbe1ca358	-0.15296686
243	0x3c8c2df4	0.017111756
244	0xbe923440	-0.2855549
245	0x3e5867f7	0.2113341
246	0xbd536926	-0.05161395
247	0x3e50168a	0.20321098
248	0x3d120e1c	0.035657987
249	0x3e878d48	0.26474977
250	0x3dff596b	0.12468227
251	0xbd7e14ba	-0.062031485
252	0xbc31ecf8	-0.01085972
253	0x3e1d0011	0.15332057
254	0xbe0150a9	-0.12628426
255	0x3c409ebb	0.011756594

lstm.weight_hh_l0 f4 [128, 32]
0	0xbc1944a2	-0.009354742
1	0x3df7a4ff	0.120920174
2	0x3edd684c	0.43243635
3	0xbe5c1b3d	-0.21494766
4	0x3dabbb88	0.08385378
5	0xbe8222c0	-0.25417137
6	0x3e935b2f	0.28780505
7	0xbe8df0f9	-0.2772291
8	0xbe891fda	-0.26782113
9	0xbe0b002a	-0.13574281
10	0x3e160a0e	0.14652273
11	0xbcde5f52	-0.027145062
12	0xbd845b1a	-0.06462689
13	0x3dfa8cfe	0.122339234
14	0x3bcab74a	0.0061864005
15	0x3c11f2f4	0.008908022
16	0xbe7efded	-0.24901552
17	0x3d9cbe64	0.07653502
18	0x3e8d32d9	0.27577856
19	0xbe1126e6	-0.14174995
20	0xbe53a272	-0.20667437
21	0xbde8e3f2	-0.11371602
22	0x3ccf480f	0.025302915
23	0xbd92d84e	-0.07170163
24	0x3e016239	0.12635125
25	0x3dc41d4f	0.09575903
26	0xbe3e08fe	-0.18558118
27	0xbdc9cad7	-0.09853142
28	0xbd6ee4a7	-0.05832353
29	0x3dd8481b	0.10560628
30	0x3eaa57f3	0.33270225
31	0xbeb03dd9	-0.34422186
32	0xbe092331	-0.1339233
33	0x3e964abc	0.29353893
34	0x3de05602	0.10953905
35	0x3ea5689c	0.32306373
36	0xbdc7df3c	-0.097593755
37	0xbe366a1f	-0.1781392
38	0xbe625b81	-0.22105218
39	0x3e1505a5	0.14552934
40	0xbcad9a6f	-0.021191804
41	0xbdbc650a	-0.09198959
42	0xbe1d7d2e	-0.15379784
43	0x3e82891e	0.25495237
44	0xbbb6be27	-0.005576867
45	0xbd8e4625	-0.06946973
46	0xbc70b128	-0.014690675
47	0x3c3187e1	0.010835619
48	0xbe887932	-0.26654965
49	0xbd15c700	-0.036566734
50	0xbd4128e8	-0.047158152
51	0x3db56962	0.08857991
52	0x3ceabc3f	0.028654216
53	0x3d493459	0.04912219
54	0xbc4c78e5	-0.012479995
55	0xbe0c7e47	-0.13720046
56	0x3e8e96f8	0.27849555
57	0x3e67fa55	0.22654088
58	0xbea5ad1e	-0.3235864
59	0xbdf56ebe	-0.11984013
60	0xbcb55f7c	-0.022140257
61	0x3d95276f	0.07282912
62	0xbe0b76c4	-0.13619524
63	0xbdc709dc	-0.097186774
64	0xbe93276f	-0.28741023
65	0x3e420309	0.1894647
66	0x3d6e73a9	0.05821577
67	0xbb4a99d5	-0.0030914445
68	0x3ea8018e	0.32813686
69	0xbeb724ef	-0.35770366
70	0x3e22203c	0.15832609
71	0xbe2d6ce5	-0.16936071
72	0xbd9680e2	-0.07348801
73	0xbdb0e184	-0.08636764
74	0x3d9f5349	0.07779557
75	0x3d996f1e	0.07491897
76	0xbe863231	-0.26210168
77	0x3dbbcc10	0.09169781
78	0xbdccd796	-0.10002057
79	0xbe109584	-0.14119536
80	0xbed2834a	-0.4111579
81	0x3d17be0c	0.037046477
82	0x3ebb8600	0.3662567
83	0x3c0c3ca3	0.008559379
84	0xbe4f5286	-0.20246324
85	0xbd782a3c	-0.060587153
86	0x3e1fe474	0.15614492
87	0x3d9b4a8b	0.07582577
88	0x3e071014	0.13189727
89	0xbd9a0218	-0.075199306
90	0xbef15f1f	-0.47142884
91	0xbdffcf47	-0.12490707
92	0xbe475389	-0.1946546
93	0x3eb8de86	0.36107272
94	0x3e5e56f8	0.21712863
95	0xbe1aa944	-0.15103632
96	0xbd9eec1f	-0.0775988
97	0xbd1ee1ac	-0.038789436
98	0x3e92165a	0.28532678
99	0x3dd93fb4	0.106078535
100	0x3c9c7ad8	0.019101545
101	0xbd970e2b	-0.07375749
102	0x3e3b0b90	0.1826613
103	0xbe8a150e	-0.26969188
104	0xbe142db2	-0.14470556
105	0xbe47762c	-0.19478673
106	0x3d0899d9	0.033349846
107	0x3e7b4631	0.24538495
108	0x3c2d869b	0.0105911745
109	0x3db05ea8	0.08611804
110	0xbcd4f380	-0.025995016
111	0xbd8f4be2	-0.069968954
112	0xbdb03db1	-0.08605517
113	0x3e9d929f	0.30775926
114	0x3e48e40e	0.19618246
115	0x3dc7f26b	0.097630344
116	0xbcd75960	-0.026287735
117	0x3cdc1f18	0.026870295
118	0x3df28c78	0.118431985
119	0xbddd2115	-0.107973255
120	0x3c80ea7a	0.015736807
121	0x3d1a8885	0.03772785
122	0xbe8c2229	-0.27369812
123	0xbdd77194	-0.1051971
124	0xbd1c17b5	-0.038108546
125	0xbb62f0af	-0.0034628322
126	0x3e0a889c	0.13528675
127	0xbd590ce5	-0.052990813
128	0xbe11ebe6	-0.14250144
129	0xbd868cd3	-0.06569829
130	0x3e20c859	0.15701427
131	0xbdafd05d	-0.08584664
132	0x3deebbc8	0.1165691
133	0x3d922aab	0.071370445
134	0x3dd990a2	0.1062329
135	0xbdf66905	-0.1203175
136	0x3dc6c16a	0.097048596
137	0x3d66c016	0.05633553
138	0x3d8465d6	0.06464736
139	0x3e5617a0	0.2090745
140	0xbd8d4066	-0.06897049
141	0xbd56d79a	-0.052451707
142	0x3e15a5a9	0.14613976
143	0xbdce0bde	-0.10060857
144	0xbda2e7c2	-0.079543605
145	0x3e679a24	0.22617394
146	0xbd7399f6	-0.059473
147	0x3e203034	0.15643388
148	0x3dfbc630	0.12293661
149	0x3cedade1	0.029013576
150	0xbe2125f0	-0.15737128
151	0xbe7ae065	-0.24499662
152	0x3dcccc61	0.0999992
153	0xbda642d8	-0.08118218
154	0xbe813383	-0.25234613
155	0xbcf570e1	-0.029961051
156	0xbc17e50c	-0.009270918
157	0x3d19647d	0.03744935
158	0xbe1ea3af	-0.15492128
159	0xbde72226	-0.1128581
160	0x3b61cb51	0.0034453461
161	0xbe5afd3e	-0.21385667
162	0xbe9046b0	-0.2817893
163	0xbd17342c	-0.03691499
164	0x3c1408f6	0.00903534
165	0x3c260c6d	0.0101347985
166	0xbdcc5b96	-0.09978406
167	0xbe01f043	-0.12689309
168	0x3e40bd28	0.18822157
169	0xbdf79044	-0.12088063
170	0xbcbb035f	-0.022828756
171	0x3d670d29	0.056409035
172	0xbdd40b4a	-0.10353716
173	0xbe767456	-0.24067816
174	0x3d73818f	0.05944973
175	0xbdaec148	-0.08532959
176	0xbcd20ef1	-0.02564189
177	0xbcbdaf66	-0.023154926
178	0xbb3a738a	-0.0028450214
179	0x3e44f045	0.1923228
180	0xbd075582	-0.03304053
181	0xbc3f1c6a	-0.011664489
182	0xbdeb7f69	-0.11498911
183	0xbe7085c7	-0.23488532
184	0x3d4103d9	0.04712281
185	0x3e843584	0.2582208
186	0xbda73fcd	-0.08166466
187	0x3d571dd9	0.0525187
188	0xbd812399	-0.06305618
189	0xbe37c1bd	-0.17944999
190	0xbdbe2a02	-0.09285356
191	0x3e49c0fb	0.19702522
192	0x3d3df451	0.046375576
193	0x3ce31102	0.02771807
194	0x3e13fee0	0.14452696
195	0xbe05afb1	-0.13055302
196	0xbdccabeb	-0.09993728
197	0xbdc72678	-0.09724134
198	0xbe806483	-0.25076684
199	0x3de562f1	0.11200512
200	0x3b9a42ee	0.0047076857
201	0x3d86ce6d	0.06582341
202	0x3e65d593	0.22444753
203	0x3e8bb852	0.27289063
204	0xbdb385ca	-0.087657526
205	0x3e04a687	0.1295415
206	0x3e8b4104	0.2719804
207	0xbea10952	-0.31452423
208	0xbd9ab4fa	-0.0755405
209	0x3c2bae77	0.010478607
210	0x3e3565f9	0.1771468
211	0x3e1dc958	0.15408838
212	0xbe4381a6	-0.19092426
213	0xbe876dfd	-0.26451102
214	0xbe0427ac	-0.12905759
215	0xbdd2e405	-0.102973975
216	0x3da3f67e	0.08005999
217	0xbd5e884e	-0.05432921
218	0xbe0192b9	-0.12653627
219	0x3d05c44f	0.032657918
220	0xbe4638ee	-0.19357654
221	0x3e09010f	0.1337931
222	0x3e178cae	0.14799759
223	0xbe2aa6fd	-0.16665263
224	0xbe8c501c	-0.2740487
225	0xbd13013a	-0.03588984
226	0x3e7e945a	0.24861279
227	0xbdc747ea	-0.097305134
228	0xbc216d8e	-0.00985278
229	0x3c88a8ae	0.016681995
230	0x3c4394b9	0.011937314
231	0x3d682900	0.056679726
232	0xbe092885	-0.13394363
233	0x3e1f9c10	0.15586877
234	0x3e05656b	0.13026969
235	0x3e86896c	0.2627672
236	0x3ce2e59c	0.027697377
237	0x3d3e1835	0.046409804
238	0x3d6829d1	0.056680504
239	0xbe5add87	-0.21373568
240	0xbc65e65f	-0.0140319755
241	0x3e016218	0.12635076
242	0x3d491d63	0.04910029
243	0xbe5fb1c5	-0.21845157
244	0x3cd1e017	0.02561955
245	0xbe39cb34	-0.18143922
246	0x3e4abf7b	0.19799607
247	0xbe1aebea	-0.15129057
248	0x3ea1b540	0.31583595
249	0xbe6d2ea7	-0.23162328
250	0xbe3515d5	-0.1768411
251	0x3e0cbb75	0.13743384
252	0xbe9eb84f	-0.3099999
253	0x3d89df87	0.067320876
254	0xbd33f24c	-0.043932244
255	0xbe23c9dd	-0.15994973

lstm.bias_ih_l0 f4 [128]
0	0x3e14d1c2	0.14533141
1	0x3dacfd59	0.0844676
2	0x3e412f50	0.18865705
3	0x3d697b3f	0.057002302
4	0x3d8517e5	0.06498698
5	0x3e0fb851	0.14035155
6	0x3e8832d1	0.2660127
7	0x3e894984	0.268139
8	0x3eb180ed	0.34668675
9	0x3e7eb238	0.24872673
10	0x3ed1272c	0.40850198
11	0x3e290617	0.1650623
12	0x3afed638	0.0019442504
13	0x3e0709d0	0.13187337
14	0x3eaefc23	0.3417674
15	0x3e3fd766	0.18734512
16	0xbd9ad581	-0.07560254
17	0x3ea922a3	0.33034238
18	0x3e06ff12	0.13183239
19	0x3e078d65	0.13237531
20	0x3e051833	0.12997513
21	0xbd4d3c00	-0.05010605
22	0x3a82aa12	0.0009968898
23	0x3e9fd13d	0.31214324
24	0x3eabc761	0.33550552
25	0xbce40f00	-0.027839184
26	0x3c64a973	0.0139564155
27	0x3e60d221	0.21955158
28	0x3e5e32a1	0.21699001
29	0x3e40d9ec	0.1883313
30	0x3e62513a	0.22101298
31	0xbda05b15	-0.078298725
32	0xbe147886	-0.14499101
33	0xbe021cf5	-0.12706359
34	0x3d8a6327	0.06757193
35	0xbe2576fb	-0.16158669
36	0x3e1041da	0.1408762
37	0x3e298cee	0.16557667
38	0x3e1e351d	0.15449949
39	0x3e1d41f7	0.15357195
40	0x3e7aedb0	0.24504733
41	0xbdab1367	-0.0835331
42	0xbe09766e	-0.13424084
43	0x3df69088	0.12039286
44	0xbdc4784a	-0.09593256
45	0x3d627ff6	0.055297814
46	0xbdbd6267	-0.092472844
47	0x3cc3facb	0.023923298
48	0xbce8b584	-0.028406866
49	0xbd64900e	-0.055801444
50	0xbe458ec7	-0.19292746
51	0xbd332589	-0.04373697
52	0xbe1963f0	-0.1497953
53	0x3e06fabd	0.13181587
54	0x3d775e24	0.060392514
55	0x3e424285	0.18970688
56	0xbd95176b	-0.07279857
57	0x3d2085c8	0.039190084
58	0xbe417e6f	-0.18895887
59	0x3e0658e1	0.13119842
60	0x3e144839	0.14480676
61	0x3e154770	0.14578032
62	0xbd4c2a7c	-0.049845204
63	0x3dbca77b	0.09211632
64	0x3da5b9c6	0.08092074
65	0x3e0adbbe	0.13560387
66	0x3d57d583	0.052693855
67	0xbd964254	-0.0733687
68	0xbdf91ca0	-0.12163663
69	0xbce902bd	-0.028443689
70	0xbd83f2f6	-0.064428255
71	0x3d93a1e6	0.07208614
72	0x3dcd8cc9	0.10036618
73	0xbde75f13	-0.11297431
74	0x3d5f138c	0.054462
75	0x3e155999	0.1458496
76	0xbcf50450	-0.029909283
77	0xbde8f8b8	-0.11375564
78	0x3e19a6d6	0.15005049
79	0xbe53b43d	-0.20674224
80	0xbe0decb9	-0.13859834
81	0xbe197366	-0.14985427
82	0xbb389213	-0.002816324
83	0xbe33a427	-0.17543088
84	0xbd65007e	-0.055908673
85	0xbdc2e09e	-0.095154986
86	0x3d4d99e5	0.050195593
87	0xbd14dcab	-0.036343258
88	0x3de05ad0	0.10954821
89	0x3d352180	0.0442214
90	0xbe686c28	-0.22697508
91	0xbce27588	-0.027643934
92	0xbcd8a1e2	-0.02644438
93	0x3d517c84	0.051144138
94	0xbd96051f	-0.073251955
95	0xbe18ff54	-0.1494115
96	0x3e870a47	0.26375028
97	0x3cd48e2b	0.025946697
98	0x3ecd97d0	0.40154886
99	0x3ea95dcb	0.3307937
100	0x3d13d55b	0.036092144
101	0xbd8ab073	-0.06771936
102	0x3e5f8df1	0.2183149
103	0x3ccb87e7	0.024845077
104	0x3dab77c4	0.08372453
105	0x3dcf2dc8	0.10116154
106	0x3eab32c2	0.33437163
107	0xbd24f6cc	-0.040274426
108	0x3e79936e	0.24372646
109	0x3de1aea2	0.11019637
110	0x3e9f86ec	0.31157625
111	0x3e199b6b	0.15000694
112	0x3e5f8dc6	0.21831426
113	0x3eff2e40	0.49839973
114	0x3e8b168f	0.27165648
115	0x3ddc622e	0.10760914
116	0x3de92035	0.11383096
117	0x3e316972	0.1732538
118	0xbdf85f62	-0.12127568
119	0x3e78877c	0.24270433
120	0x3e651280	0.22370338
121	0x3e4b202f	0.19836496
122	0x3ea755fa	0.32682782
123	0x3e9e1e08	0.30882287
124	0x3e0d0440	0.13771152
125	0x3d85ef61	0.065397985
126	0x3dfeb6a1	0.124371774
127	0x3e58f4f6	0.21187195

lstm.bias_hh_l0 f4 [128]
0	0x3e9877cd	0.297789
1	0x3e919503	0.28434
2	0x3ea95ced	0.3307871
3	0x3de0ceb8	0.109769285
4	0x3e903a8d	0.2816967
5	0x3d8880a8	0.06665164
6	0x3daf495e	0.085589156
7	0x3e9f3084	0.31091702
8	0x3e55060d	0.2080309
9	0x3e3f187d	0.18661685
10	0x3f1585ba	0.58407176
11	0xbe09b1dd	-0.13446756
12	0x3d9b43dd	0.07581303
13	0x3d8efb6d	0.069815494
14	0x3e42c72a	0.19021288
15	0x3dddf9b0	0.1083864
16	0xbda45dd9	-0.080257125
17	0x3ed87cf2	0.42282826
18	0x3ec738af	0.38910434
19	0x3d829be4	0.0637739
20	0x3e170062	0.1474624
21	0xbd2d1104	-0.042252555
22	0x3e142731	0.14468075
23	0x3d8f735a	0.070044234
24	0x3de7b96e	0.11314665
25	0x3e73c76f	0.23806547
26	0x3e0427c9	0.12905802
27	0x3e5d2742	0.21597007
28	0x3dfafa91	0.12254823
29	0x3e345180	0.17609215
30	0x3e91eeea	0.2850259
31	0x3c03f951	0.008055047
32	0x3e300aff	0.17191695
33	0x3ccd725a	0.025078941
34	0x3dd7ef7f	0.10543727
35	0xbdf2acab	-0.1184934
36	0xbcac3e56	-0.021025818
37	0x3e2e9ca6	0.17051944
38	0xbd817eaf	-0.06322991
39	0x3e3e099f	0.18558358
40	0x3e87cf1a	0.26525193
41	0xbdf1fa4a	-0.11815317
42	0x3caf5faa	0.02140792
43	0xbddcd0c4	-0.107820064
44	0x3e0929b4	0.13394815
45	0xbd0725e3	-0.032995116
46	0x3d73c7ca	0.059516706
47	0x3de7e9ac	0.11323866
48	0xbc158e10	-0.009128109
49	0xbc855f3d	-0.016280765
50	0xbe1df214	-0.15424377
51	0xbc290edc	-0.010318484
52	0x3ba5258b	0.005039876
53	0x3d9fc279	0.078007646
54	0x3e334852	0.17508057
55	0x3e7602f1	0.2402456
56	0x3de42dc0	0.111415386
57	0x3c58fb63	0.013243529
58	0xbd8dfdcb	-0.06933173
59	0xbdc5cb64	-0.09657934
60	0x3d7ad83d	0.061241377
61	0x3e1390c2	0.1441069
62	0xbde99c7b	-0.114067994
63	0x3e0e09f1	0.1387098
64	0xbdd3db7c	-0.10344598
65	0x3d2034db	0.039112907
66	0x3d52123c	0.05128692
67	0x3db8870c	0.09010133
68	0x3d91f009	0.07125861
69	0xbd4b6ffd	-0.049667347
70	0x3e0f8475	0.14015372
71	0x3b79b9f8	0.003810523
72	0xbcf3d36a	-0.029763896
73	0x3cc6342e	0.024194803
74	0x3de7a2a1	0.11310316
75	0x3ce3f582	0.027827028
76	0xbd9d6f25	-0.07687215
77	0x3d38b207	0.045091655
78	0x3d8ce1be	0.068789944
79	0xbde6eea5	-0.112759866
80	0xbdeb31d1	-0.11484111
81	0x3dcc2a78	0.09969038
82	0xbd8e5c24	-0.06951168
83	0x3df98934	0.121843725
84	0xbe07dd60	-0.13268042
85	0xbc63f810	-0.013914123
86	0x3dfa7742	0.12229778
87	0xbe5edb4e	-0.21763346
88	0x3de7158f	0.11283409
89	0x3c460768	0.012086727
90	0xbcf6376d	-0.030055726
91	0x3dd86ac2	0.105672374
92	0xbe077896	-0.13229594
93	0x3dcfb80c	0.10142526
94	0x3d68be46	0.056822084
95	0xbdf61629	-0.120159455
96	0x3d2afc4e	0.041744523
97	0x3d8361e7	0.06415158
98	0x3e3c1207	0.18366252
99	0x3e9c0d95	0.30479112
100	0x3ea69251	0.32533506
101	0xbe1f54dc	-0.15559715
102	0x3e422000	0.1895752
103	0x3e7d1265	0.24714048
104	0x3e9c6dcb	0.30552515
105	0x3e8d9358	0.27651477
106	0x3ef9be13	0.48777828
107	0x3e18e268	0.14930117
108	0x3ea8f0ed	0.32996312
109	0xbbd1d4b5	-0.0064035305
110	0x3eaf558d	0.34244958
111	0x3ea3d93f	0.32001683
112	0x3da6db38	0.081472814
113	0x3e9743d5	0.2954394
114	0x3e9ccf42	0.30626875
115	0xbdf73486	-0.12070565
116	0x3e4afdf7	0.19823442
117	0x3e97b169	0.2962754
118	0xbdc0513b	-0.093904935
119	0x3e90d30b	0.28286013
120	0x3e946d36	0.2898957
121	0x3c44d0f3	0.012012708
122	0x3dbbfcdf	0.09179091
123	0x3e0fd511	0.14046122
124	0x3d7d41ea	0.06183044
125	0xbca59ddc	-0.020216875
126	0x3e7ab527	0.24483167
127	0x3d888cad	0.06667457

lstm.weight_ih_l1 f4 [128, 32]
0	0xbe3e002a	-0.1855475
1	0x3cc0eda6	0.02355082
2	0x3eba1ab7	0.36348507
3	0x3d6c10a8	0.057633072
4	0xbd878b26	-0.06618337
5	0xbd8527d2	-0.06501736
6	0x3e3acd64	0.18242413
7	0xbe1b87f4	-0.15188581
8	0xbd9c3a55	-0.076283135
9	0xbd88c12a	-0.06677468
10	0x3e65dc43	0.22447304
11	0x3dd85c3a	0.10564466
12	0xbcf0df7f	-0.029403446
13	0xbe115e6b	-0.14196174
14	0x3d2b41af	0.041810688
15	0xbd3e69d4	-0.046487644
16	0x3cd774e7	0.02630086
17	0xbd879dc0	-0.06621885
18	0x3e90dea6	0.28294867
19	0x3cb95943	0.022625571
20	0xbdf9b257	-0.12192219
21	0xbdcd60ce	-0.1002823
22	0x3e2fff32	0.17187193
23	0x3d12246c	0.035679266
24	0x3e8c6f90	0.27428865
25	0xbe6527a3	-0.22378401
26	0xbd953dd3	-0.07287183
27	0xbde0a586	-0.10969071
28	0xbe6e3ee6	-0.23266181
29	0x3e0b5928	0.13608229
30	0x3e251d2d	0.16124411
31	0xbe9bb248	-0.30409455
32	0xbd731e3a	-0.059355
33	0x3eaa6901	0.33283237
34	0x3e331ad5	0.17490704
35	0x3d2d117d	0.042253006
36	0x3e8f37ec	0.27972353
37	0xbe9aacff	-0.3021011
38	0xbe35ef14	-0.17766982
39	0xbe78be04	-0.24291235
40	0xbe1cf209	-0.15326704
41	0xbdf83ee8	-0.121213734
42	0x3eae2839	0.34015062
43	0x3eaa0be2	0.3321219
44	0xbe21ea88	-0.15812123
45	0xbe0e1a38	-0.13877189
46	0x3d881f42	0.06646587
47	0xbe94c07c	-0.29053104
48	0xbe150f2c	-0.14556569
49	0xbc102310	-0.008797422
50	0x3c6fab70	0.014628276
51	0x3e07d491	0.13264681
52	0xbe1fb2ac	-0.15595502
53	0xbe91ab71	-0.28451112
54	0x3e70756a	0.2348229
55	0xbe1ec578	-0.15505016
56	0x3e038020	0.12841845
57	0x3ebef070	0.37292814
58	0xbed71d6c	-0.42014635
59	0xbe833896	-0.2562911
60	0xbeb9be5e	-0.3627805
61	0x3e1b41f6	0.15161881
62	0x3e446106	0.19177637
63	0xbea17118	-0.31531596
64	0xbe352385	-0.17689331
65	0x3e5b17a7	0.21395741
66	0x3ea9d32b	0.3316892
67	0x3e46c5f5	0.19411452
68	0x3e63f521	0.22261478
69	0xbe69eb0d	-0.22843571
70	0x3cb17198	0.021660611
71	0xbe0d45d2	-0.13796166
72	0xbe1ec54c	-0.1550495
73	0xbd67e6de	-0.056616656
74	0x3e63b835	0.22238238
75	0x3e801d1d	0.25022212
76	0xbdd5b60a	-0.10435112
77	0x3de2d3e1	0.11075569
78	0xbe7a642c	-0.24452275
79	0xbe8a1f06	-0.26976794
80	0xbe6db7a1	-0.2321458
81	0xbd0f09cb	-0.03492145
82	0x3e2a0b15	0.1660579
83	0xbd00951b	-0.031392198
84	0xbe2e75a9	-0.17037071
85	0x3d61ba6e	0.055109434
86	0x3e7d2ca5	0.24724062
87	0x3e08eccd	0.13371582
88	0x3e09ee96	0.1346992
89	0xbd97c9f8	-0.07411569
90	0xbebd94b8	-0.37027526
91	0xbe9c591b	-0.30536732
92	0xbe357856	-0.17721686
93	0x3eadb058	0.33923602
94	0xbd5b39ba	-0.05352185
95	0xbe1c7009	-0.15277113
96	0xbe76884a	-0.24075428
97	0x3d09d874	0.03365369
98	0xbdb924bf	-0.09040212
99	0xbe5c8dcd	-0.21538468
100	0x3e731477	0.23738275
101	0xbe81f00c	-0.25378454
102	0xbe0f95cf	-0.14021991
103	0xbdd5126c	-0.10403904
104	0xbdc64052	-0.09680237
105	0xbe3df73e	-0.18551347
106	0x3e901525	0.28141132
107	0x3e0b1315	0.13581498
108	0x3d389897	0.045067396
109	0xbdd60ed0	-0.10452044
110	0x3b202559	0.0024436323
111	0xbd18de1a	-0.037321188
112	0xbd51b9b5	-0.051202495
113	0x3e50827a	0.20362273
114	0x3dad81b9	0.08472008
115	0x3cf5a865	0.029987523
116	0xbe34f929	-0.17673172
117	0xbe170c54	-0.14750797
118	0x3e586cce	0.21135256
119	0xbe43a808	-0.19107068
120	0x3e305462	0.1721969
121	0x3d552ccd	0.05204468
122	0xbe4d074b	-0.20022313
123	0x3e39b28a	0.18134513
124	0xbd9d68ba	-0.07685991
125	0x3e684827	0.22683774
126	0x3e49a905	0.19693382
127	0xbe81f43f	-0.25381657
128	0xbe4769c3	-0.19473939
129	0x3e0fa08d	0.14026089
130	0x3db61f44	0.08892682
131	0xbe90b9d8	-0.28266788
132	0x3e71718b	0.2357847
133	0x3cf1234c	0.029435776
134	0xbd828648	-0.06373268
135	0xbd5f26aa	-0.054480232
136	0xbe2b7dbc	-0.16747183
137	0xbeb13e89	-0.34618023
138	0xbd962548	-0.073313296
139	0x3e890e6f	0.26768824
140	0x3d096e29	0.033552323
141	0xbe06e9d6	-0.13175139
142	0x3e7cb7a7	0.24679433
143	0x3cb6bf74	0.022308089
144	0xbdc6f320	-0.09714341
145	0x3b945cb7	0.004527654
146	0x3e576bde	0.21037242
147	0xbce06f38	-0.027396783
148	0xbe072d5f	-0.13200901
149	0xbd973e15	-0.07384888
150	0xbc4756aa	-0.012166658
151	0xbe4997ef	-0.19686864
152	0x3e909f2c	0.28246439
153	0x3e2d257f	0.16908835
154	0xbea3595e	-0.3190412
155	0x3d5cfa2b	0.053949516
156	0xbd6e5211	-0.058183733
157	0x3d2b9938	0.041894168
158	0xbc5b39a9	-0.0133804465
159	0xbe375d74	-0.17906743
160	0xbd621406	-0.055194877
161	0xbda63e26	-0.081173226
162	0x3d6899ab	0.056787174
163	0x3dbb1f11	0.09136785
164	0x3e16d5fe	0.14730069
165	0xbe06847f	-0.13136481
166	0xbc7ce0b9	-0.015434437
167	0xbe289695	-0.16463692
168	0xbe8cb8b5	-0.2748467
169	0xbd929d12	-0.07158865
170	0xbdcd6063	-0.1002815
171	0x3e102311	0.14075877
172	0x3cfb25a1	0.030657591
173	0xbc11cc54	-0.008898813
174	0xbdd43315	-0.103613056
175	0x3cef77cd	0.02923193
176	0x3cfb070f	0.030643014
177	0x3e540928	0.20706618
178	0x3d6298a4	0.05532135
179	0x3d29018d	0.041261245
180	0x3e0c5c7c	0.13707155
181	0x3cdbbb87	0.026822818
182	0x3e3193f9	0.17341603
183	0xbc87cd44	-0.01657737
184	0x3e2ee983	0.17081265
185	0xbe4261f6	-0.18982682
186	0xbe299727	-0.16561566
187	0x3e279b9e	0.16367957
188	0xbe04d665	-0.1297241
189	0xbdb9acf5	-0.09066192
190	0x3d5dac34	0.054119304
191	0xbe33419c	-0.17505497
192	0x3de907e5	0.11378459
193	0x3b7ee0f6	0.0038891411
194	0xbce35011	-0.02774814
195	0x3e6e9a80	0.23301125
196	0x3db6fc4a	0.08934839
197	0x3df078bf	0.117417805
198	0x3a860461	0.0010224694
199	0xbc8901e3	-0.016724532
200	0xbe1d6b55	-0.15372975
201	0x3ca49458	0.020090267
202	0x3d94d00f	0.072662465
203	0xbcd2a51c	-0.025713496
204	0xbe363b3d	-0.17796035
205	0xbdf40cfc	-0.11916539
206	0xbe9001ca	-0.28126365
207	0x3d71f7c5	0.059074182
208	0x3e28f8d2	0.16501167
209	0xbd5d346d	-0.054005075
210	0xbc8616ea	-0.016368348
211	0xbddf87e8	-0.10914594
212	0xbe05a4d6	-0.13051161
213	0xbc529320	-0.01285246
214	0xbdb4cc8e	-0.08828078
215	0x3e2d2fdc	0.16912788
216	0xbdf3958b	-0.118937574
217	0xbcc28ab2	-0.023747776
218	0xbe0e3f0f	-0.13891242
219	0xbd155f00	-0.036467552
220	0x3d6f785d	0.058464397
221	0x3c2bc2bd	0.010483441
222	0x3cc8e7fa	0.024524678
223	0xbd0f3b35	-0.034968574
224	0xbec53543	-0.38517198
225	0x3e40ebdf	0.18839978
226	0x3e236f34	0.1596039
227	0xbc9198b8	-0.017773017
228	0x3e556767	0.20840226
229	0xbe8674d1	-0.26261
230	0x3e157c51	0.14598204
231	0xbe6ee0ea	-0.23327985
232	0xbdf930ff	-0.121675484
233	0xbe5bf794	-0.21481162
234	0xbd2712e3	-0.040789496
235	0x3e531140	0.20612049
236	0x3e15f3d8	0.146438
237	0xbcbc7269	-0.023003774
238	0x3e420cc9	0.1895019
239	0xbdd7265d	-0.10505364
240	0xbda30dd9	-0.079616256
241	0x3b8b23b3	0.004246199
242	0x3e00dbaf	0.12583803
243	0xbe0df4c6	-0.13862905
244	0xbea05c1d	-0.31320277
245	0x3b8201d1	0.0039675017
246	0x3e8ed7b5	0.27898946
247	0xbe036c07	-0.12834178
248	0x3e9298b2	0.28632122
249	0x3e3ca7b7	0.18423353
250	0xbeb38793	-0.35064372
251	0x3d0b2478	0.033970326
252	0xbe871178	-0.26380515
253	0x3eb4447a	0.35208493
254	0x3d467a73	0.04845662
255	0xbe9e4dff	-0.3091888

lstm.weight_hh_l1 f4 [128, 32]
0	0x3d03581e	0.032066457
1	0x3e5b9ab4	0.21445733
2	0xbdaea702	-0.08527948
3	0xbded165f	-0.115765326
4	0x3e4b4011	0.19848658
5	0xbde2f51c	-0.11081907
6	0xbde81cfc	-0.11333653
7	0xbe7cc86a	-0.24685827
8	0xbe5c4c67	-0.2151352
9	0xbe2e0ed8	-0.1699785
10	0xbd3eefee	-0.046615534
11	0xbd74b84e	-0.05974608
12	0x3cb532e7	0.022118999
13	0x3e0025cf	0.12514423
14	0xbe954c35	-0.29159704
15	0x3d073117	0.0330058
16	0x3e2485f0	0.16066718
17	0x3db68d02	0.08913614
18	0xbcc0a8c8	-0.023517981
19	0xbd5db0e1	-0.054123763
20	0x3da80f49	0.082060404
21	0xbe109089	-0.14117636
22	0x3e3c4a58	0.18387735
23	0xbe088330	-0.13331294
24	0xbdcab2f3	-0.09897413
25	0xbe854f89	-0.26037243
26	0xbe0003be	-0.12501428
27	0x3e5af264	0.21381527
28	0xbd9248ec	-0.07142815
29	0xbdd02746	-0.10163741
30	0xbb437284	-0.0029822895
31	0xbe84c53f	-0.25931737
32	0xbdbf4ef6	-0.093412325
33	0x3dcf37ec	0.10118088
34	0x3c8a5ee8	0.016890958
35	0x3eae7914	0.3407675
36	0xbdd5895f	-0.10426592
37	0xbe54733c	-0.20747083
38	0xbe8fe137	-0.28101513
39	0xbe48d6d4	-0.196132
40	0xbde1b898	-0.110215366
41	0xbe55df81	-0.20886041
42	0xbe8174b6	-0.25284356
43	0xbdb3b1dd	-0.08774159
44	0x3f1182cf	0.56840223
45	0x3dffdb25	0.124929704
46	0xbcc3261d	-0.023821885
47	0x3d66e1a5	0.056367535
48	0xbe5d1fe8	-0.21594203
49	0xbd66540b	-0.056232493
50	0xbde02af0	-0.1094569
51	0xbc621d10	-0.013800874
52	0xbd8f6f21	-0.07003618
53	0xbe6a612c	-0.2288863
54	0x3e2ab32e	0.16669914
55	0xbe0ca59e	-0.13735053
56	0x3e153f70	0.1457498
57	0xbdf9d31d	-0.1219847
58	0xbefaea37	-0.49006817
59	0x3ead05d8	0.3379352
60	0xbd8a38bf	-0.06749105
61	0xbd2a99f3	-0.041650724
62	0xbdb0d939	-0.08635182
63	0x3d44674a	0.047950067
64	0x3e568823	0.2095037
65	0xbd949a91	-0.07256044
66	0xbce6497a	-0.028111208
67	0x3c427546	0.0118687805
68	0xbe037e6c	-0.12841195
69	0xbe744eae	-0.23858139
70	0xbdbe8145	-0.09302
71	0xbe2ac903	-0.16678242
72	0x3c45c0d4	0.0120699
73	0xbdab7ee8	-0.08373815
74	0x3e25eddc	0.16204017
75	0xbda3fbc2	-0.08007003
76	0x3e8063bb	0.25076088
77	0xbdff0d37	-0.124536924
78	0xbdec321a	-0.115329936
79	0x3dc76b08	0.097372115
80	0xbe999fd4	-0.30004752
81	0xbe06ee84	-0.13176924
82	0xbd3a93a6	-0.045550965
83	0xbd04c2f7	-0.032412495
84	0xbe805219	-0.25062636
85	0xbea8af23	-0.3294612
86	0x3d82c043	0.06384327
87	0x3e6067a6	0.21914539
88	0xbe13d690	-0.14437318
89	0x3ca07fed	0.01959225
90	0xbd0c9c8e	-0.03432899
91	0x3e2d7435	0.1693886
92	0x3da3007d	0.079590775
93	0xbe0c1099	-0.13678207
94	0xbe27bd89	-0.16380896
95	0x3d9eb156	0.07748668
96	0x3e875c00	0.26437378
97	0x3e53a59a	0.2066864
98	0xbdc912f6	-0.0981807
99	0xbda19287	-0.07889276
100	0xbdfc22f4	-0.12311354
101	0x3d37e0d5	0.04489215
102	0xbe3fb5df	-0.18721722
103	0xbdbd4a1e	-0.09242652
104	0xbe3cdda8	-0.1844393
105	0x3e433460	0.19062948
106	0xbe41176d	-0.18856592
107	0xbd2f62e1	-0.042818908
108	0x3e6612eb	0.22468154
109	0x3d804b60	0.06264377
110	0xbde87db8	-0.11352104
111	0xbe2af9ed	-0.16696902
112	0xbea16b78	-0.31527305
113	0x3d0746be	0.03302645
114	0x3dbfd126	0.09366064
115	0xbd1c0e46	-0.03809955
116	0xbb25fa3b	-0.002532615
117	0xbe2a36c4	-0.16622454
118	0x3e382176	0.17981514
119	0x3e33df60	0.1756568
120	0x3dfb47f1	0.12269581
121	0xbd5c509c	-0.053787813
122	0xbe146f0a	-0.14495483
123	0x3e219876	0.15780815
124	0x3db3e17b	0.08783241
125	0xbdff0439	-0.12451977
126	0xbca0d98a	-0.01963498
127	0x3c2bbab5	0.010481526
128	0x3dc8bd1f	0.09801697
129	0x3dc69c51	0.09697784
130	0x3e920198	0.2851684
131	0xbdf2c644	-0.118542224
132	0x3d2b4faf	0.04182404
133	0x3c851248	0.016244069
134	0xbbfe3f3b	-0.0077590025
135	0xbd0a5a09	-0.03377727
136	0xbe029435	-0.12751849
137	0x3e87d2bc	0.26527965
138	0xbdfb44ac	-0.122689575
139	0xbdee3f4f	-0.11633169
140	0xbb93ba78	-0.004508313
141	0xbe9cb67e	-0.3060798
142	0x3e089ba0	0.13340616
143	0xbe2b97d2	-0.16757134
144	0xbb2b44ff	-0.0026133654
145	0x3de4ecc3	0.11177971
146	0x3d881567	0.06644707
147	0xbdf5b297	-0.11996954
148	0xbdf114c6	-0.1177154
149	0x3e256813	0.16152982
150	0x3de651f4	0.112461
151	0x3e31c5ab	0.1736056
152	0xbdcd9e94	-0.10040012
153	0xbdcdace4	-0.10042742
154	0xbe79a300	-0.24378586
155	0xbd2e6899	-0.04258022
156	0xbe6a38f2	-0.22873285
157	0xbd77b014	-0.060470656
158	0xbe99d9aa	-0.30048877
159	0xbd259e80	-0.04043436
160	0x3d06c972	0.032906957
161	0xbd893ca6	-0.06701021
162	0x3d97604b	0.07391413
163	0x3debb826	0.11509733
164	0x3d37ba11	0.04485518
165	0x3ce24a9b	0.027623465
166	0x3e01a319	0.12659873
167	0xbdf2d7cc	-0.11857566
168	0xbe7cec6f	-0.24699567
169	0x3e65a4b3	0.22426109
170	0xbdc13f98	-0.09435958
171	0x3deeb815	0.116562046
172	0x3d876042	0.066101566
173	0xbe6a9b8f	-0.22910903
174	0x3c710f8d	0.01471318
175	0xbd5522a8	-0.052035004
176	0xbd898eb5	-0.06716672
177	0x3db809d9	0.08986253
178	0xba2c3760	-0.0006569531
179	0xbe6bbea9	-0.2302195
180	0xbdfaea49	-0.122517176
181	0x3d7ea2cf	0.062166985
182	0xbdb3a0d5	-0.08770911
183	0xbe068edd	-0.13140436
184	0x3e2e27cc	0.17007369
185	0xbe503ac9	-0.20334925
186	0xbe19b862	-0.15011743
187	0x3dfabb2d	0.12242732
188	0x3d2535af	0.0403344
189	0xbd9fbf3e	-0.078001484
190	0xbd9e0cc5	-0.07717279
191	0x3e4722b6	0.19446835
192	0x3e80de7c	0.25169742
193	0xbe03b362	-0.12861398
194	0xbdbfdc90	-0.09368241
195	0x3e19ec2c	0.15031499
196	0xbddad59a	-0.106852725
197	0x3c1c0b76	0.009524217
198	0x3d3beda1	0.045880917
199	0xbe508ea2	-0.2036691
200	0xbd60be6e	-0.054869108
201	0xbd553bca	-0.052058972
202	0xbbca829f	-0.006180122
203	0xbc976155	-0.018479029
204	0x3c55f10c	0.013057958
205	0xbd4d73e2	-0.050159343
206	0x3e2fccc7	0.1716796
207	0x3cfdd277	0.030984147
208	0xbe014068	-0.12622225
209	0x3d7b92f4	0.061419442
210	0x3d90b842	0.070663944
211	0x3d474e41	0.048658613
212	0x3d4cbeb2	0.04998655
213	0xbe3ee5ec	-0.18642396
214	0xbd93d177	-0.072176866
215	0x3e11c31f	0.14234589
216	0x3d926797	0.071486644
217	0xbc970597	-0.018435283
218	0xbd4dd6e5	-0.050253768
219	0xbd54a673	-0.05191655
220	0x3e321821	0.17392017
221	0x3cc8d5ae	0.024515953
222	0x3d5aca7c	0.05341576
223	0xbd0b1f41	-0.033965353
224	0x3e207dad	0.15672942
225	0xbe88c73f	-0.26714513
226	0xbdf6fe05	-0.12060169
227	0x3e3acd6a	0.18242422
228	0x3de6ddc4	0.11272767
229	0x3bb88f98	0.005632352
230	0xbe15ca6e	-0.14628002
231	0x3e000e42	0.12505439
232	0xbd8b2f05	-0.06796078
233	0x3e8e7769	0.27825478
234	0xbe7b40f6	-0.245365
235	0xbe7681ea	-0.24072996
236	0x3df6a9f3	0.12044134
237	0xbd9c0c08	-0.07619482
238	0xbe70d4f4	-0.23518735
239	0xbde25050	-0.11050475
240	0xbe9db3f7	-0.30801365
241	0x3d9768c8	0.07393032
242	0x3ccb7c77	0.024839623
243	0xbe2513e3	-0.16120867
244	0xbe9c12cd	-0.30483094
245	0x3dcb884f	0.09938108
246	0x3e0ac98e	0.1355345
247	0xbe3668a2	-0.17813352
248	0xbd84945d	-0.064736106
249	0xbe92182d	-0.2853407
250	0xbe1a4956	-0.15067038
251	0x3ecefb2a	0.40425998
252	0x3d6f6289	0.05844358
253	0x3dab95c2	0.083781734
254	0xbdcb89f3	-0.09938421
255	0xbdca5c63	-0.098809026

lstm.bias_ih_l1 f4 [128]
0	0x3e78af3a	0.24285594
1	0x3ea345f2	0.31889302
2	0x3e6322cc	0.22181243
3	0x3eabe751	0.33574918
4	0x3e0c618f	0.1370909
5	0x3e23eff4	0.16009504
6	0x3c122775	0.00892054
7	0x3ecf4c82	0.40488058
8	0xbc1b1c66	-0.00946722
9	0x3da27e82	0.07934286
10	0x3dad959b	0.084758006
11	0xbcc76a25	-0.024342606
12	0x3dc761fc	0.09735486
13	0x3e1d18c5	0.1534148
14	0x3e6590e3	0.22418551
15	0x3d16b114	0.03678997
16	0x3dba2472	0.09088983
17	0x3ef6e346	0.4822027
18	0x3e1a7a68	0.15085757
19	0x3e40a513	0.18812971
20	0xbd9baf7e	-0.07601832
21	0x3e8b4999	0.27204588
22	0x3e237111	0.159611
23	0x3f19bd0c	0.6005409
24	0x3e84dd1e	0.2594995
25	0xbd0e5aa5	-0.034754414
26	0xbd13ce0f	-0.036085185
27	0x3e5c3930	0.2150619
28	0x3df9e96a	0.12202723
29	0x3ecd6377	0.40114948
30	0x3e19569e	0.14974448
31	0x3e48021b	0.19532053
32	0x3e52fed9	0.20605029
33	0xbdf33fc2	-0.11877395
34	0xbe5e5024	-0.21710259
35	0x3e03a7f9	0.12857045
36	0x3d37bcb7	0.044857707
37	0xbda940c7	-0.082643084
38	0xbc4637d0	-0.012098268
39	0xbe108f57	-0.1411718
40	0x3d4d8ca5	0.050182957
41	0xbdd6b9c8	-0.10484654
42	0xbce140cc	-0.027496718
43	0x3e4e8cc1	0.20170881
44	0x3da0d5a5	0.078532495
45	0xbcce9f44	-0.025222428
46	0x3d51f7e5	0.0512618
47	0xbdfdf477	-0.124001436
48	0x3eaa3305	0.3324205
49	0xbe9f1677	-0.31071827
50	0xbdf596f9	-0.119916864
51	0xbe0e1184	-0.13873869
52	0x3db9cdec	0.090724796
53	0xbe21d8cb	-0.15805356
54	0xbcb55922	-0.022137228
55	0x3dbbd804	0.09172061
56	0xbdba8ac9	-0.091085024
57	0x3d5442a6	0.051821373
58	0xbde1e9a4	-0.110308915
59	0xbd877ba3	-0.06615379
60	0xbdcf6e39	-0.10128445
61	0xbdf2f773	-0.118636034
62	0xbde24472	-0.11048211
63	0xbd0a9b47	-0.03383949
64	0xbc1a3401	-0.009411813
65	0xbd878327	-0.06616812
66	0x3ddbb395	0.10727612
67	0x3d277ebc	0.040892348
68	0xbd898b59	-0.067160316
69	0x3cbdd998	0.023175046
70	0xbba9eed4	-0.0051859412
71	0x3dfe14c6	0.12406306
72	0xbd400282	-0.04687739
73	0xbdb176cd	-0.086652376
74	0xbe18f66b	-0.14937751
75	0x3dc99cbf	0.0984435
76	0x3e1e9cb6	0.15489468
77	0x3d933bfe	0.07189177
78	0xbd86f2dd	-0.06589291
79	0x3d8a1630	0.06742513
80	0xbd35c00d	-0.044372607
81	0x3e19a9bb	0.15006153
82	0x3da56f54	0.08077875
83	0xbe2ff7e0	-0.171844
84	0x3d9ad678	0.07560438
85	0x3dc7d350	0.097571015
86	0x3cf0dacd	0.029401207
87	0xbe280f7a	-0.16412154
88	0xbdad8a63	-0.08473661
89	0xbd21f8cc	-0.03954391
90	0xbde8f09f	-0.1137402
91	0x3e66f365	0.22553785
92	0x3d32c100	0.04364109
93	0xbd1020b2	-0.03518743
94	0xbe278715	-0.16360123
95	0x3da526bb	0.08064028
96	0x3e2691f0	0.16266608
97	0x3e924efc	0.28575885
98	0x3edb6058	0.42846942
99	0x3ec41807	0.3829958
100	0x3e1cc71e	0.15310332
101	0xbc85647f	-0.016283272
102	0x39c3a044	0.00037312706
103	0x3e89a704	0.26885235
104	0x3e22ce00	0.15898895
105	0x3e7cdb53	0.2469304
106	0x3d1788c4	0.036995664
107	0x3de48dc7	0.111598544
108	0x3e802ac0	0.25032616
109	0x3e7fad3c	0.24968427
110	0xbd6a0c75	-0.057140786
111	0x3e4892f0	0.19587302
112	0x3c6ffa95	0.014647146
113	0x3f0e34c7	0.5554928
114	0x3e0238dc	0.12717003
115	0x3e51e851	0.20498778
116	0x3da4a1ab	0.08038648
117	0x3ebd50d0	0.36975718
118	0x3e470443	0.1943522
119	0x3e94a8b5	0.29034963
120	0xbd672e21	-0.056440476
121	0xbd37c8a5	-0.044869084
122	0x3dc79b16	0.09746377
123	0x3dbf5fa8	0.09344417
124	0x3e9e6442	0.30935866
125	0x3e93a242	0.2883473
126	0x3e65d013	0.22442655
127	0x3e9745bf	0.295454

lstm.bias_hh_l1 f4 [128]
0	0x3ea22cb9	0.31674746
1	0x3eb3a874	0.35089457
2	0x3e85a49a	0.26102144
3	0x3ea6ff50	0.32616663
4	0x3e1f9298	0.15583265
5	0x3e927dff	0.28611752
6	0x3d95c68b	0.0731326
7	0x3ea132c6	0.3148405
8	0x3e19cdb4	0.15019876
9	0x3e8c08bd	0.27350417
10	0x3de230c8	0.110444605
11	0x3cfddaca	0.030988116
12	0x3e72b7f2	0.23702982
13	0x3e106043	0.14099221
14	0x3e6dcfeb	0.23223846
15	0x3e8f6dff	0.28013608
16	0xbd8421b4	-0.06451741
17	0x3ee525fa	0.44755536
18	0x3ecc811d	0.39942256
19	0x3d7f41a5	0.062318463
20	0x3db80d00	0.089868546
21	0x3da5fb83	0.08104613
22	0x3d93b481	0.07212163
23	0x3e829f11	0.25511983
24	0x3e64ea37	0.22354971
25	0x3d4906c9	0.049078736
26	0x3c43f8fc	0.011961218
27	0x3dadecdf	0.08492445
28	0x3e090122	0.13379338
29	0x3ea4d114	0.32190764
30	0x3e2c85b7	0.16847883
31	0xbc56782f	-0.013090177
32	0x3e4404c9	0.1914245
33	0x3d996b07	0.07491117
34	0x3da91367	0.08255654
35	0xbe2298aa	-0.15878549
36	0x3dfaaa0d	0.12239466
37	0x3e403176	0.18768868
38	0xbd557a0d	-0.05211835
39	0xbe3ad398	-0.18244779
40	0xbd1d4cb5	-0.03840323
41	0xbbbe7391	-0.0058121164
42	0x3e6d12b1	0.23151661
43	0x3b5ecf50	0.003399808
44	0x3e0977c7	0.13424598
45	0xbe52635a	-0.20545712
46	0xbe03346e	-0.12812969
47	0xbc9a9104	-0.018867977
48	0x3dc7c47f	0.097542755
49	0xbe9b4c55	-0.30331674
50	0x3da4353b	0.080179654
51	0xbe1e679e	-0.15469214
52	0x3e39ec12	0.1815646
53	0x3e05dd8c	0.13072795
54	0x3dafac50	0.08577788
55	0xbd2c2e52	-0.042036362
56	0xbc9c7818	-0.019100234
57	0x3d703ab5	0.058649737
58	0xbd37125f	-0.044695254
59	0xbdc3e202	-0.09564592
60	0x3dd0380c	0.1016694
61	0xbde3be11	-0.11120237
62	0xbe124f6c	-0.1428811
63	0xbd897ccd	-0.06713257
64	0x3ddd284b	0.10798701
65	0xbd0639fa	-0.032770135
66	0x3db0fe7c	0.08642289
67	0x3d6a7102	0.05723668
68	0x3de12cc5	0.10994867
69	0x3dcce1ae	0.100039825
70	0xbd7c30ac	-0.061569855
71	0xbe18dd64	-0.14928204
72	0xbde56bde	-0.11202215
73	0xbdd7e680	-0.10542011
74	0xbd0088c5	-0.031380434
75	0xbe0edd82	-0.13951686
76	0x3dc68659	0.096935935
77	0xbd418e76	-0.047255002
78	0xbdf27471	-0.11838616
79	0xbde4c7cc	-0.11170921
80	0x3daa6776	0.08320515
81	0xbd78fc83	-0.06078769
82	0xbe13390c	-0.1437723
83	0xbddf0d8a	-0.10891254
84	0xbdc6648d	-0.09687147
85	0xbd9fcb36	-0.07802431
86	0x3d13f8d6	0.03612598
87	0x3dcc7abd	0.09984348
88	0x3dd55116	0.104158565
89	0xbd17ade7	-0.03703108
90	0x3e11b2ab	0.14228313
91	0xbda49e4b	-0.080380045
92	0xbceb5792	-0.02872828
93	0x3d23ba81	0.039972786
94	0x3d0045ad	0.031316448
95	0xbe49ef63	-0.19720225
96	0x3e7b7e07	0.24559794
97	0x3ede6aac	0.4344076
98	0x3ebb649d	0.366002
99	0x3e907c1b	0.28219685
100	0x3d8b1de7	0.06792813
101	0x3d606cb4	0.054791167
102	0xbd7a28bf	-0.061074015
103	0x3ee6f8de	0.45111746
104	0x3e495b17	0.19663654
105	0x3e612284	0.21985823
106	0x3a9322ad	0.0011225544
107	0xbda17e0c	-0.0788537
108	0xbdac784e	-0.08421384
109	0x3e60860a	0.21926132
110	0x3e1f25bd	0.1554174
111	0xbac0f82d	-0.00147224
112	0x3e5ab8f2	0.21359614
113	0x3eb34c4e	0.35019153
114	0x3e3ffc73	0.18748645
115	0xbde4396c	-0.11143765
116	0x3c44bf43	0.012008491
117	0x3e30b4a2	0.17256406
118	0x3dda0026	0.106445596
119	0x3ede5537	0.4342439
120	0xbd261c36	-0.040554248
121	0x3d254c93	0.04035623
122	0x3d216fc1	0.039413217
123	0x3c9eb9dd	0.019375736
124	0x3e3c91ca	0.18414989
125	0x3e95382b	0.29144415
126	0xbcf0b7cc	-0.029384516
127	0x3df9c195	0.12195126

lstm.weight_ih_l2 f4 [128, 32]
0	0x3cd9b56b	0.026575765
1	0xbe2e3ac0	-0.17014599
2	0xbdd12013	-0.10211196
3	0x3d8e2aec	0.069417804
4	0x3d6bb3a5	0.05754437
5	0xbd525da4	-0.051358834
6	0xbd2d9acf	-0.042383965
7	0x3e43c924	0.19119698
8	0xbe3d5810	-0.18490624
9	0x3da88e8a	0.08230312
10	0x3c5c4d3f	0.013446151
11	0x3df0a25f	0.1174972
12	0xbbec7d8c	-0.007217115
13	0x3c8a0db0	0.01685223
14	0xbe002618	-0.12514532
15	0xbcfd4136	-0.030914884
16	0xbe736702	-0.23769763
17	0xbdda4e39	-0.10659451
18	0x3e31d0b2	0.17364767
19	0xbe5a0f57	-0.21294914
20	0x3c0ca2e1	0.008583755
21	0xbe6136ed	-0.21993609
22	0x3e96c724	0.29448807
23	0xbdc95cfb	-0.09832188
24	0x3e6bee42	0.23040107
25	0x3e0c7baa	0.13719049
26	0xbdfe8d43	-0.12429287
27	0xbd3028ba	-0.04300759
28	0xbe1bcde9	-0.15215267
29	0x3d51b5ae	0.051198654
30	0xbdd88493	-0.105721615
31	0x3e14cd9b	0.14531557
32	0xbd0175cd	-0.031606484
33	0x3cce5f92	0.025192056
34	0x3cd971c5	0.026543507
35	0xbe71c34c	-0.23609656
36	0xbd2e5d09	-0.042569194
37	0xbddaddf8	-0.106868684
38	0x3e4dfa75	0.20115073
39	0x3e7a393b	0.24435894
40	0xbe6573f0	-0.22407508
41	0x3df177d2	0.11790432
42	0x3ea353e2	0.31899935
43	0x3cadeb89	0.021230476
44	0xbd05c28c	-0.032656237
45	0x3e013684	0.12618452
46	0xbebbdb12	-0.36690575
47	0xbe4d3692	-0.20040348
48	0x3ce65abe	0.028119441
49	0x3e439357	0.19099174
50	0x3dc12e86	0.09432702
51	0xbdae4cf1	-0.08510769
52	0xbc19f9c1	-0.009397925
53	0xbd3735e2	-0.04472912
54	0x3e5f9a09	0.21836103
55	0xbe3f6266	-0.1868988
56	0xbe8ec8b6	-0.27887505
57	0x3b0a738f	0.0021126007
58	0x3dd17908	0.10228163
59	0xbdc13e06	-0.09435658
60	0xbdd0a550	-0.10187781
61	0xbe607321	-0.21918918
62	0xbd932a92	-0.07185854
63	0xbea0a3d1	-0.31374982
64	0x3e2e35bd	0.17012687
65	0x3e003816	0.12521395
66	0x3d91efcf	0.07125818
67	0x3ea234fe	0.31681055
68	0x3e41a675	0.18911155
69	0xbd8d3bc7	-0.06896167
70	0xbe161f0b	-0.1466028
71	0xbc9d6369	-0.019212442
72	0xbde2aa07	-0.110675864
73	0x3e0e44c8	0.13893425
74	0xbdc82d80	-0.097743034
75	0x3d13622f	0.035982307
76	0x3d923b65	0.07140235
77	0xbe10ec5b	-0.14152662
78	0x3d9cb178	0.07651037
79	0xbc7e84c1	-0.015534581
80	0x3dc578f5	0.09642211
81	0xbd7aaaee	-0.061198168
82	0xbd092883	-0.0334859
83	0x3dbc0706	0.09181027
84	0xbdc93091	-0.098237164
85	0xbd99a36b	-0.07501873
86	0xbdaf0dc9	-0.08547551
87	0xbd245daf	-0.040128406
88	0x3d599254	0.053118065
89	0xbe2736f5	-0.16329558
90	0x3d96d752	0.07365288
91	0x3d0f56ff	0.034995075
92	0xbc756f70	-0.014980182
93	0xbe350424	-0.17677361
94	0xbdd460f9	-0.103700586
95	0xbe3b6fdb	-0.18304388
96	0x3e1309b1	0.14359166
97	0x3e0ed3a9	0.1394793
98	0xbd4c8caf	-0.049938854
99	0x3d981063	0.074250005
100	0x3e415324	0.18879372
101	0xbd9ca525	-0.07648686
102	0xbdcd8351	-0.10034812
103	0x3e37c610	0.17946649
104	0x3dfee799	0.124465175
105	0x3dee9d39	0.116510816
106	0x3d40abb4	0.04703875
107	0xbda5f3f5	-0.08103172
108	0x3c4c78f1	0.012480007
109	0x3b04678e	0.0020203325
110	0xbe6bdf04	-0.23034292
111	0x3ded8e5d	0.11599419
112	0x3d014cee	0.031567506
113	0x3e04a1d2	0.12952355
114	0xbe4d1023	-0.20025687
115	0x3dbcbaa0	0.092152834
116	0xbd9d1143	-0.07669308
117	0xbe4031d0	-0.18769002
118	0x3de3ffa7	0.11132746
119	0xbdc3bec8	-0.09557873
120	0xbe3f0039	-0.18652429
121	0x3d7dc3e9	0.061954413
122	0xbde2f85f	-0.11082529
123	0x3d90754c	0.070536226
124	0xbe212909	-0.1573831
125	0xbe53d519	-0.20686759
126	0xbe160841	-0.14651586
127	0x3d36b4d7	0.044606056
128	0x3dd98820	0.10621667
129	0xbe95778d	-0.29192773
130	0x3ca7b8ad	0.020473802
131	0x3e4f041b	0.2021641
132	0x3e294606	0.16530618
133	0x3d584472	0.05279965
134	0xbe0c1d9e	-0.13683173
135	0x3dc3f0f7	0.09567445
136	0xbe87212d	-0.263925
137	0xbd9e6d6d	-0.07735715
138	0xbe804355	-0.2505137
139	0xbe0ca20e	-0.13733694
140	0x3edaeb18	0.42757487
141	0xbe870b56	-0.26375836
142	0xbe09d679	-0.13460721
143	0x3d67263e	0.056432955
144	0xbe47a741	-0.19497396
145	0x3e914a30	0.28376913
146	0xbb3929ef	-0.0028253754
147	0xbee14ab1	-0.44002298
148	0x3a9b35d3	0.0011841602
149	0xbc9ddafe	-0.019269463
150	0x3e9cddd6	0.30637997
151	0x3e32435a	0.17408505
152	0xbdbc3e53	-0.09191575
153	0xbe5bba92	-0.2145789
154	0xbeff3f00	-0.49852753
155	0x3ed1caa0	0.40974903
156	0xbe6f1150	-0.23346448
157	0xbe27e93f	-0.1639757
158	0xbdecbeca	-0.115598276
159	0x3d6ed15b	0.058305126
160	0xbe525462	-0.20540002
161	0xbdc89c64	-0.09795454
162	0xbe4bf57b	-0.19917862
163	0x3e66dfb3	0.22546272
164	0xbdf9014a	-0.12158449
165	0x3e04f6ba	0.12984744
166	0xbd843d37	-0.06456988
167	0x3ca99364	0.020700164
168	0xba3bcb92	-0.0007163818
169	0x3e2d3673	0.16915302
170	0x3da3fc4f	0.080071084
171	0xbc9fb8ed	-0.01949736
172	0xbe23266b	-0.15932624
173	0x3d45cdfc	0.048292145
174	0x3e549d11	0.20763041
175	0xbdd3dc9b	-0.103448115
176	0x3e697ce5	0.2280155
177	0x3e14483c	0.1448068
178	0xbdeb35fb	-0.11484905
179	0xbe1e7ff7	-0.15478502
180	0x3e1a95ea	0.1509625
181	0xbd3d7af1	-0.046259824
182	0xbd49f917	-0.049309816
183	0xbc0a2e9b	-0.008433963
184	0xbcffc442	-0.031221513
185	0xbbcf180c	-0.0063200053
186	0xbd91f036	-0.07125895
187	0x3dc4bf7f	0.096068375
188	0x3e068e8a	0.13140312
189	0xbdfe30c7	-0.12411647
190	0xbe2a660e	-0.16640493
191	0x3dea7e4d	0.11449871
192	0xbda261c8	-0.079288065
193	0xbe550d42	-0.20805839
194	0xbe262902	-0.1622658
195	0xbcd0e064	-0.025497623
196	0x3e1678c6	0.14694509
197	0x3ddc8a16	0.10768525
198	0x3adb848a	0.0016747874
199	0x3e00e3a9	0.12586845
200	0xbe172f72	-0.14764193
201	0x3db84c0e	0.08998881
202	0x3d853f96	0.06506269
203	0xbdd9b08b	-0.10629376
204	0xbd93f298	-0.072240055
205	0x3dfa8248	0.122318804
206	0xbea1e5d9	-0.31620672
207	0x3bc7dd0e	0.00609935
208	0x3de743ca	0.112922266
209	0xbd81554e	-0.06315099
210	0xbc02abd1	-0.007975535
211	0xbdff2726	-0.12458639
212	0xbe5984ce	-0.21242067
213	0x3ce1e026	0.027572703
214	0x3dbbb436	0.09165232
215	0xbe01c6d6	-0.12673506
216	0x3dc76eb2	0.0973791
217	0x3d79249a	0.06082592
218	0x3db0db23	0.08635547
219	0x3e2bb5fa	0.16768637
220	0x3c94b6cf	0.018153576
221	0x3d0b937f	0.03407621
222	0xbe56fda4	-0.20995194
223	0xbd2b2769	-0.04178563
224	0x3dfa7cc5	0.12230829
225	0xbe793047	-0.24334823
226	0xbe13af40	-0.14422321
227	0xbdfb5496	-0.12271993
228	0xbe66055a	-0.22462979
229	0xbda57f63	-0.08080938
230	0xbe1d5fb1	-0.15368535
231	0x3e2fb709	0.17159666
232	0xbe8e32e9	-0.27773216
233	0xbdd8e7c7	-0.10591083
234	0xbe6970ae	-0.2279689
235	0xbcc849dd	-0.024449283
236	0xbd907f5c	-0.07055542
237	0xbd9ea04c	-0.07745418
238	0xbe7ed4bb	-0.24885838
239	0xbdecd4c1	-0.11564017
240	0x3e0e8a28	0.1391989
241	0x3df4429c	0.11926767
242	0x3d6f4fa1	0.05842555
243	0xbcdaa036	-0.026687723
244	0xbd2956dd	-0.041342605
245	0xbd897a72	-0.06712808
246	0x3e937188	0.28797555
247	0x3d0c938a	0.03432039
248	0xbe0e5d29	-0.13902725
249	0x3db3e2aa	0.08783467
250	0xbdc610b4	-0.096711546
251	0x3d9f450d	0.07776842
252	0xbe2ead16	-0.17058215
253	0xbe51cda0	-0.20488596
254	0xbc2b4b15	-0.010454913
255	0xbd345b4c	-0.04403238
