LSTM/model_recursion/best_epoch_model_336_layer4.pth (torch, 296263 bytes, 18 tensors)

lstm.weight_ih_l0 f4 [200, 7]
0	0xbcbc307d	-0.02297234
1	0xbc933b84	-0.017972715
2	0x3e35309d	0.17694326
3	0xbe00f506	-0.12593469
4	0x3d5e10b5	0.05421515
5	0xbd515e99	-0.051115606
6	0xbe1af55e	-0.15132663
7	0x3b980720	0.0046395212
8	0x3e90eacc	0.28304136
9	0xbd3d1a3f	-0.04616761
10	0x3e6727f8	0.2257384
11	0x3ea96d87	0.33091375
12	0x3e1e7dc8	0.15477669
13	0x3c933638	0.01797019
14	0x3e01132a	0.12604967
15	0x3c0612dd	0.008183208
16	0x3ea63f93	0.32470378
17	0xbd12eff9	-0.035873387
18	0xbc31fcbf	-0.010863482
19	0xbd2ac28a	-0.041689433
20	0xbbcfe858	-0.006344836
21	0x3e210b20	0.157269
22	0x3ac39286	0.0014920987
23	0xbb9e8665	-0.0048377984
24	0x3d883833	0.06651344
25	0xbe3e7385	-0.18598755
26	0xbdf0778f	-0.11741554
27	0x3d62ee26	0.055402897
28	0x3ec85373	0.39126167
29	0xbd5ae5ed	-0.05344193
30	0x3e897231	0.26844934
31	0xbd0df06e	-0.03465312
32	0x3d737490	0.059437335
33	0xbdf30a4f	-0.118672006
34	0x3d4709e3	0.048593413
35	0x3ce483e3	0.02789492
36	0xbe065f47	-0.13122283
37	0x3e4bea44	0.19913584
38	0xbca58797	-0.020206256
39	0xbda0d7ce	-0.078536615
40	0xbd8a88b1	-0.06764353
41	0x3dd6b656	0.104839966
42	0xbcba9575	-0.022776345
43	0x3c883da5	0.016630957
44	0xbd446b5c	-0.04795395
45	0xbe26f314	-0.16303664
46	0x3e1d7518	0.15376699
47	0xbdd81cdd	-0.1055238
48	0x3d7d6bfb	0.061870556
49	0x3e249994	0.1607421
50	0xbe00f1e9	-0.12592281
51	0x3d956590	0.07294762
52	0x3d764c5c	0.060131416
53	0x3dfcccf4	0.12343779
54	0xbd9be627	-0.076122575
55	0xbd27f073	-0.041000795
56	0x3d74079a	0.059577562
57	0x3e010554	0.12599689
58	0x3e840732	0.2578674
59	0x3df290bf	0.118440144
60	0xbcba3964	-0.022732444
61	0xbdb49806	-0.08818059
62	0xbe961f46	-0.29320735
63	0x3d91ff6f	0.07128798
64	0xbcdc8327	-0.026918007
65	0x3e4c159e	0.19930121
66	0xbd20bc2b	-0.03924195
67	0xbd031924	-0.032006398
68	0x3c865cab	0.01640161
69	0x3c3862ef	0.011254056
70	0x3d3b23d7	0.045688476
71	0x3e0e158d	0.13875408
72	0x3dbed650	0.093182206
73	0x3e019a52	0.12656525
74	0xbe1777dc	-0.14791816
75	0x3d0d0eaf	0.03443783
76	0xbe87ff5e	-0.26562017
77	0xbd172fa5	-0.03691067
78	0xbde1f8aa	-0.11033757
79	0x3e1a2023	0.15051322
80	0x3e196eff	0.14983748
81	0xbe3241a4	-0.17407852
82	0x3d291355	0.041278202
83	0x3db3e364	0.08783606
84	0x3e6b7d89	0.22997107
85	0xbe6378a0	-0.22213984
86	0x3e2bf699	0.16793288
87	0xbe01985e	-0.1265578
88	0xbd9c8502	-0.07642557
89	0x3cdfbfe0	0.027313173
90	0xbe2db0fa	-0.16962042
91	0x3e5a5751	0.21322371
92	0xbd50800c	-0.050903365
93	0x3e62f31a	0.22163048
94	0x3dda7fc7	0.10668903
95	0xbe738fc8	-0.23785317
96	0x3cd7ff75	0.026366929
97	0xbe425d00	-0.18980789
98	0x3da7887e	0.08180331
99	0xbe1d8bdb	-0.15385382
100	0x3e7ac1f5	0.24488051
101	0x3d0a1dd0	0.033719838
102	0xbe4c9f41	-0.19982626
103	0xbe638c2b	-0.22221439
104	0xbdcc3ad0	-0.09972155
105	0x3b8f8cc0	0.0043807924
106	0x3e1fcf0c	0.15606326
107	0xbd4b897f	-0.049691673
108	0x3daf95e0	0.08573508
109	0xbe7ae7eb	-0.24502532
110	0xbdb8a6c7	-0.09016185
111	0xbe8c00e6	-0.27344435
112	0xbd950d7a	-0.07277961
113	0xbd1d5c52	-0.03841812
114	0xbc2005ef	-0.00976704
115	0x3e63fbba	0.22263995
116	0xbca82153	-0.020523703
117	0x3d8c2f78	0.068449914
118	0xbdbc5118	-0.09195155
119	0x3de9790c	0.11400041
120	0x3cf7b0d8	0.030235693
121	0x3ccae77b	0.024768582
122	0xbd0dd55d	-0.034627307
123	0x3e2a0b93	0.16605978
124	0xbd0759db	-0.033044677
125	0x3c94da2b	0.018170437
126	0xbd2e6034	-0.042572215
127	0x3d4eae14	0.050458983
128	0xbdbac39c	-0.09119341
129	0x3dc85fa8	0.0978387
130	0x3d5fcea1	0.054640416
131	0x3cdd1bcc	0.026990794
132	0xbe9ad6aa	-0.302419
133	0x3e526075	0.20544608
134	0xbd46f18a	-0.048570193
135	0x3e394efd	0.18096538
136	0xbd53f8f4	-0.051751092
137	0x3dd65b71	0.1046666
138	0xbdf48540	-0.11939478
139	0xbba32388	-0.004978601
140	0x3e06d341	0.13166524
141	0xbcacfcc5	-0.021116624
142	0xbde81db4	-0.113337904
143	0xbdf59bf0	-0.11992633
144	0x3e4ddece	0.20104524
145	0xbd8ff788	-0.07029635
146	0x3e4d3406	0.20039377
147	0xbcbfece0	-0.02342838
148	0x3e15b9f7	0.14621721
149	0xbda319a5	-0.07963876
150	0xbd42186f	-0.047386583
151	0x3e401250	0.18756986
152	0x3dfd37a5	0.12364129
153	0xbbcbda78	-0.006221112
154	0x3da3654f	0.079783075
155	0xbc20643d	-0.009789524
156	0xbd83e422	-0.06439997
157	0xbe431534	-0.19051057
158	0x3d91fbc6	0.071281
159	0xbdb164b0	-0.08661783
160	0xbd54cd77	-0.05195376
161	0x3d22f9e5	0.0397891
162	0xbd4e18db	-0.050316673
163	0xbd39c436	-0.045353137
164	0x3e0fac87	0.14030658
165	0x3d1d94ca	0.038471974
166	0x3d3f5ccd	0.04671936
167	0x3b008b3f	0.0019614247
168	0xbea5eee7	-0.3240883
169	0x3e93ea9e	0.28889936
170	0xbeda54cc	-0.4264282
171	0x3e13d106	0.14435205
172	0x3dc865c6	0.09785037
173	0x3e168277	0.14698206
174	0xbdda23af	-0.10651337
175	0xbe0ed7b5	-0.13949473
176	0xbe1274bf	-0.14302348
177	0xbd95600e	-0.072937116
178	0xbe6bc4f8	-0.23024356
179	0xbcf60537	-0.030031784
180	0xbde7dc18	-0.113212764
181	0x3e008fc7	0.12554847
182	0xbe761d91	-0.24034716
183	0x3cd01055	0.025398413
184	0xbe146f3d	-0.14495559
185	0x3d6aac53	0.057293247
186	0xbd3d2287	-0.046175506
187	0xbe771048	-0.24127305
188	0xbee1367e	-0.43986887
189	0xbc6151a7	-0.013752378
190	0xbe3f7ae1	-0.18699218
191	0x3d59dd7d	0.053189743
192	0xbddef8fa	-0.10887332
193	0xbd2c5a8e	-0.042078547
194	0x3d8c6c68	0.06856614
195	0x3d87e6b5	0.06635801
196	0x3e7043f1	0.23463418
197	0xbe20230d	-0.15638371
198	0x3e8b07c1	0.27154353
199	0xbe4f00d6	-0.20215163
200	0x3c6e0d6a	0.014529565
201	0xbde79274	-0.113072306
202	0xbda6bd79	-0.08141608
203	0x3b9865f7	0.004650827
204	0xbdb874a7	-0.09006625
205	0xbd907c30	-0.07054937
206	0xbda1f177	-0.07907384
207	0xbce631cf	-0.028099922
208	0x3c299e09	0.01035262
209	0x3cc461f2	0.023972485
210	0x3e878e42	0.26475722
211	0xbc8962f2	-0.016770814
212	0x3d602a0f	0.05472761
213	0x3d2e69f9	0.042581532
214	0x3d766515	0.060154993
215	0xbd6aa237	-0.057283606
216	0x3b254c17	0.0025222355
217	0x3dcb5d76	0.09929936
218	0xbc6f30d6	-0.014599046
219	0x3e107453	0.14106874
220	0x3d466a58	0.04844126
221	0x3d27fa64	0.041010275
222	0xbd9dafaf	-0.076995246
223	0x3ddeaeca	0.10873182
224	0x3d3ba01f	0.045807
225	0xbd1af342	-0.037829645
226	0x3d943ec0	0.07238531
227	0x3d1bdd28	0.038052708
228	0x3c8b79d0	0.017025858
229	0x3dab33e7	0.08359509
230	0x3e12bf92	0.14330891
231	0x3d63c025	0.055603165
232	0xbc0e4237	-0.008682779
233	0xbd1a1f58	-0.037627548
234	0x3d7eef2e	0.06223982
235	0x3d3a7d40	0.045529604
236	0x3e117504	0.14204794
237	0x3d868056	0.06567447
238	0xbb03b4bd	-0.0020096742
239	0xbd46e48d	-0.048557807
240	0xbe050c5c	-0.12992996
241	0x3b2046bb	0.002445622
242	0x3d026269	0.031832132
243	0xbbd1f294	-0.0064070914
244	0x3e25d71f	0.16195343
245	0x3d04f718	0.03246221
246	0x3dbd553f	0.09244775
247	0x3d8ca1d6	0.06866805
248	0x3e3add31	0.1824844
249	0xbd810726	-0.063001916
250	0x3e03071f	0.12795685
251	0x3de92a18	0.11384982
252	0x3dc2b6bc	0.0950751
253	0x3e31dbdb	0.17369024
254	0x3e8190d7	0.25305817
255	0x3e4325fc	0.19057459

lstm.weight_hh_l0 f4 [200, 50]
0	0xbdeff3c7	-0.11716419
1	0x3e230817	0.15921055
2	0xbe5546d8	-0.20827806
3	0xbe3a7da4	-0.1821199
4	0xbe05abfb	-0.13053887
5	0x3d30c40b	0.04315571
6	0x3c98e28d	0.018662715
7	0xbd193fce	-0.037414365
8	0xbd39a549	-0.045323644
9	0xbdb1f3fc	-0.086891145
10	0xbdb08f75	-0.08621112
11	0xbdbe724d	-0.09299145
12	0x3d37cabf	0.044871088
13	0xbe1ca438	-0.1529702
14	0xb918ae07	-0.0001456068
15	0xbd1f62f7	-0.03891274
16	0x3dc0329e	0.093846545
17	0x3c3fcf43	0.01170713
18	0xbc767ca3	-0.015044364
19	0x3e56bcf3	0.20970516
20	0x3cb38309	0.021913068
21	0xbd277adb	-0.04088865
22	0x3d80c726	0.062879845
23	0x3d559b67	0.052150156
24	0xbe50b539	-0.20381631
25	0x3b5797f9	0.003289698
26	0x3d3ce25d	0.046114314
27	0x3c1ef442	0.00970179
28	0xbd422eca	-0.047407903
29	0x3e2fe4e8	0.17177165
30	0xbce3f06c	-0.027824603
31	0x3d54d8aa	0.05196444
32	0x3d54fc51	0.05199844
33	0xbd999da3	-0.0750077
34	0xbd46da18	-0.048547834
35	0xbdb1dd18	-0.086847484
36	0xbc90c9be	-0.017674323
37	0xbcf6d025	-0.030128548
38	0x3e260679	0.16213407
39	0xbdd77dc4	-0.10522035
40	0x3c36d90d	0.011160147
41	0xbd9873e1	-0.07443977
42	0x3b8dbce1	0.0043254946
43	0xbd3fba68	-0.04680863
44	0x3e0bf1b4	0.13666421
45	0x3de23f66	0.110472485
46	0xbd5ed68c	-0.054403827
47	0x3e79c81a	0.24392739
48	0xbd2175c0	-0.039418936
49	0xbdb35cbe	-0.087579235
50	0xbe5fabd3	-0.2184289
51	0xbdaa9e30	-0.08330953
52	0xbd9ae24d	-0.07562695
53	0x3d6560d3	0.056000542
54	0xbb4a24ed	-0.0030844763
55	0xbe4ee9f9	-0.20206441
56	0xba1d3359	-0.0005996726
57	0xbcbfe21b	-0.023423245
58	0xbe81c001	-0.253418
59	0xbd87db34	-0.066336066
60	0x3dbc8465	0.0920494
61	0xbe05bb7e	-0.13059804
62	0x3d97c322	0.074102655
63	0xbdfa8ae4	-0.122335225
64	0xbd70881f	-0.058723565
65	0x3e24c21e	0.16089675
66	0xbd4f6391	-0.050632063
67	0xbde855bb	-0.11344477
68	0xbdd7dcd5	-0.10540167
69	0xbe493de2	-0.19652513
70	0xbbf752b4	-0.007547701
71	0xbc99d3b9	-0.018777715
72	0xbe01d13c	-0.12677473
73	0xbd378ce6	-0.044812106
74	0x3e4051b0	0.18781161
75	0x3ce7d1af	0.028298227
76	0xbca0cc19	-0.019628571
77	0x3b8ce9e5	0.0043003433
78	0x3d98feb1	0.074704535
79	0xbda446ee	-0.08021341
80	0x3dad49e0	0.08461356
81	0xbe607516	-0.21919665
82	0x3e6284b8	0.2212094
83	0x3e1d8fb9	0.15386857
84	0xbca6c1d0	-0.020356089
85	0xbe2ec4bf	-0.1706724
86	0x3e369053	0.17828493
87	0xbdc54918	-0.09633082
88	0x3e42783d	0.1899118
89	0x3d306009	0.043060336
90	0xbe788497	-0.24269329
91	0xbdd6d7a0	-0.10490346
92	0xbdc142aa	-0.09436543
93	0x3c12fba9	0.008971133
94	0xbe5239b8	-0.2052983
95	0x3e7506c1	0.23928358
96	0x3dec4936	0.115374014
97	0xbd1add4a	-0.037808694
98	0x3d9f3f75	0.07775775
99	0x3e58f4c9	0.21187128
100	0xbe28b37e	-0.16474721
101	0x3e096a59	0.13419475
102	0x3d5027e8	0.050819308
103	0xbd663027	-0.056198265
104	0xbe292491	-0.16517855
105	0xbe41d873	-0.18930225
106	0x3e47bc55	0.19505437
107	0xbde652d8	-0.1124627
108	0xbdf9e436	-0.12201731
109	0x3e40eea6	0.18841037
110	0xbdcc82e8	-0.09985906
111	0x3cf7a546	0.030230176
112	0xbe549b87	-0.20762454
113	0xbcf07cc9	-0.029356377
114	0xbceb53e7	-0.028726531
115	0xbe1e6666	-0.1546875
116	0x3e0f2323	0.13978247
117	0x3d9f70d6	0.077851936
118	0xbd5a3dc2	-0.053281553
119	0x3e0f5402	0.1399689
120	0x3db52440	0.08844805
121	0x3d98f861	0.074692495
122	0xbe175410	-0.14778161
123	0x3dc39959	0.09550733
124	0x3bc14770	0.0058984086
125	0xbd94e134	-0.072695166
126	0x3da046b3	0.07825985
127	0x3db6bbce	0.0892254
128	0x3e33d488	0.17561543
129	0xbba39070	-0.0049915835
130	0xbc796019	-0.015220665
131	0xbe1169cf	-0.14200519
132	0x3dbc07c5	0.091811694
133	0x3d97deed	0.074155666
134	0xbe5af348	-0.21381867
135	0xbda4f832	-0.08055152
136	0x3e15f28b	0.14643304
137	0x3d68760a	0.056753196
138	0x3e37d7e9	0.17953457
139	0xbe10405b	-0.1408705
140	0xbdbfabbd	-0.09358928
141	0xbe2180e2	-0.15771821
142	0x39a02e66	0.00030552148
143	0xbd500914	-0.050789908
144	0xbdae4c8d	-0.08510695
145	0x3dbb3fed	0.09143052
146	0xbdebcfce	-0.11514245
147	0x3e329ad9	0.17441882
148	0x3db63ba7	0.088980965
149	0x3c1b9a33	0.009497213
150	0x3cb4c84e	0.022068169
151	0x3e1f4591	0.15553881
152	0xbd44cd7d	-0.04804753
153	0xbd8f1381	-0.06986142
154	0xbd8b0dff	-0.06789779
155	0xbd330730	-0.043708026
156	0xbc40bf97	-0.011764429
157	0x3d755518	0.059895605
158	0x3de4d9e2	0.1117437
159	0x3e44921d	0.19196363
160	0xbe301e8b	-0.17199151
161	0xbdba4898	-0.090958774
162	0xbe3d3809	-0.18478407
163	0xbd6a6166	-0.057221793
164	0x3dee36dc	0.11631557
165	0x3dbb67a6	0.09150629
166	0x3cc8899b	0.024479678
167	0x3d8ac400	0.06775665
168	0xbe046e9f	-0.12932824
169	0xbe2e4dc2	-0.1702185
170	0xbd1d55e0	-0.038411975
171	0xbd7c418d	-0.06158595
172	0x3c111e05	0.008857255
173	0x3d9af065	0.07565383
174	0xbb366532	-0.0027831313
175	0x3d03687d	0.03208207
176	0xbe705298	-0.23469007
177	0x3db4302c	0.087982506
178	0xbe0cf90e	-0.13766882
179	0xbc73d928	-0.014883317
180	0x3d3f8ddd	0.04676615
181	0xbd6c6fe4	-0.057723895
182	0x3d89d88d	0.06730757
183	0xbd9668aa	-0.07344182
184	0xbd4c9cc3	-0.049954187
185	0xbe1402f9	-0.14454259
186	0xbc41627b	-0.011803265
187	0x3e37da9c	0.17954487
188	0xbd1f0f81	-0.038833145
189	0x3dbf4994	0.09340206
190	0xbda82a34	-0.082111746
191	0xbd9c92b6	-0.076451704
192	0xbd21c0cf	-0.039490517
193	0x3cd9ba8f	0.026578216
194	0xbe0b6f26	-0.13616619
195	0x3d887f3e	0.066648945
196	0x3d4d762a	0.05016152
197	0xbda8b340	-0.08237314
198	0x3ad57339	0.0016284949
199	0xbd1ca1b5	-0.038240153
200	0xbe5f3ef3	-0.21801357
201	0x3e3dbc93	0.18528967
202	0x3d71baac	0.059015915
203	0x3dd7ceca	0.10537489
204	0xbda3e5dc	-0.080028266
205	0xbe089e4e	-0.13341638
206	0x3e259ee1	0.16173889
207	0xbcd8306e	-0.02639028
208	0xbe4630f3	-0.1935461
209	0x3d114277	0.035463776
210	0x3d116e2c	0.03550546
211	0xbc61a7e4	-0.013772938
212	0xbaef7d3a	-0.0018271573
213	0xbb79086b	-0.0037999402
214	0x3e1eee40	0.15520573
215	0xbe316725	-0.17324503
216	0x3c55379a	0.013013745
217	0xbd23e5bd	-0.040014017
218	0xbcd394b7	-0.025827749
219	0xbdf545bb	-0.11976191
220	0x3cf5fc8d	0.030027652
221	0xbdb5c0d4	-0.0887467
222	0x3d8d3201	0.06894303
223	0xbdc9b2ba	-0.098485425
224	0xbd4664de	-0.04843604
225	0x3c62b93c	0.013838109
226	0x3d561237	0.052263465
227	0xbcbc20fb	-0.022964945
228	0xbdcf0532	-0.10108413
229	0xbd1e6369	-0.038669024
230	0x3d4c265d	0.049841274
231	0xbe37a281	-0.17933084
232	0x3d33db37	0.04391023
233	0x3e8cfac3	0.27535066
234	0xbd672049	-0.056427274
235	0xbe27afd9	-0.16375674
236	0xbc00dc26	-0.0078649875
237	0x3ceed511	0.029154332
238	0x3e609041	0.21930028
239	0x3d3a2a58	0.04545054
240	0x3caa39b1	0.020779463
241	0xbdd957b7	-0.106124334
242	0xbe00b80e	-0.12570211
243	0x3dc9c37f	0.09851741
244	0xbe3d5503	-0.1848946
245	0x3e8cfe0d	0.27537575
246	0xbc7ab51d	-0.01530197
247	0x3dc6df1d	0.09710524
248	0x3dacc64d	0.0843626
249	0xbc61508e	-0.013752116
250	0xbe08f4bf	-0.13374613
251	0xbc9d5d53	-0.01920954
252	0xbd84121c	-0.064487666
253	0xbcaa4f07	-0.020789636
254	0xbde07d3f	-0.10961389
255	0xbd46fa4b	-0.04857854

lstm.bias_ih_l0 f4 [200]
0	0x3d75d7a8	0.06002012
1	0x3e354314	0.1770137
2	0x3d66fd58	0.05639395
3	0x3e3c2782	0.18374446
4	0x3e07c372	0.1325815
5	0x3e3740d6	0.17895827
6	0x3d950dc7	0.072780184
7	0x3e6ee83e	0.23330781
8	0x3e966a6c	0.29378068
9	0x3e4255be	0.1897802
10	0x3e896c9d	0.26840678
11	0x3e67d01e	0.22637984
12	0x3c63aa3e	0.013895569
13	0x3eed69b6	0.46369714
14	0x3da465a7	0.08027201
15	0x3e835c8d	0.25656548
16	0x3e881175	0.2657582
17	0x39563a5a	0.00020430368
18	0xbd03cb19	-0.03217611
19	0x3d114068	0.035461813
20	0x3df6513a	0.120272115
21	0x3d67eb2d	0.056620765
22	0x3e429aa8	0.19004309
23	0x3e678210	0.22608209
24	0x3e3a2a8a	0.1818029
25	0xbd565aef	-0.052332815
26	0x3eaaa69f	0.33330247
27	0x3d12758e	0.03575664
28	0x3e683c74	0.22679311
29	0x3cb3d1bb	0.021950593
30	0x3b89c0f5	0.0042039105
31	0x3e4e94c8	0.20173943
32	0xbcd9131d	-0.026498372
33	0x3d5aac43	0.053386938
34	0xbb364c5b	-0.0027816507
35	0xbe1291fa	-0.14313498
36	0x3d97c811	0.074112065
37	0x3e14c0bf	0.14526652
38	0x3d534b79	0.05158565
39	0x3e338ae8	0.17533457
40	0x3e2199fa	0.15781394
41	0x3ddd3afc	0.10802266
42	0x3be069e0	0.006848559
43	0x3de1ff78	0.11035055
44	0x3e110600	0.14162445
45	0x3de163f8	0.11005396
46	0x3e15d20c	0.14630908
47	0x3ee48347	0.44631407
48	0x3db5625b	0.088566504
49	0x3e7f6989	0.24942602
50	0xbde5e45c	-0.11225197
51	0xbc1989f6	-0.009371271
52	0xbd1e0557	-0.03857931
53	0x3c64229c	0.013924267
54	0x3d6dc287	0.058046844
55	0x3c4ea1a8	0.012611784
56	0xbe1007db	-0.14065497
57	0x3dae7f1f	0.0852034
58	0xbddea709	-0.10871703
59	0xbe4c6475	-0.19960196
60	0x3e309d2a	0.17247453
61	0x3d34abb7	0.044109073
62	0x3bd80524	0.0065924097
63	0xbe41fa54	-0.18943149
64	0xbd22bef1	-0.039732877
65	0xbcc6d200	-0.024270058
66	0xbd4b06c9	-0.049567018
67	0x3db6cef2	0.089261904
68	0xbd053c0a	-0.03252796
69	0xbd641088	-0.055679828
70	0x3db8fba7	0.09032374
71	0xbe10db91	-0.14146258
72	0x3e486a63	0.19571833
73	0x3dfcdbc3	0.12346604
74	0xbd14e3fb	-0.03635023
75	0x3c4e6b1f	0.012598782
76	0xbe20bdd8	-0.1569742
77	0xbe14cc02	-0.14530948
78	0x3dab92d2	0.08377613
79	0xbd27f83d	-0.041008223
80	0xbd5a17bb	-0.053245287
81	0xbe19d506	-0.15022668
82	0x3dfe4c5d	0.12416909
83	0x3cc2cf77	0.023780568
84	0x3dafe836	0.085892126
85	0x3d2684cf	0.040654
86	0xbd89ea68	-0.067341626
87	0x3d349249	0.04408482
88	0xbe15f974	-0.1464594
89	0xbbcf96f2	-0.0063351328
90	0xbd0ff7c2	-0.03514839
91	0x3d77291f	0.06034195
92	0xbd55e35d	-0.052218784
93	0x3d66e1ff	0.05636787
94	0x3e03f7fe	0.1288757
95	0x3d84d2dc	0.06485531
96	0x3df56321	0.11981798
97	0xbe125863	-0.1429153
98	0x3db1f37d	0.0868902
99	0xbe0b1e92	-0.1358588
100	0xbe13136b	-0.14362876
101	0x3c539672	0.012914287
102	0x3d9057ee	0.07048021
103	0xbcaddd5e	-0.02122372
104	0x3d8f589e	0.06999324
105	0x3da60083	0.08105566
106	0x3dd9f465	0.10642318
107	0xbdaa0f62	-0.08303715
108	0xbc9aba50	-0.018887669
109	0x3d44d44a	0.048054017
110	0x3e1887a9	0.148955
111	0x3d05f960	0.032708526
112	0xbdbbd4ef	-0.09171473
113	0xbd008ede	-0.03138625
114	0x3da69fd5	0.08135954
115	0x3e32c4b6	0.17457852
116	0xbe0d5b5b	-0.1380438
117	0x3db6c168	0.08923608
118	0xbdd6ba32	-0.10484733
119	0xbdd9006c	-0.105957836
120	0x3da4d253	0.08047929
121	0xbd8f2ad1	-0.069905885
122	0x3e14b798	0.1452316
123	0x3dbee691	0.09321321
124	0x3df0f62f	0.11765706
125	0x3deb7509	0.11496932
126	0xbcac004b	-0.020996233
127	0x3d94821d	0.0725138
128	0x3d28d37c	0.041217312
129	0x3d0a63a4	0.03378643
130	0xbd53ff91	-0.0517574
131	0xbdf850f5	-0.12124816
132	0x3de207b8	0.110366285
133	0x3def2612	0.11677183
134	0xbdd2101c	-0.10256979
135	0xbd0cbb2b	-0.034358185
136	0x3dc863ed	0.09784684
137	0x3e0eeebd	0.13958259
138	0x3d8d8dcc	0.06911811
139	0x3dd2c6bc	0.10291812
140	0x3abf7733	0.0014607668
141	0xbe011651	-0.1260617
142	0xbd9050a9	-0.07046635
143	0xbd732882	-0.059364803
144	0xbddc0319	-0.10742778
145	0x3dd8241c	0.10553762
146	0xbd3e6691	-0.046484534
147	0xbe1ca4fc	-0.15297312
148	0x3cf1bd27	0.02950914
149	0x3e053435	0.13008197
150	0x3ddb76df	0.10716032
151	0x3dc41fe2	0.09576394
152	0xbb41d23f	-0.002957478
153	0x3e6ff007	0.23431407
154	0x3e3a263a	0.18178645
155	0x3e0d1d3c	0.13780683
156	0xbd4ae592	-0.04953534
157	0x3e2c3817	0.16818272
158	0x3e0483cb	0.129409
159	0x3d936c84	0.07198432
160	0x3eaaa4e9	0.3332894
161	0x3e13220e	0.1436846
162	0x3e745226	0.23859462
163	0x3eeaf9fb	0.45893845
164	0x3e6ce527	0.2313429
165	0x3e7ef7c7	0.24899207
166	0x3e0bcd9d	0.13652654
167	0x3dced509	0.10099227
168	0xbd1f59f1	-0.038904134
169	0x3d1eebe8	0.038799196
170	0x3dfed992	0.12443842
171	0x3d50edf0	0.051008165
172	0x3c5210f7	0.012821428
173	0x3e8163d9	0.2527149
174	0x3e59236d	0.2120492
175	0xbd3aecdd	-0.045636047
176	0x3e98d05b	0.29846463
177	0x3e546807	0.20742808
178	0x3e054179	0.13013257
179	0x3dc41907	0.09575086
180	0x3cd02c44	0.025411732
181	0x3e6520bc	0.22375768
182	0x3e1ee8a6	0.15518436
183	0x3de77b23	0.11302783
184	0x3ded15a0	0.1157639
185	0xbd97fdcb	-0.07421454
186	0x3e16270a	0.1466333
187	0x3e2ef6f8	0.17086399
188	0x3d3111b2	0.043229766
189	0x3df48066	0.119385526
190	0x3e70cf3e	0.23516557
191	0xbd2af2c3	-0.041735422
192	0xbd8c64d0	-0.06855166
193	0xbce91a3e	-0.028454896
194	0x3d67ec5d	0.056621898
195	0xbd07e0bf	-0.03317332
196	0x3e337cbd	0.17528053
197	0x3eb3d3e2	0.3512259
198	0x3deef347	0.11667495
199	0x3e92ade0	0.2864828

lstm.bias_hh_l0 f4 [200]
0	0x3c479ce5	0.012183403
1	0x3dc0cab8	0.094136655
2	0xbd16ce42	-0.036817797
3	0x3dc94a82	0.09828664
4	0x3dd65149	0.10464723
5	0x3e242312	0.16029003
6	0x3d877c86	0.06615548
7	0x3de9d18d	0.11416922
8	0x3e4457d6	0.19174132
9	0x3e959d0a	0.29221374
10	0x3e3c52e7	0.18391
11	0x3e7878af	0.24264787
12	0x3b616f29	0.0034398532
13	0x3ee6638e	0.4499783
14	0xbce82414	-0.028337516
15	0x3efed275	0.4976994
16	0x3ea78d5e	0.32725042
17	0x3dc7b14a	0.09750612
18	0xbd81f65b	-0.06345817
19	0x3d86cdaa	0.06582196
20	0x3d84f37c	0.064917535
21	0x3d8d7165	0.06906394
22	0xbd4ffe64	-0.050779715
23	0x3cfc5ab8	0.030804977
24	0x3ea59110	0.32337236
25	0xbd848f07	-0.06472593
26	0x3e5ed3f9	0.21760549
27	0xbae1238b	-0.001717673
28	0x3d093e9a	0.033506967
29	0xbcdbb170	-0.026818007
30	0x3daa5c39	0.08318371
31	0x3ba48e71	0.005021863
32	0xbdabce98	-0.08389014
33	0x3e631f61	0.22179939
34	0xbcd90b9c	-0.026494794
35	0xbcbff8b0	-0.023434013
36	0x3e84dbb2	0.25948864
37	0xbc613933	-0.0137465475
38	0x3d9c7ddd	0.07641194
39	0x3d618f62	0.05506838
40	0x3df1fb92	0.11815561
41	0xbde0c3cb	-0.109748445
42	0xbcd50940	-0.026005387
43	0x3d697e13	0.057005
44	0x3d985779	0.07438559
45	0x3d7a9ecd	0.0611866
46	0x3e092fb5	0.13397105
47	0x3edf74cb	0.43643793
48	0x3c34496e	0.011003835
49	0x3df4fba8	0.11962062
50	0xbd6d5b29	-0.057948265
51	0xbdd426ab	-0.10358938
52	0x3d9124ed	0.07087121
53	0x3e260653	0.1621335
54	0x3d795cfd	0.060879696
55	0x3d003ad4	0.031306103
56	0xbe3035ce	-0.17208025
57	0xbd5f06b9	-0.05444977
58	0xbd77df70	-0.06051582
59	0xbe22b151	-0.15887953
60	0x3e471a9f	0.19443749
61	0xbe04d8ff	-0.12973402
62	0x3d973bae	0.0738443
63	0xbd9a027f	-0.07520007
64	0xbda2178e	-0.07914649
65	0x3dc67ec0	0.096921444
66	0xbdcf7728	-0.10130149
67	0xbd5cca31	-0.053903762
68	0x3d15eda9	0.036603604
69	0xbb4f1d0e	-0.0031603011
70	0xbd7d6029	-0.061859284
71	0xbd3efb2e	-0.046626262
72	0x3ddf35b8	0.10898918
73	0xbdb95f00	-0.09051323
74	0xbd2eef38	-0.042708606
75	0xbe02bc61	-0.12767173
76	0xbda58a42	-0.08083011
77	0x3d476d6b	0.048688333
78	0x3d7b18df	0.061303016
79	0x3cbcfd42	0.023069981
80	0x3d6d8cf6	0.05799576
81	0x3de0fad5	0.109853424
82	0x3b9c449a	0.00476892
83	0xbde4a8de	-0.11165021
84	0x3d99e8a9	0.075150795
85	0xbe2586ef	-0.16164754
86	0xbce23fd0	-0.027618319
87	0xbd4c9568	-0.049947172
88	0x3cb5a262	0.022172157
89	0xbdb19868	-0.08671647
90	0x3c5d1a98	0.01349511
91	0x3db93c10	0.09044659
92	0xbcec20ce	-0.028824236
93	0x3e03a289	0.12854971
94	0x3dc1b779	0.09458823
95	0xbc157309	-0.009121665
96	0x3d4bf33f	0.049792524
97	0xbdb10f32	-0.086454764
98	0xbd171a5b	-0.03689037
99	0xbc76bbdc	-0.015059438
100	0xbe09ae64	-0.13445431
101	0xbdf906f8	-0.12159532
102	0xbe05af2b	-0.13055103
103	0x3ca54d81	0.020178558
104	0xbe0dc4ce	-0.13844606
105	0xbde9cda4	-0.11416176
106	0xbdda6616	-0.106640026
107	0x3dadcd7b	0.08486458
108	0xbcd9a8e7	-0.026569797
109	0xbd12af2e	-0.035811596
110	0xbd2e7395	-0.042590696
111	0xbda682d9	-0.08130426
112	0xbbac0b78	-0.0052503906
113	0x3da9789f	0.0827496
114	0xbc8114fc	-0.015757076
115	0x3d03ecbe	0.032208197
116	0xbcb4bc76	-0.022062521
117	0xbdbc8e95	-0.09206883
118	0xbd902c8c	-0.07039747
119	0xbdc99bb4	-0.09844151
120	0xbdf4cccb	-0.11953124
121	0xbdc565fe	-0.09638594
122	0xbe08503b	-0.13311855
123	0x3d228dc3	0.039685976
124	0x3e01e272	0.12684038
125	0x3c777e14	0.015105743
126	0xbddaa628	-0.10676223
127	0xbd8a912c	-0.067659706
128	0x3cd96b4e	0.026540425
129	0xbc19ea30	-0.009394214
130	0x3dcd996c	0.100390285
131	0x3c2ffe23	0.010741743
132	0x3d971b40	0.073782444
133	0x3d5b76b8	0.053580016
134	0xbd5daa51	-0.054117505
135	0xbbc52e28	-0.006017465
136	0x3d9393e0	0.07205939
137	0x3e050945	0.12991817
138	0x3dbfab70	0.09358871
139	0xbe16d026	-0.1472784
140	0xbd8bb5be	-0.06821774
141	0xbdfa4e73	-0.12221994
142	0x3da91f25	0.082578935
143	0x3d0cae22	0.034345753
144	0xbd6bd4d4	-0.057576016
145	0xbdac2356	-0.08405177
146	0x3c08be98	0.008346222
147	0xbc8ae836	-0.01695643
148	0xbde5f0a1	-0.11227537
149	0xbdba0925	-0.090837754
150	0x3e0538b4	0.13009912
151	0x3dc70d33	0.097193144
152	0x3d82a3f9	0.063789316
153	0x3d0630b1	0.03276128
154	0x3e130b5a	0.14359799
155	0x3ddfb98a	0.10924061
156	0xbc9aa2d5	-0.018876472
157	0x3e430da1	0.19048168
158	0x3e491f6b	0.19640891
159	0x3e3cec35	0.18449481
160	0x3dc35b7a	0.09538932
161	0x3e825ccc	0.25461423
162	0x3e22b8bc	0.15890783
163	0x3f12ff0f	0.5742044
164	0x3dd818be	0.10551594
165	0x3ef97766	0.48723906
166	0x3e251b4c	0.16123694
167	0x3b41fc62	0.0029599895
168	0x3db1e10a	0.08685501
169	0x3d00ef00	0.03147793
170	0x3d22d433	0.03975315
171	0x3daa90c5	0.08328394
172	0xbb628fea	-0.0034570643
173	0x3e820cb1	0.25400308
174	0x3e9ddc45	0.30832115
175	0xbc10822f	-0.008820101
176	0x3e844930	0.25837088
177	0xbc3296a0	-0.01090017
178	0x3e38517f	0.17999838
179	0x3e035fee	0.12829563
180	0x3dacc84b	0.0843664
181	0x3e55ae74	0.2086733
182	0x3c22fafc	0.009947535
183	0x3e7b867d	0.24563022
184	0xbda2c186	-0.07947068
185	0xbddcc130	-0.10779035
186	0x3e22d22d	0.15900488
187	0xbcd5db1c	-0.026105456
188	0x3ca14f94	0.019691266
189	0x3c8a58a4	0.01688797
190	0x3e802160	0.25025463
191	0x3e0e26db	0.1388201
192	0x3cf713ce	0.03016081
193	0xbb3e9a28	-0.0029083584
194	0x3e027804	0.12741095
195	0x3c233da5	0.009963428
196	0x3e3e9033	0.18609695
197	0x3eb6d5ac	0.35709894
198	0x3e679815	0.22616608
199	0x3e0518d5	0.12997754

lstm.weight_ih_l1 f4 [200, 50]
0	0xbe605724	-0.21908242
1	0x3d6f2cb6	0.05839225
2	0xbdac11b5	-0.08401815
3	0xbe415d44	-0.18883234
4	0xbd2da908	-0.04239753
5	0xbe61b79a	-0.22042695
6	0xbda1fdf8	-0.07909769
7	0x3e680b2f	0.22660516
8	0xbc98a7a4	-0.018634625
9	0x3e511b1a	0.20420495
10	0xbe6c878b	-0.2309858
11	0xbca79bd2	-0.020460043
12	0xbcadc08d	-0.02120998
13	0x3cb23f71	0.021758767
14	0xbe69efae	-0.22845337
15	0xbdd6a2ef	-0.10480296
16	0x3e057cf5	0.13035949
17	0x3d1244c2	0.035710104
18	0x3dc0ecc2	0.09420158
19	0xbcd5b91a	-0.02608924
20	0x3e092020	0.13391161
21	0xbd867a5b	-0.06566306
22	0x3dd508e7	0.104020886
23	0x3da6f9d9	0.081531234
24	0xbdb99ca8	-0.09063083
25	0xbe0fdbad	-0.14048643
26	0x3cbfa998	0.023396298
27	0xbc6ab1cf	-0.014324619
28	0x3d943ee7	0.0723856
29	0xbdc20149	-0.094729014
30	0x3e36f7a6	0.17867908
31	0xbd1036c4	-0.03520848
32	0xbdd8e4a2	-0.10590483
33	0x3e3d35a1	0.18477489
34	0xbe62448f	-0.22096466
35	0xbc0277da	-0.007963145
36	0xbd9b6d06	-0.07589154
37	0x3ddd603b	0.1080937
38	0x3e48bc2f	0.19603036
39	0xbe36f983	-0.17868619
40	0xbd38e449	-0.045139585
41	0xbd016db0	-0.031598747
42	0x3d430e66	0.047621153
43	0xbe45db7d	-0.1932201
44	0xbba4a838	-0.005024936
45	0x3e38335a	0.17988339
46	0x3e21d85c	0.15805191
47	0x3da02d0b	0.07821091
48	0x3db4b348	0.08823258
49	0xbdabbe20	-0.08385873
50	0x3d977771	0.073958285
51	0xbd49d8c0	-0.049278975
52	0xbe35b0c5	-0.17743213
53	0x3da69906	0.08134656
54	0x3cb9707d	0.022636646
55	0xbd539589	-0.05165628
56	0x3dc83459	0.097756095
57	0x3e1d68bf	0.15371989
58	0x3c45f85b	0.012083138
59	0xbcca664f	-0.024706988
60	0x3daa9e46	0.083309695
61	0xbd9f132b	-0.07767328
62	0x3dd9dfc0	0.1063838
63	0x3ca32582	0.019915346
64	0x3df95d6a	0.121760204
65	0xbda63d68	-0.08117181
66	0x3c93dd90	0.018049985
67	0x3dd5f2df	0.104467146
68	0xbc288c70	-0.010287389
69	0xbd8aefea	-0.06784041
70	0x3e062be0	0.13102674
71	0xbe15f92c	-0.14645833
72	0xbe0f1dfa	-0.13976279
73	0x3e05d092	0.13067845
74	0x3e65cd02	0.22441486
75	0x3be63912	0.0070258463
76	0x3d7658ab	0.060143154
77	0xbe204039	-0.15649499
78	0xbe1180be	-0.14209267
79	0xbb4a4750	-0.003086526
80	0x3dbae458	0.09125584
81	0x3dec4339	0.11536259
82	0xbcdef55b	-0.027216604
83	0x3e132db0	0.14372897
84	0x3d3dce6d	0.04633944
85	0xbe230911	-0.15921427
86	0x3b00b23b	0.0019637484
87	0x3d91cf0b	0.071195684
88	0x3d89fd9b	0.067378245
89	0xbd380d1d	-0.04493438
90	0x3d250a88	0.040293247
91	0x3d6f1d5d	0.058377612
92	0xbdc1efcb	-0.09469565
93	0xbcf262ce	-0.02958813
94	0x3e3056dd	0.17220636
95	0x3dc0fffd	0.09423826
96	0x3b5130e6	0.0031920015
97	0x3cd2fffa	0.025756825
98	0xbd868ae1	-0.06569458
99	0xbe0b6f28	-0.13616621
100	0xbe3bcfd3	-0.18340997
101	0x3e216fba	0.15765277
102	0xbe37077c	-0.17873949
103	0xbe12a893	-0.14322118
104	0x3d5a8f91	0.05335957
105	0x3dc70e47	0.0971952
106	0x3d42c343	0.047549497
107	0x3c690ec5	0.014224713
108	0xbdf55fdc	-0.11981174
109	0x3e289e73	0.16466694
110	0x3a431893	0.00074423215
111	0x3da4dc6c	0.08049855
112	0x3d01df30	0.03170699
113	0xbe17d342	-0.14826682
114	0xbd7d3c49	-0.06182507
115	0xbe0039e0	-0.12522078
116	0xbdbdc7f6	-0.09266655
117	0x3e0f8082	0.14013866
118	0xbe1d947f	-0.15388678
119	0xbdea05ca	-0.114268854
120	0x3b754d69	0.0037430173
121	0x3b8a66bd	0.004223673
122	0x3bd593d0	0.0065178648
123	0x3d5e0b70	0.054210126
124	0xbd517bd3	-0.05114348
125	0xbdc28bbe	-0.0949931
126	0x3d261ae2	0.04055298
127	0xbd8b1470	-0.067910075
128	0xba04f668	-0.0005072118
129	0x3db1be18	0.08678836
130	0x3e25faf7	0.16209017
131	0x3db0371a	0.0860426
132	0x3d063f7e	0.032775395
133	0xbe1c424f	-0.1525967
134	0x3d16d000	0.036819458
135	0x3d88a2d9	0.06671686
136	0x3e835b98	0.25655818
137	0x3e2f61b5	0.17127116
138	0x3e392ad0	0.18082738
139	0xbd8d39c5	-0.06895784
140	0xbd37aa05	-0.044839878
141	0xbc8c3217	-0.017113728
142	0xbe0dc3d2	-0.13844231
143	0x3d576461	0.052585963
144	0x3d04b7ec	0.032401964
145	0xbe10b1fe	-0.14130399
146	0xbd4ba391	-0.049716536
147	0x3dfbd2d0	0.12296069
148	0x3d80f843	0.06297352
149	0x3d3abc99	0.045590017
150	0xbf0a5f44	-0.54051614
151	0xbd93a114	-0.072084576
152	0xbe991100	-0.29895782
153	0xbe2d25c2	-0.16908935
154	0xbdd6eb96	-0.10494153
155	0x3becc688	0.007225815
156	0xbd939341	-0.07205821
157	0x3d9141da	0.07092638
158	0xbd09128b	-0.03346495
159	0xbe83c844	-0.25738728
160	0xbdf59705	-0.11991695
161	0xbe4cdf2a	-0.20007005
162	0x3d335191	0.04377896
163	0x3e9f5bf0	0.3112483
164	0x3def73d8	0.11692017
165	0x3eb0e84e	0.34552234
166	0xbe50156c	-0.20320672
167	0x3d78dddf	0.060758468
168	0xbee069f0	-0.43830824
169	0xbd5f2bdd	-0.05448519
170	0x3de817e5	0.113326825
171	0xbe7eb928	-0.24875319
172	0xbda2b3f1	-0.07944477
173	0x3e0f2d21	0.13982059
174	0x3e9fb042	0.31189162
175	0xbcbc1eff	-0.022963999
176	0xbedad75d	-0.42742434
177	0x3e2afe4b	0.16698568
178	0xbd8ea7ba	-0.06965585
179	0x3dd5781e	0.10423301
180	0x3e8b5bbb	0.27218422
181	0xbcc7ff47	-0.024413718
182	0x3e0d196c	0.13779229
183	0x3ef42055	0.47680917
184	0xbe8a8b37	-0.27059337
185	0xbd8ac1f0	-0.06775272
186	0x3e5d5bda	0.2161707
187	0x3ee78607	0.45219442
188	0x3e8d8113	0.27637538
189	0xbebe66f4	-0.37187922
190	0xbd299941	-0.04140592
191	0xbf00a059	-0.5024467
192	0x3cf26baf	0.029592363
193	0x3d517701	0.05113888
194	0xbde17821	-0.11009241
195	0x3e3d2307	0.18470393
196	0x3cfb90b0	0.03070864
197	0xbd37d7c6	-0.044883512
198	0x3cd606e5	0.026126334
199	0x3cf939be	0.030423041
200	0xbe9fed62	-0.31235796
201	0xbe0d29bd	-0.13785453
202	0xbe98afca	-0.29821616
203	0xbeb67bfb	-0.35641465
204	0xbce84d53	-0.028357184
205	0xbd953f2b	-0.07287439
206	0x3dcb5182	0.09927656
207	0x3dfab723	0.12241962
208	0xbecbefb4	-0.39831316
209	0xbc97a7e0	-0.018512666
210	0xbe7efc27	-0.24900876
211	0xbe3ff64e	-0.18746302
212	0x3d353f66	0.044249915
213	0x3e329b19	0.17441978
214	0x3cc450a3	0.023964232
215	0x3e3a6221	0.18201496
216	0xbd0cd7b1	-0.034385387
217	0x3a8a937c	0.0010572518
218	0xbead5ccd	-0.33859864
219	0xbe5c2158	-0.21497095
220	0xbdab51ac	-0.08365187
221	0xbdf56846	-0.11982779
222	0x3dbd23ed	0.09235368
223	0x3e58d3bc	0.2117452
224	0x3e986133	0.29761657
225	0x3d65c474	0.056095555
226	0xbed1eb69	-0.40999916
227	0xbcc8ee4c	-0.024527691
228	0x3e4955d3	0.19661646
229	0x3e229f0d	0.15880986
230	0x3e20f38b	0.15717904
231	0xbe3ec390	-0.18629289
232	0x3e9689cd	0.2940201
233	0x3eda5f75	0.42650953
234	0xbe422263	-0.1895843
235	0x3e179bf2	0.14805582
236	0x3ea7bd87	0.32761785
237	0x3e990266	0.29884642
238	0x3ebf2381	0.37331775
239	0xbdb56c2b	-0.08858522
240	0xbb65f57c	-0.0035088947
241	0xbed579f1	-0.41694596
242	0x3b3abd1f	0.0028494073
243	0xbc45bdd2	-0.0120691825
244	0xbe40076c	-0.18752831
245	0x3e2b945f	0.16755818
246	0x3d89c174	0.067263514
247	0x3bece627	0.0072295847
248	0xbd0281cb	-0.03186206
249	0xbd668a22	-0.056284077
250	0xbe13021e	-0.14356276
251	0x3dda56e8	0.10661107
252	0x3aa705be	0.00127428
253	0xbc39f3df	-0.011349647
254	0xbcfadec7	-0.030623807
255	0x3c6decd8	0.0145218

lstm.weight_hh_l1 f4 [200, 50]
0	0xbd23fb69	-0.040034685
1	0xbdb369ab	-0.08760389
2	0x3df4e17b	0.119570695
3	0xbdc6edad	-0.09713302
4	0x3d02952a	0.031880535
5	0x3dfa4157	0.12219494
6	0x3e0f4183	0.13989834
7	0xbc860db2	-0.016363952
8	0xbda162b9	-0.07880158
9	0x3c1ae0f6	0.009453049
10	0x3d60e783	0.054908287
11	0xbdf30f06	-0.118681
12	0xbde06e0e	-0.10958491
13	0xbe521ba8	-0.20518363
14	0xbd523f9e	-0.0513302
15	0x3e108272	0.14112261
16	0xbcc89204	-0.024483688
17	0xbd6c4496	-0.057682596
18	0xbd79b797	-0.0609661
19	0x3e2de321	0.16981174
20	0xbde3d005	-0.11123661
21	0x3c90dd22	0.01768357
22	0xbe606321	-0.21912815
23	0x3d97d49b	0.07413598
24	0x3d64611c	0.055756673
25	0xbe0920e9	-0.1339146
26	0x3deb352e	0.114847526
27	0x3cdb5cae	0.026777592
28	0x3e1022cd	0.14075775
29	0xbdccd25f	-0.100010626
30	0x3d89f816	0.06736772
31	0xbe05a756	-0.13052115
32	0xbe57bbdc	-0.21067756
33	0xbe621e95	-0.22081979
34	0x3ce6e4e6	0.02818532
35	0x3e0a7a61	0.13523246
36	0xbda9155a	-0.082560256
37	0xbdcd2244	-0.10016301
38	0xbd087668	-0.033316046
39	0x3d514bb9	0.051097605
40	0x3d189409	0.037250552
41	0xbdb00462	-0.08594586
42	0x3e1ea297	0.1549171
43	0x3deb9c9d	0.11504481
44	0x3dff3b08	0.12462431
45	0x3d3b417b	0.045716744
46	0x3db69cd3	0.089166306
47	0xbe74622c	-0.23865575
48	0x3d4b3144	0.04960753
49	0x3d689327	0.05678096
50	0x3dd29a34	0.10283318
51	0xbdc87634	-0.097881705
52	0xbd6e9605	-0.05824854
53	0x3cb81f65	0.022475908
54	0xbe1f3932	-0.15549162
55	0x3dacaa22	0.08430888
56	0x3dcba8bd	0.09944294
57	0xbd7df4ab	-0.06200091
58	0x3dd8eb7b	0.10591789
59	0xbddfdba2	-0.109305635
60	0x3b9db2a6	0.0048125563
61	0x3d843afe	0.06456564
62	0x3dbbf55a	0.091776565
63	0x3d46633f	0.048434492
64	0xbe0159cd	-0.12631913
65	0x3c2d6e98	0.01058545
66	0xbe02322f	-0.12714456
67	0x3e031f6e	0.12804958
68	0xbd213eda	-0.03936658
69	0xbe11f360	-0.14252996
70	0xbc703e09	-0.014663228
71	0xbd073b47	-0.033015516
72	0xbd886039	-0.06658978
73	0x3c47a678	0.012185685
74	0x3d45d74d	0.04830103
75	0xbcff9304	-0.031198032
76	0x3cdf27e6	0.027240705
77	0xbd31c555	-0.04340108
78	0xbe14ecdf	-0.14543484
79	0xbd590d0f	-0.05299097
80	0x3d6ff4cd	0.05858307
81	0xbdc2e234	-0.09515801
82	0x3e23a367	0.15980302
83	0xbd3d87de	-0.04627215
84	0x3dc79be2	0.09746529
85	0x3dc56d8f	0.09640037
86	0xbd4a697e	-0.04941701
87	0x3de1da70	0.11027992
88	0x3ca7fa11	0.020504983
89	0x3dc6c535	0.09705583
90	0x3de327fe	0.11091612
91	0xbdcc69a3	-0.09981086
92	0x3e0e7532	0.13911894
93	0x3cfc587b	0.03080391
94	0xbe3215c9	-0.17391123
95	0xbdb8997f	-0.09013652
96	0x3db0dd58	0.08635968
97	0xbd80a89e	-0.06282161
98	0xbd99473b	-0.07484289
99	0xbd37abc1	-0.04484153
100	0x3d7a729e	0.061144464
101	0x3df3bf3b	0.11901709
102	0x3d4d931f	0.050189134
103	0xbdc95c32	-0.09832038
104	0x3dd56417	0.10419481
105	0xbd4b36da	-0.049612857
106	0x3e4669e5	0.19376333
107	0xbde326b5	-0.11091367
108	0x3d44ce49	0.04804829
109	0xbdf21f78	-0.118224084
110	0xbd532cb5	-0.051556308
111	0xbdf8d2c0	-0.12149572
112	0xbe2753db	-0.16340582
113	0x3cfaff2c	0.030639254
114	0x3c45583f	0.012044965
115	0x3d491501	0.049092297
116	0x3dfe77b7	0.124251775
117	0x3cbaa8fd	0.022785658
118	0x3d2330bb	0.039841395
119	0x3d6bb582	0.057546146
120	0xbe13b2ee	-0.14423725
121	0x3dedf993	0.11619868
122	0x3da442b9	0.08020539
123	0x3ddff9bc	0.10936305
124	0xbde8c05b	-0.11364814
125	0x3dc1a00e	0.09454356
126	0xbdddff92	-0.10839762
127	0x3dc04e19	0.09389896
128	0x3d0f38fd	0.034966458
129	0x3ddc9bdf	0.107719176
130	0x3d02c65f	0.031927463
131	0x3dcfcfbb	0.10147043
132	0xbd9e21df	-0.07721304
133	0x3dbdfc2b	0.09276613
134	0x3dd77bcc	0.10521659
135	0x3e14d78f	0.14535354
136	0x3e225483	0.15852551
137	0xbd5b17f8	-0.053489655
138	0x3e32c191	0.17456652
139	0x3da1ea96	0.07906072
140	0x3d8c8bb4	0.06862584
141	0x3d902534	0.07038346
142	0xbda3b4e7	-0.07993489
143	0xbe09a4dc	-0.13441795
144	0xbe33eba9	-0.17570366
145	0x3cb83256	0.02248494
146	0x3e05d74b	0.13070409
147	0xbe1cb387	-0.15302859
148	0xbe320c12	-0.17387417
149	0xbe25700a	-0.16156021
150	0x3e3780dc	0.1792025
151	0xbe06b126	-0.13153514
152	0x3e9ba9c5	0.3040296
153	0xbd91a6dc	-0.07111904
154	0x3d8c731a	0.068578914
155	0x3b960661	0.004578397
156	0x3eeeee52	0.466662
157	0xbbfd8feb	-0.0077381036
158	0x3dfedfe4	0.124450475
159	0xbdb68dce	-0.08913766
160	0x3dc95dfc	0.09832379
161	0x3a845e8b	0.0010098977
162	0xba1a025c	-0.00058749854
163	0x3d047ed1	0.032347504
164	0xbdfd22a5	-0.123601235
165	0xbd75e125	-0.060029168
166	0xbc500a3d	-0.0126977535
167	0x3e7afa2f	0.245095
168	0x3f3afa3c	0.7303808
169	0x3d18da32	0.037317462
170	0xbef97463	-0.4872161
171	0xbe7781d8	-0.24170625
172	0xbf101b13	-0.5629131
173	0xbde4f9fc	-0.11180493
174	0xbdb0975c	-0.086226195
175	0xbe1af8b2	-0.15133932
176	0xbee04872	-0.4380527
177	0xbe5a8d57	-0.2134298
178	0xbda5312b	-0.08066019
179	0xbd50f1d0	-0.05101186
180	0x3e9902d7	0.2988498
181	0xbbafe311	-0.0053676446
182	0x3ad0a4ba	0.0015918233
183	0x3e52f137	0.20599829
184	0x3eb94edd	0.3619298
185	0x3e461383	0.1934338
186	0xbe54da35	-0.20786364
187	0xbda112fc	-0.07864949
188	0x3d892ee6	0.06698398
189	0xbe336b68	-0.17521441
190	0x3e00a4c7	0.12562858
191	0x3e24b650	0.16085172
192	0x3efc858f	0.49320647
193	0x3e70f8b3	0.23532371
194	0xbe65bfab	-0.22436397
195	0x3f0fdedc	0.5619943
196	0xbd2c3d84	-0.042050853
197	0xbde2ea0d	-0.11079798
198	0x3e42d066	0.1902481
199	0x3db9a5c5	0.09064821
200	0x3ea3a6b5	0.31963125
201	0xbcc779e4	-0.024350114
202	0x3d5e4228	0.05426231
203	0xbd15b1d3	-0.03654654
204	0xbd092f36	-0.03349229
205	0x3a0e0424	0.0005417487
206	0x3eed261e	0.46318144
207	0xbe076b10	-0.13224435
208	0xbd8f5e24	-0.07000378
209	0xbe98e711	-0.2986379
210	0x3e3ca828	0.18423522
211	0x3d3fd9ca	0.04683856
212	0xbe94798b	-0.2899898
213	0x3e0a6b75	0.13517554
214	0xbdac605a	-0.08416815
215	0x3e6a9d36	0.22911534
216	0xbc787443	-0.015164438
217	0x3e639000	0.222229
218	0x3ec30116	0.38086766
219	0xbe37c562	-0.1794639
220	0xbeeeed75	-0.4666554
221	0xbd718e4c	-0.058973595
222	0xbeb0a679	-0.3450201
223	0xbdc31782	-0.09525968
224	0xbbc3a941	-0.0059711044
225	0xbe5594d4	-0.20857555
226	0xbe4cda66	-0.20005187
227	0xbed314e5	-0.4122688
228	0xbe8cc54b	-0.27494273
229	0x3e11b018	0.1422733
230	0x3e2ad5c4	0.16683108
231	0x3d4c81e6	0.04992857
232	0x3ca163df	0.019700943
233	0x3e8e0288	0.27736306
234	0x3ea051c0	0.3131237
235	0x3e5bc994	0.21463615
236	0x3bd0cba1	0.0063719307
237	0xbca9564a	-0.020671029
238	0x3d9e8ece	0.077420816
239	0xbe30d5ae	-0.17269012
240	0xbd5b6350	-0.05356151
241	0x3d8795f6	0.066204
242	0x3ecd8e95	0.40147844
243	0xbcc53954	-0.024075188
244	0x3d0d8a52	0.03455574
245	0x3ea36a31	0.31916955
246	0x3e211c59	0.1573347
247	0xbe2f703f	-0.17132662
248	0x3d4d57c7	0.05013254
249	0xbe1b8b82	-0.15189937
250	0xbd3a9762	-0.045554526
251	0x3cbb19a5	0.022839377
252	0x3ddfbfae	0.10925232
253	0xbdb29e64	-0.08721617
254	0xbe129bc2	-0.1431723
255	0xbdd72a7d	-0.10506151

lstm.bias_ih_l1 f4 [200]
0	0x3d8e3466	0.06943588
1	0xbdba2657	-0.09089344
2	0x3de2a8ea	0.11067374
3	0x3eedf5e3	0.4647666
4	0x3ee56fe3	0.44811925
5	0x3e1a9f0d	0.15099736
6	0x3d7d4562	0.061833747
7	0x3e9688b3	0.29401168
8	0x3dd6eff3	0.104949854
9	0x3e073f16	0.13207659
10	0x3e859c3d	0.26095763
11	0x3e5b3c17	0.21409641
12	0x3eb636f2	0.35588795
13	0x3e52a4bc	0.20570654
14	0x3ce0e97f	0.02745509
15	0x3e81e525	0.25370136
16	0xbdb6fbd4	-0.08934751
17	0xbe17afde	-0.14813182
18	0xbd45ab70	-0.0482592
19	0x3ed1a01f	0.40942475
20	0x3d91756f	0.07102477
21	0x3e16666c	0.14687508
22	0xbd33c760	-0.04389131
23	0x3db44d98	0.08803862
24	0x3c72b765	0.0148142325
25	0x3ede6414	0.4343573
26	0x3e29283a	0.16519251
27	0x3e4aa58d	0.19789715
28	0x3e743a10	0.23850274
29	0x3ea0a743	0.3137761
30	0x3e185ad6	0.14878401
31	0x3d379391	0.044818465
32	0x3dbda5ee	0.09260164
33	0xbc3826b4	-0.011239696
34	0x3e80264a	0.25029212
35	0x3de73dbd	0.112910725
36	0x3e9aa4a9	0.3020375
37	0x3e140fc7	0.14459144
38	0x3d28c7f0	0.0412063
39	0x3cd3df06	0.025863182
40	0x3e89c2d6	0.2690646
41	0x3d83e52f	0.06440198
42	0x3e3feea0	0.18743372
43	0x3de047e3	0.10951211
44	0xbdb68f50	-0.089140534
45	0xbd18618b	-0.0372024
46	0x3d80cb2e	0.062887534
47	0x3e137a98	0.14402235
48	0x3a93e156	0.0011282365
49	0x3e38c78b	0.1804487
50	0xbdf1d6cc	-0.118085474
51	0x3d48f55c	0.049062118
52	0xbdf9035c	-0.12158844
53	0xbe7da126	-0.24768505
54	0xbe19a8f2	-0.15005854
55	0x3da6f3ad	0.08151946
56	0xbdd8a308	-0.10577971
57	0xbdf199ff	-0.117969505
58	0x3d6153bf	0.055011507
59	0xbe1ca20d	-0.15296192
60	0xbdd860e8	-0.105653584
61	0x37dc06f9	2.622929e-05
62	0xbd9a1aa8	-0.075246155
63	0xbd8b07ae	-0.06788574
64	0x3c2f5af6	0.010702839
65	0xbcbe3b11	-0.023221524
66	0xbe12eaa3	-0.1434732
67	0xbe1dfb98	-0.15428007
68	0x3dbe01fd	0.09277723
69	0xbe15aa0a	-0.14615646
70	0xbdab46e0	-0.08363128
71	0xbe115b1b	-0.1419491
72	0xbd719711	-0.05898196
73	0xbd45bb58	-0.048274368
74	0x3da4a353	0.08038964
75	0xbe03e591	-0.12880541
76	0xbd86fcea	-0.06591208
77	0xbd80bbfe	-0.06285857
78	0xbe07d6c5	-0.13265522
79	0xbc1cefee	-0.009578688
80	0xbd135817	-0.03597268
81	0x3b9c6377	0.0047725993
82	0xbd291f4a	-0.041289605
83	0x3dd7b40a	0.105323866
84	0x3d04de16	0.03243836
85	0x3dc4a4e1	0.09601761
86	0xbd185396	-0.03718909
87	0xbe297830	-0.16549754
88	0xbe195342	-0.14973167
89	0xbddf2983	-0.108965896
90	0xbdcb9ac4	-0.099416286
91	0xbda9e570	-0.08295715
92	0xbe269c9b	-0.16270678
93	0x3e423f94	0.18969566
94	0x3df04f98	0.11733931
95	0xbd7b75c9	-0.061391626
96	0xbd11f4e4	-0.035633937
97	0xbda7345f	-0.08164286
98	0x3af6a9d3	0.0018818922
99	0x3db967a5	0.09052972
100	0x3d7cf032	0.061752506
101	0x3d85c41a	0.06531544
102	0x3d477446	0.04869487
103	0x3d9fd2ab	0.078038536
104	0x3d386926	0.045022152
105	0xbd57fb11	-0.05272967
106	0x3e3a0b4c	0.18168372
107	0xbdccfd50	-0.10009253
108	0xbda6cb10	-0.081442
109	0xbdc30251	-0.09521926
110	0x3d04245e	0.032261245
111	0x3d311fc3	0.04324318
112	0xbd331071	-0.04371685
113	0xbdfc61ec	-0.123233646
114	0x3d4c95cf	0.049947556
115	0x3d9b598e	0.075854406
116	0x3ce570c5	0.028007874
117	0x3d38d5bf	0.04512572
118	0x3db54bfc	0.088523835
119	0x3db0e37e	0.08637141
120	0xbd8ea4f9	-0.0696506
121	0x3d43c6d3	0.047797035
122	0xbdf8783e	-0.121323094
123	0xbd2ebdcf	-0.042661484
124	0xbcdc5bb3	-0.026899194
125	0xbe0f96b3	-0.14022331
126	0xbe0e08b5	-0.13870509
127	0x3cc60d61	0.024176301
128	0xbc2c89b7	-0.010530881
129	0xbdccfec8	-0.10009533
130	0x3da92317	0.08258646
131	0xbe1870aa	-0.14886728
132	0xbdb74f99	-0.08950729
133	0x3dce31f5	0.10068122
134	0x3d13d54c	0.036092088
135	0x3dba9b70	0.091116786
136	0x3dd50f50	0.10403311
137	0xbde4af7a	-0.11166282
138	0x3de1b17d	0.11020181
139	0x3d1be2b4	0.038057998
140	0xbbe7c97d	-0.00707358
141	0xbd7e4ebf	-0.062086817
142	0x3dfb13ec	0.12259659
143	0xbd7ae42b	-0.061252754
144	0xbd0e49b2	-0.03473825
145	0x3d8a00bc	0.06738421
146	0xbc604fa8	-0.0136908665
147	0xbde1bca5	-0.11022309
148	0x3df1c564	0.118052274
149	0x3c735853	0.014852601
150	0x3e33da77	0.17563806
151	0xbdee659c	-0.11640474
152	0x3db53865	0.08848647
153	0x3effe4ec	0.4997934
154	0x3ec7ff3f	0.39061925
155	0x3cf0471d	0.029330784
156	0x3dccc3bc	0.09998271
157	0x3ed9a9e4	0.4251243
158	0xbdc63bfc	-0.0967941
159	0x3e41e3b2	0.18934515
160	0x3ea58f0e	0.32335705
161	0x3e2eaede	0.17058894
162	0x3e8ae590	0.27128267
163	0xbb696bce	-0.0035617235
164	0x3dffb76e	0.12486158
165	0x3ec584b9	0.38577822
166	0x3e150cac	0.14555615
167	0xbdf13036	-0.11776774
168	0x3e21007f	0.15722845
169	0x3ed6e51a	0.41971666
170	0x3e20b8ba	0.15695468
171	0x3dec2708	0.11530882
172	0x3ca97882	0.020687345
173	0x3e930f4e	0.28722614
174	0x3e578b44	0.2104922
175	0x3e8387ee	0.25689644
176	0x3d46204c	0.048370644
177	0x3e71b269	0.23603214
178	0x3ead3af3	0.33834037
179	0x3e86cd41	0.2632847
180	0x3e27eb64	0.16398388
181	0x3ddc75e8	0.10764676
182	0x3eaa0f85	0.33214965
183	0x3e274c9c	0.16337818
184	0x3e656875	0.22403128
185	0x3d59ef67	0.053206827
186	0x3e683eae	0.2268016
187	0x3e326129	0.17419876
188	0xbdac971c	-0.08427259
189	0x3db4e456	0.08832614
190	0x3e7b44b7	0.24537931
191	0x3e8200c7	0.25391218
192	0x3ea87f4d	0.32909623
193	0x3e3be00e	0.18347189
194	0x3dade02f	0.08490025
195	0x3c85cb2b	0.01633223
196	0x3e095c46	0.13414106
197	0x3df995e8	0.121867955
198	0x3ce6ceed	0.028174842
199	0x3d970cd8	0.073754966

lstm.bias_hh_l1 f4 [200]
0	0x3d840791	0.06446756
1	0xbd89b050	-0.06723082
2	0x3e7aa1e0	0.24475813
3	0x3ef920d3	0.48657855
4	0x3ef63ac3	0.48091707
5	0x3d01ba60	0.03167188
6	0x3d5db6f7	0.054129567
7	0x3ea69ca3	0.3254138
8	0x3d88d48c	0.06681165
9	0x3c275f06	0.010215526
10	0x3e2cb024	0.16864067
11	0x3e1c8ea2	0.15288785
12	0x3e807618	0.25090098
13	0x3e70978c	0.2349531
14	0x3dea680d	0.11445627
15	0x3eb3d6b4	0.35124743
16	0xbd918923	-0.07106235
17	0x3d90dcc7	0.0707336
18	0x3d1a45d0	0.037664235
19	0x3e5cc9fa	0.21561423
20	0x3c0cc4ab	0.008591811
21	0xb9f8dcfa	-0.00047466886
22	0x3e01c647	0.12673293
23	0x3e6c6643	0.23085885
24	0x3d3eb808	0.046562225
25	0x3ef42282	0.47682577
26	0x3e397746	0.18111905
27	0x3dfd2357	0.12360256
28	0x3ea6946a	0.32535106
29	0x3e09c421	0.13453723
30	0x3df25fb8	0.11834663
31	0x3d7cf046	0.06175258
32	0x3e070562	0.13185647
33	0x3e24870c	0.16067141
34	0x3ddf668c	0.10908231
35	0xbd97d85f	-0.074143164
36	0x3ed870da	0.422736
37	0x3dc6cb0a	0.097066954
38	0xbd144ffd	-0.036209095
39	0xbcbee418	-0.023302123
40	0x3e9f540c	0.3111881
41	0x3e6adc06	0.22935495
42	0x3ebb06ce	0.3652863
43	0x3e2af8fb	0.16696541
44	0xbce9dec8	-0.028548613
45	0xbc427f22	-0.011871131
46	0xbc1dbcdc	-0.009627547
47	0x3dcbefbd	0.09957836
48	0x3dd26335	0.102728285
49	0x3b24a33b	0.0025121707
50	0x3c940475	0.018068532
51	0xbdcab546	-0.098978564
52	0xbdb14ed7	-0.08657616
53	0xbde9fc62	-0.11425091
54	0xbe24b1be	-0.16083428
55	0xbda905b5	-0.08253042
56	0xbd74fb52	-0.05980999
57	0xbd66b758	-0.056327194
58	0x3d4ac232	0.049501605
59	0x3d0b6ec1	0.03404117
60	0x3d794d9e	0.060865037
61	0xbe0f52c6	-0.1399642
62	0xbe189722	-0.14901403
63	0x3d9afa11	0.07567228
64	0xbe3cc5f6	-0.18434891
65	0xbdc02c25	-0.0938342
66	0x3d059db1	0.03262109
67	0xbe5484fb	-0.20753853
68	0x3d456aef	0.048197683
69	0x3d93dc90	0.07219803
70	0xbd88d10e	-0.06680499
71	0x3d1a3937	0.03765222
72	0x3dc4b002	0.09603883
73	0xbcc2513e	-0.02372038
74	0xbe203ad3	-0.1564744
75	0xbe0f10f3	-0.1397131
76	0x3d7bc589	0.06146768
77	0xbdcfaf48	-0.10140854
78	0xbc8c6de6	-0.017142247
79	0xbdd4aeb0	-0.103848815
80	0xbe303ef7	-0.17211519
81	0x3d9e7fcd	0.0773922
82	0xbc405760	-0.011739582
83	0x3dce9c8e	0.10088454
84	0xbd89a586	-0.06721024
85	0x3d9d6805	0.07685856
86	0xbe3e44fd	-0.18581004
87	0x3ce87fb1	0.0283812
88	0x3c5a3aaa	0.013319651
89	0xbc99e4a2	-0.018785778
90	0xbde2ece3	-0.11080339
91	0xbe1b4119	-0.15161552
92	0x3d19a8c7	0.037514474
93	0x3e0cced4	0.13750774
94	0x3d99144f	0.07474577
95	0xbe0ede36	-0.13951954
96	0xbe10be50	-0.14135098
97	0xbd1a1b1b	-0.037623506
98	0xbddb5d1f	-0.10711121
99	0x3d97446a	0.07386096
100	0x3c07d343	0.008290115
101	0xbdac376f	-0.084090106
102	0xbd4631be	-0.04838728
103	0xbd21228e	-0.039339595
104	0xbd9072fd	-0.07053182
105	0x3d8474ae	0.064675674
106	0x3e308024	0.17236382
107	0xbdbd34de	-0.09238599
108	0x3c60c1e0	0.013718098
109	0xbc3cf911	-0.011533991
110	0xbd2fb48d	-0.042896796
111	0xbd4f4cc5	-0.050610323
112	0xbd8712ba	-0.06595369
113	0x3d82fee9	0.063962765
114	0xbe0f221e	-0.13977858
115	0xbd6f1bd6	-0.058376156
116	0xbc8764b9	-0.01652752
117	0x3da29f1d	0.07940505
118	0x3e0cb37a	0.1374034
119	0xbdd246ee	-0.10267435
120	0xbd1c403d	-0.0381472
121	0xbd69a859	-0.057045314
122	0xbe016ea5	-0.12639864
123	0xbcb4fdcd	-0.022093678
124	0xbdc07dbf	-0.09398984
125	0x3d84d615	0.064861454
126	0x3c9b46e3	0.0189547
127	0xbdb70a80	-0.089375496
128	0xbdb7f9d2	-0.08983196
129	0x3db73976	0.08946507
130	0xbd2066a2	-0.03916038
131	0x3df0e0be	0.11761616
132	0x3d3147a5	0.043281216
133	0x3c1555d3	0.0091147
134	0x3de24cc9	0.11049802
135	0xbd3f020e	-0.04663282
136	0xbd859fb5	-0.06524602
137	0x3d8ae826	0.0678256
138	0xbd8e1d86	-0.06939225
139	0xbd0c0b22	-0.034190305
140	0xbd56cd3d	-0.052441824
141	0x3d08847b	0.03332947
142	0x3be4d70a	0.0069836425
143	0x3d881fbf	0.0664668
144	0x3b5fcfeb	0.0034151028
145	0x3d1e48c3	0.03864361
146	0xbcdf8f9e	-0.027290162
147	0xb99e7a50	-0.00030227238
148	0xbdec921d	-0.115513064
149	0xbe0d993f	-0.1382799
150	0x3e4fe30b	0.20301454
151	0x3c5ef675	0.013608565
152	0x3e462e15	0.19353516
153	0x3ed8903c	0.42297542
154	0x3ee5c35a	0.44875604
155	0x3d2a3ef2	0.041563936
156	0xbca9782d	-0.020687187
157	0x3e8f77e0	0.28021145
158	0xbd0bf7d2	-0.034171887
159	0x3e463a3c	0.19358152
160	0x3e4504b3	0.19240074
161	0x3e1329b3	0.14371376
162	0x3e630cae	0.22172806
163	0x3da12325	0.078680314
164	0x3e23d465	0.15998991
165	0x3e6e796c	0.23288506
166	0x3d93044a	0.071785524
167	0x3df0c991	0.11757196
168	0xbdb00ada	-0.0859582
169	0x3eba0fcd	0.3634018
170	0xbbd98881	-0.006638587
171	0xbd730b2e	-0.059336834
172	0xbb8cbc1e	-0.0042948863
173	0x3dbaf69f	0.091290705
174	0x3e670c8a	0.22563377
175	0x3e56b8ae	0.20968887
176	0x3c00def8	0.00786566
177	0x3e13aaf8	0.14420688
178	0x3df5a93d	0.1199517
179	0x3db29ae0	0.08720946
180	0x3e8086b3	0.25102767
181	0x3da267e0	0.07929969
182	0x3e3ac94b	0.1824085
183	0xbd6d6272	-0.057955213
184	0x3e67f103	0.22650532
185	0x3d494d26	0.04914584
186	0x3e99cc8d	0.30038872
187	0x3d39c035	0.04534932
188	0xbda53622	-0.08066966
189	0x3e253f48	0.16137421
190	0x3e5e03bc	0.21681112
191	0x3dc3b2e6	0.095556065
192	0x3e537795	0.20651086
193	0x3b616394	0.0034391629
194	0x3e1df898	0.15426862
195	0xbcdc1866	-0.026867103
196	0x3c86ff21	0.016479077
197	0x3dddf12d	0.10837016
198	0x3dc04de7	0.09389859
199	0x3ba4df7f	0.0050315256
