LSTM/model_recursion/best_epoch_model_96_layer4.pth (torch, 296258 bytes, 18 tensors)

lstm.weight_ih_l0 f4 [200, 7]
000000 83 aa 29 3e 6b e0 c1 3d a7 ff 84 3d 73 22 98 bd
       0.16568951 0.094666325 0.06494074 -0.07428446
000010 7b d9 02 3e 62 fb e3 bd c1 2a 07 bd d5 0c 54 3e
       0.12778275 -0.11131932 -0.032999758 0.2070802
000020 3b e3 a5 bd c7 cb f2 3d a8 d8 c1 bd a6 ed 1d be
       -0.080999814 0.11855274 -0.09465152 -0.15422687
000030 33 0d 74 be 41 55 59 be 30 27 a9 3c fc 3a 8f 3b
       -0.2383316 -0.21223928 0.020648569 0.004371045
000040 e6 06 87 3c 1b 52 c6 3d ad cd 08 bd a1 c1 ce 3b
       0.016482782 0.09683629 -0.033399273 0.0063097035
000050 16 72 48 3e 0c d5 96 3d 27 34 fb 3d 95 4b 5c bd
       0.1957477 0.07364854 0.12265807 -0.05378302
000060 f7 68 aa bd c4 64 20 bd 54 37 36 3e 14 5a 03 bd
       -0.08320802 -0.039158598 0.17794544 -0.032068327
000070 aa 0c 59 3d 61 ed 05 be 78 c3 73 3d 9d 78 76 be
       0.052990593 -0.13078834 0.059512585 -0.24069448
000080 bf ef 48 3c 3e 36 68 bd 34 41 aa bd a2 99 24 bc
       0.012264191 -0.056692354 -0.08313218 -0.010046395
000090 f7 2e 2d 3e ec e5 e2 3c c4 03 02 3e 65 c3 b4 3d
       0.16912447 0.027697526 0.12696749 0.08826331
0000a0 34 0d 11 be b1 08 8f be d8 30 7e bd 79 1f a1 3d
       -0.14165193 -0.2793632 -0.0620583 0.07867331
0000b0 78 58 60 3c 0f 38 b7 bd db c7 34 3d 82 98 c0 3d
       0.013692968 -0.08946239 0.04413591 0.094040886
0000c0 7a ce 3b be 9f 3f 2a 3e b8 03 68 bd b8 43 dc 3d
       -0.18340483 0.16625832 -0.05664417 0.10755104
0000d0 6f eb d2 3d 1d 0a b0 3d 38 b0 bd bd 6b 68 1e 3d
       0.10298812 0.08595679 -0.09262127 0.0386738
0000e0 62 dc 83 bc 74 6b 1c be 40 43 2d 3e 00 b4 b6 bd
       -0.016096298 -0.15275365 0.16920185 -0.08921051
0000f0 53 c6 99 bd 65 67 88 3c 6c 4e 06 3e b1 a7 0a 3e
       -0.075085305 0.016650865 0.13115853 0.13540532
000100 b6 23 f6 bd ae 2e af 3d f6 0e 88 bc 16 1c 86 bd
       -0.1201853 0.08553825 -0.016608696 -0.06548326
000110 10 89 96 3c 7e 77 17 3c 8b 6b 0f 3e 3b 9a 23 bd
       0.018375903 0.009244798 0.14005868 -0.039942008
000120 63 c2 2c 3e 3a 39 d0 bd 2c b8 0f 3d 1b 9a cd 3d
       0.16871028 -0.10167165 0.03508775 0.10039159
000130 78 5b 9d bc 22 c5 45 3d 4e 76 b7 bd 60 62 ac 3d
       -0.019208655 0.048283704 -0.08958112 0.08417201
000140 93 0c df bd 8e 8f ed bd a5 71 2e 3b 5b 2a 54 3c
       -0.1089107 -0.115996465 0.002661803 0.012949551
000150 65 68 0a bd c5 81 41 bd 83 ba 05 3e ed d5 61 bd
       -0.033790965 -0.0472429 0.1305943 -0.055135656
000160 7b ac 8d 3d b3 77 39 3e 02 c1 b9 3d e9 7d 90 bb
       0.06917664 0.18112068 0.090700164 -0.004409541
000170 10 8e be 3d 86 b7 44 3e b4 a7 0d bd d7 7e 2b be
       0.0930444 0.19210634 -0.034583762 -0.16747604
000180 2d 67 cd 3d 65 39 81 bd c2 8a af 3c 5a 71 42 be
       0.10029445 -0.06309775 0.02142847 -0.18988553
000190 39 57 a9 3d 08 cc 3f bd a6 13 6e bc 1e 42 75 bc
       0.082685895 -0.04682544 -0.014531052 -0.014969377
0001a0 62 bd 89 3d 87 eb 9e 3d a2 20 3c 3d b7 c0 58 3e
       0.06725575 0.07759767 0.04592956 0.21167265
0001b0 db 80 bb bd 77 3c e2 bd a0 77 10 be 3f 75 8a bc
       -0.091554366 -0.11046689 -0.14108133 -0.01690161
0001c0 8e 11 be ba a1 53 cd 3d 1f f9 ab 3d cb 89 21 3e
       -0.0014501081 0.100257166 0.083971255 0.1577522
0001d0 2e e7 07 3e 7d 13 e6 3d 17 ad 8b bd 62 37 7c 3c
       0.13271782 0.11234186 -0.06820124 0.015394064
0001e0 7d 1f 47 bd 8d d4 0a bc 00 9d 24 bd b6 94 89 3d
       -0.048614014 -0.008473528 -0.04018879 0.067178175
0001f0 0b f1 8c bd 1c 6e 24 be 84 a9 81 3e 33 5a a8 3c
       -0.06881913 -0.16057628 0.25324643 0.020550823
000200 31 d5 d5 3c d2 cd d5 3d 5c 02 01 3e e6 23 10 3e
       0.026102634 0.10439648 0.12598556 0.14076194
000210 aa fa 14 be 56 10 91 3d a4 7e 56 3e ed 92 58 bc
       -0.14548746 0.07083194 0.20946747 -0.013218624
000220 af ec 3f 3e 9a 82 f2 3d 1c 56 98 3d 29 34 0b be
       0.18742631 0.118413165 0.07438299 -0.13594116
000230 30 b8 a0 bc ad c8 c4 bd 6b 7c 15 bd 2e c1 8c bb
       -0.019619077 -0.09608588 -0.036495607 -0.0042954898
000240 e7 67 80 bd dd 9d af bc ec 64 8d bd 1d ad 87 3d
       -0.06269818 -0.02143758 -0.06904015 0.066248156
000250 59 53 1b bd 2f 7a f1 bb 59 8a 63 bd 94 8f f0 bc
       -0.037921283 -0.0073693017 -0.05555186 -0.029365338
000260 88 23 a6 bd 4d 50 80 3c ec 35 86 3d 38 78 1a 3e
       -0.08112246 0.01566329 0.065532535 0.15084922
000270 14 99 c7 3d 48 30 cf bd b2 6d 51 3c ea d3 40 bd
       0.09745994 -0.10116631 0.012782501 -0.047077097
000280 d6 32 48 bd 5b 7b c1 3d f5 57 35 bd 45 fa 30 3e
       -0.048876606 0.09447356 -0.044273335 0.1728297
000290 7f 64 08 be 6d a1 7b bd 00 30 09 3e 0f c8 36 3e
       -0.13319586 -0.061433244 0.13397217 0.17849754
0002a0 68 4b 54 3e 74 68 e2 bd f1 6d 4e 3d 25 27 be 3d
       0.2073189 -0.11055079 0.050397817 0.0928481
0002b0 5c 4d 51 3d ad 91 a8 bd 32 90 83 bd 99 47 f2 bc
       0.051099166 -0.082309105 -0.064239874 -0.029575156
0002c0 f8 5a 61 be b5 db de 3d 53 32 50 be c1 f1 c9 3d
       -0.22007358 0.108817495 -0.20331697 0.09860564
0002d0 c0 51 32 be 2c c1 0a bc 58 c1 c3 bd 2f 94 66 3e
       -0.17413998 -0.008468907 -0.09558362 0.22517465
0002e0 8f 7f 93 3d 5e c8 8b 3e 79 cf c1 be b7 5e 24 be
       0.07202064 0.27301306 -0.37853602 -0.16051756
0002f0 1b d2 c4 be 8a 85 09 be 96 b7 5f be 42 dd 27 be
       -0.38441548 -0.13429847 -0.21847376 -0.16392997
000300 38 de 91 bd fc 8e 91 3c a0 d1 3e 3d 15 f8 fc bd
       -0.07122463 0.017768376 0.046586633 -0.123520054
000310 f6 ac 9f bd c4 12 98 bc ec f2 a6 bd 1c e5 71 bc
       -0.077966616 -0.018563636 -0.081518024 -0.014764097
000320 a9 72 04 bc 4a 25 8b 3c 94 40 84 3d b4 26 c8 bd
       -0.008083978 0.016985554 0.0645763 -0.09773007
000330 f1 85 de 3d e8 49 2d bd fc 38 58 3b 78 aa 6f be
       0.10865391 -0.04230681 0.003299295 -0.23404872
000340 3a a3 2c be cc 37 15 be 42 fd 8b 3e 5d db b9 3c
       -0.16859141 -0.14572066 0.27341658 0.022687608
000350 03 47 03 3e 04 d2 b5 3d d8 f2 9e bb 02 8d 17 3c
       0.12820058 0.08877948 -0.0048507266 0.0092499275
000360 6c 3b 89 bd c4 29 ab bd a2 3c c2 bc 68 e7 04 3c
       -0.06700787 -0.083575755 -0.023710553 0.008111812
000370 67 b2 e7 bd 58 ee 7f bd 96 7c 6b bd 3f 9a 5e 3d
       -0.113133244 -0.06248316 -0.05749186 0.05434632
000380 0f 56 d9 3d 6f ff 38 be 34 a1 26 3c 56 12 68 be
       0.106121175 -0.1806619 0.01017027 -0.22663245
000390 d3 92 e7 3d 89 29 69 3c 49 66 0c 3e 64 5a da bc
       0.11307301 0.014231094 0.13710894 -0.02665443
0003a0 06 8f 43 be 0d c7 23 bd 88 1b d0 bc de 75 f5 ba
       -0.19097528 -0.03998475 -0.025403753 -0.0018727144
0003b0 82 fd 46 be 60 a5 92 bd 82 ea 99 bc 32 32 20 3d
       -0.19432643 -0.07160449 -0.01878858 0.03911037
0003c0 55 60 40 3d 4a 40 c6 3d b2 ea eb 3d 50 87 0e 3e
       0.04696687 0.09680231 0.11519374 0.13918805
0003d0 9a bd 29 3e be b4 34 3e 4c 29 36 be 31 63 89 3e
       0.16576234 0.17647073 -0.17789191 0.2683349
0003e0 e0 7b e9 bd af bf e1 bd 56 43 ea 3d 80 4b ae 3d
       -0.114005804 -0.11022889 0.114386246 0.08510494
0003f0 7c a4 0c 3d ef e8 1f be d8 64 89 3d e3 a9 36 be
       0.034336552 -0.15616201 0.067086875 -0.17838244

lstm.weight_hh_l0 f4 [200, 50]
000000 46 df bf bd d3 d6 61 3d 01 61 e5 3d c7 91 46 bd
       -0.09368758 0.055136513 0.11200143 -0.048478868
000010 30 ae 2e bd d4 fd a2 3d 06 6f e9 ba 1d 23 f7 3d
       -0.042646587 0.0795857 -0.0017809577 0.12067244
000020 c3 9f da bd 7b 8b 12 3e 2d dc 8b 3c 1d 57 ad 3d
       -0.106750034 0.1431102 0.017072761 0.08463881
000030 35 5b 35 be 5e db 9d bd c9 42 92 bc 84 f8 21 3e
       -0.17710574 -0.077078566 -0.017854111 0.15817457
000040 65 a0 17 be e9 1c e1 bc c4 29 df 3d f9 73 99 bd
       -0.1480728 -0.027479606 0.10896638 -0.07492823
000050 03 88 fb bc 39 b8 bd bd 93 49 ef 3d d8 19 0b bd
       -0.030704504 -0.09263653 0.11683955 -0.033960193
000060 c3 06 ec 3c 4f e9 39 3d 93 0c 82 bc d3 3d 19 bc
       0.028811818 0.045388516 -0.015875136 -0.009353119
000070 47 2e f7 bd 6b e4 1c 3e d0 78 79 3b cd 61 f5 bd
       -0.120693736 0.1532151 0.0038066395 -0.11981545
000080 5f 53 00 be 47 12 74 bd 12 0f 3f bd d6 2b 21 3c
       -0.12531804 -0.059587743 -0.04664523 0.009837111
000090 ca b6 86 3d 28 19 e9 3d 5c 7b 8e bc 69 45 9b bd
       0.06577833 0.11381751 -0.017392807 -0.07581598
0000a0 37 72 95 3c 0a fa cf 3d 5e 34 f9 3c 99 e1 a1 3d
       0.018242938 0.10155113 0.030420478 0.079043575
0000b0 39 e8 a2 3d f1 52 26 be b7 bd 58 3d 10 17 3c bd
       0.07954449 -0.16242577 0.0529153 -0.04592043
0000c0 e9 2a 15 bd 5b de c3 bd 81 2a 0d bd 71 6e 92 bd
       -0.036417875 -0.09563895 -0.034464363 -0.07149971
0000d0 e3 f2 16 be 0d 16 50 3c 00 98 8d 3b bd 35 95 bd
       -0.14741091 0.01270057 0.0043210983 -0.072856404
0000e0 e5 bd bf bd 5b 5d ae 3d 31 d5 b6 bd 63 15 67 3d
       -0.093623914 0.085139 -0.08927382 0.05641688
0000f0 09 2f ae 3c 6f a4 4d 3c 7d b8 07 3d d0 4e d2 3d
       0.021262662 0.012551411 0.033134926 0.102689385
000100 4d e2 a8 3d 91 3f da 3d bb f9 31 3d e4 de c1 bd
       0.082462884 0.106566556 0.043451052 -0.09466341
000110 a1 32 8b bc 2f 8f 9c bd 43 d7 09 3e b8 dd 56 bd
       -0.016991915 -0.076444976 0.13461022 -0.05245754
000120 85 4f 2c be f9 76 c9 bd 9c 66 bd bd b4 ed 10 3e
       -0.1682721 -0.09837145 -0.09248087 0.14153177
000130 7f 80 bb bd a4 f5 b9 bc dd 9a 92 bc 51 c0 35 3d
       -0.09155368 -0.022700138 -0.01789611 0.04437286
000140 9a 9a 19 be a9 20 b0 bd 55 bd d6 3c f3 bb db bd
       -0.15000382 -0.085999794 0.026213327 -0.10729208
000150 36 fa 43 3d eb 9e b7 3d e5 5e de bd 24 09 8e 3d
       0.04784604 0.08965858 -0.108579434 0.06935337
000160 fb 36 c0 3d 91 ca 2a 3c 95 1e 49 bd 31 64 95 bd
       0.09385487 0.010424272 -0.04910143 -0.072945006
000170 73 af 0d bd 98 b3 50 bc 8f c3 34 3e 5f ed a9 bd
       -0.03459115 -0.012738131 0.17652725 -0.08297228
000180 ea bf e8 bd 3c a4 89 bd dc 40 33 bd e7 4a ec bd
       -0.1136473 -0.06720778 -0.043763027 -0.11537724
000190 ec c8 20 bd 5d 0d ab bd f2 83 c3 bd bf 8d b6 3d
       -0.039254114 -0.08352158 -0.09546651 0.08913755
0001a0 68 5d 1b 3d d4 01 47 bc 63 5d 01 3e ce 1d f4 bd
       0.037930876 -0.012146432 0.1263328 -0.11919747
0001b0 58 43 c4 bd 95 00 54 3d f4 c2 0e 3d a6 c5 93 bd
       -0.09583157 0.051758368 0.03485389 -0.07215433
0001c0 51 2e dc 3d eb 84 db 3d 0f 48 00 3e ed 37 06 bc
       0.10751022 0.107187115 0.12527488 -0.008192045
0001d0 8f b5 45 bd b3 04 43 be 91 42 28 3d aa 7e 55 bd
       -0.04826885 -0.19044761 0.041079108 -0.05212275
0001e0 ba d5 b3 bd 83 a4 7b bd 18 cc 83 3d 6e 9b 70 bd
       -0.087809995 -0.061436187 0.06435412 -0.05874198
0001f0 16 57 25 3d 4a 8d 08 3e ed 6f 0f be 9f 83 1c 3d
       0.040366255 0.13335148 -0.1400754 0.03821146
000200 f0 e1 b6 bb b6 57 fc 3c 4a 61 15 bd 53 56 08 3d
       -0.005581133 0.030803543 -0.036469735 0.03328545
000210 a6 84 94 3d 75 9b cf bd 04 45 37 3d 59 5d ae bd
       0.07251863 -0.10137073 0.044743553 -0.085138984
000220 1f f3 fd 3d a3 2f 97 bd 17 7b cf bd 75 68 69 bd
       0.12399887 -0.07382133 -0.101308994 -0.056984384
000230 69 22 04 be 0d ed 76 3d 86 53 d1 ba af 99 d3 bd
       -0.12903751 0.060284663 -0.0015970326 -0.10332047
000240 49 90 eb 3d a3 3d bf 3d fb ad e3 3d 1a 7e df bd
       0.115021296 0.09337928 0.111171685 -0.10912724
000250 cc fc 30 3d f9 2a 2b 3c 95 70 fc bd 17 0d a5 bd
       0.043209836 0.010447257 -0.12326161 -0.08059137
000260 30 95 f6 3c f1 cc 02 3e 3a 83 71 bd 4a 46 db 3d
       0.030100435 0.12773491 -0.058963038 0.10706766
000270 37 c9 8e 3d 19 c0 ed bd 09 bb c5 bc 8d 8d 2c be
       0.069719724 -0.11608905 -0.024137037 -0.16850872
000280 8a 56 67 be 4d 31 09 3e 13 dd 21 3e ab ad 40 be
       -0.22591606 0.13397713 0.1580699 -0.18816249
000290 0d a5 a8 bd cc a2 8f bc 05 26 b6 bd d2 ba 05 3e
       -0.08234606 -0.017533682 -0.088939704 0.13059548
0002a0 72 a2 0c bc d9 c9 a7 bd cf 83 fa ba 13 f5 06 be
       -0.008583652 -0.08192796 -0.0019112768 -0.13179426
0002b0 47 22 a2 3d 3a b6 2a 3e 94 a2 fd 3c b4 84 31 3d
       0.07916694 0.16671076 0.030961312 0.043339446
0002c0 47 af cc bd d0 1c 2e 3e 14 e8 a0 3d 69 01 47 3e
       -0.09994369 0.17003179 0.078567654 0.19434132
0002d0 c0 d8 ab 3d 3e d0 a9 bc 1e 52 24 be ed 02 91 bd
       0.08390951 -0.02072918 -0.1604695 -0.07080636
0002e0 cd 1d 7c 3d 88 10 94 bd 92 d7 24 3d 11 07 b7 3d
       0.061551858 -0.072297156 0.040244646 0.08936895
0002f0 14 04 50 3e 90 d7 c0 bd 39 4c 91 3d 11 cf d8 bd
       0.20314056 -0.09416115 0.070946164 -0.1058637
000300 32 4d bb bd e6 36 33 bd e2 37 01 3e 97 af c6 3d
       -0.09145583 -0.043753527 0.12618974 0.0970146
000310 61 91 8f 3d 3a 6f 0d bd ea 56 87 bd 89 2a 88 3d
       0.07010151 -0.034529902 -0.066083744 0.06648738
000320 a6 81 2c bd 27 03 ba 3d 7d 19 ba bd 6a ad 19 3e
       -0.04211583 0.090826325 -0.09086893 0.15007558
000330 a6 28 34 be a9 44 1d 3d 60 17 0a be 12 f8 f2 bc
       -0.17593631 0.038395558 -0.1348548 -0.029659305
000340 fc fa a9 3d e1 32 e2 bb 8b 06 92 bd c4 7f 3e be
       0.082998246 -0.006903038 -0.07130154 -0.18603426
000350 33 43 96 bc e6 68 8b 3d 60 56 40 3e 73 91 81 3e
       -0.01834259 0.06807117 0.1878295 0.2530628
000360 43 50 15 bd 77 e0 df bd cf fd 5f 3e 53 bc 71 3d
       -0.036453497 -0.10931485 0.21874164 0.05901749
000370 88 c3 e7 bd 5e cb ad 3d d1 c9 80 3c d0 88 e8 3c
       -0.113165915 0.08486055 0.015721234 0.02838555
000380 c9 b5 2a bd b4 39 dd 3d 21 1a fb bd cb 57 17 3a
       -0.04167727 0.108020216 -0.12260843 0.0005773275
000390 c4 ec 59 bc 66 65 1e 3d a4 45 73 be f5 1c 44 be
       -0.013301078 0.03867092 -0.23757035 -0.19151671
0003a0 ca 3f 56 3d b5 4a 3f be b6 b8 96 3d be 3b d6 3d
       0.052306928 -0.18680842 0.073594496 0.10460614
0003b0 dd ad 00 3e 3f 45 e5 3d d5 92 82 bd 2f 63 43 be
       0.12566324 0.11194848 -0.06375662 -0.19080804
0003c0 73 fe 2f be af b7 04 bd 27 1b d8 bd e8 b9 a9 3d
       -0.17186908 -0.032401737 -0.10552054 0.08287412
0003d0 db c1 1a 3e 79 38 84 3c ec 07 fb bd 80 4b 89 bd
       0.15113012 0.01614021 -0.1225737 -0.067038536
0003e0 92 79 5b bd cc b4 60 be e2 be 62 bb 65 e7 6f 3e
       -0.053582735 -0.21943969 -0.0034598638 0.23428114
0003f0 d8 f9 1d bd 77 c6 0d 3e 9a c6 3a bc 7b 4c 64 3e
       -0.038568348 0.1384524 -0.011399889 0.222948

lstm.bias_ih_l0 f4 [200]
000000 98 72 30 3e 8b 51 1e 3d eb 92 b0 3d 91 83 fe 3d
       0.17231214 0.038651984 0.086217724 0.12427438
000010 cb 22 25 bd e1 86 14 3e 72 55 d7 bc 62 1e 96 3d
       -0.040316384 0.14504577 -0.02628586 0.07330014
000020 f0 6b af 3c 7f be 56 3e 34 83 a6 bc cd 23 a3 3c
       0.021413773 0.20971106 -0.020326234 0.019914532
000030 aa 42 cf bd 54 f8 84 3e de a7 ef bd 2a 94 e7 3d
       -0.10120137 0.2597071 -0.1170194 0.11307557
000040 ea be 00 3e eb a8 aa 3c 7d d8 0e 3e 2a f2 22 3e
       0.12572828 0.0208325 0.13949771 0.15912691
000050 db ba 2c 3c 6d b3 fc 3b 71 a4 30 3d a8 64 88 3e
       0.010542597 0.007711819 0.043125574 0.26639295
000060 c0 7c 47 3e 23 6a 5b bc 94 b2 01 3f 2f 75 19 3e
       0.19481182 -0.013392004 0.50663114 0.14986108
000070 95 4a 42 bd 57 98 9a 3e 7d ce ad 3d a2 1b ed 3d
       -0.04743441 0.3019435 0.0848665 0.11577536
000080 ea 70 1b 3e 83 0c 81 3d 25 d5 d0 bd 96 9d 92 bd
       0.15179792 0.063012145 -0.10196904 -0.071589634
000090 33 46 5b bd c9 5c 1a 3e d5 cb 18 3e 62 9c 27 3e
       -0.053533744 0.15074457 0.14921506 0.16368249
0000a0 cc 71 0b 3c 67 ac ac 3d 8a d5 0b 3e 2e 3e 0c 3c
       0.008511018 0.08431321 0.13655677 0.008559747
0000b0 40 0e b3 3e 5c a7 6c 3e b9 e1 06 bc 34 c4 95 3d
       0.3497181 0.23110718 -0.008232527 0.073128134
0000c0 22 09 18 3e 2b 1b 95 3c ac aa 69 bd 20 92 55 bd
       0.14847234 0.018201431 -0.05704753 -0.05214131
0000d0 75 7a cf bd 5c dc a7 3d 9a 8b cc 3c e6 16 ce 3c
       -0.10130779 0.08196327 0.024968911 0.025157403
0000e0 6d 5e e7 3c 1b c2 ff bc 2b 6b 03 be a4 9c 02 be
       0.028243268 -0.031220486 -0.1283385 -0.12755066
0000f0 97 cf 7e 3d 65 8b ea 3d d0 c1 00 be 24 85 37 bd
       0.06220969 0.11452369 -0.12573934 -0.044804707
000100 bf 46 23 bc 23 b4 e1 3d 2a 2b 24 be ff 41 1d 3d
       -0.009965598 0.110206865 -0.16032091 0.038393017
000110 38 42 d5 3c d8 4d fa bd 9d ea 96 3d af 46 aa 3d
       0.026032552 -0.12221879 0.07368968 0.08314263
000120 5d 98 f3 bd 7b 19 c6 bd 07 f3 1b 3c 90 77 bf bd
       -0.11894295 -0.09672829 0.009518391 -0.093489766
000130 6d ad 76 be a1 e7 a9 bd c3 c3 82 bd ba 3a 8a bd
       -0.24089594 -0.08296133 -0.06384995 -0.067494825
000140 bd cf b2 bc de 46 0f 3e 95 78 85 bd 80 2e 87 bd
       -0.021827573 0.13991877 -0.0651714 -0.06600666
000150 a0 41 bd 3d 83 47 fc 3b e8 62 60 3d 51 05 14 be
       0.092410326 0.0076989545 0.054781824 -0.14455153
000160 e1 b8 d6 3d 7f 8f a8 3d fb 03 31 bd 27 cb 5a bd
       0.104844816 0.08230495 -0.043216687 -0.053416397
000170 22 d7 69 3d 50 b6 87 bd 24 1f fe ba 4b b5 92 bd
       0.057089932 -0.0662657 -0.0019387943 -0.07163485
000180 64 fb 0d 3e 12 25 0c be 19 60 26 be d6 c2 a6 bd
       0.13865429 -0.13686016 -0.16247596 -0.08142631
000190 f0 f8 1a bd 01 b6 e3 3d 2d 0a 95 3c aa 65 a2 3d
       -0.03783506 0.11118699 0.018193329 0.07929547
0001a0 c6 d8 4a bc 33 95 93 3c c3 4a 88 bd b0 d1 11 3d
       -0.012380784 0.01801548 -0.06654885 0.035600364
0001b0 c2 97 af bd 70 c4 36 3d 2d 9f 84 bd b2 89 a7 3d
       -0.085738674 0.04462093 -0.06475673 0.0818056
0001c0 29 d9 8c bc b2 22 05 3d 3d f5 d7 3c 32 0a 8d 3c
       -0.017193394 0.03250379 0.026362056 0.017216776
0001d0 c6 eb a6 bc 38 e9 b3 bd 3d 47 9b 3d f1 3b de bb
       -0.020376097 -0.08784717 0.07581947 -0.006782048
0001e0 b9 08 9c bd 47 eb d2 3d 9b 2d 15 bd d9 02 8e 3d
       -0.07618851 0.10298782 -0.036420446 0.06934137
0001f0 a7 7d 00 bd 82 d8 b9 3c f7 0a c0 bd e1 e0 d8 3d
       -0.03136983 0.022686247 -0.093770914 0.10589767
000200 31 1d 83 3d 6a e7 0e 3e cf 4d 13 3b 56 0a 2d bc
       0.06402052 0.13955465 0.0022476797 -0.010561546
000210 07 f5 08 be 5a 03 08 bc cc be e4 3d 50 65 a2 bd
       -0.1337472 -0.00830158 0.11169204 -0.0792948
000220 66 e6 91 3d 29 f5 fb 3c 79 b4 02 3d 5c f9 f7 bc
       0.07124023 0.03075655 0.031910393 -0.030270271
000230 5a 7a 49 bd 99 57 94 bd c1 18 b0 3c 80 3e 83 bd
       -0.04918895 -0.072432704 0.021496179 -0.06408405
000240 67 14 bd 3d b0 c8 0b bd 0c 4b b2 bc c1 4a 53 bd
       0.09232407 -0.034126937 -0.0217643 -0.051584963
000250 9e 6b 11 3d 9a f7 fe 3c 30 ed 0e 3c 5d 62 dd 3d
       0.035503022 0.031123925 0.008723542 0.10809777
000260 bd 0c 14 3d 5a e6 81 3d d7 2a 96 3c 16 72 a4 3e
       0.03614496 0.06342764 0.018330975 0.3211829
000270 6f f9 96 3d d7 86 5a 3e f5 aa 7e 3d b5 40 91 3d
       0.073717944 0.213405 0.062174756 0.0709242
000280 da b4 a3 3c a5 3d 20 3d e1 52 0f 3e d4 da 08 3e
       0.019983698 0.03912129 0.1399646 0.13364726
000290 ac 7e ce 3d e6 3c 61 3e 89 c0 ab bd 5a 40 e0 3d
       0.100827545 0.21995887 -0.083863325 0.10949774
0002a0 8e 74 d6 3d a6 29 4c 3d e0 fc d3 bc 99 d4 84 3d
       0.1047145 0.049844407 -0.025877416 0.06485862
0002b0 8e c0 b3 3c ee ba 81 3e e3 4f 5d 3e 1e 14 ff ba
       0.021942403 0.2533793 0.21612506 -0.0019460951
0002c0 ab 0a fa 3e 26 ef 50 3d 93 a9 4e 3b 9e eb b4 3e
       0.48836264 0.05100932 0.003153418 0.35336012
0002d0 f4 44 a2 3e ee cd 44 3d 5b 6b 28 3e 98 73 c1 bc
       0.31693232 0.048047952 0.16447203 -0.02361469
0002e0 e4 e6 12 3c 7f 4a 92 bd f9 14 6e bc d4 12 d1 3d
       0.008966181 -0.07143115 -0.014531367 0.10208669
0002f0 9a d9 53 3e 8c 39 28 3e 51 ea 12 bc d8 79 33 3d
       0.20688477 0.16428202 -0.008966998 0.04381737
000300 99 99 8b 3d b8 c6 ef bc 7d fc 10 3e 61 ac 4d 3e
       0.06816406 -0.029269561 0.14158817 0.20085289
000310 0c db 01 3e ba 00 2a 3d 24 39 22 3e 14 5b 6b 3d
       0.12681216 0.0415046 0.1584211 0.057459906

lstm.bias_hh_l0 f4 [200]
000000 5a f6 b3 bc 0c b6 0b 3e 06 e9 dd 3d c2 5e 2c bc
       -0.021968056 0.13643664 0.10835461 -0.010520639
000010 4a 59 55 3d ff c5 ce 3d b7 76 01 be ab 6c 31 3e
       0.052087106 0.100963585 -0.12642942 0.1732661
000020 a2 f9 c0 3c 97 9b e5 3d 00 be 1b 3e 5d c6 78 3d
       0.023556534 0.11211317 0.15209198 0.06073605
000030 27 eb ea 3d 07 04 70 3e 6b 9b ae bd ca 58 44 bc
       0.11470633 0.23439036 -0.085257374 -0.01198406
000040 87 d4 95 3c 2e 71 3a 3e e2 b5 0c 3e 46 3a c2 3d
       0.018289817 0.18207237 0.13741258 0.09483771
000050 23 b2 33 3e 0d 22 2b bd 3c 33 22 3d 54 70 46 3e
       0.17548423 -0.04178052 0.039599642 0.19378787
000060 c1 cf e3 3d cd 21 7b bd 41 41 1a 3f 3b 85 08 3d
       0.1112361 -0.06131153 0.6025582 0.033330183
000070 53 d0 38 3e b7 66 36 3e cd e1 90 3d 25 44 c8 3d
       0.1804822 0.1781262 0.07074318 0.097786225
000080 80 f1 91 3d 78 49 15 be 6e 65 b0 3d 11 33 b9 bd
       0.071261406 -0.14578807 0.08613096 -0.09042943
000090 a1 e6 52 3d b5 fa b1 3d ba 6b 8f 3d 9a be 62 3b
       0.051489476 0.08690397 0.07002969 0.003459847
0000a0 ab 8f bc 3d 6c dc 6a 3e 42 58 2c 3e cf 6b 89 bd
       0.0920709 0.22935647 0.16830543 -0.06710016
0000b0 48 5e aa 3e d2 9d 6e 3e af 7c e2 3d 06 06 b4 3d
       0.33275056 0.23302391 0.11058938 0.087902114
0000c0 f4 ca 56 bd e3 8d 3c bd 1c a3 8e 3c 0d 58 1a 3d
       -0.052439645 -0.04603375 0.017411761 0.037681628
0000d0 e5 b6 ba bd 33 c4 fb 3d 5a 5b 2e bd 2b 45 10 bd
       -0.091169156 0.122932814 -0.04256759 -0.035222214
0000e0 2c 2b 40 be 8e d5 08 be fa 27 01 3d 0d cb e5 bd
       -0.18766469 -0.13362715 0.031532265 -0.112203695
0000f0 dd 5b a8 3d 70 f6 99 bd 76 a2 a4 3d b6 3a e8 bd
       0.082206465 -0.07517707 0.080387995 -0.11339323
000100 02 54 81 3d 40 f2 16 bd ac ec ae 3d 12 a3 55 3c
       0.06314851 -0.03685212 0.08541235 0.013039367
000110 09 93 b6 3d 30 c5 d8 bd 01 a1 2a be c0 c5 29 be
       0.089147635 -0.105844855 -0.1666298 -0.16579342
000120 dc ef 6f 3c eb 2d 88 3a e8 0c fb 3c 86 c5 db 3b
       0.014644589 0.0010389661 0.030645803 0.0067068962
000130 dd 33 82 be e1 16 a4 3d e6 9b 00 bd 83 5c fc bd
       -0.25430194 0.08012176 -0.031398676 -0.12322333
000140 ab b8 4a be 88 5e 35 bd dd 76 09 3e 33 3f 46 bd
       -0.19797008 -0.044279605 0.13424249 -0.048400115
000150 2b a9 f3 3c dc 6e dd bd bd 2f a3 bd d0 4f 1e 3c
       0.029743752 -0.108121604 -0.0796809 0.0096625835
000160 21 a6 b3 bd 20 db 08 3e b2 8a 9b 3d f3 9c 4d be
       -0.08771921 0.1336484 0.075948134 -0.20079403
000170 3e 66 6e 3d 52 f8 45 bd 3a 57 48 be a3 4a 92 bd
       0.058202974 -0.04833252 -0.19564524 -0.07143142
000180 5f 8e bf 3d b5 13 03 bd 4a 43 64 3c be 4f 72 bd
       0.09353327 -0.032001216 0.013932059 -0.05915808
000190 88 e2 15 bd 8f 2b 50 3d f5 0e cf bd cf af b7 3c
       -0.03659299 0.05082279 -0.10110275 0.0224227
0001a0 56 fd eb bc 76 01 22 3d 72 43 33 bd b6 e0 00 be
       -0.028807323 0.039552175 -0.043765493 -0.1258572
0001b0 70 cb 1a 3e a1 fc 3b bd da d6 e8 bd 1a 85 2e 3d
       0.15116668 -0.045895223 -0.11369105 0.042607404
0001c0 fd da ec bd 1a ec 02 be 79 da b8 3d 11 77 a9 3c
       -0.11565206 -0.12785378 0.09026045 0.020686658
0001d0 7f f1 95 bc ba d9 c2 3d 39 91 5c 3d bd 5a dd bd
       -0.01830363 0.09514184 0.053849433 -0.108083226
0001e0 8b fb c1 3d 44 f9 86 bd 5b 8d a6 bd e5 37 f0 3d
       0.09471806 -0.065905124 -0.0813243 0.11729411
0001f0 45 34 95 bc ee 71 36 bd 3c a5 49 bd 95 b1 9b 3c
       -0.0182134 -0.044542246 -0.049229845 0.019005576
000200 9e b5 76 3d f4 3d ad bc f8 b5 f2 bc b7 b8 4f bd
       0.060231797 -0.021147706 -0.029627785 -0.050713267
000210 a9 27 fc bc a7 a9 0c be cb 49 d3 bd 5e 46 65 3d
       -0.03078063 -0.13736592 -0.10316809 0.05597531
000220 cd 7c 20 3d d7 b7 a8 bd 52 bc 72 3d f6 da e0 3d
       0.03918152 -0.0823819 0.059261627 0.109792635
000230 c0 ec dd 3c 3e 3e a6 3d e0 56 97 bd 89 cd 64 bd
       0.02709043 0.081173405 -0.07389617 -0.055860076
000240 de 01 22 3e 63 f8 1e 3e d3 b0 f6 3d 60 4d a3 bd
       0.15821025 0.1552444 0.12045445 -0.079737425
000250 e2 0f b4 3c e1 b7 e1 bd 50 d6 0a bd a1 89 20 3e
       0.02198023 -0.110214 -0.03389579 0.15677501
000260 bb d9 f7 3d 6e 5f 46 3d 12 3a 18 3e 3c c6 18 3e
       0.12102076 0.048430853 0.14865902 0.1491937
000270 f1 59 cf bd d7 f5 d3 3d ab a5 74 3e 1f 9c 74 3e
       -0.10124577 0.103496246 0.23891322 0.2388768
000280 af 44 05 3e c1 f5 10 bd 16 9f f7 bd 8f 28 9d 3d
       0.13014482 -0.03539062 -0.1209089 0.076737516
000290 0e 3d c8 bc 80 9a 6a 3e 8b 44 8d 3d b4 74 a5 bc
       -0.024443176 0.229105 0.06897839 -0.02019725
0002a0 40 9b e9 3d ce d0 4b 3e 1e f9 d6 3d bd c1 24 b9
       0.11406565 0.19903871 0.10496734 -0.00015712432
0002b0 e6 9e 26 3e 41 48 58 3d a1 eb 4d bd 3a ff 28 3d
       0.16271552 0.05280328 -0.05027354 0.041259028
0002c0 23 81 1d 3f 9d 57 53 bd d6 5c 59 3e 62 61 8b 3e
       0.6152517 -0.051597226 0.2122682 0.27222735
0002d0 b7 71 97 3e 36 f2 16 3e f7 6b fe 3d 48 b0 e2 3d
       0.29578945 0.14740834 0.124229364 0.11068779
0002e0 54 17 a8 bd 1a 58 1f 3c 71 d4 16 bd 8c 18 c6 3d
       -0.082075745 0.009725595 -0.036823694 0.09672651
0002f0 cc 05 e5 3c a2 41 5d 3e b1 0b 44 3d 1d eb db bb
       0.027956866 0.21607068 0.047862712 -0.0067113773
000300 25 6d 34 3e c6 5c a4 3d 89 64 19 3e ba 43 76 3e
       0.1761976 0.08025508 0.14979757 0.24049273
000310 d2 e5 06 3e 43 5f f7 bc 85 74 9b 3d 96 10 52 3e
       0.13173607 -0.030196792 0.07590584 0.2051414

lstm.weight_ih_l1 f4 [200, 50]
000000 58 70 23 be 36 00 d2 3d fa 83 41 bd 42 14 2c 3e
       -0.15960824 0.102539465 -0.047245003 0.16804603
000010 81 66 86 bc de 39 32 bd 3f 65 89 bd 70 08 11 be
       -0.0164063 -0.043512218 -0.06708764 -0.14163375
000020 cc 8a 3c 3e a6 78 86 bd 64 b9 0a be 51 57 1c be
       0.18412322 -0.065659806 -0.13547283 -0.15267684
000030 80 0d 83 bd a9 c7 03 be 9e 3b 83 bd 97 ff d7 3d
       -0.06399059 -0.12869133 -0.064078555 0.10546797
000040 6e 47 bb 3d 0d a9 71 3c 81 63 b9 3d ea fe f4 bd
       0.091444835 0.0147497775 0.09052182 -0.119626835
000050 15 19 4d 3e 90 eb 89 39 7c 1c 9e bc 0b 8f 9a 3d
       0.200291 0.00026306184 -0.019300692 0.075468145
000060 c7 31 9e bc 8c 63 ec bd dd ac 0d bd bf 11 c3 3d
       -0.019310845 -0.115424246 -0.034588683 0.09524869
000070 af df 6f 3e f3 ed 49 3e 06 44 27 3e 92 6f 0f bd
       0.23425172 0.19719677 0.16334543 -0.03501851
000080 56 20 7c 3c 9a 79 35 be 9b 35 85 bd 90 63 05 bc
       0.015388569 -0.17722169 -0.06504365 -0.008141413
000090 ce ef 9a bd fd d0 47 be 8c 3e c0 bd c1 2c b3 bd
       -0.0756527 -0.19513316 -0.0938693 -0.087487705
0000a0 e9 29 45 be c2 4d 72 be 76 f4 e8 bd f3 e2 a3 bd
       -0.19254269 -0.23662475 -0.11374752 -0.080022715
0000b0 a1 91 8c 3e ea 70 72 3e d2 9e 36 be 1f 3d 37 be
       0.27454856 0.23675886 -0.17834023 -0.1789441
0000c0 86 64 c7 3d 4e 95 7d 3d aa 8e a7 bd 01 9d a8 3e
       0.0973597 0.061909966 -0.08181508 0.32932284
0000d0 c9 e1 2a be 93 a0 23 bd 1a a0 16 3e 43 a3 a7 3e
       -0.16687693 -0.039948057 0.14709511 0.32741746
0000e0 85 37 42 be 91 94 8c bd 1d 61 97 3e 71 09 ba bd
       -0.18966492 -0.06864274 0.2956628 -0.09083832
0000f0 c0 31 85 bd 8d 98 69 3d 5f 0c 2b be 89 19 84 be
       -0.0650363 0.05703025 -0.16703938 -0.25800732
000100 8b 99 26 3e 46 00 77 3a 21 b8 15 be fa 2d 58 be
       0.1626951 0.0009422343 -0.14621021 -0.21111289
000110 87 96 e0 3e 4a 49 3c be 5d 2c fb 3c c4 94 d3 3d
       0.43864843 -0.18387333 0.030660802 0.10331109
000120 b3 6b af bd 8a 3c 46 3e cd 98 2b be 8a 51 58 3b
       -0.08565464 0.19359031 -0.16757508 0.0033007585
000130 fc f2 b3 bd 49 67 c2 3e 11 c6 59 3e 5c 47 c1 3e
       -0.0878658 0.37969425 0.21266963 0.37749755
000140 73 ac bd bd b0 77 b7 bd 18 b4 f3 3d 0c 0b ba be
       -0.09261408 -0.089583755 0.118995845 -0.36336553
000150 60 6d 6b bc 4b 15 4d 3c 88 4e b1 3e 3a 46 e8 bd
       -0.014369339 0.012517284 0.34630227 -0.1134152
000160 16 a6 f0 3d e7 aa 02 3e 80 fe dd bd 56 06 93 bb
       0.117504284 0.12760507 -0.10839558 -0.0044868393
000170 a9 8e 88 be be 3d e9 bd 62 53 97 3e af 2d 85 3e
       -0.2667134 -0.113887295 0.29555804 0.26011416
000180 f4 da 74 3d 46 40 69 be ca 99 90 3e d8 ac 81 3c
       0.059779122 -0.22778425 0.28242332 0.015829489
000190 ae 51 fb bd 6a 9b 9a bd a4 dd 99 bd 36 05 8e bd
       -0.122714385 -0.07549174 -0.07512978 -0.06934588
0001a0 ad fb ff bd c4 49 c9 bd 78 55 6f bc 3e 12 e0 3d
       -0.12499175 -0.09828523 -0.01460778 0.109409794
0001b0 b1 e5 d4 bc 4b 6e 12 bd 96 92 60 3d 6b f5 18 be
       -0.025988432 -0.035749715 0.054827295 -0.1493737
0001c0 f4 9e a8 3d 29 0e e0 bd 1d 0b a7 3d e6 10 66 bd
       0.08233443 -0.10940201 0.081564166 -0.05616846
0001d0 b7 c1 3a bd 26 a4 b4 bd 7c 0e ff 3d e7 39 3e bc
       -0.045594897 -0.08820371 0.124539346 -0.011610485
0001e0 9e ae b4 bd 9b 54 54 bd f0 da f5 3d aa df 40 bd
       -0.08822368 -0.0518385 0.1200465 -0.047088303
0001f0 17 00 93 3c d1 77 01 be d2 a1 58 3d 36 af 85 3c
       0.017944379 -0.12643363 0.0528887 0.016318899
000200 8b db 1a 3e d9 fd 8f 3d 71 1d b1 bd 9c aa 31 bd
       0.15122811 0.070308395 -0.08648194 -0.043375596
000210 56 b0 20 bd 14 5b 85 bd cf 48 bf 3d b7 69 cc 3d
       -0.039230667 -0.065115124 0.09340059 0.09981101
000220 ee 7d 82 3d 53 33 ad bd ca fe 54 bd f7 ce e9 3d
       0.063716754 -0.08457055 -0.0520008 0.114164285
000230 e4 1b 6c bd b3 42 cc bc cb a3 2e bd 7d 94 53 bc
       -0.057643786 -0.024934148 -0.042636674 -0.01291382
000240 a5 99 af 3d 73 9a 84 3c 28 c5 75 3d bb 7e bd bc
       0.08574227 0.016186928 0.060002476 -0.023131719
000250 57 8a f1 bc 96 51 e0 3d 37 a9 a9 bd ee eb 63 3e
       -0.02948491 0.10953061 -0.08284228 0.22257969
000260 c3 29 0a be b8 5b 20 3e c7 61 43 bb ca 4e a0 3d
       -0.13492493 0.15659988 -0.0029812919 0.07827528
000270 73 4a fb bd 54 2e d1 b9 5b b7 2a 3e 0c b6 3d 3e
       -0.122700594 -0.00039898104 0.16671507 0.18526477
000280 83 d0 06 3e b7 2d dc bc 54 fd 93 bc 8a d3 2e 3e
       0.13165478 -0.026877267 -0.018065132 0.17072883
000290 55 42 8e bd 6b b2 78 bc 33 21 0f be b0 0c a0 3c
       -0.069462456 -0.015179257 -0.13977508 0.0195373
0002a0 3d 47 44 3e fc 75 b4 bd 51 bd be bd 46 22 c6 bd
       0.191678 -0.08811566 -0.09313453 -0.09674506
0002b0 13 58 f8 bd e1 9e c6 3d 11 a5 9d bd f3 65 bc 3d
       -0.12126174 0.096982725 -0.076974995 0.09199133
0002c0 1c a4 8b bd 0a be 1e 3e 69 70 12 be 5e ad 32 bd
       -0.06818411 0.15502182 -0.14300694 -0.043622367
0002d0 46 14 0e bd 02 9f a4 bd 71 f9 22 3c f9 bd fd 3c
       -0.034687303 -0.08038141 0.009947167 0.030974375
0002e0 4c c0 03 be ca f0 50 bd 47 bb 3b 3e ad ef de bd
       -0.12866324 -0.051010884 0.1833316 -0.10885558
0002f0 ce 39 56 3d 87 0c f5 3d 75 38 86 be 0a b1 25 be
       0.05230122 0.1196528 -0.26214948 -0.16180816
000300 de 9d 25 be bd 21 c9 3d 83 9b 88 bd 4d a7 04 3e
       -0.16173503 0.09820888 -0.066702865 0.12954445
000310 11 f5 c0 bd 4b 34 da bd af 80 04 be 74 bf 4c 3d
       -0.09421743 -0.10654505 -0.12939714 0.04998727
000320 d3 72 8b 3d a9 c4 5e 3e 43 f4 44 3d 33 43 09 3e
       0.0680901 0.21754707 0.04808451 0.1340454
000330 8d e4 9f 3c bd 75 d7 3d fc e4 86 bd 56 4f 2e be
       0.019518161 0.10520504 -0.06586644 -0.17022452
000340 1c 6b a2 3d 00 f8 2b be 50 fc dc 3d ff 41 dc bd
       0.07930586 -0.16793823 0.10790312 -0.10754775
000350 06 de ad bd 45 b4 04 3e 50 84 23 3d 33 cf 4f 3e
       -0.08489613 0.12959392 0.039921105 0.20293884
000360 96 f3 52 be 39 46 19 be 2b bb 46 3d c3 1c 37 be
       -0.20600733 -0.14968194 0.04851834 -0.17882065
000370 45 81 b0 bc 9d c2 63 bc c5 04 06 bd 51 64 0c 3d
       -0.021546016 -0.01390138 -0.032719392 0.034275357
000380 03 ba 19 be 40 82 8c bd 31 9b 33 3c ea ad 17 3e
       -0.15012364 -0.06860781 0.0109622935 0.14812437
000390 6f ba 28 be a5 61 e1 3d a6 c4 22 be b4 02 1d be
       -0.16477369 0.11004952 -0.15895328 -0.15333062
0003a0 9d 20 d6 bd d2 9b 3e bc a8 de b7 bd 7b 27 72 3d
       -0.10455439 -0.01163383 -0.08978015 0.059119683
0003b0 70 6c 8d bd 79 a7 3c 3d 78 4c 18 3c 3b 33 a9 3c
       -0.069054484 0.046058152 0.009295575 0.020654311
0003c0 b1 f0 92 bd f3 5a ab bd ac 51 96 bd 8a 11 e2 3d
       -0.071748145 -0.083669566 -0.073397964 0.110385016
0003d0 9f f3 76 3d 1f 3c 90 3c 75 3c 24 bd 66 00 11 bd
       0.06029093 0.017606793 -0.04009672 -0.03540077
0003e0 ab c3 bf bd 53 26 3b be 5e 46 57 be 1c 40 60 3e
       -0.093634926 -0.18276338 -0.21022937 0.21899456
0003f0 47 f9 e7 bd 30 c3 09 be 25 60 12 be 6c 52 88 3d
       -0.11326843 -0.13453364 -0.14294489 0.06656346

lstm.weight_hh_l1 f4 [200, 50]
000000 da b3 b9 3d dd d6 17 bd f8 80 24 be 54 9b 12 3e
       0.09067507 -0.037070144 -0.16064823 0.14317065
000010 73 82 c8 3d f1 a6 15 3e 34 f3 8c bd a7 a7 19 be
       0.09790506 0.14614464 -0.06882325 -0.1500536
000020 e9 7d 93 bd fc c7 1c be 7c 43 23 3e e5 4b fe bd
       -0.0720175 -0.15310663 0.15943712 -0.124168195
000030 5d 0b 1c 3e 8d 47 29 be 58 28 94 3e a5 77 95 3d
       0.1523871 -0.165312 0.2893703 0.07298211
000040 c0 37 26 bc 78 a9 d8 bd e6 0f 58 3e fd 30 1e bc
       -0.010145128 -0.105791986 0.21099815 -0.009655234
000050 ca c2 65 3e 87 57 d6 bd 26 a7 38 3e 0f b5 07 be
       0.22437587 -0.10465913 0.18032512 -0.13252662
000060 c0 76 3a 3e f7 36 82 bd 04 e9 80 bd 92 f7 2f bd
       0.18209362 -0.0635814 -0.06294444 -0.04296071
000070 99 86 38 be f5 f1 d1 bd ec b5 92 bd fc 9b be bd
       -0.18020095 -0.10251228 -0.07163605 -0.093070954
000080 0d 4b 9e 3c 04 66 fc bd 35 02 e5 bd 76 39 f2 bb
       0.019322896 -0.123241454 -0.111820616 -0.007392104
000090 6a 13 66 3c 01 cc 0e 3e 3d 48 05 3e 32 0d 7b be
       0.014042715 0.13945009 0.13015838 -0.24516752
0000a0 06 f1 2d be ca e9 46 bd c5 31 21 be 0c d7 16 3e
       -0.16986474 -0.048562802 -0.15741642 0.14730471
0000b0 cc e1 c0 bd c4 7e eb bd 31 90 aa 3d 27 e5 32 bd
       -0.09418067 -0.11498788 0.083282836 -0.043675568
0000c0 2b dc 16 3e b4 f1 6f bc 77 b8 77 be 01 04 25 bb
       0.14732425 -0.014645029 -0.24191462 -0.0025179388
0000d0 9f 24 7d be 94 03 4d 3e 64 95 3f bd e6 07 9d 3e
       -0.24721001 0.20020896 -0.04677333 0.3067009
0000e0 3b b5 a7 be 52 ea 95 3d 68 a9 2e be 4d bf bd bd
       -0.32755455 0.07320084 -0.17056811 -0.09265003
0000f0 e0 b7 8f 3e 65 31 a3 3d 93 36 d8 3e 01 f1 93 be
       0.28069973 0.07968406 0.42229137 -0.2889481
000100 28 de 04 3f 84 6c 2d 3a e7 7f 7a 3d 73 05 ec 3d
       0.51901484 0.00066155964 0.061157133 0.11524477
000110 ba 0c 9d 3c 7f 10 be 3e 10 83 3c 3e d0 66 a5 bd
       0.019171108 0.3712196 0.18409371 -0.080762506
000120 59 06 ba 3e 8c fc 85 bd 0e ac 6b 3e 24 63 b1 bc
       0.36332968 -0.0654231 0.23014852 -0.02165372
000130 d0 51 77 bd 65 6f 17 bd a0 b3 c2 bd a0 fe d4 bd
       -0.060380757 -0.03697147 -0.09506917 -0.10400128
000140 76 39 3d be 8b 13 ad 3e d6 cf 1c be c5 25 7a bd
       -0.18478951 0.33803973 -0.15313658 -0.061071176
000150 43 5c 3c be 5b 7c ec 3d 08 eb 91 3b 2a 23 67 3e
       -0.1839457 0.115471564 0.0044530667 0.22572008
000160 1a c4 62 3d 41 35 5d be 0d 17 9b be fe b7 c0 bd
       0.0553628 -0.21602346 -0.30291024 -0.09410094
000170 9a d4 4d 3d 7a 77 78 3d 8a b1 2e be 50 aa 57 bd
       0.05025158 0.060660817 -0.17059913 -0.052652657
000180 86 18 9b 3d 75 19 45 3e 30 75 79 bd 21 e2 d6 bd
       0.07573037 0.19247992 -0.060902774 -0.104923494
000190 92 c6 73 bd 78 2d 7c bd 48 e8 ae bd 73 53 b3 3d
       -0.059515543 -0.0615668 -0.08540398 0.08756151
0001a0 82 26 0c 3d 79 cd 2d 3d f7 8c 4c bd 55 7e 6b bd
       0.03421641 0.042432282 -0.049939122 -0.057493526
0001b0 d0 ce d1 bb e7 19 f8 bd ee 3d 11 bd d3 53 3a bd
       -0.006402828 -0.121143155 -0.03545945 -0.045490097
0001c0 85 8d 07 3e 5f 3d 12 3e dd 03 df 3c 69 b0 80 3d
       0.13237579 0.14281224 0.027223522 0.062836476
0001d0 51 f7 97 3c 12 bd 6f 3c a0 ff f9 bd 04 ed 8e bd
       0.018550547 0.01463248 -0.1220696 -0.06978801
0001e0 f1 07 02 3e cf 95 92 3a a1 59 08 3e 3b 29 49 3d
       0.12698342 0.0011183562 0.1331544 0.049111586
0001f0 2c 59 89 bd 33 5c 19 3e 7c 31 4f bd 19 54 63 3c
       -0.06706461 0.14976577 -0.0505843 0.013875031
000200 e6 c5 9f bc b1 de 16 bd 7d e6 1d bc 3e 1e c3 3d
       -0.019503545 -0.03683347 -0.009637472 0.095272526
000210 d8 91 05 3e 56 12 0f be cc 75 ad 3c 72 42 78 bd
       0.13043916 -0.13971838 0.021174334 -0.060610242
000220 bd d4 94 bc 8a 72 d9 3d a3 fd 1c 3e 9f 8c 0c 3e
       -0.018167848 0.1061755 0.1533113 0.13725518
000230 ba 2c c4 bd b3 f6 90 3d 85 78 34 bb bc 70 da bd
       -0.095788434 0.07078304 -0.0027537656 -0.106660336
000240 3c 5d bf 3d 0b 2b 14 3d e6 8f d7 3c 37 35 69 3c
       0.09343955 0.03617386 0.026313733 0.014233879
000250 da ac f1 3d d0 36 bb 3d bd 96 b1 3b a6 f4 27 be
       0.11800547 0.09141314 0.0054195807 -0.1640192
000260 ec 22 c7 bd a1 6a c3 3c 34 78 e4 3c 18 8b 9d 3d
       -0.09723458 0.023854556 0.027889349 0.07692546
000270 f0 bd 1a 3d 64 01 ea bc 76 52 41 3d 8c bb 5e bd
       0.037778795 -0.028565116 0.04719778 -0.054378077
000280 f9 c1 1a be c1 6e f2 3d 24 e3 47 3e 7e ae bd bd
       -0.15113057 0.11837531 0.19520241 -0.09261797
000290 5a 13 51 bd 96 1d 84 bd 5b 9a ec 3c 5f c2 d7 3d
       -0.051043846 -0.064509556 0.028882196 0.1053512
0002a0 43 be 17 be 32 e3 48 3e 6e 74 26 bd e1 03 e5 bd
       -0.14818673 0.19617918 -0.04063838 -0.111823805
0002b0 05 43 c0 bc 26 e9 0b be 8f 34 99 3d 8a 5e 20 bd
       -0.023469457 -0.13663158 0.07480728 -0.03915266
0002c0 69 af fd bc 8a 35 13 3c ac 98 9e 3d f8 fa 11 3c
       -0.030967431 0.008984933 0.077439636 0.008909933
0002d0 bd 12 04 bd 1d 85 5d 3e 8b 91 75 bd 66 f9 0a be
       -0.032244433 0.2163281 -0.059953254 -0.135717
0002e0 ca 02 28 3d ea ee d0 3d 39 0f b5 3d db ba 55 bd
       0.041018285 0.10201819 0.08840794 -0.052180152
0002f0 f1 33 ea bd b8 ce 66 be 18 42 84 3c ae c4 ae 3d
       -0.11435688 -0.22539794 0.016144797 0.085336074
000300 f5 d5 d7 bc 34 f7 9e bd 56 51 2b 3b 67 db 90 3d
       -0.02634714 -0.07761994 0.002614101 0.07073098
000310 dc 53 83 bd 50 36 40 3d f4 11 c1 bd 1e 0a 94 bd
       -0.06412479 0.046926796 -0.094272524 -0.07228492
000320 0f 02 ad 3c 76 82 45 bd 47 fb dd bd 1f 1b 14 be
       0.021119146 -0.04822012 -0.10838943 -0.14463471
000330 09 1c de bd c5 39 be 3b b8 f4 25 3d 52 4e 16 be
       -0.10845191 0.0058052265 0.040516585 -0.14678314
000340 af 5c a7 3c 90 a0 9a 3d cf 8c 0c 3d 94 82 e4 3d
       0.020429937 0.07550156 0.034313973 0.11157718
000350 66 aa af bd 4d b7 f6 bd 6c 0f 1d be 51 e5 ae 3d
       -0.08577423 -0.120466806 -0.15337914 0.085398324
000360 7e 7f 0b be 00 03 91 bd 05 69 de bd 30 47 0a 3e
       -0.13622853 -0.0708065 -0.10859875 0.13503718
000370 d6 02 35 3d 27 7d 3b 3e e7 a1 59 bd f9 c8 18 3d
       0.044192158 0.1830946 -0.053132918 0.037301037
000380 f2 56 a7 3d 2e f4 23 3c 4d 73 50 3e f2 58 77 be
       0.081708804 0.010006947 0.20356484 -0.24155024
000390 7f 4f 9e 3c a7 13 bc bd 16 59 7c bd ea b0 94 3d
       0.019325016 -0.09183436 -0.061608396 0.07260306
0003a0 9f 31 db 3d f8 05 10 be da 60 00 be ee b9 19 3e
       0.10702824 -0.14064777 -0.12536946 0.15012333
0003b0 c4 4c 17 3d 99 ff b6 bd f3 91 5f bd 4b 2d f1 3c
       0.036938444 -0.0893547 -0.054582547 0.029440543
0003c0 05 a0 3f be 8c fe 2f 3e 88 33 a4 3d 60 9f 82 3d
       -0.18713386 0.17186946 0.08017641 0.063780546
0003d0 0f 39 64 3d 65 49 dd bd a2 3b ff 3c 88 f2 05 bd
       0.055718478 -0.108050145 0.031156365 -0.032702
0003e0 3b 0b 0c bd 38 e1 7c bc 06 5d 47 bd 0b a5 b8 3c
       -0.034190398 -0.015434556 -0.0486727 0.022539636
0003f0 d8 a5 4f bd 3d 19 86 3d a0 10 ad 3c 4a 39 53 3d
       -0.05069527 0.065477826 0.021126091 0.051568307

lstm.bias_ih_l1 f4 [200]
000000 0d d1 8f 3e a9 af f6 3e 8d df cd 3d 80 83 10 3c
       0.2808918 0.48180893 0.100524046 0.008820415
000010 3d cb 0e 3e 11 4b 2b 3e 9a f4 45 3e 1e a7 6f 3e
       0.13944717 0.16727854 0.1933159 0.23403594
000020 ca 7b 09 3d 21 28 b6 3e b4 18 96 bd a2 a3 c5 3d
       0.03356532 0.3557749 -0.073289305 0.09650351
000030 ac 82 93 bd ea b1 68 bc c2 39 3c 3e 27 4b 16 3d
       -0.07202658 -0.014202574 0.18381408 0.036692765
000040 a8 2d 0f 3d 3b d8 7b 3d 9b e1 ef 3e 87 d2 4e bd
       0.03495565 0.06148551 0.4685181 -0.050493743
000050 42 4b e6 3d 98 de a8 3e 30 a5 5d 3b 1b 9e dc 3d
       0.11244823 0.32982326 0.0033820383 0.10772344
000060 c2 a2 38 bd 66 c3 46 3e 5c 16 b5 3c 51 eb 25 3e
       -0.045077093 0.19410476 0.022105388 0.16203047
000070 15 00 ea 3d d3 43 41 bc 14 06 00 be 6a 72 34 bc
       0.11425797 -0.011795956 -0.12502319 -0.011013607
000080 27 f6 09 3e f2 50 2a 3e 7f 38 69 3d 39 a8 2d 3d
       0.13472806 0.1663244 0.056938644 0.042396758
000090 d4 fa ca 3d 13 c5 73 3e 07 71 8e 3d 68 0a 09 3e
       0.09911123 0.23805647 0.06955152 0.13382876
0000a0 4c e3 1e bd 98 4c 66 3e 14 bf 44 3e 61 e5 46 3e
       -0.038790986 0.22490156 0.19213516 0.19423439
0000b0 49 c1 d1 3d 0d fb b4 3d 56 72 bc 3d 2b 75 c6 bd
       0.10241944 0.08836947 0.09201495 -0.09690317
0000c0 f1 66 f3 bc 43 c1 54 bd ef c9 1e be 49 36 6c 3d
       -0.029712172 -0.05194212 -0.15506719 0.057668958
0000d0 ec c4 2e be 1b e7 d9 3c 7b e2 98 3c c3 60 3e bc
       -0.17067307 0.026599457 0.018662682 -0.0116197495
0000e0 bd 1c fb bc 63 ab a4 bd de 1b 9c bd 4a e8 18 bd
       -0.030653352 -0.08040502 -0.07622503 -0.037330903
0000f0 97 58 d3 ba 15 fa d4 3c 22 9f 57 3c a2 a1 d8 bc
       -0.0016124424 0.025998155 0.013160499 -0.02644426
000100 9c 46 e0 bd 71 bf 9b bd 0d 0c dc bd f6 52 22 3d
       -0.10950968 -0.07604874 -0.10744486 0.0396299
000110 f8 1e 60 be dc 47 d4 bc af b4 8d 3d 36 39 37 3d
       -0.21886814 -0.025913171 0.06919228 0.044732295
000120 95 66 a6 3d 13 3c 8e bc a6 45 8e 3d 82 a7 9d bd
       0.08125035 -0.01736263 0.06946878 -0.07697965
000130 fb 52 53 be 86 09 b8 bd b7 a1 95 3d ab 38 56 3d
       -0.20637123 -0.089861915 0.07306235 0.052300137
000140 21 10 f6 bc 19 c0 e2 3d 94 a8 2d 3e 66 04 e1 3d
       -0.030036988 0.11071796 0.16958839 0.10987167
000150 e5 4d 20 3e 98 55 1c bd f7 fa 64 bd 54 ee 53 bd
       0.15654714 -0.038167566 -0.0559034 -0.05174096
000160 a7 20 f7 bd 24 98 7c bd 6b 77 cf 3d d5 38 01 3e
       -0.12066775 -0.06166853 0.10130199 0.12619336
000170 3b 12 aa bd d2 81 8c 3d 62 d6 90 3d 25 09 d2 bd
       -0.083042584 0.06860699 0.0707214 -0.102556504
000180 ee 1f f4 3c 74 20 e9 3d 60 70 16 bc 7e 7f cb bb
       0.029800382 0.11383143 -0.009182066 -0.0062102666
000190 a5 21 78 bd 0a 40 90 bd 96 a6 7e 3d 67 e4 26 be
       -0.06057896 -0.070434645 0.062170587 -0.16298066
0001a0 44 ce c8 bd 5a b9 70 bc ac e2 12 3d f2 87 81 3d
       -0.09804967 -0.014692629 0.035860702 0.06324758
0001b0 24 f5 19 3e 90 1a 90 bd 21 47 f1 3b 85 67 a5 3d
       0.1503492 -0.070363164 0.0073632156 0.080763854
0001c0 bb e6 ab 3d b0 7c d3 bd 23 ae 8c 3d 8d c9 be bd
       0.08393618 -0.10326517 0.068691514 -0.093157865
0001d0 d6 66 cc 3d 13 6f b7 bd a7 82 e5 bd be 0e 05 3e
       0.09980552 -0.089567326 -0.112065606 0.12993905
0001e0 35 89 86 3c a2 7e ae 3c 1a e9 31 3d 1a ff bf 3c
       0.016422847 0.021300618 0.043435194 0.023437072
0001f0 e4 8b 81 3d 52 99 f5 bd 7c 33 c7 3a 12 1e 62 bc
       0.0632551 -0.11992134 0.0015197839 -0.013801115
000200 a5 bd a7 3c 5c 71 09 3c 73 d9 ac bd 15 b8 ed 3d
       0.020476172 0.008388843 -0.08439913 0.116073765
000210 aa a6 43 bd 0b 03 9f bc 8f aa 40 3a 11 a9 63 bb
       -0.047766365 -0.01941063 0.0007349634 -0.0034738223
000220 11 61 13 be 3f ed 7f 3c 7c fe 66 bd 12 04 bb bd
       -0.14392497 0.015620529 -0.05639504 -0.09131636
000230 84 c3 fb bc 54 2e c9 3d 64 39 ce 3d 5e 46 21 bb
       -0.030732878 0.098232895 0.1006954 -0.0024608593
000240 8e 66 2b bd bb 86 82 3d b5 ee 06 bd 6e cd 1b 3d
       -0.04184585 0.06373354 -0.032942493 0.03803771
000250 92 c6 7f 3b 2a 50 61 bd 71 bc 62 3e c8 4f a7 3e
       0.003902827 -0.05500809 0.22142197 0.32678056
000260 70 98 6d 3c a9 f4 0c 3e d3 84 11 3e c0 cf 7d 3e
       0.014501676 0.13765205 0.14210825 0.24786282
000270 c2 3b 8d 3e 58 e0 fb 3d 11 9a ce 3d 6d 94 aa 3e
       0.27584654 0.122986495 0.100879796 0.33316365
000280 50 6d 5e 3d 66 7d a6 3d d0 3f ac 3d da d3 0b 3e
       0.054303467 0.081293866 0.08410609 0.13655034
000290 3a 56 b4 3e 13 23 cc 3d 7c 54 a1 bc 5a 84 11 bb
       0.35222036 0.099676274 -0.019693606 -0.0022204132
0002a0 f4 a0 cd 3e b6 1b cc bd ea 4f ee bd 27 56 d4 3e
       0.4016186 -0.09966223 -0.11636336 0.4147198
0002b0 14 d4 98 bc 4b 39 5a 3d 37 97 54 3d 47 16 9f 3e
       -0.018655814 0.053277295 0.051902022 0.31071684
0002c0 a8 c4 2f 3e c5 2c 8f 3e 96 ef 67 3d 9f a2 b9 bd
       0.17164862 0.27963844 0.05662497 -0.09064221
0002d0 a6 2c eb bd 1e 7e 3b 3c b8 ca 39 3e ee d5 45 3d
       -0.114831254 0.011443643 0.18143737 0.048299722
0002e0 d0 19 08 3e 82 9d e2 3d ce da 5d 3e 96 6e 8e 3d
       0.13291097 0.110651985 0.21665499 0.06954686
0002f0 1f 26 8f 3c 2e f6 d4 bc cb b9 9b bc dd 78 29 3e
       0.017474232 -0.025996294 -0.019009491 0.16550012
000300 d2 9b 5f 3e cc df 40 3e 79 02 50 3d 35 16 14 3d
       0.21836784 0.18835372 0.050783608 0.03615399
000310 97 1f 81 3e d2 b6 b1 3d e1 29 3b 3e 0e 65 8c bd
       0.25219414 0.08677448 0.18277694 -0.06855212

lstm.bias_hh_l1 f4 [200]
000000 a2 fa 92 3e a8 14 b4 3e 46 9a 27 3e 1a 74 38 3e
       0.28706843 0.3517201 0.16367444 0.18013039
000010 d7 74 b9 3d da 38 18 3e 9a 57 21 3e 71 d6 94 3e
       0.090554886 0.14865437 0.15756074 0.29069856
000020 61 dd c4 bd 2c 1c 2d 3e d0 15 47 3c 7c 49 e4 3c
       -0.09612537 0.16905278 0.012151197 0.027867071
000030 15 43 83 bd a7 26 21 3e 36 85 5d 3e c8 39 39 3e
       -0.06409279 0.15737401 0.21632847 0.18088448
000040 63 45 7e 3d d0 be 1e 3e be c7 f4 3e 1a 57 23 3e
       0.06207789 0.15502477 0.4780864 0.15951195
000050 69 36 83 bc 29 ae 89 3e ca a0 04 3e 2f 89 48 bd
       -0.016017156 0.26890686 0.12951961 -0.048958953
000060 a1 4e 3a 3c 4f 8d a4 3e 71 88 30 3e e7 24 56 3e
       0.011371286 0.3213906 0.17239548 0.20912515
000070 32 3c 3e 3e 9f b8 85 bd 43 41 83 bd 2b c2 6e 3e
       0.1857765 -0.06529354 -0.06408932 0.23316257
000080 44 4e f4 bd a4 85 a5 bc 8e d7 f2 3d ed 5c 37 3e
       -0.119289905 -0.020205326 0.1185752 0.17906542
000090 9f b4 b1 3d bf 43 a1 3e 9e b9 a8 3d 09 c7 62 3e
       0.08677029 0.31497 0.08238529 0.22146238
0000a0 a6 ce 2b 3d 18 fd 28 3e e9 cc 84 3e a2 87 87 3d
       0.041945122 0.16502798 0.25937584 0.06617667
0000b0 1b 23 95 3d f7 3f 62 3d 66 4f 31 3e 69 41 1b 3e
       0.072820865 0.055236783 0.17315444 0.1516167
0000c0 5c f7 2b bb 3e d8 1e bd 1b 4e 84 3d 70 26 b1 bd
       -0.0026239967 -0.038780443 0.0646021 -0.086499095
0000d0 3a e6 7e bd e0 d4 08 bc 5f 3d 91 3c c0 e2 33 be
       -0.06223128 -0.008351535 0.01772946 -0.17566967
0000e0 aa 0c 17 3e ed ad cc bd a1 b6 78 3b 39 3e f8 bd
       0.14750925 -0.09994111 0.0037950652 -0.12121243
0000f0 26 86 c5 3b 1d c4 0b 3d d6 7a 99 ba 78 4a b7 bd
       0.0060279546 0.034122575 -0.0011709582 -0.08949751
000100 bc 7a b2 3d c2 8a b1 bd e9 ee d6 3d 53 fa 1d 3e
       0.08714816 -0.08669044 0.10494787 0.15427522
000110 ce 2a 37 be 0f 6c 18 3d bf 0a 28 be 94 56 c3 3b
       -0.17887422 0.037212428 -0.1641035 0.0059612487
000120 1b 17 87 3e 21 4f c0 3b 8b c1 27 3e 14 2f 76 bd
       0.26384816 0.005868808 0.16382425 -0.06010349
000130 aa 5c 46 bc 26 de 97 bd 06 66 a5 bd 68 b7 a2 3d
       -0.012107054 -0.07415418 -0.080761 0.07945138
000140 bc 67 14 be 1b e4 13 be 2c 9d 26 3e 13 7f b7 3d
       -0.14492697 -0.14442484 0.16270894 0.08959784
000150 85 fd da 3b 83 d8 28 3d a0 d3 a9 3d 35 8f b8 bd
       0.006683054 0.041222107 0.082923174 -0.090116896
000160 5b 39 26 be b0 49 00 3e 19 a3 fb 3b 33 bb 90 3d
       -0.16232817 0.1252811 0.007679355 0.070669554
000170 3d 8b 65 3c 27 19 8f bd b1 2c 1a bd dc d9 8d 3d
       0.014010248 -0.06987219 -0.037640277 0.06926319
000180 d9 7b 67 bd e6 f3 ed 3d b6 81 5b 3d 64 af 2c bc
       -0.056514595 0.116187856 0.0535905 -0.010539863
000190 aa 01 06 be 09 ca bc bd 2b e7 fe bc 2c 00 bd 3d
       -0.13086572 -0.09218223 -0.031116089 0.092285484
0001a0 10 91 d2 bd 4f 36 72 3d 94 71 99 bd e5 a9 8d 3d
       -0.10281575 0.059133824 -0.074923664 0.069171704
0001b0 00 a7 c9 bd 1f 01 6e bd 93 f3 dc 3d f5 0d 01 bd
       -0.09846306 -0.058106538 0.107886456 -0.03150745
0001c0 18 94 b7 3c e4 67 d7 bd 37 95 8a 3c e1 b6 44 bc
       0.022409484 -0.105178624 0.016916854 -0.012006492
0001d0 ae 14 44 3d a4 d5 67 3d 5a 87 65 3d bc 9e 49 3d
       0.047871284 0.056600228 0.056037284 0.049223647
0001e0 a6 f5 fd 3d c0 7f 5d 3d 3d 5a c3 3d be 16 4b 3b
       0.12400369 0.05407691 0.09538696 0.0030988897
0001f0 9c 3e a9 3d 0d 98 3c 3d b0 55 32 3d c7 3c 63 3d
       0.08263895 0.046043444 0.04353875 0.055477884
000200 4c 1a 63 bd 8d 36 fb 3c 84 fe 62 bc f6 e3 4c 3c
       -0.055445 0.03066566 -0.013854627 0.012505522
000210 30 a2 3d bd 20 7f 56 bc 4e 76 91 bd 6e 60 08 3e
       -0.046297252 -0.013091832 -0.07102643 0.13318035
000220 af 13 d3 3d a2 e9 4e bd 6b d5 c1 3d b0 f0 a6 bd
       0.10306489 -0.05051578 0.09464534 -0.08151376
000230 f0 71 22 bd b3 60 ea bd 2c 8a 77 bd bd 68 0a 3d
       -0.03965944 -0.11444225 -0.060434505 0.033791292
000240 fa 85 a3 bd d4 e5 df bd 17 ef 9b 3d 29 36 27 bd
       -0.079845384 -0.10932508 0.07613962 -0.040823136
000250 b1 0d 24 3d 8c 18 0c bd 3b a6 98 3e d8 74 cf 3e
       0.04005212 -0.034203097 0.29814324 0.40518832
000260 0f d2 db 3d b9 bb 3b 3e 99 d8 ca 3c 71 d2 f6 3c
       0.10733425 0.1833333 0.024761485 0.030129643
000270 db 04 43 3e 81 c8 9c 3e ae 90 8f bd de 80 8f 3e
       0.19044821 0.30621722 -0.07010017 0.28028005
000280 6f 94 dd 3d b1 72 f0 3d 89 d5 d8 3d db 15 73 3d
       0.10819327 0.11740626 0.105876036 0.059347015
000290 9b cf 03 3e 15 75 a2 3d 6e c9 0d 3d 27 ef ad bd
       0.12872164 0.07932488 0.034615926 -0.0849288
0002a0 13 be 16 3f 65 9e 1d 3e 93 cb 0a be fd 26 9d 3e
       0.5888378 0.15392454 -0.1355422 0.30693808
0002b0 9a 7f 4a 3d 4e 47 06 3e 9a 9f 08 3d 38 9a 9f 3e
       0.049438097 0.13113138 0.033355333 0.31172347
0002c0 f7 9d fd 3c 59 f7 63 3e 79 6d ff 3d 86 f9 9d 3d
       0.030959113 0.22262324 0.12472052 0.077136084
0002d0 ab e0 fe 3d 15 9a 72 3e 5c 5e fc 3d 61 4c 0d 3c
       0.12445196 0.2369159 0.12322685 0.008624167
0002e0 82 a7 af 3d 12 f8 49 3c 81 f5 b9 bb 0b 16 9a 3e
       0.085768715 0.012327211 -0.0056750183 0.30094942
0002f0 5a fa fd bc 8f 73 41 3e 6c 2d 76 bc 20 bd 74 3e
       -0.031003166 0.18891738 -0.015025478 0.2390027
000300 ba 24 4c 3d ce d8 29 3e aa 3c 99 bc cd 96 35 3e
       0.049839713 0.1658661 -0.018705685 0.17733307
000310 83 3c bb 3d a4 1a c1 3d e9 12 76 3c 4a 28 25 3e
       0.09142401 0.094289094 0.015019157 0.1612865
